models/pre_trained/mnist_pre_trained_10_5_03_12_47_59_68_expert_model.pt (torch, 70337 bytes, 70 tensors)

weight f4 [1, 1, 5, 5]
2.8763165 0.9383448 -0.999599 -1.6353458 4.3392415 -0.6161518 -2.9938672 -4.509671
-0.8601897 3.090829 -0.7951987 -1.8618467 -1.7750351 1.1883966 2.373469 0.8143328
0.48068658 0.5389584 3.4187384 2.5616255 2.7968547 1.402589 2.9276886 4.1436033
3.6825976
00000000: 9215 3840 5d37 703f b8e5 7fbf 0353 d1bf
00000010: 11db 8a40 20bc 1dbf 859b 3fc0 3a4f 90c0
00000020: 6435 5cbf 24d0 4540 2492 4bbf fe50 eebf
00000030: 5a34 e3bf 611d 983f ebe6 1740 1d78 503f
00000040: 8d1c f63e 2df9 093f 9ccc 5a40 acf1 2340
00000050: abff 3240 0988 b33f 405f 3b40 6698 8440
00000060: aeaf 6b40

weight f4 [5, 144]
-0.049398463 -0.052345723 -0.068770334 0.029794764 -0.0695578 -0.058623444 -0.028481653 0.0647707
-0.044649146 -0.08298886 -0.05825162 -0.0074080727 0.048318587 0.05533772 -0.027873646 -0.012776375
-0.0061742766 -0.98033154 -1.0108762 -0.9436866 -0.9647421 -0.008872449 -0.019076427 -0.057225686
-0.015273522 -0.0799344 0.0007054011 0.052859746 -0.03336235 -1.0513382 -0.9831255 -1.0772765
-0.92951804 -1.0276601 0.04156389 -0.075803235 0.060155462 0.021830123 0.02066501 0.069402486
-0.03953007 -1.0071229 -0.9232057 -1.0276756 -0.9574077 -0.9383082 0.020864546 0.061590236
-0.032255173 0.006068518 -0.082688555 -0.05161675 -0.033827685 -1.054025 -1.0656778 -0.9571348
-0.99829257 -0.065304115 0.07277644 0.05174911 -0.0056511364 0.02344082 -0.059083007 -0.07881495
-1.0184749 -1.0629267 -1.0019671 -0.93115276 -0.99104756 0.04956218 -0.073600255 0.028285902
0.030858338 0.025065094 0.02911235 -0.042273127 -1.0268455 -1.0459577 -1.0651879 -1.0469551
-0.018110525 -0.020131558 0.017986357 -0.008499861 -0.05777722 -0.067146085 -0.067130715 -0.028921714
-0.012075375 0.024652302 -1.0157125 -0.07441358 -0.0082955165 0.025300454 0.06251922 -0.025208771
0.055513024 -0.031686872 -0.045156907 0.013274541 0.049438648 0.033242673 -0.9546746 -0.058561873
-0.017826438 -0.0018012624 -0.0794961 -0.010416001 0.060001325 -1.0481814 -0.9601014 -1.0112914
-0.9882293 -1.0264791 -1.0464685 -0.017687172 -0.06794128 0.03960716 -0.073450774 -0.06728852
0.024238944 -0.053178202 -0.9473822 -1.0382875 -1.0087901 -0.9341861 -0.035782695 0.06495516
0.077649 -0.029853761 0.01117609 -0.042633437 -0.074253306 0.037021767 0.082603976 -0.052856427
-0.01233854 0.064749174 0.07559855 -0.063977316 -0.05299785 0.044309776 -0.050910585 0.02453523
1.0683357 1.0632334 1.0740238 0.906712 0.30080235 -2.2492151 -0.5902874 1.1790761
2.5067005 -0.036685966 1.6569364 1.0220912 1.0271635 0.56583375 -0.4385124 -0.944901
-1.0542238 -1.5956187 -1.0325743 1.7143074 1.7770498 -0.77517605 2.1812994 0.6064566
0.922572 -0.21170974 -0.37516287 -1.3070745 -2.3869033 -1.5003335 -1.0086582 -0.17478955
-0.5926942 -3.492548 2.8000855 2.0726137 0.98394114 0.33119223 -0.017717015 0.055248734
-0.3748575 -2.238555 -4.377621 -3.2305326 0.44067624 -2.3245535 1.237113 4.614093
-0.068878874 -0.122401886 -0.01861512 2.336213 -0.83213115 -4.150143 -5.51584 -3.0480406
-0.77245474 -3.0037794 0.25483924 4.8752904 0.63450766 1.8667475 2.8772762 3.5470536
-0.63027406 -3.2957635 -2.0650103 -1.8130873 0.91333234 -1.5237983 -0.21708168 3.9775908
1.8060888 2.4374404 2.950397 -0.63178045 -0.07211644 -1.1266854 -1.2635884 -1.4531394
-0.4674168 1.000911 -0.67983496 2.605396 1.5057685 3.3517513 1.8063955 -1.3129432
0.3272366 -0.6081389 -1.7407267 -2.3587978 -1.0095991 -3.5714486 0.7884405 1.397557
1.9316812 1.2203422 -2.8469048 0.2579083 1.7484959 -0.6480782 -2.3953815 -2.287773
-3.818333 -3.1985307 1.1216713 1.1298062 1.0567667 -0.6644805 -2.7285175 -1.6600524
00000000: 0b56 4abd 7868 56bd 76d7 8cbd 2614 f43c
00000010: 5274 8ebd 231f 70bd 5b52 e9bc 80a6 843d
00000020: 06e2 36bd 10f6 a9bd 4099 6ebd 6bbf f2bb
00000030: b6e9 453d cea9 623d 4657 e4bc 0054 51bc
00000040: 9651 cabb 02f7 7abf 6464 81bf 7295 71bf
00000050: 57f9 76bf c05d 11bc 2b46 9cbc 7b65 6abd
00000060: cb3d 7abc a6b4 a3bd abea 383a 7683 583d
00000070: f6a6 08bd 4092 86bf 1dae 7bbf 32e4 89bf
00000080: e5f4 6dbf 5e8a 83bf e63e 2a3d ba3e 9bbd
00000090: 9365 763d 16d5 b23c ab49 a93c e422 8e3d
000000a0: 48ea 21bd 67e9 80bf 3557 6cbf e08a 83bf
000000b0: ac18 75bf f734 70bf 20ec aa3c 0b46 7c3d
000000c0: 001e 04bd 6bda c63b 9e58 a9bd 166c 53bd
000000d0: e68e 0abd 4bea 86bf 2168 88bf c906 75bf
000000e0: 1a90 7fbf 2abe 85bd d00b 953d e0f6 533d
000000f0: 2b2d b9bb f606 c03c 0601 72bd bc69 a1bd
00000100: 635d 82bf fb0d 88bf 7540 80bf 0760 6ebf
00000110: 4bb5 7dbf b601 4b3d bbbb 96bd d6b7 e73c
00000120: a0ca fc3c 5055 cd3c 067d ee3c 9626 2dbd
00000130: ac6f 83bf f1e1 85bf 1458 88bf a002 86bf
00000140: 865c 94bc f0ea a4bc 2058 933c 0043 0bbc
00000150: cea7 6cbd e383 89bd d47b 89bd 3bed ecbc
00000160: cbd7 45bc a0f3 c93c de02 82bf 2666 98bd
00000170: ebe9 07bc e642 cf3c 140a 803d a082 cebc
00000180: a061 633d 18ca 01bd 73f6 38bd 767d 593c
00000190: 2e80 4a3d 7829 083d 8e65 74bf 93de 6fbd
000001a0: c008 92bc 5618 ecba dace a2bd e0a7 2abc
000001b0: f3c3 753d cf2a 86bf 35c9 75bf ff71 81bf
000001c0: 98fc 7cbf ab63 83bf aef2 85bf b0e4 90bc
000001d0: cc24 8bbd 1e3b 223d 5c6d 96bd 90ce 89bd
000001e0: c090 c63c 63d1 59bd a487 72bf 9be6 84bf
000001f0: 0920 81bf d226 6fbf e090 12bd 3607 853d
00000200: 7006 9f3d e08f f4bc eb1b 373c 66a0 2ebd
00000210: 1e12 98bd 23a4 173d 462c a93d fb7f 58bd
00000220: 9627 4abc 379b 843d 6ad3 9a3d 8a06 83bd
00000230: 4614 59bd 2b7e 353d 9e87 50bd 1bfe c83c
00000240: 39bf 883f 0818 883f 9d79 893f 471e 683f
00000250: c402 9a3e 24f3 0fc0 131d 17bf f7eb 963f
00000260: c86d 2040 0644 16bd 7e16 d43f e2d3 823f
00000270: 187a 833f 7bda 103f b384 e0be 08e5 71bf
00000280: cef0 86bf 3c3d ccbf 652b 84bf 6d6e db3f
00000290: 5e76 e33f f071 46bf 699a 0b40 bd40 1b3f
000002a0: ae2d 6c3f 70ca 58be 5915 c0be 384e a7bf
000002b0: 06c3 18c0 ee0a c0bf b61b 81bf 08fc 32be
000002c0: cfba 17bf e885 5fc0 9a34 3340 b4a5 0440
000002d0: 91e3 7b3f 0792 a93e 4623 91bc 7f4c 623d
000002e0: 52ed bfbe 7c44 0fc0 7915 8cc0 0cc1 4ec0
000002f0: 51a0 e13e 7cc5 14c0 b859 9e3f a6a6 9340
00000300: 5e10 8dbd d7ad fabd bc7e 98bc 8484 1540
00000310: 8c06 55bf f9cd 84c0 c381 b0c0 1913 43c0
00000320: 98bf 45bf ec3d 40c0 4a7a 823e 6102 9c40
00000330: 186f 223f 95f1 ee3f 4b25 3840 ed02 6340
00000340: a459 21bf caed 52c0 2129 04c0 3f13 e8bf
00000350: 26d0 693f d30b c3bf a94a 5ebe d990 7e40
00000360: eb2d e73f 06ff 1b40 4ed3 3c40 5dbc 21bf
00000370: c9b1 93bd 3a37 90bf 44bd a1bf 7900 babf
00000380: 4151 efbe da1d 803f aa09 2ebf cfbe 2640
00000390: 06bd c03f 1883 5640 f837 e73f 860e a8bf
000003a0: 8e8b a73e feae 1bbf 22d0 debf 8bf6 16c0
000003b0: 8b3a 81bf 9d92 64c0 3dd7 493f 26e3 b23f
000003c0: 5441 f73f 2c34 9c3f b033 36c0 8f0c 843e
000003d0: b7ce df3f 74e8 25bf ee4d 19c0 df6a 12c0
000003e0: 915f 74c0 bab4 4cc0 ed92 8f3f 7d9d 903f
000003f0: 2244 873f 651b 2abf 08a0 2ec0 997c d4bf

bias f4 [5]
-1.0313832 -1.9665011 -2.117236 1.0342481 -1.4585298
00000000: 5d04 84bf 4fb6 fbbf cb80 07c0 3e62 843f
00000010: 1bb1 babf

weight f4 [10, 5]
0.056662675 -0.2647816 -0.32410127 -0.3705087 -0.11540825 -0.29137632 -0.33971888 -1.5804969
-1.5728283 -1.6883434 1.353574 -0.62736726 0.52717406 -2.7869208 -1.5935837 0.30003297
-1.4086565 -1.1528332 -1.3057927 -1.3810445 0.10085498 -0.12905984 0.84118414 -1.4699391
-1.4534063 -0.27577597 1.2358531 1.0273913 -4.379329 2.638041 -0.08720566 -1.2526765
-1.997306 -1.4439887 -2.893995 0.12495702 1.341498 1.9054645 -3.0949523 0.90716237
0.777672 3.4707093 0.43126792 -1.3079195 -0.502632 0.7629007 0.79851687 -0.39391035
-0.68091506 -2.3055096
00000000: 1f17 683d 7491 87be 9af0 a5be 51b3 bdbe
00000010: 295b ecbd 472f 95be a2ef adbe b94d cabf
00000020: 7052 c9bf a31b d8bf ea41 ad3f 249b 20bf
00000030: e1f4 063f e95c 32c0 8dfa cbbf ec9d 993e
00000040: db4e b4bf 0a90 93bf 3724 a7bf 11c6 b0bf
00000050: 0e8d ce3d 4328 04be d857 573f f726 bcbf
00000060: 3809 babf 8232 8dbe 6f30 9e3f 8f81 833f
00000070: 7723 8cc0 aad5 2840 e298 b2bd b457 a0bf
00000080: b9a7 ffbf 9fd4 b8bf 3737 39c0 77e9 ff3d
00000090: 35b6 ab3f 43e6 f33f b313 46c0 cb3b 683f
000000a0: 8315 473f 1a20 5e40 26cf dc3e e869 a7bf
000000b0: 7eac 00bf 764d 433f 9a6b 4c3f 9eae c9be
000000c0: 7350 2ebf 788d 13c0

bias f4 [10]
-0.16420127 -3.3920214 3.0291786 -0.85971177 -2.9626093 -0.14042757 -2.8008504 -1.0646622
1.7836444 -0.78013366
00000000: 6124 28be e116 59c0 10de 4140 1216 5cbf
00000010: 649b 3dc0 3fcc 0fbe 2241 33c0 da46 88bf
00000020: 764e e43f d7b6 47bf

weight f4 [10, 10]
0.18086351 1.5080255 2.9147017 0.84335035 0.1872464 3.075108 -0.6241496 2.14695
2.1655521 1.7188063 0.03277915 0.8306487 0.9821248 1.1976995 -0.5393758 -0.984157
0.7906616 -0.090854615 2.2985878 1.8451722 0.26633918 -0.9243021 -1.81 -1.121356
-1.248576 -1.1633978 -1.1677592 -0.95926434 -1.8423892 -2.230335 -0.12954262 -0.8360804
-2.0417461 -0.98362136 -1.6318312 -0.9539781 -0.7979467 -1.032996 -1.8364146 -1.8898399
-0.19053313 -0.86390746 -2.1888442 -1.1083697 -1.6554316 -1.1058449 -1.1976417 -0.82209027
-2.4120693 -1.7904118 0.2092991 -0.8789039 -1.745619 -0.8291247 -1.8034269 -0.7390432
-1.1464003 -1.2990673 -1.9154139 -2.3324687 -0.31020182 -1.1727577 -1.8541775 -0.70931035
-1.74672 -0.9985704 -0.9002526 -0.8229902 -2.1754165 -2.1665437 0.17530309 -1.0883878
-2.0935879 -0.7935369 -1.2019317 -0.9977172 -0.74142325 -1.3145052 -2.1834438 -2.0226052
-0.06719289 -0.7350398 -2.1999257 -1.02016 -1.87845 -1.3297894 -1.1278555 -0.8198247
-1.8046776 -2.0861316 -0.25887963 -0.73895514 -2.06334 -0.7629782 -1.8480178 -1.264841
-0.6956025 -1.070655 -1.8032072 -2.1059039
00000000: 4934 393e fb06 c13f 798a 3a40 cfe5 573f
00000010: 85bd 3f3e 92ce 4440 45c8 1fbf a167 0940
00000020: 6898 0a40 d801 dc3f 6e43 063d 65a5 543f
00000030: 886c 7b3f 384e 993f 8814 0abf b7f1 7bbf
00000040: cc68 4a3f fc11 babd 101c 1340 9a2e ec3f
00000050: 9c5d 883e 109f 6cbf 14ae e7bf 9888 8fbf
00000060: 57d1 9fbf 38ea 94bf 2279 95bf 5992 75bf
00000070: 69d3 ebbf cfbd 0ec0 d2a6 04be 5d09 56bf
00000080: f8ab 02c0 9cce 7bbf d8df d0bf e937 74bf
00000090: 3c46 4cbf 3739 84bf a20f ebbf 46e6 f1bf
000000a0: 1e1b 43be 0a29 5dbf 0616 0cc0 0fdf 8dbf
000000b0: 2fe5 d3bf 538c 8dbf 534c 99bf 8274 52bf
000000c0: 585f 1ac0 372c e5bf 8152 563e d9ff 60bf
000000d0: 7270 dfbf 8441 54bf b1d6 e6bf ef31 3dbf
000000e0: 3fbd 92bf d647 a6bf 482c f5bf 2b47 15c0
000000f0: c6d2 9ebe ed1c 96bf b055 edbf 5d95 35bf
00000100: 8594 dfbf 4fa2 7fbf f476 66bf 7caf 52bf
00000110: 063a 0bc0 a7a8 0ac0 a782 333e 4b50 8bbf
00000120: 58fd 05c0 3c25 4bbf e6d8 99bf 656a 7fbf
00000130: eacd 3dbf b541 a8bf 8bbd 0bc0 5d72 01c0
00000140: 6d9c 89bd 912b 3cbf 95cb 0cc0 9a94 82bf
00000150: 0d71 f0bf 8a36 aabf 925d 90bf 08e0 51bf
00000160: adff e6bf 2e83 05c0 df8b 84be 2a2c 3dbf
00000170: c30d 04c0 8a52 43bf d98b ecbf 4fe6 a1bf
00000180: 0113 32bf 390b 89bf 7ecf e6bf 21c7 06c0

bias f4 [10]
1.5153768 3.4989023 -5.182359 -5.554609 -5.575483 -5.1781716 -5.348613 -5.4048567
-5.487479 -5.392808
00000000: def7 c13f 04ee 5f40 e3d5 a5c0 5bbf b1c0
00000010: 5b6a b2c0 95b3 a5c0 d627 abc0 96f4 acc0
00000020: 6e99 afc0 e291 acc0

weight f4 [1, 1, 5, 5]
1.9409263 3.3634906 -0.5663674 -1.0012143 -0.80576 3.4187531 3.6109996 3.5717204
1.0346014 -0.2378982 1.6003458 -0.32282495 -1.4211735 -0.75394726 0.8911779 -1.453963
-0.5570642 -1.535013 0.28238216 2.0584471 -0.53689045 0.8531485 -1.7274549 -1.2197843
1.2132313
00000000: 4670 f83f 6e43 5740 74fd 10bf ca27 80bf
00000010: 4a46 4ebf dacc 5a40 9e1a 6740 1197 6440
00000020: d26d 843f 969b 73be 22d8 cc3f 5049 a5be
00000030: 03e9 b5bf b002 41bf 3c24 643f 761b babf
00000040: c29b 0ebf 4e7b c4bf 6594 903e 99bd 0340
00000050: a771 09bf f167 5a3f 3e1d ddbf e421 9cbf
00000060: 2a4b 9b3f

weight f4 [5, 144]
1.9376011 1.9919198 2.0654428 1.9404752 1.995494 2.2435663 3.213933 1.7092009
2.0465221 2.0056791 1.985548 1.9710051 2.0107088 2.075836 2.3897176 3.0638926
6.021241 2.0379908 2.5004554 2.7157428 -2.6061828 -4.1666827 -2.1252022 1.3498735
1.9862696 1.9868717 -0.5429034 1.4601146 1.6619252 2.307225 4.201275 2.1898897
0.97621673 -0.5866202 -4.286299 -1.8169088 3.0634055 3.0516617 4.2683654 1.9161988
1.252933 0.8756639 1.7915119 0.13680035 0.20389913 -4.4243503 0.417082 2.6278703
1.9586427 1.9923428 5.5857816 0.4136443 0.056265283 -2.7512453 -0.9512278 0.04260757
0.32296464 -1.0144241 -0.21069591 2.1415126 2.064528 2.0311375 0.0065741385 1.0544065
-0.38360506 -2.2993937 -6.2261677 -1.4957397 1.2165892 3.0305147 6.95051 2.3083344
2.0710192 2.0566142 2.3008542 2.5413382 2.3469276 -0.47554103 -2.9413302 -2.751807
1.044546 7.849395 4.900274 2.288478 1.9682695 1.9952587 3.138361 4.0972314
3.1667583 1.477589 0.35588917 -1.5732018 1.882334 10.043459 6.4497237 4.262337
2.0400572 3.0801322 5.207987 4.6716676 3.225106 2.5714257 0.8238655 0.6843955
4.12888 1.9399457 8.756251 7.7240834 2.1391966 3.3598309 4.136354 2.556786
1.3445082 2.7059531 0.02786048 -1.188776 0.9322074 0.21330988 1.0165604 2.5718477
2.0713587 2.0410283 -1.7884349 -1.2544267 -1.6374754 0.11830284 -1.5625241 -1.8196993
-0.0017564857 -0.62348056 0.8579801 -2.2386515 1.9680368 2.8482478 0.7045712 1.2388691
-0.7605045 -1.5004635 -2.2045977 -0.9598607 2.4589393 1.2392575 4.0186763 3.028366
-0.06117375 0.045814417 0.03847554 -0.08089365 -0.035538547 -0.17887503 -0.102148876 -0.26798078
-0.09443572 -0.042582836 -0.048888195 0.050603602 0.07692727 -0.069682926 0.042834893 -0.12694736
-0.3985776 -0.8745536 -1.0664854 -1.110948 -1.1888542 -0.7282274 -0.023992643 0.048514243
0.05713148 -0.018436769 -0.057748113 -0.2604112 -0.5882441 -1.2654147 -1.1521033 -1.2573377
-0.8648484 -0.84388286 -0.021398889 -0.010582661 0.0345561 0.00040166458 0.028855367 -0.2730967
-0.770473 -1.3877041 -1.2952131 -1.0292723 -0.41546375 -0.3189891 0.027905948 -0.0080117
0.034080807 -0.00011613468 -0.099090144 -0.059375316 -0.92816395 -1.3213873 -1.3158674 -0.77267754
-0.086161904 0.042477444 0.043939035 0.035112575 0.031593684 0.017844738 0.0038483492 -0.1712022
-1.2342465 -1.4227452 -1.4132239 -0.14929014 0.08134529 -0.0062049935 -0.023355307 -0.035466935
-0.04709137 -0.05473188 0.061822653 -0.2604302 -1.2945102 -1.3742628 -1.3687106 -0.0004112711
0.0039264914 -0.046836987 -0.07590958 -0.045260906 -0.010492026 -0.030101683 -0.06469095 -0.903055
-1.3523092 -1.4465637 -1.1260059 0.11644159 -0.017652357 0.05677786 -0.038032874 0.053508736
-0.038898967 -0.051805586 -0.24759066 -1.3753321 -1.3323199 -1.4469981 -0.9603436 -0.1550656
-0.06865327 -0.014908233 0.08041596 -0.020591717 -0.015976153 -0.17117159 -0.6268284 -1.3521168
00000000: 5003 f83f 3af7 fe3f 3730 0440 7e61 f83f
00000010: 596c ff3f 9796 0f40 14b1 4d40 18c7 da3f
00000020: 38fa 0240 0c5d 0040 7026 fe3f e549 fc3f
00000030: 74af 0040 7fda 0440 22f1 1840 d116 4440
00000040: 02ae c040 716e 0240 7607 2040 bbce 2d40
00000050: b3cb 26c0 7755 85c0 5003 08c0 a8c8 ac3f
00000060: 153e fe3f d051 fe3f b8fb 0abf 09e5 ba3f
00000070: f7b9 d43f 93a9 1340 d870 8640 2727 0c40
00000080: 57e9 793f be2c 16bf 5d29 89c0 7890 e8bf
00000090: d60e 4440 6d4e 4340 7396 8840 0146 f53f
000000a0: 1c60 a03f 822b 603f 4350 e53f 6415 0c3e
000000b0: efca 503e 4794 8dc0 c68b d53e 072f 2840
000000c0: ceb4 fa3f 1705 ff3f b9be b240 30c9 d33e
000000d0: 6d76 663d 6714 30c0 aa83 73bf 4685 2e3d
000000e0: 9f5b a53e a6d8 81bf abc0 57be 8b0e 0940
000000f0: 3a21 0440 28fe 0140 df6b d73b cbf6 863f
00000100: e267 c4be 4429 13c0 c43c c7c0 6674 bfbf
00000110: 32b9 9b3f f4f3 4140 946a de40 c0bb 1340
00000120: 948b 0440 919f 0340 3241 1340 49a5 2240
00000130: 1034 1640 1d7a f3be c13e 3cc0 9b1d 30c0
00000140: afb3 853f 3e2e fb40 0bcf 9c40 6c76 1240
00000150: 41f0 fb3f a364 ff3f e8da 4840 851c 8340
00000160: 2bac 4a40 a321 bd3f 1b37 b63e ad5e c9bf
00000170: 52f0 f03f 02b2 2041 2364 ce40 1165 8840
00000180: 4c90 0240 e320 4540 d4a7 a640 4d7e 9540
00000190: 2368 4e40 3d92 2440 d9e8 523f 8b34 2f3f
000001a0: c91f 8440 2450 f83f 9b19 0c41 b12b f740
000001b0: 99e8 0840 7807 5740 035d 8440 62a2 2340
000001c0: d818 ac3f 562e 2d40 a93b e43c d029 98bf
000001d0: 25a5 6e3f e86d 5a3e a71e 823f 2799 2440
000001e0: 2491 0440 35a0 0240 6feb e4bf 0e91 a0bf
000001f0: cb98 d1bf c248 f23d ca00 c8bf e8eb e8bf
00000200: e139 e6ba 6c9c 1fbf 95a4 5b3f 1146 0fc0
00000210: a1e8 fb3f b149 3640 c75e 343f 4393 9e3f
00000220: 6cb0 42bf 300f c0bf 2118 0dc0 6eb9 75bf
00000230: 435f 1d40 fd9f 9e3f ff98 8040 c0d0 4140
00000240: 5391 7abd e6a7 3b3d 8798 1d3d 92ab a5bd
00000250: de90 11bd 042b 37be 6e33 d1bd c734 89be
00000260: 8467 c1bd 576b 2ebd fd3e 48bd b945 4f3d
00000270: 0b8c 9d3d ecb5 8ebd a473 2f3d 7dfe 01be
00000280: 5d12 ccbe bfe2 5fbf 9882 88bf 8b33 8ebf
00000290: 602c 98bf 1c6d 3abf 388c c4bc dfb6 463d
000002a0: b302 6a3d b508 97bc 4989 6cbd 9e54 85be
000002b0: 2a97 16bf 1cf9 a1bf 1f78 93bf 71f0 a0bf
000002c0: b466 5dbf b508 58bf b94c afbc e662 2dbc
000002d0: b28a 0d3d 8296 d239 1762 ec3c 55d3 8bbe
000002e0: b83d 45bf 4aa0 b1bf 8bc9 a5bf 32bf 83bf
000002f0: aab7 d4be 8a52 a3be 049b e43c 8143 03bc
00000300: 5198 0b3d 558d f3b8 c6ef cabd 8833 73bd
00000310: 279c 6dbf 3823 a9bf 586e a8bf 32ce 45bf
00000320: a775 b0bd d4fc 2d3d 6bf9 333d 34d2 0f3d
00000330: 6168 013d 212f 923c 9634 7c3b a14f 2fbe
00000340: cafb 9dbf 841c b6bf 85e4 b4bf 84df 18be
00000350: 5c98 a63d 4253 cbbb a153 bfbc c745 11bd
00000360: e1e2 40bd 892e 60bd c039 7d3d 1b57 85be
00000370: 83b2 a5bf d8e7 afbf e931 afbf df9f d7b9
00000380: cca9 803b 24d8 3fbd 7b76 9bbd 8063 39bd
00000390: bfe6 2bbc ce97 f6bc b07c 84bd 9d2e 67bf
000003a0: 7818 adbf 0029 b9bf f620 90bf ee78 ee3d
000003b0: ad9b 90bc e78f 683d 5cc8 1bbd fa2b 5b3d
000003c0: 8654 1fbd 1832 54bd 6888 7dbe e20a b0bf
000003d0: 7589 aabf 3c37 b9bf 14d9 75bf 84c9 1ebe
000003e0: 169a 8cbd a941 74bc 1fb1 a43d f6af a8bc
000003f0: 6ce0 82bc 9b47 2fbe d377 20bf 2a12 adbf

bias f4 [5]
-2.6631725 -1.0410515 -1.0091833 -1.0181544 -0.98927987
00000000: 6b71 2ac0 2d41 85bf eb2c 81bf e252 82bf
00000010: 7241 7dbf

weight f4 [10, 5]
-1.3456556 -0.80174184 -0.78022116 -0.41319796 0.10824487 -0.24657646 -0.1746358 -0.41676196
0.39366865 -0.056567512 -0.2719471 0.30984947 0.17835894 1.4036226 -0.28537804 -1.156458
-0.9156647 -1.1649971 -0.7268641 -0.92452 -0.8218643 0.26031387 -2.129821 0.7794691
0.84877867 -1.6719024 -2.3361402 0.56965977 1.3987155 -0.88244736 -0.74259764 0.2427675
0.37487966 -0.30005357 0.38505867 0.22036453 0.8170945 1.4014543 0.71743906 0.56082034
-1.549079 -0.8388067 -0.90683204 0.7703506 0.8000784 -0.35897624 0.16893256 -0.37062785
-0.12738325 -0.051863953
00000000: 713e acbf f43e 4dbf 93bc 47bf af8e d3be
00000010: 7daf dd3d 8a7e 7cbe bad3 32be d361 d5be
00000020: f08e c93e 56b3 67bd a63c 8bbe 97a4 9e3e
00000030: baa3 363e e8a9 b33f 121d 92be d106 94bf
00000040: 0069 6abf a01e 95bf c413 3abf 58ad 6cbf
00000050: b365 52bf dc47 853e fd4e 08c0 498b 473f
00000060: 8f49 593f e600 d6bf 5283 15c0 39d5 113f
00000070: 1c09 b33f 12e8 61bf e11a 3ebf 0b98 783e
00000080: 3af0 bf3e 9fa0 99be 6926 c53e 3da7 613e
00000090: 1b2d 513f db62 b33f 16aa 373f ec91 0f3f
000000a0: 3848 c6bf 09bc 56bf 2526 68bf b235 453f
000000b0: f0d1 4c3f bccb b7be a8fc 2c3e efc2 bdbe
000000c0: c170 02be 4c6f 54bd

bias f4 [10]
-1.2189475 -0.58637303 -0.92005765 -0.9610468 1.4315269 -2.018536 -1.0642251 -2.7728932
1.5554334 -0.2528889
00000000: 7906 9cbf 8b1c 16bf e688 6bbf 2a07 76bf
00000010: 463c b73f b22f 01c0 8738 88bf 1577 31c0
00000020: 7118 c73f a77a 81be

weight f4 [10, 10]
-0.7760641 -0.632156 -0.9737804 0.8048604 1.552566 1.8739711 0.26366663 0.72077143
1.6830113 -0.2506458 0.7384131 0.62978107 1.3561618 0.704596 0.52997214 0.12267967
-0.40689647 1.6582354 0.83586043 0.16429394 -0.8793135 -0.9049355 -4.102584 -1.1943954
-3.4254847 -1.2684206 -2.0924566 -2.8978179 -1.277919 0.18260099 -1.0963686 -1.2319511
-2.8066974 -0.7816589 -3.3822424 -0.85401237 -1.5582451 -2.8616376 -1.2889808 -0.26936907
-1.0312878 -1.2391827 -2.458301 -1.2599977 -3.3762088 -0.9755185 -1.0576056 -2.8623362
-1.5585521 0.30029407 -1.0946115 -0.7744498 -3.4805539 -1.2178268 -3.2848613 -1.1400797
-1.800697 -2.926474 -1.5388483 0.20116614 -0.9168466 -1.2635632 -5.430123 -1.1725018
-3.1663094 -1.1284646 -3.3184493 -2.9132783 -1.4338279 0.2390362 -1.261938 -1.2439731
-5.463282 -0.91812634 -3.2697022 -1.2298162 -3.6582286 -2.8995636 -1.4008343 0.26340353
-0.6902634 -1.1821926 -2.074555 -0.9779281 -3.2436447 -0.9644095 -1.3906024 -2.9128087
-1.4809641 -0.25113556 -0.8975728 -1.0266229 -2.080123 -1.1122243 -2.8811724 -0.7362979
-0.7846896 -2.8161957 -1.7629058 -0.12402935
00000000: 23ac 46bf fad4 21bf ac49 79bf 550b 4e3f
00000010: 7cba c63f 49de ef3f 50ff 863e 7a84 383f
00000020: ea6c d73f a554 80be a408 3d3f 5539 213f
00000030: b696 ad3f 6760 343f 41ac 073f 7b3f fb3d
00000040: bc54 d0be 0f41 d43f f3fa 553f ac3c 283e
00000050: b11a 61bf daa9 67bf 5e48 83c0 f3e1 98bf
00000060: 243b 5bc0 9b5b a2bf cfea 05c0 d975 39c0
00000070: da92 a3bf c1fb 3a3e ce55 8cbf 93b0 9dbf
00000080: eea0 33c0 cc1a 48bf a976 58c0 8ea0 5abf
00000090: 9374 c7bf 1225 37c0 53fd a4bf beea 89be
000000a0: 3d01 84bf 8a9d 9ebf ce54 1dc0 9b47 a1bf
000000b0: ce13 58c0 95bb 79bf 9f5f 87bf 8430 37c0
000000c0: a37e c7bf 25c0 993e 3b1c 8cbf 5842 46bf
000000d0: 65c1 5ec0 c0e1 9bbf 2b3b 52c0 22ee 91bf
000000e0: 3d7d e6bf 5a4b 3bc0 fbf8 c4bf 7ffe 4d3e
000000f0: 75b6 6abf 70bc a1bf 91c3 adc0 8a14 96bf
00000100: d0a4 4ac0 8771 90bf 7961 54c0 2773 3ac0
00000110: ac87 b7bf e8c5 743e 2f87 a1bf 833a 9fbf
00000120: 35d3 aec0 540a 6bbf cd42 51c0 9e6a 9dbf
00000130: 6b20 6ac0 7392 39c0 8a4e b3bf d4dc 863e
00000140: 1ab5 30bf 1652 97bf 82c5 04c0 7f59 7abf
00000150: e097 4fc0 8ae3 76bf 42ff b1bf 756b 3ac0
00000160: 3b90 bdbf d794 80be 55c7 65bf 6168 83bf
00000170: bc20 05c0 5e5d 8ebf 2165 38c0 057e 3cbf
00000180: 6be1 48bf 8d3c 34c0 e6a6 e1bf 1a03 febd

bias f4 [10]
2.0684307 0.95595413 -2.566451 -2.2409961 -2.4536226 -2.702637 -2.6880574 -2.4559772
-2.7496092 -2.5422754
00000000: 2b61 0440 69b9 743f bc40 24c0 7b6c 0fc0
00000010: 2708 1dc0 01f8 2cc0 2209 2cc0 bb2e 1dc0
00000020: 99f9 2fc0 a4b4 22c0

weight f4 [1, 1, 5, 5]
2.6189322 0.86452955 3.11945 2.2864192 3.613219 0.77530795 0.84468526 2.1902843
1.3663763 2.9068382 -0.55327535 -0.6441085 -0.4571255 0.08552508 0.6148159 -0.46626663
-2.164184 -2.200797 -2.319049 -1.0473768 1.0638242 -0.45033184 -1.2876734 -1.5537262
0.47030887
00000000: 969c 2740 cf51 5d3f 12a5 4740 b154 1240
00000010: fb3e 6740 957a 463f 4b3d 583f 9e2d 0c40
00000020: 6be5 ae3f a309 3a40 74a3 0dbf 4be4 24bf
00000030: 5b0c eabe c627 af3d 9364 1d3f 80ba eebe
00000040: fe81 0ac0 dcd9 0cc0 4c6b 14c0 7110 86bf
00000050: 642b 883f e591 e6be 7bd2 a4bf 80e0 c6bf
00000060: 53cc f03e

weight f4 [5, 144]
1.0806103 0.9883695 0.9334518 1.0739031 1.0307887 0.9350629 0.92553407 1.0169295
1.0319796 0.98911744 0.9642844 1.0003663 1.0021511 1.061433 1.0372527 0.9271654
1.032836 0.9709937 1.0033753 1.000496 0.937249 0.9892527 1.009817 0.9690352
1.0603857 0.1297895 -0.03033983 -1.9332184 1.0859015 -0.1695555 -1.2924237 -1.7633238
-1.9324186 0.57624406 0.54827154 1.1353348 -0.06601711 -0.4012766 -1.3536435 -1.1061926
-2.3447673 0.20618124 -1.6343002 -1.4126569 -1.3943615 0.102941655 1.5541629 2.2838175
-0.033352464 1.1736556 -0.6005552 -0.17829555 -0.45126164 1.465331 -2.7777915 -2.372789
-2.1503146 -0.7687762 2.3763628 2.0589743 -0.58178866 0.6101654 -0.49630272 -2.1533265
-1.857723 -1.2118131 -4.546306 -2.9597688 -2.1577306 0.31284702 2.8370218 0.97673476
-0.23325886 0.22393338 0.1288552 -0.055909142 -0.20242886 -2.2556455 -3.2193882 -3.3049142
-1.7866304 2.671433 1.8307256 0.9423942 1.2949628 0.42031077 0.7667896 -1.247631
-2.790622 -4.352682 -4.228406 -3.2519932 -2.5286865 1.5971473 1.1272528 0.97824055
1.2191888 3.2976534 2.7927032 2.3935902 -2.4704864 -2.766303 -3.4035184 -2.2853522
-2.1613708 1.1228029 1.0207945 1.0387443 0.97784364 2.1934876 2.8527455 1.9133179
0.3326819 -0.42999336 -0.41255474 0.9728199 1.6385502 2.200837 0.982204 1.0226912
0.92291456 0.9891328 1.0023267 2.177999 1.0541035 1.7617698 1.3371649 0.11989376
0.8473578 2.2662458 0.9323085 1.064127 1.0139604 0.9943778 1.0228312 0.02857889
0.9946292 1.2889304 0.355841 1.0670977 2.2516713 2.272792 1.0694822 1.0688604
-1.0656639 -1.0330687 -0.94618857 -1.0573869 -1.0201988 -0.929836 -0.9386427 -1.0229526
-1.0240996 -0.9276214 -0.9599441 -0.9720011 -1.0757648 -0.97641504 -0.92512006 -0.94156677
-1.0235201 -1.0749139 -0.93750435 -0.95328975 -0.9599202 -1.075675 -1.0052184 -1.039611
-1.0032861 -1.0331339 -1.0566105 -0.9683229 -1.0178734 -0.9442221 -0.9774165 -0.99068004
-0.92235506 -0.9528832 -0.92816734 -1.0064201 -1.0096527 -0.951246 -1.0297629 -0.9194535
-1.0533506 -1.007539 -0.9687232 -0.95228016 -0.95006555 -0.9855436 -0.98820156 -1.0023715
-0.9320091 -0.9859929 -1.0712227 -0.9543355 -0.9401971 -1.022463 -1.0461562 -0.91986763
-1.0199758 -0.91740024 -0.91967726 -0.9710788 -0.9772893 -1.0550591 -1.0537148 -0.97144425
-1.035821 -1.080642 -0.94966006 -0.92515904 -1.0007555 -0.98934007 -1.0013983 -0.9798253
-1.0273247 -1.0782661 -0.95406336 -1.0056049 -1.0278511 -1.0019534 -1.0127215 -0.94375384
-0.96224725 -0.93249243 -1.0415496 -1.0587335 -1.0754479 -0.91680557 -1.0419652 -0.9703962
-0.9574326 -0.9278291 -1.0100906 -0.92343074 -0.9795067 -0.9831584 -1.0744331 -1.0625812
-0.9392537 -0.9817949 -0.96710706 -0.9764293 -1.0827988 -0.9514682 -1.0101014 -0.9511395
-1.0675391 -0.98051167 -0.9629172 -0.95353854 -1.0033015 -1.0180683 -1.0160072 -1.0024526
00000000: 7051 8a3f c905 7d3f b2f6 6e3f a875 893f
00000010: e2f0 833f 4860 6f3f cdef 6c3f bf2a 823f
00000020: e817 843f cd36 7d3f 58db 763f 010c 803f
00000030: 7d46 803f 09dd 873f b2c4 843f b65a 6d3f
00000040: f833 843f 0b93 783f 9a6e 803f 4110 803f
00000050: 8def 6f3f aa3f 7d3f af41 813f b112 783f
00000060: b8ba 873f 8ae7 043e 3c8b f8bc b373 f7bf
00000070: d2fe 8a3f f59f 2dbe 246e a5bf 98b4 e1bf
00000080: 7e59 f7bf bb84 133f 865b 0c3f a752 913f
00000090: fb33 87bd 2074 cdbe 3144 adbf b897 8dbf
000000a0: ab10 16c0 2d21 533e c030 d1bf f1d1 b4bf
000000b0: 707a b2bf 13d3 d23d cfee c63f 112a 1240
000000c0: 989c 08bd 593a 963f fcbd 19bf 1c93 36be
000000d0: c40b e7be f78f bb3f 56c7 31c0 c6db 17c0
000000e0: c19e 09c0 84ce 44bf 5416 1840 3cc6 0340
000000f0: 1af0 14bf cd33 1c3f 641b febe 1ad0 09c0
00000100: dec9 edbf b11c 9bbf 577b 91c0 da6c 3dc0
00000110: 4218 0ac0 7c2d a03e c491 3540 4a0b 7a3f
00000120: 69db 6ebe cb4e 653e 9ef2 033e fc00 65bd
00000130: 8349 4fbe 7f5c 10c0 750a 4ec0 b783 53c0
00000140: 4eb0 e4bf c2f8 2a40 3755 ea3f bf40 713f
00000150: 57c1 a53f f932 d73e 534c 443f 5fb2 9fbf
00000160: 8d99 32c0 2c49 8bc0 1a4f 87c0 a820 50c0
00000170: 00d6 21c0 536f cc3f d249 903f f96d 7a3f
00000180: 610e 9c3f c10c 5340 a6bb 3240 9530 1940
00000190: 731c 1ec0 1c0b 31c0 3fd3 59c0 3643 12c0
000001a0: e653 0ac0 01b8 8f3f 65a9 823f 93f5 843f
000001b0: f653 7a3f 1a62 0c40 6293 3640 9ae7 f43f
000001c0: 4855 aa3e 1728 dcbe 603a d3be ba0a 793f
000001d0: 03bc d13f 83da 0c40 b971 7b3f 8ce7 823f
000001e0: 2144 6c3f cf37 7d3f 3e4c 803f 5664 0b40
000001f0: ddec 863f ac81 e13f 3828 ab3f dc8a f53d
00000200: 71ec 583f 2c0a 1140 c5ab 6e3f 5035 883f
00000210: 74c9 813f 8b8f 7e3f 22ec 823f 471e ea3c
00000220: 05a0 7e3f acfb a43f cb30 b63e a896 883f
00000230: 621b 1040 6d75 1140 cbe4 883f 6bd0 883f
00000240: ad67 88bf 983b 84bf 6a39 72bf 7458 87bf
00000250: e095 82bf bb09 6ebf e34a 70bf 1cf0 82bf
00000260: b215 83bf 9978 6dbf e6be 75bf 10d5 78bf
00000270: a9b2 89bf 56f6 79bf abd4 6cbf 850a 71bf
00000280: b502 83bf c796 89bf 4900 70bf cc0a 74bf
00000290: 55bd 75bf b8af 89bf ffaa 80bf f911 85bf
000002a0: ae6b 80bf bb3d 84bf 033f 87bf 02e4 77bf
000002b0: ad49 82bf 8ab8 71bf f837 7abf 359d 7dbf
000002c0: 761f 6cbf 27f0 73bf 609c 6dbf 60d2 80bf
000002d0: 4d3c 81bf dc84 73bf 45cf 83bf 4e61 6bbf
000002e0: 31d4 86bf 0af7 80bf 3efe 77bf a2c8 73bf
000002f0: 7f37 73bf 964c 7cbf c7fa 7cbf b64d 80bf
00000300: 2698 6ebf 086a 7cbf d31d 89bf 554f 74bf
00000310: c2b0 70bf 11e0 82bf 72e8 85bf 727c 6bbf
00000320: 918e 82bf beda 6abf f86f 6bbf 9f98 78bf
00000330: a22f 7abf 2d0c 87bf 20e0 86bf 92b0 78bf
00000340: c895 84bf 7a52 8abf ec1c 73bf 39d7 6cbf
00000350: c218 80bf 6445 7dbf d22d 80bf d5d5 7abf
00000360: 607f 83bf a004 8abf 7f3d 74bf a9b7 80bf
00000370: a090 83bf 0240 80bf dca0 81bf da99 71bf
00000380: d655 76bf d3b7 6ebf 7f51 85bf 9484 87bf
00000390: 47a8 89bf c5b3 6abf 1e5f 85bf e36b 78bf
000003a0: 4e1a 75bf 3586 6dbf a64a 81bf f565 6cbf
000003b0: f3c0 7abf 45b0 7bbf 0687 89bf a902 88bf
000003c0: ee72 70bf e956 7bbf 5494 77bf 45f7 79bf
000003d0: 2799 8abf 6c93 73bf 014b 81bf e17d 73bf
000003e0: 1fa5 88bf d002 7bbf be81 76bf 1a1b 74bf
000003f0: 2f6c 80bf 1050 82bf 860c 82bf 5e50 80bf

bias f4 [5]
-2.8739233 -1.0340276 0.05657653 -3.347188 -0.9691912
00000000: 5cee 37c0 045b 84bf cbbc 673d 5438 56c0
00000010: ea1c 78bf

weight f4 [10, 5]
0.13541457 -1.1199875 -1.4035816 -0.9640297 -1.1719167 0.956911 0.25416726 -1.5496316
1.3491497 0.38841608 -1.5570974 -0.55627483 -2.097374 -1.0130763 -0.58171034 -0.5668835
-0.41108063 -1.1880001 -1.4160504 -0.3657387 -1.7286929 0.08226545 -1.5918359 -1.7378576
-0.17227761 -0.68787444 1.0340757 -0.30428708 -2.572666 0.7295652 3.530588 -0.1819483
-1.5210211 2.0481737 -0.07342482 1.3599368 -1.0536444 -0.72621495 4.2134905 -1.340374
-0.5959954 -0.34668952 -0.7978733 -0.87285095 -0.20886976 -0.7736151 -0.16345923 -0.8241794
-1.4373119 -0.39720547
00000000: 1eaa 0a3e c05b 8fbf 90a8 b3bf a7ca 76bf
00000010: 5e01 96bf 1ff8 743f 3622 823e 545a c6bf
00000020: f0b0 ac3f 79de c63e f84e c7bf 0768 0ebf
00000030: 603b 06c0 7cac 81bf f8ea 14bf 471f 11bf
00000040: 2979 d2be 6310 98bf 2441 b5bf 1a42 bbbe
00000050: cf45 ddbf ca7a a83d 47c1 cbbf 1e72 debf
00000060: 8b69 30be 8a18 30bf 985c 843f 84cb 9bbe
00000070: 8fa6 24c0 c9c4 3a3f 27f5 6140 a850 3abe
00000080: d2b0 c2bf 4715 0340 c15f 96bd 6912 ae3f
00000090: d2dd 86bf 39e9 39bf ead4 8640 6091 abbf
000000a0: 2893 18bf 4a81 b1be 6d41 4cbf 2973 5fbf
000000b0: f4e1 55be a40b 46bf db61 27be 6cfd 52bf
000000c0: d6f9 b7bf 845e cbbe

bias f4 [10]
-0.40558332 2.5522103 -1.1462815 -1.3065801 -2.3418214 -0.68709904 0.8180298 -0.68100446
-1.539117 -1.4198506
00000000: 9ea8 cfbe 6a57 2340 5ab9 92bf 043e a7bf
00000010: 67e0 15c0 b9e5 2fbf 676a 513f 4f56 2ebf
00000020: c901 c5bf aabd b5bf

weight f4 [10, 10]
2.2795 1.3995739 1.4146355 1.0003259 1.8374655 1.8268458 0.96494794 0.5079486
1.4825692 0.9358935 1.3662449 -1.6053498 1.0036659 -1.1213241 0.28687045 2.6304264
-0.51905525 1.6952245 0.32658595 1.1899002 -2.0225437 -4.2822943 -1.3495307 -1.177579
-1.0639782 -2.2494013 -3.891227 -1.154389 -1.1864043 -1.2340399 -2.1257951 -3.434614
-1.0365599 -1.2404611 -1.0542777 -1.9044366 -4.313222 -1.2828609 -1.3087008 -0.9195944
-2.0927587 -2.8449492 -1.9959553 -0.893813 -0.7435841 -1.8041285 -4.591424 -1.3233669
-0.7027611 -0.9592401 -2.0495446 -3.1410706 -1.5232582 -0.948787 -1.0732608 -1.9617923
-4.6011333 -1.3605963 -0.9610954 -0.76757765 -1.8003016 -3.6610143 -1.1970607 -0.8029289
-1.2375697 -2.1059773 -4.325075 -1.0076835 -0.88175154 -1.2835896 -1.8418474 -3.2979214
-1.5304326 -0.8258567 -0.77779454 -2.1545987 -4.402657 -1.1647243 -0.75492185 -0.9085494
-2.1184316 -3.3510308 -1.1961739 -1.0363063 -1.19789 -1.7662101 -4.3457255 -1.0004611
-1.0806102 -1.0352787 -2.1533568 -2.9829037 -1.5696762 -1.0988117 -0.753979 -1.7897463
-4.530517 -0.851956 -0.7592325 -0.6958554
00000000: 54e3 1140 3d25 b33f c712 b53f ae0a 803f
00000010: 1232 eb3f 15d6 e93f d406 773f eb08 023f
00000020: d4c4 bd3f b796 6f3f 1de1 ae3f 1a7c cdbf
00000030: 2078 803f 8c87 8fbf afe0 923e e858 2840
00000040: cee0 04bf 1efd d83f 4636 a73e a64e 983f
00000050: 5b71 01c0 8e08 89c0 6cbd acbf e9ba 96bf
00000060: 7030 88bf 31f6 0fc0 dd09 79c0 05c3 93bf
00000070: 19dc 97bf 05f5 9dbf 070d 08c0 b7d0 5bc0
00000080: ffad 84bf 6ec7 9ebf 92f2 86bf 94c4 f3bf
00000090: ea05 8ac0 c934 a4bf 8283 a7bf 8a6a 6bbf
000000a0: c2ef 05c0 a613 36c0 777b ffbf eed0 64bf
000000b0: 875b 3ebf afed e6bf f2ec 92c0 1664 a9bf
000000c0: 27e8 33bf c290 75bf bd2b 03c0 4d07 49c0
000000d0: 20fa c2bf b4e3 72bf 9c60 89bf 031c fbbf
000000e0: 7c3c 93c0 0528 aebf 590a 76bf f87f 44bf
000000f0: 4870 e6bf 0f4e 6ac0 4939 99bf c08c 4dbf
00000100: af68 9ebf 55c8 06c0 0467 8ac0 c6fb 80bf
00000110: 78ba 61bf aa4c a4bf a8c1 ebbf 2511 53c0
00000120: 37e5 c3bf 586b 53bf 8b1d 47bf f2e4 09c0
00000130: 91e2 8cc0 b015 95bf 8f42 41bf b296 68bf
00000140: 6294 07c0 4a77 56c0 3a1c 99bf afa5 84bf
00000150: 7654 99bf 2c13 e2bf 2f10 8bc0 1c0f 80bf
00000160: 6f51 8abf 0384 84bf 99d0 09c0 e5e7 3ec0
00000170: 26eb c8bf dda5 8cbf c504 41bf 6816 e5bf
00000180: fff9 90c0 ca19 5abf 105d 42bf 9423 32bf

bias f4 [10]
-1.2620623 4.907565 -5.245209 -5.0200324 -4.6144915 -4.7461123 -5.1935663 -5.0551476
-5.121623 -5.052547
00000000: 428b a1bf c60a 9d40 c1d8 a7c0 1ba4 a0c0
00000010: eaa9 93c0 27e0 97c0 b231 a6c0 c5c3 a1c0
00000020: 56e4 a3c0 77ae a1c0

weight f4 [1, 1, 5, 5]
-0.5179493 2.3124974 -0.058848552 2.0190592 0.46288466 3.2633789 5.7184324 2.2469373
1.538876 -0.32907608 4.211485 2.647936 1.382809 1.3531592 -0.59472555 2.7833154
0.94139844 -0.47208318 -0.9581754 -1.5528066 0.262069 1.4501206 -4.825532 -3.3097134
-3.029201
00000000: 5398 04bf f5ff 1340 2e0b 71bd 4438 0140
00000010: 38ff ec3e 33db 5040 66fd b640 d2cd 0f40
00000020: e4f9 c43f a97c a8be 7cc4 8640 c977 2940
00000030: e3ff b03f 5234 ad3f ef3f 18bf d721 3240
00000040: 7dff 703f e3b4 f1be fc4a 75bf 5ec2 c6bf
00000050: e82d 863e 8d9d b93f c26a 9ac0 58d2 53c0
00000060: 6ede 41c0

weight f4 [5, 144]
-1.9942712 -0.9213425 -1.0300293 -1.0353408 -0.90056205 -0.9169199 -0.9592768 -0.8868777
-1.0125549 -1.0242912 -2.0225723 -2.0303178 -2.0474987 -1.0388981 -2.882741 -0.8992425
-0.7182047 -2.4133413 1.353226 1.0198039 -1.1290501 -1.2067714 -0.94205403 0.040173188
-2.0518284 -2.8739622 -0.8943198 -0.7927315 0.47277245 3.7684367 4.425988 0.86378866
-3.014222 -0.78413856 0.3402838 0.87856525 -1.9365103 -2.9040747 -2.9171631 -1.6244546
0.8470844 -0.864853 -1.6258988 -3.2024994 -4.143841 -0.79657185 -0.16224411 0.84669214
-2.882133 -2.9442716 -2.1009195 -2.3710947 0.09767785 -0.67498696 -2.1206656 -1.8749311
-6.1521816 -0.628288 -0.9244772 0.7784814 -2.954578 -2.9215894 -2.170259 -2.5540047
-0.12097363 -2.7701106 0.21134104 -5.3936763 -4.5745654 -3.5534582 -2.6923385 -1.9915047
-2.888824 -2.9771945 -2.7488887 -2.7856193 0.520736 -0.23981555 -1.7816516 -2.3442585
-2.3907628 -4.2548294 -2.7564437 -1.8968067 -1.9446607 -0.9845255 -2.955386 -2.80586
-0.6283509 0.4294449 -1.0945933 1.103408 1.6821287 1.2661594 -0.8486056 -2.05991
-1.9777907 -0.89052254 -0.55123055 -0.80055034 -1.0697771 -0.7349709 -0.7547166 1.6482828
1.2370689 1.3475032 -0.8146281 -1.9524941 -1.9920549 -0.90236396 -0.5045565 -0.20654269
0.19947995 -0.7001165 1.4467564 2.3032176 0.57960165 -0.15952837 -0.9191297 -1.9726362
-2.0469453 -0.92551523 -0.066562265 0.27255714 1.11588 1.8020178 1.4241815 1.6383415
-2.2788389 -1.854696 -2.968909 -1.9259263 -1.9123381 -1.9102737 -0.5783323 0.7427554
0.0044739633 -0.20381889 -2.381357 -1.7350456 -3.8579698 -2.7565184 -2.8586242 -1.8986776
-0.0005208441 -0.040474858 0.08297698 -1.0112702 -1.0589163 1.0721611 0.97999895 -1.0260553
-1.03474 -1.0170419 0.055975243 0.021089192 0.01886776 0.07049082 1.0033058 1.0340617
0.9671151 1.0345874 1.02856 1.1385568 -1.0507615 -0.9678993 -1.1066419 0.034061708
0.057055812 0.02798662 0.9561466 -1.5589722 -0.3990977 -0.8105399 -0.36199862 -0.07033149
0.057459943 -1.8343041 -1.7043529 -1.2895142 -0.01365918 0.96618956 0.6973187 -1.3407373
-1.8371084 -1.6510773 -1.4375293 -1.1378589 -0.7401306 -2.3803103 -1.7656444 -1.2468773
0.93494046 0.7684745 -0.28990754 -1.6567802 -1.5053487 -1.2338086 -0.8358632 -0.44559
-0.64342445 -0.6287913 -1.9461755 -1.1108166 0.9334701 0.6647578 -0.48340276 -1.2693465
-0.9207899 -2.6520627 -1.7549738 -0.5825985 -0.73594946 -0.63293636 -0.08273534 -0.12584485
1.0784211 0.97586507 0.13725981 -0.93653286 -0.9249858 -2.8353426 -3.0710895 -1.0487497
-0.65248114 -0.51981187 0.35637143 -0.14358634 -0.056911547 -1.3467321 -0.33915633 -0.99204546
-1.05087 -1.0886197 -1.2342138 -0.991685 -0.9640326 -0.75255835 0.28874677 -0.091954365
0.045921735 -1.0794529 -2.2840402 -2.424132 -2.7473419 -1.0604789 -0.79652685 -0.7720718
-0.77178925 -0.30060953 0.22439179 -0.07837116 0.065848544 -1.2196561 -2.2438316 -2.099327
00000000: 4744 ffbf 1add 6bbf 00d8 83bf 0c86 84bf
00000010: 3c8b 66bf 43bb 6abf 2a93 75bf 6b0a 63bf
00000020: 669b 81bf f91b 83bf d371 01c0 baf0 01c0
00000030: 380a 03c0 9dfa 84bf d47e 38c0 c234 66bf
00000040: 43dc 37bf 2f74 1ac0 8236 ad3f ef88 823f
00000050: b784 90bf 7c77 9abf 742a 71bf a48c 243d
00000060: 2851 03c0 ffee 37c0 24f2 64bf 74f0 4abf
00000070: 3b0f f23e 112e 7140 b2a1 8d40 4121 5d3f
00000080: 03e9 40c0 4ebd 48bf ae39 ae3e a7e9 603f
00000090: 92df f7bf 5cdc 39c0 cdb2 3ac0 21ee cfbf
000000a0: 86da 583f 0267 5dbf 741d d0bf c0f5 4cc0
000000b0: 589a 84c0 22ec 4bbf 5223 26be d1c0 583f
000000c0: de74 38c0 f26e 3cc0 7775 06c0 04c0 17c0
000000d0: 530b c83d f2cb 2cbf fcb8 07c0 befd efbf
000000e0: acde c4c0 7bd7 20bf 8aaa 6cbf 8f4a 473f
000000f0: ce17 3dc0 52fb 3ac0 86e5 0ac0 d074 23c0
00000100: 06c1 f7bd 7e49 31c0 c969 583e ff98 acc0
00000110: d762 92c0 dc6b 63c0 464f 2cc0 a0e9 febf
00000120: 7ee2 38c0 5b8a 3ec0 cbed 2fc0 9647 32c0
00000130: f44e 053f 3592 75be 290d e4bf 5508 16c0
00000140: 4202 19c0 9027 88c0 9369 30c0 90ca f2bf
00000150: a4ea f8bf dd09 7cbf 0b25 3dc0 3693 33c0
00000160: 9bdb 20bf 34e0 db3e a21b 8cbf 793c 8d3f
00000170: fe4f d73f 8311 a23f 373e 59bf 91d5 03c0
00000180: 3f28 fdbf 49f9 63bf 721d 0dbf def0 4cbf
00000190: 75ee 88bf 0e27 3cbf 1b35 41bf eefa d23f
000001a0: 4658 9e3f fc7a ac3f 788b 50bf 54eb f9bf
000001b0: a8fb febf 5301 67bf 9d2a 01bf ed7f 53be
000001c0: 7944 4c3e d63a 33bf 502f b93f eb67 1340
000001d0: c660 143f 685b 23be 164c 6bbf 587f fcbf
000001e0: 2701 03c0 91ee 6cbf cc51 88bd 9c8c 8b3e
000001f0: 28d5 8e3f 85a8 e63f 944b b63f 2db5 d13f
00000200: 7fd8 11c0 ae66 edbf 9b02 3ec0 c184 f6bf
00000210: 7fc7 f4bf d983 f4bf 960d 14bf 3825 3e3f
00000220: 539a 923b e6b5 50be 2768 18c0 f915 debf
00000230: fae8 76c0 cc6a 30c0 b3f3 36c0 de07 f3bf
00000240: 4289 08ba f7c8 25bd d6ef a93d 4d71 81bf
00000250: 928a 87bf 933c 893f 36e1 7a3f c855 83bf
00000260: 5c72 84bf 6e2e 82bf 4c46 653d 3ec3 ac3c
00000270: 9090 9a3c 7e5d 903d 536c 803f 225c 843f
00000280: db94 773f 5c6d 843f dba7 833f 3bbc 913f
00000290: 5a7f 86bf 40c8 77bf 71a6 8dbf 4a84 0b3d
000002a0: 5bb3 693d 3244 e53c 06c6 743f 678c c7bf
000002b0: 8956 ccbe 8b7f 4fbf e257 b9be f509 90bd
000002c0: 1e5b 6b3d 7aca eabf 3c28 dabf cd0e a5bf
000002d0: c1ca 5fbc 3358 773f 7a83 323f 489d abbf
000002e0: 5e26 ebbf 8056 d3bf f600 b8bf 5ca5 91bf
000002f0: 3379 3dbf 0157 18c0 a300 e2bf ad99 9fbf
00000300: 4258 6f3f bfba 443f c36e 94be 6011 d4bf
00000310: 44af c0bf 71ed 9dbf 21fb 55bf 5f24 e4be
00000320: 77b7 24bf 77f8 20bf 471c f9bf 3d2f 8ebf
00000330: e5f7 6e3f 912d 2a3f 9180 f7be f279 a2bf
00000340: e3b8 6bbf 65bb 29c0 fba2 e0bf 2d25 15bf
00000350: 2f67 3cbf 1e08 22bf 2571 a9bd 79dd 00be
00000360: b409 8a3f 4bd2 793f d68d 0c3e 9ec0 6fbf
00000370: dfcb 6cbf 4176 35c0 bb8c 44c0 6e3d 86bf
00000380: 0109 27bf 6412 05bf 5176 b63e 4c08 13be
00000390: 151c 69bd b861 acbf e6a5 adbe b1f6 7dbf
000003a0: e882 86bf e457 8bbf b8fa 9dbf 11df 7dbf
000003b0: d7ca 76bf aaa7 40bf 9ed6 933e 9252 bcbd
000003c0: 6e18 3c3d 832b 8abf b72d 12c0 fb24 1bc0
000003d0: 73d4 2fc0 c6bd 87bf 2fe9 4bbf 7fa6 45bf
000003e0: fb93 45bf 7ee9 99be f6c6 653e 0f81 a0bd
000003f0: 9adb 863d b11d 9cbf f09a 0fc0 605b 06c0

bias f4 [5]
-0.1567114 -0.32828856 -1.0174928 -0.600348 0.7732994
00000000: f478 20be 7015 a8be 343d 82bf 68b0 19bf
00000010: f3f6 453f

weight f4 [10, 5]
-1.2621251 -0.2340923 -0.5609313 -1.2781564 -0.7176386 -1.0772772 -1.2389168 0.10691463
-0.90970635 -0.5915322 -0.42514405 -0.2838345 0.19657195 -0.19835572 -1.0907515 0.2984731
-0.31794345 -0.2510306 -0.8361301 -0.6006946 -0.65868706 0.7556674 0.38166094 -1.4660783
-0.4543675 -0.79758966 -0.32471868 0.26308206 -0.624968 -1.0014374 2.1043751 0.9505959
0.8279663 0.4860338 2.2193563 -0.36790654 0.8733519 -0.092487335 -0.4175952 -0.51663584
-1.0896459 -0.85084444 -1.1496822 -0.263482 -1.3913876 -0.40123206 -0.50831693 0.11981955
-0.6245383 -0.33697823
00000000: 518d a1bf e4b5 6fbe 3299 0fbf a19a a3bf
00000010: 2ab7 37bf 38e4 89bf d394 9ebf 0ff6 da3d
00000020: 84e2 68bf a76e 17bf 7bac d9be c152 91be
00000030: 284a 493e c31d 4bbe bf9d 8bbf 77d1 983e
00000040: 7cc9 a2be 1587 80be 9f0c 56bf 1fc7 19bf
00000050: b79f 28bf 6b73 413f 1069 c33e 74a8 bbbf
00000060: dba2 e8be d62e 4cbf 8741 a6be b1b2 863e
00000070: e7fd 1fbf 1a2f 80bf 15ae 0640 415a 733f
00000080: 99f5 533f 6cd9 f83e ef09 0e40 3f5e bcbe
00000090: fd93 5f3f 006a bdbd 0acf d5be 3f42 04bf
000000a0: 8479 8bbf f1d0 59bf c928 93bf 1de7 86be
000000b0: fd18 b2bf 4a6e cdbe 0f21 02bf f463 f53d
000000c0: bee1 1fbf 6988 acbe

bias f4 [10]
-0.8335252 -1.2383765 -1.2371056 -1.5267329 0.8950719 -1.0747584 -2.0778 -1.0795374
-0.66752505 -1.0229626
00000000: e861 55bf 1f83 9ebf 7a59 9ebf fc6b c3bf
00000010: 6f23 653f af91 89bf adfa 04c0 482e 8abf
00000020: ece2 2abf 70f0 82bf

weight f4 [10, 10]
0.937905 0.91479117 -0.3238982 1.5968982 0.7963666 -1.1526564 3.5629094 -0.6903844
1.1368321 -0.3523303 1.1260387 0.7902393 0.85099363 0.5154649 -0.9012923 0.7255748
0.7200789 0.41250354 0.62293017 0.44954324 -1.1078988 -0.68985146 -0.12259689 -1.043537
-9.503641 -1.2939205 -2.263786 -0.31834707 -0.6952718 -1.2901491 -1.0949292 -0.6843128
-0.1605638 -1.2380984 -9.163352 -0.9795757 -2.0067623 -0.29388297 -0.9715269 -1.0384464
-1.4688265 -0.84074533 -0.12604465 -1.0245987 -8.476835 -1.1002048 -1.9428148 -0.16434057
-0.9684048 -1.0821843 -1.3082341 -1.1002165 0.24757874 -0.87675637 -8.61352 -1.12648
-2.158592 -0.1766345 -1.1569179 -1.0060087 -1.5836618 -1.2727114 -0.16272445 -1.0589505
-9.04212 -0.74904656 -2.1457977 -0.30076402 -0.8499958 -1.0546722 -1.7301766 -0.97708267
-0.26769367 -0.7181508 -7.3713555 -0.9234726 -1.8834481 -0.1652141 -0.97160673 -1.2608732
-1.8082558 -1.1173016 0.22985205 -0.73945296 -8.375655 -1.1327223 -2.1401086 0.023082983
-0.8838503 -1.172967 -1.1667839 -1.2011597 -0.16884245 -1.2097467 -9.025395 -0.8710977
-2.1052618 -0.30078813 -1.212433 -0.88852584
00000000: 8b1a 703f c12f 6a3f fcd5 a5be 2967 cc3f
00000010: aede 4b3f 3f8a 93bf b506 6440 08bd 30bf
00000020: b783 913f a364 b4be 0922 903f 1f4d 4a3f
00000030: b8da 593f 82f5 033f 18bb 66bf 45bf 393f
00000040: 1757 383f aa33 d33e 5a78 1f3f 882a e63e
00000050: a1cf 8dbf 1b9a 30bf 1414 fbbd 9f92 85bf
00000060: ea0e 18c1 309f a5bf dfe1 10c0 63fe a2be
00000070: 55fd 31bf 9b23 a5bf a426 8cbf 202f 2fbf
00000080: d66a 24be 027a 9ebf 179d 12c1 79c5 7abf
00000090: cb6e 00c0 d477 96be fdb5 78bf d0eb 84bf
000000a0: 8202 bcbf 163b 57bf d911 01be 0d26 83bf
000000b0: 1ea1 07c1 83d3 8cbf 28ae f8bf e548 28be
000000c0: 61e9 77bf 0485 8abf 3774 a7bf e5d3 8cbf
000000d0: 4885 7d3e 1b73 60bf fad0 09c1 7f30 90bf
000000e0: 5f26 0ac0 addf 34be e315 94bf e5c4 80bf
000000f0: 6eb5 cabf 35e8 a2bf 3da1 26be b18b 87bf
00000100: 86ac 10c1 84c1 3fbf c054 09c0 befd 99be
00000110: 5399 59bf 80ff 86bf 6d76 ddbf 1722 7abf
00000120: 250f 89be bbd8 37bf 25e2 ebc0 b368 6cbf
00000130: d414 f1bf e32d 29be 38bb 78bf 4b64 a1bf
00000140: ed74 e7bf bd03 8fbf 565e 6b3e ca4c 3dbf
00000150: af02 06c1 0bfd 90bf 8af7 08c0 8618 bd3c
00000160: 0344 62bf c823 96bf 2d59 95bf 9abf 99bf
00000170: 09e5 2cbe fbd8 9abf 0568 10c1 4200 5fbf
00000180: 9cbc 06c0 e700 9abe 0131 9bbf 6e76 63bf

bias f4 [10]
-1.0068585 3.980559 -1.893141 -2.1215935 -1.8003154 -1.8851439 -2.1945539 -2.0777066
-1.7221612 -1.6808779
00000000: bde0 80bf 7bc1 7e40 7252 f2bf 30c8 07c0
00000010: bc70 e6bf 654c f1bf 9273 0cc0 25f9 04c0
00000020: c76f dcbf 0227 d7bf

weight f4 [1, 1, 5, 5]
-0.49360994 -0.796973 -0.61015505 -0.07096029 0.0360697 -0.62726843 -1.0499599 -0.9787229
-0.6697965 -1.0341476 0.52662593 0.26346883 -0.41847426 -0.96693337 -0.5906647 1.8272685
2.153791 2.267725 1.3666557 0.91871077 1.3845433 2.7944748 3.0994153 1.4920918
2.870511
00000000: 71ba fcbe 6c06 4cbf 1f33 1cbf a153 91bd
00000010: d2bd 133d aa94 20bf 1665 86bf 958d 7abf
00000020: c977 2bbf f35e 84bf f5d0 063f 63e5 863e
00000030: 4242 d6be f288 77bf cd35 17bf efe3 e93f
00000040: b6d7 0940 6822 1140 93ee ae3f a130 6b3f
00000050: b738 b13f add8 3240 d25c 4640 ddfc be3f
00000060: 74b6 3740

weight f4 [5, 144]
0.9533996 1.0219698 0.98533684 1.0261184 0.9468648 0.7102197 0.70134497 0.5590264
0.17414668 0.466293 0.9331815 0.94749594 0.94609886 0.9491193 1.1224409 1.1920424
0.785249 1.8284051 3.21331 3.7308843 2.1905549 1.5088761 1.3968318 1.0598538
1.0488603 1.0348593 1.079432 0.4755863 0.0018005281 0.7733146 1.5882496 1.8944561
2.007756 1.3552953 1.7924719 1.0598584 1.0339501 1.028392 1.0509218 0.67908216
1.4574418 1.4482719 1.6662803 1.538986 1.9732985 1.1458474 -0.96343136 1.0241921
0.89889187 1.0158701 1.1334306 1.3799016 1.4460734 1.0350043 1.6733043 1.335158
1.1155523 -0.8033062 -0.8643634 1.0156105 0.9633523 0.963634 1.0702957 1.8661498
1.315201 0.702346 -0.15140057 -1.8833511 -0.88637346 -2.275222 -2.0422487 1.0156026
0.90848017 1.0443729 1.1529256 1.4809933 1.4068727 2.6184714 1.5842049 -1.7999192
-3.0054002 -1.8601078 -0.8520467 0.9844287 0.9688366 1.0385623 1.1343638 2.288225
0.63161296 0.7142285 1.9173663 0.4378946 -0.75456184 -0.5958849 -0.063803524 0.87519336
1.0175738 1.0154954 0.92735374 3.027855 -0.5511132 -1.9249959 -2.2874238 -1.6710951
1.5052879 1.5646895 1.4161469 1.0891395 1.0313385 0.9017327 0.9128073 1.9879209
3.4658504 2.4680412 1.4989239 2.4566467 2.1014826 1.5692805 1.5228326 1.2377616
1.0224108 1.0515753 1.0579723 0.9706492 1.1986586 1.2829129 1.4283879 1.5931263
1.3663541 0.96475625 1.2399306 1.1067466 0.90076125 0.9237666 0.9120076 1.0353285
-1.0195687 -1.0563334 0.81879604 0.90164495 0.8832476 0.9358584 0.9797238 0.9246826
-0.43453035 -0.42367157 -0.44533563 -0.4538848 -0.39395308 -0.47791332 -0.57057554 -0.51751447
-0.56010664 -0.4050872 -0.4200509 -0.46740645 -0.40622702 -0.4881274 -0.46764043 -0.49343598
-0.42764387 -0.41480973 -0.44823968 -0.44714716 -0.44542527 -0.3334407 -0.4956801 -0.4290164
-0.44294694 -0.5241891 -0.43134034 -0.5029001 -0.5475018 -0.49100542 -0.42853257 -0.5748
-0.5036909 -0.48126584 -0.3970355 -0.49466962 -0.53754115 -0.51270574 -0.45918798 -0.51850903
-0.43267187 -0.42842272 -0.5802623 -0.4900213 -0.5109243 -0.49556223 -0.449515 -0.5417817
-0.39783776 -0.5073852 -0.52228236 -0.5192049 -0.5008812 -0.38402364 -0.3840675 -0.4261267
-0.34617102 -0.44877824 -0.5046415 -0.45630524 -0.4856599 -0.5229891 -0.5659928 -0.45423308
-0.396136 -0.39405936 -0.32993498 -0.39086086 -0.54084724 -0.48617557 -0.48197046 -0.4349137
-0.41968575 -0.43629646 -0.5200285 -0.39851654 -0.35645825 -0.43497154 -0.41132516 -0.6922298
-0.5067116 -0.5463792 -0.5741229 -0.4122006 -0.43264142 -0.50580907 -0.47673628 -0.3373245
-0.3393244 -0.48208144 -0.78032434 -0.81783974 -0.510104 -0.51341856 -0.4568723 -0.53385496
-0.44186875 -0.42339918 -0.47787777 -0.2351256 -1.083435 -0.686483 -0.7990051 -0.56591535
-0.5862419 -0.5294478 -0.3827302 -0.45086628 -0.48903838 -0.43028316 -0.52547723 -0.47157022
00000000: ff11 743f e8cf 823f 093f 7c3f d957 833f
00000010: bb65 723f f5d0 353f 588b 333f 5b1c 0f3f
00000020: 8253 323e f5bd ee3e fce4 6e3f 188f 723f
00000030: 8933 723f 7cf9 723f 25ac 8f3f d894 983f
00000040: 1406 493f 2e09 ea3f dfa6 4d40 cfc6 6e40
00000050: 0d32 0c40 da22 c13f 62cb b23f 4aa9 873f
00000060: 0e41 863f 4576 843f d42a 8a3f 0c80 f33e
00000070: b3ff eb3a f2f7 453f c34b cb3f 8a7d f23f
00000080: 137f 0040 517a ad3f b86f e53f 71a9 873f
00000090: 7a58 843f 59a2 833f 9b84 863f 54d8 2d3f
000000a0: 748d ba3f f960 b93f ac48 d53f 7efd c43f
000000b0: 0c95 fc3f 21ab 923f 70a3 76bf ba18 833f
000000c0: c71d 663f 0808 823f 4114 913f 9ea0 b03f
000000d0: ef18 b93f 057b 843f d62e d63f 75e6 aa3f
000000e0: 6bca 8e3f 7aa5 4dbf eb46 5dbf 86ff 813f
000000f0: 429e 763f b8b0 763f 73ff 883f ffdd ee3f
00000100: 8258 a83f f3cc 333f c008 1bbe a611 f1bf
00000110: 5fe9 62bf 3d9d 11c0 34b4 02c0 44ff 813f
00000120: 2892 683f 03ae 853f 1193 933f 3091 bd3f
00000130: 6814 b43f 0995 2740 3ac7 ca3f c163 e6bf
00000140: 7a58 40c0 0318 eebf bc1f 5abf 8503 7c3f
00000150: ad05 783f 9cef 843f d532 913f 4772 1240
00000160: 63b1 213f aed7 363f 426c f53f b933 e03e
00000170: f72a 41bf ea8b 18bf 6cab 82bd ac0c 603f
00000180: dc3f 823f c1fb 813f 0e67 6d3f 60c8 4140
00000190: c115 0dbf 4466 f6bf 2765 12c0 72e6 d5bf
000001a0: 46ad c03f bf47 c83f 4d44 b53f ec68 8b3f
000001b0: e602 843f f4d7 663f bdad 693f 3174 fe3f
000001c0: 7ed0 5d40 63f4 1d40 bddc bf3f b339 1d40
000001d0: b17e 0640 2fde c83f 2eec c23f f96e 9e3f
000001e0: 5bde 823f 059a 863f a36b 873f 777c 783f
000001f0: a56d 993f 7d36 a43f 6ad5 b63f 90eb cb3f
00000200: b1e4 ae3f 44fa 763f 0cb6 9e3f dfa9 8d3f
00000210: 4a98 663f f87b 6c3f 5479 693f a585 843f
00000220: 3a81 82bf ef35 87bf 9e9c 513f 34d2 663f
00000230: 841c 623f 6b94 6f3f 2ecf 7a3f 00b8 6c3f
00000240: c37a debe 7beb d8be 0803 e4be 9763 e8be
00000250: 38b4 c9be 0eb1 f4be 3d11 12bf d47b 04bf
00000260: 2663 0fbf 9767 cfbe e910 d7be e64f efbe
00000270: fdfc cfbe d6eb f9be 916e efbe a4a3 fcbe
00000280: 23f4 dabe f161 d4be ac7f e5be 79f0 e4be
00000290: c80e e4be bdb8 aabe c8c9 fdbe 0aa8 dbbe
000002a0: f1c9 e2be 4231 06bf a4d8 dcbe 10be 00bf
000002b0: 1429 0cbf 1065 fbbe 9f68 dbbe 1826 13bf
000002c0: e3f1 00bf 7a68 f6be 3d48 cbbe 5645 fdbe
000002d0: 4c9c 09bf af40 03bf b01a ebbe 02bd 04bf
000002e0: 2b87 ddbe 395a dbbe 128c 14bf 12e4 fabe
000002f0: efcb 02bf 55ba fdbe d526 e6be 35b2 0abf
00000300: 64b1 cbbe ffe3 01bf 4cb4 05bf 9dea 04bf
00000310: c039 00bf bf9e c4be 7fa4 c4be 472d dabe
00000320: 543d b1be 43c6 e5be 2f30 01bf d7a0 e9be
00000330: 6aa8 f8be 9de2 05bf e7e4 10bf 3d91 e8be
00000340: 56d2 cabe 26c2 c9be 3ded a8be ea1e c8be
00000350: f774 0abf 01ec f8be d5c4 f6be 02ad debe
00000360: 0de1 d6be 4062 dfbe 9620 05bf 5c0a ccbe
00000370: b281 b6be 97b4 debe 3699 d2be f935 31bf
00000380: dab7 01bf 82df 0bbf b8f9 12bf f50b d3be
00000390: 2d83 ddbe b47c 01bf c716 f4be ccb5 acbe
000003a0: eebb adbe 61d3 f6be 56c3 47bf f25d 51bf
000003b0: 2d96 02bf 666f 03bf 2beb e9be b8aa 08bf
000003c0: 9f3c e2be c7c7 d8be 65ac f4be c4c4 70be
000003d0: 00ae 8abf 5abd 2fbf 998b 4cbf d4df 10bf
000003e0: f313 16bf e489 07bf 36f5 c3be f2d7 e6be
000003f0: 3d63 fabe 134e dcbe ad85 06bf a771 f1be

bias f4 [5]
1.6351262 -0.6174973 -1.919512 -1.9766551 -0.57360214
00000000: d14b d13f 4e14 1ebf 92b2 f5bf 0903 fdbf
00000010: 97d7 12bf
