models/pre_trained/mnist_pre_trained_10_5_01_25_34_69_78_expert_model.pt (torch, 70335 bytes, 70 tensors)

weight f4 [1, 1, 5, 5]
00000000: dc3e 133e b8e6 343e 462f f43f e5b2 143f
00000010: ee34 abbf 5226 24be b3fc a7be 9cc6 c33f
00000020: 3882 283f b740 113f 6854 85be 8ec9 8dbe
00000030: 1258 b8be 80a9 ba3f a8ae 2c3f 909c 4f3e
00000040: d517 8abd 01c2 673f aa92 7abe 0117 8abf
00000050: c34e 66bd b25e b340 1212 bc3e 921f ab3c
00000060: 050a c5be
0.14379448 0.17666137 1.9076927 0.5808547 -1.3375528 -0.16030243 -0.32809982 1.5294986
0.658237 0.5673937 -0.2604096 -0.27692837 -0.36004692 1.4582977 0.67454004 0.20274568
-0.06742827 0.905304 -0.2447001 -1.078827 -0.056227457 5.6053095 0.36732537 0.020889077
-0.38484207

weight f4 [5, 144]
00000000: 56e6 dd3a bee9 a0bd e0af 83bd 40fe cc3c
00000010: 0cbd 9e3d 13d5 6fbd 9618 f23b b6b1 3d3c
00000020: e08f 36bd 9012 54bd 2bc3 ae3b 00fd 1ebc
00000030: e6ed adbc 7b92 bbbc 9780 a2bd fddb 7cbf
00000040: db09 74bf 1498 74bf 313f 77bf 5fd3 7cbf
00000050: fee9 76bf ae59 6dbf 30b5 a43c 68dd 5ebd
00000060: 3bb0 883c 96a7 debc a159 89bf 5dd3 7abf
00000070: efee 84bf 55b6 81bf fb63 81bf 0b78 91bf
00000080: 29c6 70bf 06fd 87bf a8b4 2e3d f6d5 32bc
00000090: 40a0 0b3c a0bc 6cbf f70f 6dbf 1e24 7abf
000000a0: 72e7 71bf 6736 84bf aaa2 75bf dc67 adbf
000000b0: 9fa3 6bbf 3e4b 6ebf a411 85bf ab5a 9a3d
000000c0: ee77 1fbd 40d7 84bf 0183 88bf 6d9f 86bf
000000d0: eb8e 8abf 3b0e 8abf 06b0 22c0 be5a d1bf
000000e0: c84e 8abf 2642 84bf b6d8 1fbc d626 d0bc
000000f0: 0b87 a53c 6564 89bf b4e8 7cbf 0bf0 6fbf
00000100: 8299 8abf 2bfd 1e3e 8da9 16bf 2aa0 85bf
00000110: 56cc 6cbf 1528 81bf 8ecd 78bf 00b8 0b3a
00000120: 535c 6fbd 9b4d 79bf 58a4 87bf 9ae1 72bf
00000130: fbc1 86bf 34db bcbe 6458 c1bf da0b 7bbf
00000140: db4b 87bf 9ade 7cbf 815b 6ebf 075b 96bd
00000150: c47c 9a3d 9a52 83bf b052 86bf d0b2 7abf
00000160: 6d54 89bf b192 b6be c8f9 84bf d6e5 84bf
00000170: 6c24 89bf 1dff 7cbf 6149 6bbf 6e3f 96bd
00000180: f07f ebbc 2566 81bf 8cfb 78bf f0a0 82bf
00000190: 1996 77bf 6503 5cbf 16e9 6bbf 0f31 7dbf
000001a0: 85b4 84bf 1ad6 77bf ab36 68bd eb65 893c
000001b0: aabf a43d 0a3f 87bf 0a4d 85bf abd3 81bf
000001c0: d4c3 b1bf ce33 00c0 0930 8abf e426 6ebf
000001d0: 7d1a 81bf 36e3 8fbd 10ac 043d 708b 5a3d
000001e0: cbe4 de3c 04b4 83bf 1699 84bf 3b95 88bf
000001f0: 59c6 77bf 4053 70bf fbd3 82bf e587 89bf
00000200: 8b3f 263d e39a 0b3d 0649 e1bc 00ca bf3c
00000210: fb6c a6bc 56af bfba 4b29 643c 6644 71bf
00000220: 3e50 8bbd 262a 80bf 808c 80bf 609b cd3c
00000230: 16d5 ce3c ab04 343a 2b2d 17bc eb08 343c
00000240: 2e70 1d3d d22b a7bd 3020 a63c 3889 0fbd
00000250: 26b1 b23c cb5b 9ebc ab3e c73b f053 af3c
00000260: 9bdd babc db1b cc3c 00b6 8dba c39a 883d
00000270: 8cb9 8ebd 1625 51bc 26be 343d d702 8a3e
00000280: 852d 743e 9532 d4bf eec8 69be 75f2 0740
00000290: 8d54 793d 715e 8d3d ab01 fbbf e568 ca3c
000002a0: 76be d0bc 76b2 0ebc 0d9e 793f c610 243e
000002b0: b340 e7bc e7df dfbe 9a89 833a 5c59 e23d
000002c0: f576 8dbe caf3 a9be 3962 67be 615d 3dbf
000002d0: 2b3e 1dbd ce81 823f 2573 f3bc 2fc5 953e
000002e0: d472 9f3e 9dec 52be abd6 85be 06cd e13c
000002f0: 6411 b0be 77b4 60bf 300b ccbe ad25 d93d
00000300: eb9a 91bb ef57 733f a7af 343c 041a 083f
00000310: 0d3b 353f 7cae c5bf 458a 95be 95f6 ae3e
00000320: 6022 abbe 91c6 2fbf a1f5 313f 5b6c 36be
00000330: 36bb 3c3c d763 473f 516a 923d feb8 143f
00000340: ba38 463f 0502 97bf 3cf9 a3bf f092 9abf
00000350: aa6e b5be 4c0e da3e 3a94 613f 9f27 d3bd
00000360: c97b 7d3f 7a33 1f3e 017e 053f d88c 313f
00000370: 73b5 563f 5863 d8bf 933b 41c0 388b a1bf
00000380: 13e5 55be 0b01 e33e 05d3 3c3f feb7 e73e
00000390: 4536 873f 2a66 ec3d af32 eb3e 75d3 203f
000003a0: 2a8f a6bf 44f5 ddbf d2cc 48c0 0613 b4bf
000003b0: cacd 97be 7020 083f 956e 553f 16d4 a53f
000003c0: c400 7a3f a1ec 933d 1f51 dc3e e46c d33e
000003d0: 3ffd 19bf 989c 24c0 a6a0 4fc0 855c bcbe
000003e0: 4712 10bf 74f0 293f 7722 5f3f b282 af3f
000003f0: 2ee1 863f e052 b63e a417 133f 5b13 78bf
0.0016929607 -0.07857083 -0.0643003 0.02502358 0.077509016 -0.058552813 0.007388185 0.011578014
-0.044570804 -0.051775515 0.0053333244 -0.009703875 -0.021231603 -0.022896996 -0.07934683 -0.98773175
-0.9532754 -0.9554455 -0.965808 -0.98760027 -0.96450794 -0.92714965 0.020105928 -0.05441037
0.016685596 -0.02717952 -1.0730478 -0.97978765 -1.0385417 -1.0133768 -1.0108637 -1.1364759
-0.9405237 -1.0624092 0.042652756 -0.01091527 0.008522093 -0.9247532 -0.92602485 -0.9771136
-0.9449378 -1.0329102 -0.9595133 -1.354732 -0.9204654 -0.9308356 -1.0396008 0.07536825
-0.038932733 -1.0378189 -1.0664979 -1.0517403 -1.0824865 -1.0785593 -2.5419936 -1.6355817
-1.0805292 -1.0332687 -0.009756258 -0.025409143 0.020205995 -1.0733763 -0.98792577 -0.9372565
-1.0828097 0.15526263 -0.58852464 -1.0439503 -0.9249929 -1.0090357 -0.9718865 0.00053298473
-0.058437657 -0.9738404 -1.0597029 -0.9487549 -1.0527948 -0.3688599 -1.51051 -0.9806496
-1.0570024 -0.98777163 -0.93108374 -0.07341581 0.075433284 -1.0259583 -1.0493984 -0.97929096
-1.072889 -0.35658792 -1.0388727 -1.038264 -1.071424 -0.9882677 -0.9190884 -0.07336317
-0.028747529 -1.0109297 -0.9725883 -1.0205364 -0.96713406 -0.8594268 -0.92152536 -0.9890298
-1.036759 -0.9681107 -0.05669276 0.016772231 0.080443695 -1.0566113 -1.0414135 -1.0142721
-1.3887887 -2.003162 -1.0795909 -0.9302809 -1.0086209 -0.07025759 0.032390654 0.053355634
0.027208706 -1.0289311 -1.0359218 -1.0670542 -0.9678703 -0.9387703 -1.0220941 -1.0744597
0.040587943 0.03408326 -0.02750064 0.02341175 -0.020315638 -0.0014624398 0.013925861 -0.9424499
-0.06802414 -1.0012863 -1.0042877 0.025098503 0.025248092 0.00068671507 -0.0092270775 0.010988454
0.03843706 -0.08162655 0.02027902 -0.03504297 0.021812987 -0.01933088 0.0060804687 0.02140233
-0.022810748 0.024915626 -0.0010811687 0.066701435 -0.06968984 -0.01276519 0.044126652 0.26955292
0.2384549 -1.6577936 -0.22830555 2.1241734 0.06087165 0.06902779 -1.9609884 0.02470822
-0.025481444 -0.008709541 0.9750679 0.16022024 -0.028229093 -0.4372551 0.0010035515 0.110522
-0.2762982 -0.3319381 -0.22596063 -0.7397061 -0.038389366 1.0195863 -0.029717991 0.29252002
0.31142294 -0.20598073 -0.2614034 0.027563583 -0.34388268 -0.8777537 -0.39852285 0.10602889
-0.0044435165 0.9505605 0.011028207 0.53164697 0.7079323 -1.5443873 -0.29207054 0.34172502
-0.33424664 -0.68662363 0.69515425 -0.17814772 0.011519244 0.7788672 0.071491845 0.58094776
0.7743031 -1.1797491 -1.2810435 -1.2076092 -0.35435992 0.42589033 0.881168 -0.103102915
0.99017006 0.1554698 0.5214539 0.69355536 0.8387062 -1.6905317 -3.0192611 -1.2620611
-0.20888166 0.44336733 0.7375949 0.45257562 1.0563437 0.11542924 0.45937106 0.6282266
-1.301244 -1.7340474 -3.1375012 -1.4068305 -0.29649192 0.53174496 0.8337186 1.2955348
0.9765742 0.07222868 0.4303064 0.41294014 -0.6015205 -2.5720577 -3.2441802 -0.36789337
-0.5627789 0.6638253 0.87161964 1.371176 1.0537469 0.35610104 0.5745795 -0.96904534

bias f4 [5]
00000000: 0456 bdbf 6242 17c0 1fa2 12c0 dad2 19c0
00000010: 7ffe 88bf
-1.4791875 -2.3634267 -2.291145 -2.4034944 -1.0702666

weight f4 [10, 5]
00000000: dfa7 453f aa03 ebbe 49e4 aabe 136d a43e
00000010: 5d93 4bbd 5416 713d 5e08 c8be c8be 80be
00000020: 9435 97be e3d4 733e 996d 12bf ae7c b8bf
00000030: ffad 64bf 147c 8fbf dfae 8fbc f8eb 1b3f
00000040: 8d8a 423f 7dbb d33e 52fa a4be c2ea 76bf
00000050: c119 363e cc9c a3bc 0074 d8bd 5a25 5abc
00000060: c23f c8be 4b33 503e 16e0 73bf e9e4 88bf
00000070: ae15 ffbc 8a25 0abe 12d7 753e 25b1 d63f
00000080: aa87 f23f cc00 4d3f 9810 503d 2315 99be
00000090: eb08 b0bf 2e51 97bf ec26 43bf 86c4 99be
000000a0: fa7e 963d dc23 00be 597b 38be a826 d2be
000000b0: 7deb c73d 8194 333f 4a1b 69bf 9884 a7bf
000000c0: 0f90 a8bf 2367 683f
0.77209276 -0.45901233 -0.33377293 0.32114467 -0.049701083 0.058859184 -0.39068884 -0.25145555
-0.29533064 0.23811679 -0.5719848 -1.4413049 -0.89327997 -1.1209741 -0.01753944 0.60906935
0.7599266 0.4135398 -0.3222223 -0.9645196 0.17783262 -0.019972228 -0.10569 -0.013314569
-0.39111143 0.20332067 -0.95263803 -1.0694858 -0.031138267 -0.13490883 0.24007824 1.677281
1.8947651 0.8007934 0.050797075 -0.2989894 -1.3752722 -1.1821649 -0.76231265 -0.30032748
0.073484376 -0.1251368 -0.18015803 -0.41045117 0.09761713 0.70148474 -0.91057265 -1.3087339
-1.3168963 0.90782374

bias f4 [10]
00000000: 40a5 c53f d857 b4bd b450 7cbf 7ac0 b1bf
00000010: b14f 51be 2c0a 87bf 2473 afbf 060c 84bf
00000020: 622b 67be 8575 10bf
1.5441055 -0.08805817 -0.98560643 -1.3886864 -0.20440556 -1.0549979 -1.3707013 -1.0316169
-0.22575143 -0.5642932

weight f4 [10, 10]
00000000: 3248 b33e 2cf0 833e 70b2 5a3f 872e 0740
00000010: 701c c43d 7b2d 623f 81be 953f 20c5 5b3f
00000020: 0cf8 4c3e f126 5c3f 2d09 06bf a673 ccbd
00000030: 392a 6b3f 6196 be3e d202 6a3d 85bd a0bf
00000040: 85be 42bf abbc 863f 151b bfbd fca8 643f
00000050: 9034 a5c0 e48c 06be 7f33 30bf 21a2 34c0
00000060: 3cd2 38be 22a9 31bf c0b4 6ac0 5af5 3dbf
00000070: bc4a 0d3e 3716 b4bf 92b4 acc0 84bb 853e
00000080: 8611 87bf 51c8 33c0 a5a0 de3d c568 89bf
00000090: 3ed6 65c0 4858 87bf 720b 65be 6007 afbf
000000a0: 4211 abc0 8422 2c3e 2484 9fbf 6613 21c0
000000b0: 6cbd 553e ccbf 82bf 6f65 51c0 ec9e 80bf
000000c0: 3f37 d2bc f4ce b2bf 8758 a6c0 08c2 b2bc
000000d0: 337d 8abf d85e 2bc0 3dad 32bd 0c48 38bf
000000e0: 8d31 5bc0 df91 6fbf 3e0d 31bd be97 b1bf
000000f0: 831c b0c0 e8d8 0b3e c2df 85bf 4ad9 1bc0
00000100: 8aaf 98be 0c2b 83bf 35af 4cc0 1cd9 5dbf
00000110: e608 05bd ad1a 75bf a483 a7c0 f056 5f3e
00000120: c028 a0bf 74db 31c0 c6b3 17bc 2f04 4fbf
00000130: 9bfd 2ec0 1f50 4ebf 6483 07be bb82 a3bf
00000140: ad3e a7c0 5f91 c53d 171f a1bf 22c2 33c0
00000150: a778 1e3e 9dee 3abf de17 4dc0 345b 3abf
00000160: 6916 073e 46c2 87bf 6378 a3c0 b41d a03e
00000170: c9cf 87bf f513 39c0 9e59 3a3e 362c 6dbf
00000180: 6d01 42c0 8d2a 5fbf 70c1 32be 76d3 8fbf
0.35016018 0.25769174 0.85428524 2.1122148 0.095757365 0.8835065 1.1698762 0.85847664
0.20016497 0.8599692 -0.5235775 -0.09982996 0.918613 0.37224105 0.057131596 -1.2557837
-0.7607196 1.0526327 -0.09331337 0.8932035 -5.1626663 -0.13139683 -0.68828577 -2.8223956
-0.18048948 -0.693987 -3.667282 -0.742025 0.1379804 -1.406928 -5.3970423 0.26119626
-1.0552223 -2.8091013 0.10870484 -1.0735098 -3.5912013 -1.0573816 -0.22367647 -1.3674126
-5.3458567 0.16810042 -1.2462201 -2.516809 0.2087304 -1.0214782 -3.271816 -1.0048499
-0.025661109 -1.3969407 -5.1983066 -0.021821037 -1.0819458 -2.6776638 -0.043622244 -0.71984935
-3.4248993 -0.93581957 -0.04322552 -1.3874433 -5.5034804 0.13656962 -1.045891 -2.4351373
-0.29821426 -1.0247512 -3.1981938 -0.8665941 -0.03247919 -0.9574383 -5.2348194 0.21810508
-1.2512436 -2.7790194 -0.00925917 -0.8086576 -2.7342288 -0.80591005 -0.13233715 -1.2774271
-5.226401 0.09646868 -1.2587613 -2.808724 0.15475713 -0.73020345 -3.2045817 -0.72795415
0.13192143 -1.0606163 -5.1084456 0.31272662 -1.0610286 -2.891843 0.18198249 -0.92645586
-3.031337 -0.871743 -0.17456603 -1.1236408

bias f4 [10]
00000000: fe28 acbf 4dd3 9b40 17d7 04c0 31b6 efbf
00000010: bb98 11c0 e86d 1cc0 7b9f 01c0 6174 16c0
00000020: 5384 09c0 417d 1ec0
-1.345001 4.8695436 -2.075628 -1.8727475 -2.274947 -2.4442081 -2.025359 -2.3508532
-2.1487014 -2.476395

weight f4 [1, 1, 5, 5]
00000000: 420e 6e40 5928 8740 e8c2 8440 ada5 1f3f
00000010: 2c4f 323f b522 0640 9242 4540 54b4 5740
00000020: 388e 2240 18a1 1d40 4dbd c13e a695 0b40
00000030: 4916 02bf 3e9c b5be 1613 84bd 8090 2dbf
00000040: e7b5 a7bf 71fb 5abd a3bb 603e acba da3e
00000050: 0f15 34c0 2edd c8bf a8f7 9fbf 644c 683e
00000060: 491a 0540
3.7196202 4.2236753 4.1487923 0.62362176 0.69652057 2.0958683 3.0821881 3.3703814
2.5399303 2.4629574 0.37839738 2.1810088 -0.50815254 -0.35470766 -0.06448953 -0.67798615
-1.3102387 -0.05346245 0.21946578 0.42720544 -2.8137853 -1.5692499 -1.2497454 0.2268539
2.0797293

weight f4 [5, 144]
00000000: c6a1 5c3d e531 78bf ab1a 87bf 34b3 86bf
00000010: fbb7 6dbf f515 87bf cd5b 83bf 91ae 86bf
00000020: 05eb 86bf 6de5 86bf 92eb 87bf feff 5fbd
00000030: 9081 7fbf 600e 77bf eb17 78bf 8adb 6cbf
00000040: 22f5 74bf f73b 7cbf f65e 6dbf 0b4d 78bf
00000050: 07c9 77bf b22b 78bf 191a 88bf 2f8a 79bf
00000060: 6671 73bf e65f 86bf a8a9 7dbf 2b1f 88bf
00000070: 5d5e 72bf 8973 76bf 8162 74bf 3a7b 73bf
00000080: 6241 6dbf 589c 89bf 7aaa 7abf 46b2 78bf
00000090: 1847 6fbf 4af4 72bf bfd3 89bf 709a 81bf
000000a0: eb86 8abf 5016 88bf c799 76bf ad4e 77bf
000000b0: fa97 6ebf 5667 82bf 0815 7fbf 7ae2 85bf
000000c0: e6f1 82bf 8c73 79bf cfed 84bf 02c5 72bf
000000d0: 69c8 88bf 2176 8abf ff32 82bf d00f 74bf
000000e0: 1787 86bf 5913 7ebf 7a26 77bf 7b09 6dbf
000000f0: 6199 71bf 003a 88bf 12b5 83bf b65e 8abf
00000100: 0cc3 77bf 3faa 6fbf fe25 82bf 41b6 74bf
00000110: 7af3 7bbf 2d37 86bf 1ee0 83bf 21b8 73bf
00000120: 02aa 7fbf 1a62 6bbf 7527 86bf f33a 83bf
00000130: a74d 87bf f9a7 6cbf 0571 81bf 887c 82bf
00000140: d2d9 7cbf df56 89bf f3ba 78bf a9c9 73bf
00000150: 06a9 7dbf a6bc 7cbf 8cec 87bf 5b15 6cbf
00000160: 7c09 7cbf a3af 7cbf 288a 87bf c28f 8abf
00000170: b83b 81bf f57a 73bf e93f 8abf 4b57 7ebf
00000180: 6501 88bf 7ebc 71bf b756 81bf af2f 80bf
00000190: b584 84bf 8fd9 80bf 203f 7fbf 72fc 77bf
000001a0: f8f5 83bf 6432 72bf ef6c 86bf 858f 87bf
000001b0: 9a21 84bf eb4c 7abf dd04 7cbf 9039 76bf
000001c0: 781d 6cbf e7e4 88bf 5ba6 88bf e47a 70bf
000001d0: 4ff2 83bf daa9 86bf a1b2 84bf 9e6e 73bf
000001e0: abad 7bbf b31d 7cbf 3c1b 7cbf c5de 80bf
000001f0: ed3d 80bf 7514 71bf 38d5 70bf 9e13 8abf
00000200: eddc 76bf 2efc 80bf 1b8f 8abf fab8 85bf
00000210: 914d 72bf 91ac 76bf a3e6 83bf bc8e 7cbf
00000220: 1097 87bf cc1e 7abf ee92 77bf 43b2 7ebf
00000230: bfff 6ebf 57e7 7fbf 68a4 4a3d 6863 98bd
00000240: 7eb0 8cbd 2bf7 87bf e2f8 81bf 3e66 84bf
00000250: 27a4 73bf a2e2 85bf 2506 02c0 4212 a3bd
00000260: 3514 783f 72f8 6f3f c828 763f 167f 483c
00000270: a019 7ebf f160 6fbf 0fec 7ebf 8382 3dc0
00000280: 94ce 3ac0 f322 58bf 5e43 68c0 acfa 67c0
00000290: 14c5 55c0 1bd0 74bf 628f 6a3f 1283 0240
000002a0: c27c 6dbf eaab f9bf 3b7a 6dc0 5f09 14c0
000002b0: a6c6 3ac0 6316 a4c0 f240 4bc0 635d b1bf
000002c0: 7529 38bf 4a44 0640 9cf9 ab40 f39a 9640
000002d0: 0402 9e3d f594 88bf 0b2e f7bf 76f3 34be
000002e0: 1148 53c0 0cc2 3cc0 9b42 fd3e 0e04 623f
000002f0: 88fe 233f 4566 0940 c952 a340 5ed5 ea40
00000300: 32fc 87bf 45a8 86bf 276b 193f 43ef 36c0
00000310: 0cf2 78bf 5ccd 85be 5cea dcbe 5f13 8dbf
00000320: 30df ca3d b155 48bf 3e33 9a40 884a eb40
00000330: 1ac3 8fbd dea4 3c3c 09eb 1f40 6d3a 7040
00000340: 52e3 bf40 52c6 8540 5ab2 e13f 90f2 babf
00000350: ae88 92c0 f6ee 5ac0 536f 32c0 8231 8640
00000360: bb8e b73c 533c 8dbd fbef 4540 60d7 9840
00000370: d6eb d840 3a19 ac40 14d5 8740 77cf eb3d
00000380: 61ff 0340 b825 15c0 64ef 73c0 34c6 0bbe
00000390: bf08 7ebf d1c4 11c0 9926 f5bf 28c6 8c3f
000003a0: 9bed e63f 3bdd fe3f 5631 87bf d083 b1bf
000003b0: 0782 8c3e f9d0 0fbf b53d 1fc0 dd8a 9c3f
000003c0: b193 6cbf 63e8 01c0 12eb 6ac0 cc8d 32c0
000003d0: 780f d9bf 1edf 3cc0 ed0b 43c0 ab27 0fc0
000003e0: 5288 f4bf 8727 c2bf daf1 ffbf fbbd 7abf
000003f0: 7ccd 813c bcdd a1c0 fb8f febf 5a18 8ebe
0.053865217 -0.96951133 -1.0555013 -1.0523438 -0.92858857 -1.0553576 -1.026239 -1.0522023
-1.0540472 -1.0538765 -1.0618765 -0.054687493 -0.9980707 -0.9650631 -0.96911496 -0.9252249
-0.95686543 -0.98529 -0.92723024 -0.9699256 -0.9679112 -0.96941674 -1.0632964 -0.97476476
-0.9509491 -1.0498016 -0.99087 -1.0634512 -0.94675237 -0.9627004 -0.95462805 -0.95109904
-0.9267789 -1.0750837 -0.97916377 -0.97147024 -0.93467855 -0.94904006 -1.0767745 -1.0125256
-1.0822424 -1.0631809 -0.96328396 -0.96604425 -0.9320065 -1.0187786 -0.99641466 -1.045974
-1.0230072 -0.97441936 -1.0385073 -0.9483186 -1.068616 -1.08173 -1.0171813 -0.9533663
-1.0509976 -0.9924827 -0.96543086 -0.9259259 -0.9437466 -1.06427 -1.0289633 -1.0810153
-0.9678199 -0.9361915 -1.0167844 -0.955906 -0.9841839 -1.0485588 -1.030277 -0.95202833
-0.99868786 -0.91946566 -1.0480791 -1.0252365 -1.0570573 -0.92443806 -1.0112616 -1.0194254
-0.9876987 -1.0729636 -0.9716026 -0.95229584 -0.99086034 -0.98725355 -1.0619063 -0.92220086
-0.9845197 -0.987055 -1.0589037 -1.0825121 -1.009635 -0.9510949 -1.0800754 -0.9935195
-1.0625426 -0.9442824 -1.0104588 -1.0014552 -1.0352999 -1.0066394 -0.99705696 -0.96869576
-1.0309439 -0.9460814 -1.0501994 -1.0590674 -1.0322754 -0.9777362 -0.9844492 -0.96181583
-0.92232466 -1.0694855 -1.0675768 -0.93937516 -1.0308322 -1.0520585 -1.0367013 -0.95090663
-0.9831187 -0.9848282 -0.98479056 -1.0067984 -1.0018898 -0.9417184 -0.94075346 -1.0787237
-0.96430856 -1.0076959 -1.0824922 -1.0447075 -0.94649607 -0.96357065 -1.030476 -0.98655295
-1.0592976 -0.9770324 -0.9670857 -0.99490756 -0.9335899 -0.9996237 0.049473196 -0.07440835
-0.06869601 -1.0622305 -1.0154078 -1.0343702 -0.9517235 -1.0459788 -2.031625 -0.07962467
0.96905833 0.9373847 0.9615598 0.012237331 -0.9925785 -0.93507296 -0.99578947 -2.9610908
-2.9188585 -0.8442833 -3.6291118 -3.6246748 -3.3401537 -0.95630044 0.91625035 2.03925
-0.9276849 -1.9505589 -3.7105854 -2.313072 -2.9183745 -5.1277328 -3.175839 -1.3856624
-0.7193826 2.097918 5.37422 4.7064147 0.07715228 -1.0670458 -1.9310926 -0.17670998
-3.3012736 -2.9493437 0.49464878 0.88287437 0.6406026 2.146867 5.1038556 7.338546
-1.0623839 -1.0520102 0.59929127 -2.8583534 -0.97244334 -0.2613324 -0.43147552 -1.1021537
0.09905851 -0.78255755 4.818755 7.352848 -0.070196345 0.011513917 2.4987204 3.753566
5.996499 4.180459 1.7632554 -1.4605274 -4.5791845 -3.420835 -2.7880447 4.1935434
0.022406926 -0.068962716 3.0927722 4.776291 6.7787886 5.3780794 4.2447605 0.1151418
2.062462 -2.3304272 -3.8114862 -0.13649827 -0.99232095 -2.2776377 -1.9152404 1.0997972
1.8041261 1.9911264 -1.0561931 -1.3868351 0.27442953 -0.5617824 -2.4881413 1.2229878
-0.9241286 -2.0298088 -3.6705976 -2.7899046 -1.6957846 -2.951118 -3.047603 -2.2367961
-1.9104102 -1.5168313 -1.9995682 -0.9794614 0.015845053 -5.058317 -1.9887689 -0.27752954

bias f4 [5]
00000000: 2fc5 6dbf e9c0 13c0 22cb 88bf 9bed 82bf
00000010: 7262 87bf
-0.92879003 -2.3086493 -1.0686991 -1.0228761 -1.0576918

weight f4 [10, 5]
00000000: 1f82 423f 159d 8bbd e839 213f 22ba 153f
00000010: 0793 453f f8e6 cdbd 8ec0 3cc0 7563 dabd
00000020: 6fe6 0d3d b25b ce3e 81dc 113f 3d17 38bf
00000030: 7380 0f3f 0cd6 353f 5ba0 843e 5894 943f
00000040: fec0 31bf c1d0 b63f 90c2 2fbf 9f50 2a40
00000050: 0c9b 8b3d 982a 3abf 47b0 bf3e 29a4 b9bc
00000060: 80e1 e2bf e45a 903f 0b00 c0bd 6dbb a1bf
00000070: eae3 3f3f 7363 9d3f 47e2 563f 726a 00c0
00000080: 1429 783f edf7 6b3f 788b 2e40 6f1c 19bf
00000090: fcd1 64bf 9532 9cbf 85c5 9fbf b669 85bf
000000a0: 4571 d6be 37ca 94bf 60a6 08be a1ca 10bd
000000b0: 616c 3d3f 615d 4cbe 9b45 6dbf 0c7d 52bd
000000c0: 12d5 c03e 5198 a8be
0.759798 -0.068170704 0.6297898 0.5848714 0.7717747 -0.100538194 -2.9492526 -0.10663501
0.034643587 0.40304333 0.5697709 -0.7191046 0.5605537 0.71029735 0.25903592 1.1607771
-0.6943511 1.4282457 -0.68656254 2.6611707 0.06816682 -0.7272124 0.37439176 -0.022661285
-1.7725067 1.1277738 -0.09375008 -1.2635323 0.74957144 1.2295974 0.8393902 -2.006497
0.9693768 0.9217518 2.7272625 -0.5980901 -0.8938291 -1.2202936 -1.2482153 -1.0422885
-0.41883293 -1.1624211 -0.13344717 -0.035349492 0.739935 -0.19957496 -0.92684335 -0.051388785
0.3766256 -0.32928708

bias f4 [10]
00000000: e6e2 2abf 955e 1740 9127 f5be 9eae 0dc0
00000010: d974 05c0 edb2 47bf aa16 91be 180f 4cbf
00000020: 1c56 b7bf aa9e b5bf
-0.6675247 2.3651478 -0.4788175 -2.2137828 -2.0852568 -0.78007394 -0.28337604 -0.7971053
-1.4323153 -1.4189045

weight f4 [10, 10]
00000000: a002 eb3e c3ce c43f eda0 fe3e 1388 cebf
00000010: c5d5 e9bd fbe5 b33f 90a3 51be 51ec 3a3f
00000020: bb4a ac3f 78f3 87bf de9b de3f 1a12 b6bf
00000030: 6c98 e23f 42ef 6540 a970 08be 2956 853f
00000040: 36e2 3b3f 441b 463f 56a3 9cbf aee4 693f
00000050: 2d37 15c0 8fd6 f8c0 bf5b ebbf 91bf 49c0
00000060: 37a1 95bf 6319 b8bf 3818 28c0 3f20 5ebf
00000070: 8eaf c1be 6c09 6c3e 6b5b f8bf 2cd5 9dc0
00000080: e765 08c0 3f81 43c0 eb74 52bf c017 1ac0
00000090: 37b0 e1bf 52e4 6bbf 4f86 d9be b763 973e
000000a0: 5909 10c0 166f b3c0 f1e2 03c0 1204 56c0
000000b0: 085c 7bbf f6ae edbf 3943 e3bf d3b3 73bf
000000c0: 3b5d dabe 8fb9 923e b2eb 13c0 7787 e8c0
000000d0: 6952 f8bf 7e96 54c0 7bc4 90bf 495c babf
000000e0: 57c8 15c0 1276 69bf f4bd 07be e1de 413d
000000f0: 80d7 1fc0 0bb4 d9c0 b6c4 09c0 8426 41c0
00000100: 6ab4 43bf f5c8 e1bf 0209 fbbf 169f 37bf
00000110: a599 553b 17be 393e 4702 0dc0 b703 a5c0
00000120: ae77 00c0 ece0 38c0 d231 63bf b162 1dc0
00000130: 96c5 d7bf 5b90 77bf 1111 9abe 444a 5b3e
00000140: c6a0 eebf eb30 8ec0 a43c e2bf 431d 46c0
00000150: bdd7 52bf c78a 1cc0 2ca6 04c0 454d 71bf
00000160: f115 04be 2269 933e 2daf efbf 284e 9dc0
00000170: d5ff 09c0 bad8 32c0 dd00 86bf 91e2 24c0
00000180: e035 e1bf 831c 73bf 90e8 c3be 6041 853e
0.4590044 1.5375599 0.49732152 -1.6135277 -0.114177264 1.405456 -0.2047255 0.7301684
1.3460306 -1.0621176 1.7391317 -1.4224274 1.7702765 3.5927281 -0.13324226 1.0416919
0.73392045 0.77385354 -1.2237346 0.9136456 -2.3314927 -7.776191 -1.8387374 -3.1523173
-1.1689824 -1.4382747 -2.6264782 -0.86767954 -0.3782925 0.23050469 -1.9402899 -4.932272
-2.1312196 -3.0547636 -0.8220965 -2.4076996 -1.7631902 -0.92145264 -0.42485282 0.29568264
-2.2505705 -5.6073103 -2.0607264 -3.3439984 -0.98187304 -1.8569019 -1.775489 -0.95196265
-0.42649254 0.28657195 -2.3112607 -7.266536 -1.940015 -3.3216853 -1.1309961 -1.4559413
-2.3403528 -0.91195786 -0.13256055 0.047331695 -2.497528 -6.803228 -2.1526313 -3.0179758
-0.76447165 -1.7639452 -1.9612124 -0.7172712 0.00325928 0.1813892 -2.203264 -5.1567035
-2.0073047 -2.8887281 -0.88747895 -2.4591486 -1.6857173 -0.96704644 -0.30091146 0.21415049
-1.8642814 -4.4434714 -1.7674756 -3.095536 -0.8236044 -2.4459703 -2.0726423 -0.9425853
-0.12898995 0.28791147 -1.8725334 -4.9157906 -2.1562397 -2.794478 -1.0469013 -2.5763285
-1.7594566 -0.9496538 -0.3826337 0.2602644

bias f4 [10]
00000000: 6846 0dbf a34e 6b40 d322 adc0 c0cd b5c0
00000010: d289 c0c0 4e29 b1c0 175d b1c0 f6b6 bbc0
00000020: d51b b6c0 524e c3c0
-0.55185556 3.6766746 -5.410501 -5.681366 -6.016824 -5.536292 -5.5426135 -5.866084
-5.6908975 -6.1033106

weight f4 [1, 1, 5, 5]
00000000: 64f4 38bf 8541 13c0 4699 c0bf 5a5b ab3f
00000010: 9435 5fbe ea45 0fbf 9a6e fabf 19bb b5bf
00000020: 6c79 823f a1f7 14bf 0511 343f d3ef a6bf
00000030: 0ec8 c3bf 1fbe c7bf 7898 fdbf d246 1e40
00000040: 937a 4b3f 1f7c 463f a0b2 5f3f f8e0 9a3f
00000050: c009 3b40 c631 4940 d951 7740 3a70 4d40
00000060: d60b 7440
-0.7224791 -2.300874 -1.5046775 1.3387253 -0.21797782 -0.55966055 -1.9565003 -1.4197723
1.0193305 -0.5819035 0.7033847 -1.3041939 -1.5295427 -1.5604895 -1.9812155 2.4730725
0.7948391 0.77533144 0.87381935 1.2099905 2.92247 3.143663 3.8643706 3.2099748
3.8132224

weight f4 [5, 144]
00000000: b0f9 a93b 5a7c d3bf d909 cd3f 4bbc 9740
00000010: 825b 6140 5c52 7240 301f 8640 3a66 6640
00000020: c6ba 1540 f61f efbf 384c 82c0 acb5 7fbf
00000030: bee8 f13f fd0d 353f d7d7 1340 c8ca a840
00000040: dd45 a940 754a 8e40 62bb 5a40 d09b 0c40
00000050: ce07 1340 2e5c 99bf d043 d0bf 3eb7 80bf
00000060: 89f9 2040 eec0 1740 47e1 5040 4046 5a40
00000070: a289 6640 a10b 4e40 d50e 6940 c0c9 1040
00000080: b784 453f dbaf be3e 361a 7bbf a10f 3bbf
00000090: 85a2 7bbf d54d 183e 8089 473f 18df 893f
000000a0: d8e4 ea3e a1c5 c13f 1a4c 9d3f 0616 d23f
000000b0: cfe9 ef3e c7ed 543d 09d0 133f d6cc 00bf
000000c0: 6678 383e 1c56 e33e 882e b6bf b5d6 4e3e
000000d0: a923 5d3f 2519 04bf c5b0 ec3e 2f17 5e3f
000000e0: 13e5 9bbf 7172 febf 47b2 53bf 87d8 94be
000000f0: b75d ecbf 2d9c c03e a3a9 3bc0 3315 1dbf
00000100: b266 71bf 0d13 36bf 1a1b 133f fa0a 57be
00000110: 5ca8 cfbf 6810 1cc0 578f e6bf e00f 49be
00000120: def9 58bd 1485 f3bb 4a89 1ec0 9642 05c0
00000130: b5e7 e6bf df83 a1bf 5756 f5be 5317 24bf
00000140: 5d54 23bf a83e d73e ccfb a03e 8a29 5fbf
00000150: 68c8 6a3f 4703 5740 5696 2c3f 7416 0bbf
00000160: 0f77 28bf 23db 4c3f 5c7d a3be 0e45 0bbf
00000170: 0777 febe 5376 9d3f dbfd 0740 1781 9fbd
00000180: 2e87 3340 4468 6240 48e0 4140 bfe1 e53f
00000190: b4e3 1240 1adc 2c40 2d1b aa3f b6d3 513f
000001a0: 36f1 2140 35b3 8e3f e637 0a40 b941 893e
000001b0: 0f7b d83e 1e38 e63f beda 5740 e117 6840
000001c0: 383e 8a40 8143 6740 544d d73f 3017 1c3f
000001d0: f7c2 873f 4c21 cdbd 2440 06bf f14e 62bf
000001e0: d5ab 8abd bb67 2b40 af97 cd3f bf94 3240
000001f0: 3a26 b03f ae28 b6bc 7455 91bf d3e5 e0bf
00000200: 920b 9bbf 7544 73bf ee83 6dbf 9824 a3bf
00000210: 4347 6d3d ab10 2a3b 4c78 86bd 3e0d bc3e
00000220: aff9 e43e 942d 4ebf 22bf 54bf 5a2d 56bf
00000230: fc7c 9fbf ed30 79be e4ff 60bf 5b8f 77bf
00000240: 5bdf 4dbd cc30 01c0 6cc7 2abf 03b3 883f
00000250: c535 a3bf 354f 1bc0 2ba7 9bbf 7781 59c0
00000260: 48fd 183f 5a34 6640 77a2 d83f 201e 0b40
00000270: 2696 debf 0d82 40c0 6a19 63c0 4a5f 09c0
00000280: 487f e1bf bda3 43bf 269c 79bf ecb6 19bf
00000290: f02c a7c0 6678 26c0 6726 4f3f 3d64 9c40
000002a0: 9c14 b13f e2bb 12c0 20be 00c0 642e 48bf
000002b0: 160b 85bf 8c7b ae3f 1057 21c0 1cd3 25c0
000002c0: f209 55c0 7d8a 4bc0 24eb b93e 429e d23f
000002d0: b6a9 833b d681 73bf 55fc d33e d390 4540
000002e0: dab9 6340 22f3 a140 c136 31bd 44b1 c5bf
000002f0: b51c 14bf 9527 25c0 e7af 253e 693f e73f
00000300: 5771 83bf 98b1 fbbf 80a9 c93e b205 543e
00000310: a50f f23f ba73 0540 d7bf d9be 0a20 6fc0
00000320: 860d 8f3e c1e7 42bf c3cf 43bf 1915 4540
00000330: ee4d 4240 634e 8fbd 8705 a73e c61c 323f
00000340: 68bd ea3f 9893 c63f 3587 2abd d6ed 00bf
00000350: db2f ff3f 07b1 bb3f 5ead 1040 88c5 8140
00000360: 5516 183f 6afa 9fbf 880a 3140 a27a 3040
00000370: 7a7b 8340 289e 2d40 7863 38c0 c1e7 b3bf
00000380: bdb2 a03f b4d6 2b3e 70e5 0840 2602 64bf
00000390: 281a 8abf f000 babf 3a97 ffbe c274 a23f
000003a0: 6c01 d73f 5b3f 893f 4568 03c0 2858 00bf
000003b0: 72f0 29bf 2cca 5abf a4b4 183e 8cf4 02c0
000003c0: 87de 8e3d 9159 81bf 7b4d 07c0 275c 3bc0
000003d0: d046 35c0 ad57 f33f 8cb4 293f 518c 90be
000003e0: d622 42bf 676c e8be 64f8 873f 5935 f1bf
000003f0: a3af 713f efd4 a83d ff1a 65bf 30c0 2dc0
0.005187236 -1.6522324 1.601863 4.741735 3.5212102 3.7862768 4.191307 3.5999894
2.3395247 -1.8681629 -4.071804 -0.99886584 1.8899152 0.7072447 2.3100488 5.2747536
5.289778 4.446589 3.417687 2.19701 2.2973514 -1.1981256 -1.6270695 -1.0055921
2.5152304 2.3711505 3.2637498 3.4105377 3.6021504 3.2194598 3.6415303 2.2623138
0.7715563 0.37243542 -0.9808687 -0.7307072 -0.9829486 0.1487344 0.77944183 1.0771208
0.4587772 1.5138437 1.2288849 1.6412971 0.4685807 0.051984575 0.5773931 -0.50312555
0.18014678 0.44401634 -1.423295 0.20199092 0.8638254 -0.5160087 0.46228614 0.86754125
-1.2179283 -1.9878675 -0.82693905 -0.29071447 -1.84661 0.37619153 -2.9322288 -0.6136047
-0.94297326 -0.7112282 0.5746323 -0.21000281 -1.6223254 -2.4385014 -1.8012494 -0.19634962
-0.052972667 -0.0074316356 -2.4771295 -2.082189 -1.8039461 -1.2618369 -0.47917435 -0.6409809
-0.63800603 0.4203999 0.31442106 -0.8717276 0.91712046 3.359575 0.67416894 -0.54331136
-0.6580667 0.80021876 -0.3193158 -0.54402244 -0.49700186 1.2301735 2.124869 -0.07788294
2.8051257 3.5376139 3.029314 1.7959517 2.295148 2.700934 1.3289543 0.8196367
2.5303473 1.114844 2.1596618 0.26807955 0.42281386 1.7985876 3.372726 3.6264575
4.320095 3.613495 1.6820474 0.6097288 1.0606374 -0.100161165 -0.5244162 -0.88401705
-0.067710556 2.6782062 1.6061915 2.7903287 1.3761666 -0.022236194 -1.1354203 -1.7570137
-1.2112906 -0.9502633 -0.92779434 -1.2745543 0.05792929 0.0025949876 -0.065659136 0.36728853
0.44721743 -0.80538297 -0.83104146 -0.8366295 -1.2460017 -0.2433507 -0.8789046 -0.9670312
-0.050261836 -2.0186033 -0.66710544 1.067963 -1.2750784 -2.4267094 -1.2160391 -3.398527
0.59761477 3.5969453 1.692458 2.1737137 -1.7389572 -3.0079377 -3.5484262 -2.146441
-1.7616968 -0.7642172 -0.9750389 -0.6004474 -5.2242355 -2.6010985 0.8091797 4.887236
1.3834414 -2.2927175 -2.0116043 -0.78195786 -1.0394008 1.3631454 -2.5209389 -2.59101
-3.328732 -3.1803277 0.3631221 1.6454546 0.004018034 -0.9511999 0.41403452 3.0869644
3.5582185 5.0609293 -0.043265108 -1.5444722 -0.57856303 -2.580541 0.16180383 1.8066226
-1.0268964 -1.9663572 0.3938713 0.20705298 1.8911024 2.0851884 -0.42529175 -3.7363305
0.27940005 -0.7613488 -0.76488894 3.0794127 3.0360065 -0.06997373 0.32621405 0.69575155
1.8339052 1.5513792 -0.04163285 -0.5036291 1.9936479 1.46634 2.2605815 4.0553627
0.59409076 -1.2498295 2.7662678 2.757485 4.108823 2.712778 -2.881071 -1.4055101
1.2554547 0.16781121 2.1390038 -0.8906578 -1.0789232 -1.4531536 -0.49920064 1.2691882
1.6797309 1.072246 -2.053239 -0.50134516 -0.66382515 -0.8546474 0.14912659 -2.046176
0.069760375 -1.0105458 -2.114104 -2.9274995 -2.832447 1.9011132 0.6629112 -0.28232053
-0.75834405 -0.45395204 1.0622678 -1.8844405 0.94408625 0.08243739 -0.8949432 -2.7148552

bias f4 [5]
00000000: aa3a 343f 02c2 d7bf e4b6 793f a7df 6bbf
00000010: d17d 53bf
0.70402014 -1.6856081 0.97544694 -0.9213814 -0.82613856

weight f4 [10, 5]
00000000: b904 08be 93e1 aebe b7f8 c7be b3ab df3e
00000010: 867b 79bd e058 a3bf c84b 13bf 43a6 b4bf
00000020: bf95 31bf 55f8 b2bf 262f a93f b511 c43e
00000030: c3ba 5fc0 0550 9f3e 12d2 b0bf 5f12 ccbe
00000040: a34b 93bf f33b a2bf 0512 803e c171 92be
00000050: 9977 8bbf fe6e 96bf 761c 37bf 2db6 79bf
00000060: 545a b3bf e4d0 ffbf adfe 0940 9eaf a4bd
00000070: 8134 32bf 26c9 18bf 8c38 0f3d 477f 68bf
00000080: de98 1dc0 b820 85bf ca68 fd3e af2a 82bf
00000090: a8c8 adbf 6643 b0bf 9e35 68bf 80a3 b1bf
000000a0: c547 b0be af20 43be 0a5a 5cbf d015 e4be
000000b0: 3eec 1abc d1e8 90bf 9ac8 b1bf 682b 50bf
000000c0: 0075 cc3e 3444 94bf
-0.13283052 -0.34156474 -0.39056942 0.43685684 -0.060908817 -1.2761497 -0.5753751 -1.4113239
-0.6936912 -1.3982035 1.3217514 0.3829476 -3.495774 0.31115738 -1.3814108 -0.39857766
-1.1507457 -1.2674545 0.25013748 -0.28602412 -1.0895873 -1.1752622 -0.715278 -0.97543603
-1.4011941 -1.9985623 2.1561692 -0.08041309 -0.69611365 -0.5968193 0.034966037 -0.9081921
-2.4624553 -1.040061 0.4949401 -1.0169276 -1.357686 -1.3770568 -0.90706813 -1.3878021
-0.34429756 -0.19055437 -0.8607489 -0.44547892 -0.009455739 -1.132105 -1.3889344 -0.8131623
0.39933014 -1.1583314

bias f4 [10]
00000000: 5f6d 6cbe 9c89 17bf 2b45 3abf 5abc de3f
00000010: dc74 3ebf 4c16 fabf e921 8bbf 050d 17bf
00000020: 8f61 83bf 56a5 a6bf
-0.23088597 -0.5919435 -0.7276179 1.740123 -0.74397063 -1.9538054 -1.0869724 -0.5900424
-1.0264148 -1.3019207

weight f4 [10, 10]
00000000: 77ed 473d cdd0 423f a3f3 603f 285c 1740
00000010: ebe4 503f 375e a83f f2a2 3840 ac03 853f
00000020: 5b58 66bf 0189 7dbf d7ca 343e 2f4d 353f
00000030: 18e5 45bf 6747 07bf 28d4 4d3f 46c8 2f40
00000040: 4d04 583f 4a21 4b3f b745 4e3f b702 713f
00000050: 2a42 55be 4378 59bf 2516 5ac0 6ea3 a6bf
00000060: 7f62 98bf 5049 f3bf 7a53 e3bf 2ded a3bf
00000070: b271 5dbf 232b 983d 23a4 64bd bc9f 83bf
00000080: a689 4fc0 24b1 94bf f4fe 83bf 2677 fdbf
00000090: 570c e4bf 552f 99bf b031 61bf 30a1 9dbd
000000a0: 4d19 06be 4d3b 55bf cc50 91c0 7ccd 6ebf
000000b0: f6b2 84bf 6701 e1bf 3f4f 06c0 3676 5fbf
000000c0: a185 9abf c4d0 55be 8bee 213e 5a34 91bf
000000d0: 0549 3ac0 c4f6 87bf 2794 50bf fdfa f5bf
000000e0: 463f e0bf 66e2 5ebf d238 87bf 38f2 9abe
000000f0: 1562 92be 6fd9 a5bf 1966 80c0 500c 88bf
00000100: 0273 91bf 97ce 06c0 6ac6 05c0 0988 6abf
00000110: 22c0 88bf 4792 543e 87ec 97be d49e a7bf
00000120: b3f6 7cc0 6bbc 68bf e596 95bf ff3c 03c0
00000130: 79fc ffbf baf4 93bf 185e 94bf 3756 97bd
00000140: 58da 14be 8a11 60bf 8a4d 8ec0 0e9d a6bf
00000150: 63fc 90bf 3217 dfbf e5a6 08c0 7b90 8abf
00000160: 2e90 89bf a7f9 d33b ba68 0d3d 5da0 66bf
00000170: dcf5 6ac0 5731 47bf 2769 7dbf 56c4 e3bf
00000180: 6961 f5bf 0c68 57bf 3c51 69bf ee23 1bbe
0.04881045 0.76099855 0.8787176 2.3649998 0.815993 1.3153752 2.8849454 1.0391746
-0.8997857 -0.99037176 0.17655502 0.708209 -0.77302694 -0.52843326 0.8040185 2.7465987
0.8438156 0.7934767 0.80575126 0.9414477 -0.20826021 -0.8494913 -3.4076016 -1.3018625
-1.1905059 -1.9006748 -1.775985 -1.2806755 -0.8650161 0.07430103 -0.055820595 -1.0283122
-3.2427764 -1.1616559 -1.031218 -1.9801986 -1.7816266 -1.196757 -0.8796644 -0.0769676
-0.13095589 -0.8329361 -4.541113 -0.93282294 -1.0367115 -1.7578553 -2.0985868 -0.8728975
-1.207203 -0.20880419 0.15813653 -1.1344101 -2.9107068 -1.0622182 -0.8147606 -1.921722
-1.751931 -0.87064207 -1.0564215 -0.30262923 -0.28590456 -1.295698 -4.012463 -1.0628757
-1.1363223 -2.1063592 -2.0902352 -0.91613823 -1.0683634 0.20758925 -0.29672644 -1.3095345
-3.9525573 -0.90912503 -1.1686674 -2.050598 -1.9998924 -1.155906 -1.1591215 -0.07389491
-0.14536417 -0.8752676 -4.446965 -1.3016679 -1.1327022 -1.7428954 -2.1351864 -1.0825342
-1.0747125 0.00646897 0.034523703 -0.90088445 -3.671256 -0.7780966 -0.98988575 -1.7794292
-1.9170352 -0.8414314 -0.9113958 -0.15150425

bias f4 [10]
00000000: 5684 463f 6c0d 9140 0e6e 99c0 4f22 96c0
00000010: c2ae 91c0 e6db 85c0 f4dd 92c0 86d5 97c0
00000020: dbfa 94c0 160e 96c0
0.7754568 4.5328884 -4.7946844 -4.691688 -4.5525827 -4.183093 -4.589594 -4.744815
-4.655622 -4.6892195

weight f4 [1, 1, 5, 5]
00000000: 2a91 e53f 3be1 f7be 56b0 8bbe 9ec9 e1bd
00000010: 58d3 913f ca36 143e 66f5 9cbc b669 893f
00000020: 7079 4340 2266 1940 4d42 023f dc01 e73f
00000030: 3ed5 fe3f b276 0940 ea42 4a40 abf0 f13f
00000040: 494c 55bf 29f2 ffbf 6195 e9bf a927 29be
00000050: 513c 02c0 1762 44c0 e5de 05c0 b7a0 c3bf
00000060: b237 8bbe
1.7934926 -0.48414025 -0.2728297 -0.110247836 1.1392622 0.14474025 -0.019159984 1.0735385
3.054287 2.3968587 0.50882417 1.8047442 1.9908826 2.1478696 3.160334 1.8901571
-0.83319527 -1.9995776 -1.8248712 -0.16519035 -2.0349314 -3.068487 -2.0917294 -1.5283421
-0.2719093

weight f4 [5, 144]
00000000: 1bef df3c 5088 573d 0617 963c 5c63 a23d
00000010: f80f 70bf 4984 83bf 8393 7abf f651 c1bc
00000020: 6bb2 3abd c9ec 79bf 3e64 09bd f330 623d
00000030: 60e4 c9bc c099 18bc 6ae1 78bf 2809 82bf
00000040: 7f98 77bf 9a5d 70bf 06aa 7ebf f4c0 7fbf
00000050: 0bce 75bf d30e 81bf b3ba 04bd a0f8 c83c
00000060: 80a7 b73b 308c 85bf d8ef 6dbf 084e 8abf
00000070: bbf3 80bf 80e0 aabc 4420 80bf ccbf 83bf
00000080: b5a3 78bf fbf2 6cbf e08f c7bc ec76 a13d
00000090: f851 7fbd 1f9b 7cbf fab7 78bf 2a09 7fbf
000000a0: 77c9 82bf 610f 76bf 6782 77bf 469f 6abf
000000b0: d287 75bf 5f9e 75bf c429 80bf a7ea a03d
000000c0: 7bf3 d43c efb5 79bf 8ce4 87bf 41aa 70bf
000000d0: 9d0c 83bf 46d1 88bf 3e9a 7bbf 0524 83bf
000000e0: 49c6 7ebf 8bbb 7ebf 279a 88bf 13ac 62bd
000000f0: 3e1d 743d 2dac 89bf f911 4cbf 7110 88bf
00000100: 15e1 7bbf da49 87bf e3cf 7dbf 718b 78bf
00000110: 8e9a 82bf bde5 7ebf 09c4 6abf ece4 83bd
00000120: 50ce 48bd 14f9 84bf 134a 89bf 3854 75bf
00000130: 11bb 87bf 9e6f 84bf 5a4d 87bf b292 87bf
00000140: 498e 8abf 9893 7abf a7bd 89bf 20a6 023c
00000150: 44ea 833d 5c5d 7cbf 4646 84bf 57dc 6cbf
00000160: 7357 81bf cee2 7abf 563c 71bf 1c25 70bf
00000170: a3e1 7cbf f53c 77bf 750a 6bbf 9b29 48bd
00000180: 167b 7f3d 0dde 86bf 94fa 73bf 94cf 6cbf
00000190: 82c3 80bf 06b4 89bf 5857 83bf d251 87bf
000001a0: c4d4 85bf 320c 8abf de98 7bbf 0e36 89bf
000001b0: 82db 85bd 90b9 8d3d c798 88bf 0de5 73bf
000001c0: 0585 7ebf 25bc 6fbf f798 6cbf 67fb 88bf
000001d0: 11cb 6ebf cc10 81bf 9db2 7dbf 975a 9fbd
000001e0: 16e6 733d b605 51bd 569a 87bf d016 83bf
000001f0: 144a 73bf adfd 84bf a5c4 6dbf aea9 80bf
00000200: ad01 6cbf 0043 81bf 7e7e 85bd b602 863d
00000210: de56 113d fbb0 80bd 6b6b 313d b7d0 6cbf
00000220: c6bf 80bf cedf 81bf 34ca 77bf fbda 88bf
00000230: cece 9dbd a2a4 86bd 4656 8d3c ec87 a73d
00000240: 26ee 08bd b52b 79bf 451d 74bf 96c4 71bf
00000250: f48c 76bf b188 84bf 6d29 86bf f4db 7abf
00000260: 0521 7fbf 6a24 82bf 6221 903d 8374 963d
00000270: 2b14 dc3b af09 83bf ebec 6abf cfbf 7fbf
00000280: 0db7 80bf 176f 6bbf 073b 71bf bff6 72bf
00000290: 60ca 6abf 0c6c 8abf 251f 81bf 0094 0f3a
000002a0: 83a1 6a3d b89b 73bf 72c0 80bf 4f02 7dbf
000002b0: b52d 78bf 2097 6ebf cbb7 82bf 41d0 6abf
000002c0: a546 6fbf a60e 84bf 3373 71bf 4b0b 3cbd
000002d0: a0c8 82bf e2c6 71bf 320e 84bf 3d5a 70bf
000002e0: 1d39 89bf 6613 6cbf b43b 79bf 01e4 7fbf
000002f0: c675 80bf 39af 7bbf 4705 83bf 161a 6cbf
00000300: fc2a 7fbf 715c 81bf 80c2 85bf 03e8 73bf
00000310: 0f3d 88bf dc0c 79bf 433c 7fbf 659e 85bf
00000320: 71bf 81bf 8c57 86bf 4b59 87bf 625c 70bf
00000330: 2775 6cbf fb41 77bf f01c 80bf d1a7 79bf
00000340: d086 70bf f720 81bf 0d54 86bf 06f0 78bf
00000350: 4fe4 81bf 0d6e 85bf 97b7 71bf aaab 77bf
00000360: febc 6cbf 8d40 86bf cecd 73bf 6f7d 7abf
00000370: 18e0 71bf 86cd 7ebf b8f7 84bf 7c32 74bf
00000380: 5dc3 85bf eaba 87bf e9a7 7fbf bc23 86bf
00000390: 6887 713d 59f7 82bf 598f 81bf 7158 83bf
000003a0: 6490 70bf 8d55 6ebf 18b6 7cbf 9e59 84bf
000003b0: 688f 84bf 2225 8abf d255 76bf afd3 76bf
000003c0: eeeb 5a3d 7c1a 85bf fd99 87bf 5bff 85bf
000003d0: f131 7abf 5bc4 6dbf edd1 6bbf f861 76bf
000003e0: 17e1 71bf f135 89bf 319f 81bf d461 84bf
000003f0: 5026 ecbc 9673 bf3b 61ca 70bf b07a 82bf
0.027335694 0.052620232 0.018321525 0.079291075 -0.93774366 -1.0274745 -0.97881335 -0.023598652
-0.04558031 -0.9762693 -0.033542864 0.055222463 -0.02464503 -0.009314001 -0.97218955 -1.0159044
-0.96717066 -0.93892825 -0.99478185 -0.999038 -0.9601752 -1.0082649 -0.032404613 0.024532616
0.0056046844 -1.0433407 -0.929441 -1.0805063 -1.0074381 -0.020859003 -1.0009847 -1.0292907
-0.971248 -0.9255826 -0.024360597 0.07884011 -0.06233403 -0.98674196 -0.97155726 -0.9962336
-1.0217732 -0.96117216 -0.96683353 -0.9164928 -0.9591037 -0.9594478 -1.0012746 0.078572564
0.025995007 -0.97543234 -1.0616622 -0.94009787 -1.0238224 -1.0688865 -0.9828223 -1.0245367
-0.9952131 -0.9950492 -1.0672044 -0.055339884 0.0595982 -1.0755669 -0.79714924 -1.0630018
-0.9839032 -1.0569413 -0.99145335 -0.9708777 -1.0203416 -0.995693 -0.91705376 -0.06440148
-0.04902488 -1.0388513 -1.0725731 -0.9583163 -1.0603963 -1.0346563 -1.0570481 -1.0591643
-1.0824672 -0.9788146 -1.0761002 0.007974178 0.06441167 -0.98579955 -1.0333946 -0.9252371
-1.0104812 -0.98002326 -0.9423269 -0.93806624 -0.98781794 -0.9657739 -0.9181283 -0.048867803
0.062373243 -1.0536515 -0.95304227 -0.9250424 -1.0059664 -1.0758064 -1.026103 -1.0571845
-1.0455556 -1.0784972 -0.9828013 -1.0719621 -0.065360084 0.06920159 -1.0671624 -0.9527138
-0.9942172 -0.9364646 -0.92420906 -1.0701722 -0.93278605 -1.0083251 -0.9910067 -0.077809505
0.0595456 -0.051030837 -1.0593975 -1.0241337 -0.9503491 -1.0389916 -0.9287818 -1.0051782
-0.9219006 -1.0098572 -0.06518267 0.06543486 0.035483234 -0.06283756 0.043315332 -0.92505974
-1.0058525 -1.0146425 -0.9679291 -1.0691828 -0.077054605 -0.0657437 0.017253052 0.08180222
-0.03343024 -0.97332317 -0.9535716 -0.9444059 -0.9630883 -1.0354215 -1.0481392 -0.9799187
-0.9965976 -1.0167363 0.07037617 0.073464416 0.0067162714 -1.023733 -0.9176776 -0.9990205
-1.0055863 -0.91966385 -0.94230694 -0.94907755 -0.9171505 -1.0814223 -1.008763 0.0005477071
0.057282936 -0.9515948 -1.005873 -0.9883165 -0.96944743 -0.9319935 -1.0212339 -0.9172402
-0.9346717 -1.031697 -0.94316405 -0.045909207 -1.0217476 -0.94444096 -1.0316832 -0.9388769
-1.0720555 -0.922171 -0.97356725 -0.9995728 -1.0035942 -0.98314244 -1.0235986 -0.92227304
-0.99674964 -1.0106336 -1.0449982 -0.95275897 -1.0643634 -0.97285247 -0.9970133 -1.0438963
-1.0136548 -1.0495467 -1.0574125 -0.93890965 -0.9236626 -0.96585053 -1.0008831 -0.9752169
-0.9395571 -1.0088185 -1.04944 -0.97241247 -1.0147799 -1.042421 -0.9442076 -0.96746314
-0.9247588 -1.0488449 -0.9523591 -0.97847646 -0.94482565 -0.99532354 -1.0388098 -0.95389533
-1.0450245 -1.0603917 -0.99865586 -1.0479655 0.058967024 -1.0231735 -1.0121871 -1.0261365
-0.9397032 -0.9309929 -0.98715353 -1.0339849 -1.0356264 -1.0792582 -0.962247 -0.96416754
0.053447656 -1.0398707 -1.0593868 -1.0468553 -0.97732455 -0.9287774 -0.92117196 -0.9624324
-0.94484085 -1.0719587 -1.0126706 -1.0342355 -0.028826863 0.0058426363 -0.94058806 -1.0193691

bias f4 [5]
00000000: 520b 8abf 57a8 70bf 8afc 84bf 163e 88c0
00000010: e56f 6cbf
-1.0784705 -0.94006866 -1.0389569 -4.257579 -0.9235824

weight f4 [10, 5]
00000000: f9fe d9bd 713f be3e 24fc 54be d378 61bf
00000010: ebbd ab3e f6c6 443f e170 923f dc78 9c3f
00000020: 9238 4ebe 0574 673f 3412 8abe 301d f83c
00000030: 233f 3cbe 6d23 563f 7c0b 553b 157a 253d
00000040: fc24 2cbe 7e32 9ebe 3284 5fbd 7687 aabe
00000050: 2727 963f 238b 2d3f f11e 0fbe 598b 813f
00000060: db5b 723f 6887 833f c7d3 823f 75ad 0ebf
00000070: be0f 5d3e 2d4f 363f b325 693f d0a0 493f
00000080: 556b 6a3e 4fb2 653f d9ba 853f cce4 95bd
00000090: dd34 2c3d cfd2 22be 1a01 66bf c4ae c03d
000000a0: 2581 5bbf 1be3 873f 7ede 8d3e 4f88 353f
000000b0: fb86 273f 7ce5 343f ee12 813f 5759 8fbe
000000c0: 5f03 cdbf 0c3e 843f
-0.10644335 0.37157777 -0.20799309 -0.8807499 0.33543333 0.7686609 1.1440698 1.2224383
-0.20138767 0.90411407 -0.26967013 0.030287355 -0.1838346 0.83647805 0.0032508066 0.04039963
-0.16810983 -0.30897897 -0.05456943 -0.33306473 1.1730698 0.6779043 -0.13976647 1.012065
0.9467141 1.0275698 1.0220879 -0.55733424 0.21588036 0.7121456 0.9107315 0.78761005
0.22892506 0.897252 1.0447646 -0.0731903 0.0420426 -0.1590073 -0.8984543 0.09408334
-0.85743934 1.0616182 0.2770881 0.70911115 0.6544034 0.70662665 1.0083902 -0.27997848
-1.6016654 1.0331435

bias f4 [10]
00000000: 13e5 b3bf 4130 2d40 12cd b5be 61b4 77bf
00000010: b0b2 0cc0 eb9c ed3f cd8d 783f b33a 8cbf
00000020: 3511 2e3d 0463 e53d
-1.4054283 2.7060702 -0.3550802 -0.9675961 -2.1984062 1.8563513 0.9709137 -1.0955414
0.04249688 0.11200526

weight f4 [10, 10]
00000000: ab50 723f 8123 bf3f d902 0dbe 1f88 dbbd
00000010: 6e65 3f40 b4e6 ce3f 6507 0940 1c3f 713f
00000020: b650 0a40 416d d83f b604 38bf 95e9 0a40
00000030: cd25 933e a8e3 cc3e df03 343f de1a e83f
00000040: 0265 d73f dd8d 54bf 012b c33f b90a f03f
00000050: 38a5 9ebe 3989 ecbf fae9 7e3d 970b ae3d
00000060: 708d c5bf 88e4 dabf 6f20 dcbf ef96 353c
00000070: 0a9b c8bf 6d8e c9bf 03b2 ee3c e33f fcbf
00000080: b907 31be d6d2 72be 676d ddbf 0ef1 d1bf
00000090: cdf0 cabf 0de1 91be 21ad fabf 2823 d1bf
000000a0: d9ca 643e 78c8 d6bf 06b7 fcbd 1cca 953e
000000b0: ca0e fdbf a2f0 e3bf 87fe 04c0 5a41 88be
000000c0: baa7 cfbf 8a9a b6bf e2fe 86be ae35 c1bf
000000d0: 59fe 063e 5eb9 98be d1c1 fcbf 54b8 e5bf
000000e0: b80f 04c0 f5bf b4bd 708e 07c0 cff1 e5bf
000000f0: c96e 343d 63f5 efbf 8df5 5ebe 52f9 523e
00000100: 0365 b7bf 6404 f1bf 2259 edbf 4400 99bd
00000110: abc3 fdbf 3b48 ecbf b02e 01be ce1e f8bf
00000120: 098e 7f3e 561d 5f3d 3936 e2bf c9eb edbf
00000130: ad3b f0bf 782f ca3d 132d d0bf 849d bfbf
00000140: 5dd4 96be 9566 ebbf f631 a2be 7242 9b3e
00000150: a0ad f6bf 755b ddbf 441c fdbf aa25 e13b
00000160: 87a4 fcbf 18ff cbbf d275 253e df4b bdbf
00000170: 2232 67bd c23c e2bd a91a d7bf 1405 ddbf
00000180: 65a9 03c0 23eb 9b3e 79f6 07c0 b4c3 bebf
0.9465434 1.493271 -0.13770618 -0.107193224 2.9905658 1.6164155 2.1410763 0.9423692
2.1611762 1.6908342 -0.7188219 2.1705067 0.28739777 0.40017438 0.70318407 1.8133199
1.68277 -0.83028966 1.5247499 1.8753272 -0.30985427 -1.8479377 0.062234856 0.08498304
-1.5433788 -1.7100992 -1.7197398 0.011083349 -1.5672314 -1.574659 0.029137617 -1.9706997
-0.17288102 -0.2371324 -1.7299012 -1.6401689 -1.5854737 -0.28492013 -1.9584085 -1.6338854
0.22343005 -1.6779928 -0.123395965 0.2925576 -1.9770138 -1.780781 -2.078035 -0.2661236
-1.6223061 -1.4265912 -0.26366335 -1.5094507 0.13182963 -0.29828924 -1.9746648 -1.7946877
-2.0634594 -0.088256754 -2.1180687 -1.7964419 0.044050965 -1.8746761 -0.21773358 0.2060292
-1.4327701 -1.8829465 -1.8542826 -0.07470754 -1.9825338 -1.8459543 -0.12615466 -1.9384401
0.24956526 0.054471336 -1.7672797 -1.8587581 -1.8768212 0.09872335 -1.6263756 -1.4969945
-0.29458895 -1.839068 -0.31678742 0.3032413 -1.9271736 -1.7293535 -1.9774251 0.006870945
-1.973771 -1.5937223 0.16158226 -1.4788779 -0.056444295 -0.11046745 -1.6805011 -1.7267175
-2.057214 0.30452833 -2.1244185 -1.4903474

bias f4 [10]
00000000: a38e 943e 4fd0 5640 62ca f6bf 35d7 e9bf
00000010: 7768 ccbf 21ce e1bf 70a6 d6bf a781 b9bf
00000020: 488f c4bf e887 ccbf
0.29015073 3.3564641 -1.9280512 -1.8268801 -1.596938 -1.764103 -1.6769543 -1.4492692
-1.5356226 -1.5978975

weight f4 [1, 1, 5, 5]
00000000: 3d98 043f 6fa5 bb3f f91a 2340 4bb1 1640
00000010: c88c 99be ea83 4dbf 4b66 a1bd 3dd9 c83f
00000020: 8c50 0c40 c2ab 8ebe 6b34 bbbf 973d f4bf
00000030: beb2 4a40 8a2f 5040 71a7 443f c79c c5bf
00000040: 12fb d53d d3d1 3740 d712 0940 b9cc a33f
00000050: fc2e 96bd b955 563f 8b9d 1040 8bd0 de3f
00000060: aa52 2940
0.517948 1.4659861 2.5485213 2.354571 -0.2999022 -0.8027941 -0.07880839 1.5691296
2.1924162 -0.27865416 -1.4625372 -1.9081296 3.1671596 3.2529016 0.76817995 -1.543847
0.104482785 2.8721817 2.141775 1.2796851 -0.0733318 0.8372455 2.2596157 1.7407392
2.6456704

weight f4 [5, 144]
00000000: d83d 91bd a7b7 a3bd b0be 4f3d 5681 453a
00000010: 5a4d 87bd 43e9 bdbf 3a22 7abf 5f95 80bf
00000020: ce2c 6b3f 6dd0 6e3f c702 843f 7c54 773f
00000030: b4d7 8abd c898 753d d6c6 8f3c 385c 273d
00000040: d602 28bf f686 0bbe cfb8 ecbf 29dd 11c0
00000050: 693f b6be c36b 74bf 6332 783f eb99 7a3f
00000060: a0b3 963d 2c5f 31bf 89f7 1e3f 752a c93f
00000070: 4d16 36c0 b5ba 00bf 1228 09bd 2ee1 443f
00000080: d95d 39c0 a01d 62bf dfe8 243f b83b 843f
00000090: dc23 9c3d 5a9e ccbf 792e 0ec0 e040 8ac0
000000a0: a9b2 7bc0 a6f7 7cc0 0a50 97c0 def0 4ec0
000000b0: ebe9 81c0 376d 1cbf 5204 2a3f 4c72 7f3f
000000c0: 261f b0bf 7b15 85bf 6c3a 40c0 41e7 c4c0
000000d0: 8235 5dc0 f059 26c0 676b 5bc0 1876 27c0
000000e0: 6374 21c0 dc36 34c0 a796 953f 37d5 ed3f
000000f0: d51d 73bf 28e5 aabf 4f35 0cc0 0342 a8c0
00000100: a954 9d3f cf7e e83f 9cb8 d3bf a5ea 78c0
00000110: af9e 3dc0 74ef 78c0 442a 88bf 960e 813f
00000120: 2370 48bc a6d8 04c0 0d2c 17c0 39f0 b1bf
00000130: 6baa 463f 7e8d bfbf ec79 5bc0 4c4a 24c0
00000140: 0407 6dc0 5dd7 f7bf 47f3 76bf 7626 843f
00000150: 360c 9abd d8b9 7bbf 1ac5 8040 4d6e fd3f
00000160: 53c6 16bf 65a3 06c0 98c9 67c0 a2db c3bf
00000170: cd00 1abf 8383 1c3f 8c70 72bf b83b 7fbd
00000180: 73d0 3ebd 5f5b 9d3d e11b 5e3f b4af 13bf
00000190: 81a9 a9c0 6213 c2c0 1bef 7fc0 9429 02c0
000001a0: 3a02 4a3f ffed 993f 0961 6d3f abb3 773b
000001b0: 0879 a23d 41fe 26c0 336c fc3e a5ec 29c0
000001c0: 8e7c 67c0 5563 3ac0 8c04 24c0 5c26 e13f
000001d0: bcc4 0fbf b40c fc3f f2bb 1640 f702 853d
000001e0: 64b0 a5bd 279a febe 41fc cabf d576 67c0
000001f0: 454f 08c0 33d6 d5bf ea37 40bd 4aaa f6bf
00000200: 0dd0 36c0 b98a 2bbf 0674 873d c04b 09bd
00000210: 838d 023d ea13 703f e43a 833f 7565 d7bf
00000220: dabf bebf 9646 aebf b199 b4bf faa0 d1be
00000230: 3d84 65bf d748 373d db85 6f3d 3bd9 bb3c
00000240: 1bd6 89bf 7b8b 6ebf 91e5 78bf 9f05 89bf
00000250: 72d3 89bf a7ad cb3c 1aa8 2b3d d322 813d
00000260: 5806 0dbd f044 0abd 94e8 93bc 974b 953d
00000270: c2ac 71bf e37d 89bf a6bf 73bf bed2 f23b
00000280: 3e39 ccbb b5a1 553c 24c1 963d 46f0 7f3d
00000290: f215 a93d c413 0d3e 99ae 24bd 2a2d 0fbd
000002a0: a05d 88bf 0c23 7dbf 1471 373d 54a5 413d
000002b0: a67d 53be bc70 94be e0a3 54bc 226e d0bd
000002c0: bda4 d8be a267 24be f10e 123c 02b3 03bd
000002d0: 5b37 71bf 7729 ddbe a03a 98bf 9fb9 9cbf
000002e0: 9f1f 99bf d169 9cbf 0b1d a3bf 2f33 bebf
000002f0: 572c 9fbf a0fe 92bf d9e4 7cbf 897e e2be
00000300: 4f59 d4be 2304 a5bf 5568 babf fdb6 92bf
00000310: 7ef5 98bf 5941 acbf c5be b0bf 78c4 c1bf
00000320: 8f74 a9bf 226d a0bf 5c3a a2bf 0ebd 1cbf
00000330: 10e8 d7bf db24 a7bf 21b3 bbbf d4e9 b9bf
00000340: 3e5a 75bf d3b8 8cbf a471 a3bf d9d7 a1bf
00000350: 7e18 9ebf c06c abbf 871f a5bf 6340 98be
00000360: cabe 8abf da2f 0abf c747 9bbf df2b a8bf
00000370: 8016 8cbf 52e7 93bf de45 2abf 27b7 96bf
00000380: f856 adbf 840e a4bf 119f a2bf a2b5 88be
00000390: 69a1 82bf 543f ecbd 993c 81bf 4fbe 97bf
000003a0: 7a18 39bf 0c6a abbe 2c6d 97bf 4426 9bbf
000003b0: cb7b 92bf 2e1d a8bf 14d8 79bf 6f92 48be
000003c0: fa0f 743d be70 643d 3cee d2be 82d0 9fbe
000003d0: ec0d d7bc 2af6 3cbf af4c afbf 9e9f 8cbf
000003e0: d7a6 a4bf 0b17 96bf 22b4 d3be 0f1b d93b
000003f0: b5eb 82bf 3f10 7abf fa3d 7fbd d2a4 943d
-0.07091874 -0.07994013 0.050718963 0.0007534226 -0.066065505 -1.4836811 -0.97708476 -1.0045584
0.9186524 0.9328678 1.0313348 0.9661329 -0.06779423 0.059960157 0.017550867 0.04085943
-0.6562933 -0.13625702 -1.8493899 -2.2791235 -0.35595253 -0.9547693 0.96951884 0.9789111
0.073584795 -0.69285846 0.6209646 1.5716082 -2.8451111 -0.5028489 -0.03348548 0.76906097
-2.896353 -0.88326454 0.64417833 1.0330725 0.07624027 -1.5985825 -2.2215865 -4.3204193
-3.9327796 -3.9526153 -4.7285204 -3.2334514 -4.0598044 -0.6110415 0.6641284 0.9978378
-1.3759506 -1.039718 -3.0035658 -6.153229 -3.4563909 -2.5992393 -3.4284303 -2.6165829
-2.5227287 -2.8158484 1.16866 1.8580693 -0.94967395 -1.3351183 -2.1907537 -5.258058
1.2291461 1.8163699 -1.6540713 -3.8893216 -2.9628103 -3.889615 -1.0637898 1.0082576
-0.012233767 -2.0757232 -2.3620636 -1.3901435 0.7760379 -1.4965055 -3.4293165 -2.5670347
-3.7035532 -1.9362599 -0.9646496 1.0324237 -0.0752186 -0.9833045 4.0240602 1.9799286
-0.5889637 -2.1037228 -3.6216793 -1.5301402 -0.6015747 0.6113817 -0.9470298 -0.06231281
-0.04658551 0.07683443 0.8676129 -0.57689977 -5.3019414 -6.064866 -3.9989688 -2.0337877
0.7890965 1.2025756 0.9272619 0.00377963 0.07933241 -2.6092684 0.493013 -2.6550686
-3.6169772 -2.9123127 -2.5627775 1.7589831 -0.5615957 1.9691377 2.3552213 0.06494706
-0.080902845 -0.49726984 -1.5858232 -3.616628 -2.1298382 -1.6705993 -0.046928324 -1.9270718
-2.8564484 -0.6700855 0.066139266 -0.033519506 0.031873237 0.93780386 1.0252347 -1.6827837
-1.4902298 -1.3615291 -1.4109403 -0.40943128 -0.89654905 0.0447472 0.058477264 0.022930732
-1.0768465 -0.9318158 -0.9722529 -1.070484 -1.0767653 0.024863077 0.04190836 0.0630547
-0.034429878 -0.03375715 -0.018055238 0.07289808 -0.9440423 -1.0741543 -0.9521431 0.0074103763
-0.0062324097 0.013039042 0.073610574 0.062485002 0.08256139 0.13777071 -0.04020557 -0.03495518
-1.0653572 -0.988816 0.044785574 0.04727681 -0.206534 -0.2899226 -0.012978524 -0.10177256
-0.42313185 -0.16055158 0.008914695 -0.032153137 -0.9422509 -0.43195698 -1.1892891 -1.2244147
-1.1962775 -1.2219793 -1.2743238 -1.485937 -1.2435406 -1.1483955 -0.98786694 -0.44237164
-0.41474387 -1.2891887 -1.456309 -1.1462094 -1.1949918 -1.3457443 -1.3808218 -1.5138083
-1.3238696 -1.2533305 -1.267406 -0.61225975 -1.6867695 -1.3058122 -1.4664041 -1.4524484
-0.95840824 -1.0993904 -1.2769055 -1.2643996 -1.2351224 -1.3392563 -1.2900246 -0.29736623
-1.0839474 -0.53979266 -1.213128 -1.3138388 -1.0944366 -1.1554968 -0.6651286 -1.1774644
-1.3542166 -1.281693 -1.2704793 -0.26701075 -1.0205508 -0.115355164 -1.0096618 -1.1854953
-0.72302973 -0.33479345 -1.1830192 -1.2121053 -1.1444029 -1.3133905 -0.97595334 -0.1958711
0.05958555 0.05577158 -0.41197383 -0.31213766 -0.026251756 -0.73813117 -1.3695277 -1.0986211
-1.2863415 -1.1725782 -0.41348368 0.00662554 -1.0228182 -0.9768104 -0.062314965 0.072579995

bias f4 [5]
00000000: efb8 01c0 2852 6bbf 207f 29bf d003 6940
00000010: fd18 49bf
-2.0269125 -0.91922235 -0.662096 3.6408577 -0.78553754
