models/pre_trained/mnist_pre_trained_10_5_09_14_27_36_58_expert_model.pt (torch, 70335 bytes, 70 tensors)

weight f4 [1, 1, 5, 5]
2.9520226 2.852333 1.1199899 -0.7944744 -0.36111102 3.7420669 0.88780564 1.27426
-0.26095617 -1.0525217 4.61931 2.0471704 2.1273797 -0.25409323 -1.1611154 0.74218845
3.301869 2.7404144 0.5935682 1.0561575 -0.32760876 2.2533188 3.4315984 1.6850295
2.6365747
00000000: f0ed 3c40 a08c 3640 d45b 8f3f ad62 4bbf
00000010: 8be3 b8be 067e 6f40 3b47 633f f41a a33f
00000020: 0c9c 85be 08b9 86bf 63d1 9340 d704 0340
00000030: fd26 0840 8218 82be 6e9f 94bf 1000 3e3f
00000040: d251 5340 f362 2f40 16f4 173f 2b30 873f
00000050: 56bc a7be 6036 1040 4f9f 5b40 0caf d73f
00000060: a4bd 2840

weight f4 [5, 144]
-1.9560466 -2.011093 -2.0379624 -1.9435747 -2.007079 -2.071197 -2.0071466 -2.0166302
-0.9930904 -1.0978409 -0.95330065 -1.9493163 -2.0817792 -2.046265 -1.9928722 -1.9506952
-2.0554867 -2.0622995 -1.9775869 -3.0552185 -1.0700221 -0.9951772 -1.0156417 -1.1139972
-2.0627913 -2.0784397 -1.1010518 -0.9869391 -1.0593674 -1.0573179 0.043353725 -0.0464274
-1.0648247 -0.951042 -1.0148427 -1.0395952 -2.070765 -1.9624045 -1.1120287 -1.0299574
-3.0630932 -2.88731 1.7766253 1.2196568 -2.136986 -1.072954 -1.0204203 0.90880466
-1.9462461 -1.9181286 -2.016976 -1.0179275 -2.934132 -0.016626555 -0.6225069 3.1078289
-0.0073722685 -0.91655684 -1.062445 0.9780259 -1.9688878 -2.0351934 -3.0211396 -0.70917463
1.5107266 -1.0477378 -0.8711517 2.9942958 -3.015599 -1.0031476 -0.9430525 0.9205412
-2.0123527 -1.9588249 -2.952781 -2.9582994 -0.6669786 0.9479664 0.945865 0.28656006
-3.0130587 -1.0435191 -1.0480369 0.9966053 -2.0260215 -1.9975698 -1.0017443 -1.053548
-0.9122651 -1.0169294 -0.8615111 -1.0273303 -2.9940107 -0.97338545 0.99106985 1.0271249
-1.0285522 -1.0789322 -1.0567644 -0.9168905 0.79221946 0.8828742 -0.98868877 -0.9660519
-2.9811828 -1.0315233 0.9261967 0.06358167 -0.9838867 -1.0181483 -1.0259291 -1.0627348
-1.4107065 -0.9652336 -0.90053356 -0.93004745 -2.933418 0.9007346 -0.035750996 0.046266846
-1.9711107 1.0746493 -1.0320258 -1.0116622 -0.9563924 -1.0617235 -0.9657688 -0.9313176
-0.94867796 -0.9713864 -0.041634493 -0.03197924 -2.053759 -1.1003916 -0.9447855 1.042622
1.0174546 0.9121089 -0.9714225 -1.0264547 0.0032282227 -0.008028914 -1.9320843 -1.9777424
-0.05317563 -0.008393794 -0.050892156 0.06746803 -0.060029857 -0.045688957 -0.9546626 -0.9304874
-1.0699028 -0.9888535 -0.97211975 0.05003051 -0.007162571 -0.05012407 1.0108632 0.92746294
0.9954896 1.6675717 0.8738036 -2.5453255 -3.5357275 -1.7348714 -1.0102596 0.033979416
0.005607277 0.90763795 1.0736566 -1.0563978 -2.5379112 -0.1722503 -1.7539986 -2.2886424
-0.5338227 -0.7976315 -0.82107013 -1.0712998 -0.031152865 0.9919518 0.97281426 -2.0410507
-1.2381917 -2.8068871 -1.7458035 -1.3069667 -1.4642296 0.689907 -1.592603 -1.7366827
-0.07886796 0.93265057 -0.59040046 -0.8278724 -0.71730745 -1.5500699 -0.902331 -0.83954597
-0.6399515 0.86769974 0.4022297 -0.657685 -0.024492433 1.0465363 0.7312578 1.6134465
0.14808752 2.440011 4.0323763 2.3346603 1.9621915 -2.7963264 0.2558252 -2.073717
1.0429478 2.4085927 0.43909484 1.3986157 2.883684 0.6963315 2.766388 5.338374
2.9529588 0.012296005 -0.7745003 -2.9834461 -1.0476981 -0.25035828 -0.47784424 -3.3632302
2.0687156 0.6924532 3.8552258 5.992311 4.5706477 -0.78816795 -2.0673347 -3.913931
-0.917704 -1.0597022 -4.639701 -4.8098054 -4.175314 -2.4421139 2.3400805 5.5495577
0.90012115 -2.748693 -1.0462437 -1.9356548 -0.93568283 -0.96580714 -4.2409472 -5.964665
00000000: bc5f fabf bfb5 00c0 fa6d 02c0 0ec7 f8bf
00000010: fb73 00c0 7e8e 04c0 1775 00c0 7810 01c0
00000020: 2c3b 7ebf 0d86 8cbf 830b 74bf 3283 f9bf
00000030: df3b 05c0 01f6 02c0 7016 ffbf 61b0 f9bf
00000040: 188d 03c0 b7fc 03c0 9121 fdbf b388 43c0
00000050: 7cf6 88bf efc3 7ebf 8c00 82bf 7697 8ebf
00000060: c604 04c0 2805 05c0 44ef 8cbf 0aa8 7cbf
00000070: 5a99 87bf 3156 87bf ad93 313d a82a 3ebd
00000080: 2d4c 88bf 7d77 73bf 5ee6 81bf 7511 85bf
00000090: 6a87 04c0 1230 fbbf f556 8ebf a5d5 83bf
000000a0: b809 44c0 b0c9 38c0 7568 e33f b71d 9c3f
000000b0: 61c4 08c0 8f56 89bf 229d 82bf 6ca7 683f
000000c0: 981e f9bf 3d85 f5bf 2316 01c0 734b 82bf
000000d0: d2c8 3bc0 6a34 88bc 9d5c 1fbf abe6 4640
000000e0: 1293 f1bb 78a3 6abf 33fe 87bf e85f 7a3f
000000f0: 8404 fcbf 9c40 02c0 5a5a 41c0 788c 35bf
00000100: 7d5f c13f 461c 86bf cc03 5fbf 8ba2 3f40
00000110: 93ff 40c0 2467 80bf e36b 71bf 97a8 6b3f
00000120: 63ca 00c0 c6ba fabf 5dfa 3cc0 c754 3dc0
00000130: 1cbf 2abf edad 723f 3524 723f 00b8 923e
00000140: f4d5 40c0 0992 85bf 1326 86bf 8621 7f3f
00000150: 56aa 01c0 5eb0 ffbf 2839 80bf a9da 86bf
00000160: 358a 69bf be2a 82bf fe8b 5cbf 8f7f 83bf
00000170: df9d 3fc0 ca2f 79bf c1b6 7d3f d478 833f
00000180: 99a7 83bf 731a 8abf 0e44 87bf 56b9 6abf
00000190: e5ce 4a3f 0b04 623f b51a 7dbf 2d4f 77bf
000001a0: b3cb 3ec0 f508 84bf 3a1b 6d3f 1b37 823d
000001b0: 00e0 7bbf af52 82bf a551 83bf b207 88bf
000001c0: 0892 b4bf 8d19 77bf 5e89 66bf 9717 6ebf
000001d0: 1fbd 3bc0 8b96 663f a36f 12bd 4e82 3d3d
000001e0: 5b4d fcbf 1c8e 893f 6c19 84bf 267e 81bf
000001f0: 22d6 74bf 8ee6 87bf a03c 77bf d56a 6ebf
00000200: 8fdc 72bf c7ac 78bf ee88 2abd aafc 02bd
00000210: ca70 03c0 a2d9 8cbf 76dd 71bf a374 853f
00000220: f43b 823f f87f 693f 25af 78bf de62 83bf
00000230: 9790 533b b58b 03bc 8a4e f7bf aa26 fdbf
00000240: b0ce 59bd 2086 09bc 4b74 50bd ae2c 8a3d
00000250: dee1 75bd 5824 3bbd c564 74bf 6c34 6ebf
00000260: 93f2 88bf 8125 7dbf d7dc 78bf cbec 4c3d
00000270: 00b4 eabb e64e 4dbd f763 813f 366e 6d3f
00000280: 68d8 7e3f fd72 d53f 98b1 5f3f 9de6 22c0
00000290: 5c49 62c0 4410 debf 3050 81bf 002e 0b3d
000002a0: 40bd b73b f65a 683f 946d 893f 0b38 87bf
000002b0: 236d 22c0 6262 30be 0783 e0bf 1e79 12c0
000002c0: 9ba8 08bf 9431 4cbf a731 52bf 5a20 89bf
000002d0: 4b34 ffbc 8ef0 7d3f 5b0a 793f 93a0 02c0
000002e0: 117d 9ebf 0aa4 33c0 7d76 dfbf af4a a7bf
000002f0: e06b bbbf bf9d 303f 6ada cbbf 9e4b debf
00000300: 8685 a1bd 30c2 6e3f 7c24 17bf 72ef 53bf
00000310: 76a1 37bf b168 c6bf 2aff 66bf 7cec 56bf
00000320: ddd3 23bf 9221 5e3f 0df1 cd3e 0b5e 28bf
00000330: 5ba4 c8bc e7f4 853f b633 3b3f 6a85 ce3f
00000340: 41a4 173e 2429 1c40 3a09 8140 136b 1540
00000350: 1729 fb3f 03f7 32c0 85fb 823e c8b7 04c0
00000360: 507f 853f 6226 1a40 0ad1 e03e d705 b33f
00000370: 478e 3840 c842 323f 800c 3140 f6d3 aa40
00000380: 47fd 3c40 2f75 493c a745 46bf c8f0 3ec0
00000390: f91a 86bf f62e 80be 00a8 f4be 2a3f 57c0
000003a0: d665 0440 9d44 313f 05bc 7640 03c1 bf40
000003b0: bf42 9240 60c5 49bf 364f 04c0 d87d 7ac0
000003c0: a6ee 6abf 52a4 87bf 6e78 94c0 ede9 99c0
000003d0: 2c9c 85c0 984b 1cc0 e1c3 1540 fa95 b140
000003e0: 576e 663f 96ea 2fc0 50eb 85bf 89c3 f7bf
000003f0: e988 6fbf 233f 77bf d7b5 87c0 89de bec0

bias f4 [5]
-1.6945881 2.595206 -1.0010366 -0.79607016 -0.9998794
00000000: 43e8 d8bf db17 2640 f821 80bf 41cb 4bbf
00000010: 19f8 7fbf

weight f4 [10, 5]
-0.7614528 -0.33523303 0.1579482 -1.0018713 0.045160286 1.2574493 0.6656592 0.034707125
-1.4482769 0.69794726 0.10580691 -0.3507549 0.15635695 -0.7646641 -0.23806517 1.578405
-0.6162385 0.5546549 1.2406242 -1.051548 -1.9628342 0.052652393 -0.7733124 -1.5662216
1.3152251 1.4038291 -0.8346994 0.72372335 0.4233072 0.6854177 -1.0442537 -1.3085908
-1.1058315 -1.0650332 -0.79196656 0.049866464 -0.40483037 0.09079553 -0.12916462 -0.2164206
-0.17758034 -0.31903717 0.34793505 -0.42974383 -0.05213931 -0.07964412 -0.19415207 -0.2951537
-0.072607085 0.0550518
00000000: 92ee 42bf aaa3 abbe 2cbd 213e 523d 80bf
00000010: fef9 383d 19f4 a03f a468 2a3f 0f29 0e3d
00000020: 2361 b9bf acac 323f 4bb1 d83d 2596 b3be
00000030: 091c 203e 07c1 43bf 5bc7 73be 2d09 ca3f
00000040: cec1 1dbf ddfd 0d3f c6cc 9e3f 2099 86bf
00000050: 273e fbbf 09aa 573d cdf7 45bf f379 c8bf
00000060: 4c59 a83f acb0 b33f dcae 55bf ef45 393f
00000070: b9bb d83e 8977 2f3f 1baa 85bf e77f a7bf
00000080: e38b 8dbf 0253 88bf 52be 4abf c740 4c3d
00000090: ed45 cfbe 02f3 b93d bb43 04be 5d9d 5dbe
000000a0: 9fd7 35be d758 a3be 8b24 b23e 6207 dcbe
000000b0: 0790 55bd 751c a3bd cdcf 46be 631e 97be
000000c0: 06b3 94bd ff7d 613d

bias f4 [10]
-1.4408516 -0.6559046 -1.15941 1.5336541 -3.1396933 -0.5875033 -0.6165601 -0.41043663
-0.28246218 -1.5923827
00000000: d36d b8bf 5de9 27bf 8c67 94bf c74e c43f
00000010: bcf0 48c0 9e66 16bf e2d6 1dbf c024 d2be
00000020: e29e 90be 32d3 cbbf

weight f4 [10, 10]
-0.9673115 1.0819167 0.8445497 1.7235712 1.3089194 1.648705 1.0343888 -0.06940546
0.11686378 0.21758986 1.0301794 2.739585 1.4399155 2.267589 0.9352267 2.3663192
0.70702904 -0.071868934 -0.30692166 1.7744333 -1.0882345 -1.8801825 -1.0629097 -3.024067
-0.70353067 -1.3821955 -0.97409844 0.09574598 0.18091425 -0.89942276 -0.6841197 -1.817593
-0.884867 -2.3776364 -0.825032 -2.2296083 -0.9655725 0.10987711 -0.089579836 -0.86228335
-0.726181 -1.738299 -0.6879991 -2.015117 -0.9023501 -2.3008192 -1.1489178 0.074245185
0.03420369 -0.725559 -1.0741695 -1.8567846 -1.1817243 -2.436743 -1.1353279 -1.9069481
-0.96978724 0.13671868 0.24015799 -0.9755031 -0.8966615 -2.1258435 -0.8275125 -2.5153806
-0.75704986 -1.7553204 -0.935388 0.16778916 0.3068094 -0.8124605 -0.74397486 -1.9667717
-1.1596938 -2.8185852 -0.7836843 -1.4712429 -0.86514074 0.22016403 0.084297314 -1.2413429
-1.0150609 -1.761757 -0.69471055 -2.9902763 -1.2182955 -1.5879004 -0.894519 0.26458645
-0.26427507 -1.3115921 -0.891011 -1.9110974 -0.8764125 -1.9483039 -0.7163574 -1.6894232
-1.1911143 0.30844188 -0.17624515 -1.127151
00000000: baa1 77bf 3f7c 8a3f 6934 583f fb9d dc3f
00000010: ac8a a73f c408 d33f da66 843f 7324 8ebd
00000020: 4756 ef3d e0cf 5e3e ebdc 833f 5c55 2f40
00000030: 274f b83f 2e20 1140 046b 6f3f c671 1740
00000040: dbff 343f 0530 93bd d624 9dbe a120 e33f
00000050: 454b 8bbf d2a9 f0bf 6d0d 88bf 508a 41c0
00000060: 961a 34bf c8eb b0bf 845e 79bf 7816 c43d
00000070: 9641 393e 9240 66bf 7822 2fbf e3a6 e8bf
00000080: a586 62bf 322b 18c0 4c35 53bf e7b1 0ec0
00000090: c22f 77bf 4007 e13d a275 b7bd 9abe 5cbf
000000a0: ffe6 39bf 9580 debf b620 30bf adf7 00c0
000000b0: 6b00 67bf 9f40 13c0 bd0f 93bf dc0d 983d
000000c0: 2b19 0c3d 3cbe 39bf 637e 89bf 1eab edbf
000000d0: be42 97bf 99f3 1bc0 6d52 91bf e016 f4bf
000000e0: fa43 78bf fbff 0b3e faeb 753e 92ba 79bf
000000f0: 9c8b 65bf d20d 08c0 dcd7 53bf fffb 20c0
00000100: 05ce 41bf 57ae e0bf 9775 6fbf ecd0 2b3e
00000110: 1f16 9d3e 69fd 4fbf 2375 3ebf 2dbf fbbf
00000120: d970 94bf b363 34c0 899f 48bf b051 bcbf
00000130: dd79 5dbf ae72 613e 12a4 ac3d 53e4 9ebf
00000140: 84ed 81bf 4181 e1bf 8dd8 31bf b060 3fc0
00000150: 1bf1 9bbf 5240 cbbf 32ff 64bf e077 873e
00000160: 104f 87be 40e2 a7bf 4c19 64bf d79e f4bf
00000170: 925c 60bf 0662 f9bf 3363 37bf 053f d8bf
00000180: 6f76 98bf 18ec 9d3e 9c79 34be 7c46 90bf

bias f4 [10]
3.8667994 -0.4134746 -1.681806 -1.5521545 -2.153346 -1.8794019 -1.4781227 -1.5685165
-1.3593273 -2.2689953
00000000: a479 7740 f1b2 d3be 6b45 d7bf 00ad c6bf
00000010: 6cd0 09c0 3e90 f0bf 2033 bdbf 26c5 c8bf
00000020: 70fe adbf 3837 11c0

weight f4 [1, 1, 5, 5]
4.66663 1.6732724 -0.6226335 0.36812252 -1.2461497 2.8626664 1.6078575 0.250974
0.8574411 1.4944321 3.5441592 3.726552 2.4338284 2.474218 1.8984469 1.7822028
0.1557785 -2.2671816 -1.7373275 -0.54672384 0.20897233 -1.4999791 0.058860783 -1.565267
-0.758727
00000000: 0855 9540 ca2d d63f e964 1fbf 8e7a bc3e
00000010: d581 9fbf ed35 3740 46ce cd3f aa7f 803e
00000020: 4381 5b3f 8d49 bf3f 81d3 6240 d47f 6e40
00000030: d8c3 1b40 9659 1e40 4f00 f33f 391f e43f
00000040: 6684 1f3e 8119 11c0 bf60 debf 18f6 0bbf
00000050: d8fc 553e 51ff bfbf 0118 713d ab5a c8bf
00000060: ef3b 42bf

weight f4 [5, 144]
1.0721864 0.99908596 0.991577 1.0083839 -0.9600433 -1.0440603 -0.95753926 -1.0647055
-0.969183 1.0521157 0.9936555 1.0127401 0.9459271 1.0625415 1.0139343 1.0087528
1.0806806 0.32860637 1.4998231 0.7715568 0.7368424 1.858975 0.96617347 1.0711087
1.0121348 1.0416028 0.96433103 -0.95496625 1.0694132 1.5153689 2.2236154 4.5141945
2.9034765 1.9025455 1.3533293 1.0789787 1.0728928 1.0103904 0.9638357 -0.6989874
-2.5329423 0.38460803 2.1852045 3.0388057 0.51105434 0.67024386 -1.651126 -0.9367996
1.056665 0.9806731 0.14676696 -0.6567649 -0.94346344 -0.5267183 1.288332 3.4367032
-0.90878713 -1.5648568 -1.4746116 -0.98308283 1.0550526 1.0383884 -0.106396265 -0.5032035
-0.54789937 -0.75917536 3.5310078 1.8720912 -1.3129183 -3.0558736 -1.1005288 -1.0141716
0.9810695 0.991931 -0.32264456 -1.2293433 -3.1583319 -1.8832678 3.2273834 -0.48093057
-2.4177177 -2.5370452 -0.9895641 1.0591451 -1.00802 -1.0469439 -2.6284168 -4.0175276
-6.087402 0.8526226 1.23238 -3.1826892 -4.560014 -2.7560205 -0.9455148 1.0153183
-1.07162 -0.99332994 -1.0237536 -2.0869708 -0.20989992 0.6075736 0.7760886 -1.4254475
-2.4544506 -0.9767709 -2.068231 0.9640514 0.93417746 -1.0047126 0.6085535 1.8290347
2.1135435 1.8875253 2.41911 0.41019183 -2.2504082 -1.0823921 -1.9247252 0.91665435
1.0751146 0.96491885 2.88532 3.9442973 3.2055411 2.2403934 2.1662025 0.5480893
-2.1879606 -1.0114514 -1.0380054 0.9192676 1.0606679 1.0784944 1.0513294 1.1459178
1.2103084 -0.6611647 -1.5965611 -1.2227234 -0.96595436 -1.0640864 1.0546346 1.082273
-1.044522 -0.98426265 -0.9332845 -1.0461956 -1.0021706 -1.0131627 -0.9419058 -1.0596906
-0.9995169 -0.9291456 -1.0138316 -1.0134547 -0.9247365 -1.0275708 -0.99022233 -1.0665749
-0.99301994 -0.97483444 -1.0017823 -0.98973495 -1.0807707 -0.9621776 -0.940809 -1.0095482
-1.0562856 -0.95567554 -0.94324225 -0.9747089 -1.0122374 -0.92792857 -1.0281299 -0.997993
-0.98490655 -0.9194678 -1.0048277 -1.0602745 -0.99329996 -0.9430695 -1.0696771 -0.97346616
-0.9473452 -1.0548654 -1.0357904 -1.021962 -0.9662129 -0.9964375 -1.0024018 -0.9528242
-1.0305916 -1.0215223 -0.99778676 -0.9862734 -0.9671958 -0.95178723 -1.0355253 -1.0697497
-0.9904371 -1.0274247 -0.9913049 -1.0746875 -1.0647715 -0.97808194 -0.9603696 -0.94207245
-0.9402124 -1.0257423 -0.99466044 -0.9190025 -0.96311146 -0.9851676 -1.0191063 -1.0085466
-1.0501337 -1.0560557 -0.9328605 -0.9979967 -1.0649133 -1.0439072 -1.0606045 -1.023644
-1.044834 -1.0226121 -0.99026084 -0.9646732 -0.94613945 -0.9928256 -0.9969863 -0.96137875
-0.9452453 -1.038367 -1.0806541 -0.9707648 -1.0204737 -0.92692965 -0.9320609 -1.0381606
-0.92713714 -0.93324643 -0.9973174 -0.98600256 -1.051203 -0.97495514 -0.9969044 -1.0692933
-1.0430303 -1.011482 -0.92973006 -0.9255806 -0.96584487 -1.0006224 -1.0740547 -1.0588267
00000000: 673d 893f 19c4 7f3f fed7 7d3f b912 813f
00000010: 66c5 75bf c5a3 85bf 4b21 75bf 4548 88bf
00000020: 611c 78bf baab 863f 3560 7e3f 78a1 813f
00000030: 4728 723f 5c01 883f 99c8 813f d01e 813f
00000040: be53 8a3f 183f a83e 34fa bf3f bf84 453f
00000050: b4a1 3c3f e5f2 ed3f 2557 773f 171a 893f
00000060: a28d 813f 3e53 853f 66de 763f ab78 74bf
00000070: 88e2 883f 9cf7 c13f b74f 0e40 4874 9040
00000080: 8fd2 3940 9c86 f33f e539 ad3f f91b 8a3f
00000090: 8d54 893f 7954 813f f0bd 763f d7f0 32bf
000000a0: ba1b 22c0 58eb c43e 64da 0b40 cb7b 4240
000000b0: 75d4 023f 1a95 2b3f 1958 d3bf 19d2 6fbf
000000c0: cc40 873f 640d 7b3f 144a 163e bf21 28bf
000000d0: d286 71bf 03d7 06bf 10e8 a43f f2f2 5b40
000000e0: 46a6 68bf 3a4d c8bf 13c0 bcbf 51ab 7bbf
000000f0: f70b 873f e9e9 843f 49e6 d9bd f2d1 00bf
00000100: 2243 0cbf 5159 42bf 08fc 6140 afa0 ef3f
00000110: b50d a8bf 6f93 43c0 21de 8cbf 60d0 81bf
00000120: 5f27 7b3f 31ef 7d3f ab31 a5be 1f5b 9dbf
00000130: 1c22 4ac0 eb0e f1bf 738d 4e40 883c f6be
00000140: e3bb 1ac0 f35e 22c0 1354 7dbf 1192 873f
00000150: cd06 81bf 4202 86bf fb37 28c0 968f 80c0
00000160: ffcb c2c0 7a45 5a3f a1be 9d3f 2eb1 4bc0
00000170: a2eb 91c0 a462 30c0 420d 72bf f3f5 813f
00000180: d82a 89bf df4a 7ebf 5c0a 83bf ee90 05c0
00000190: 01f0 56be f289 1b3f bead 463f 1075 b6bf
000001a0: b815 1dc0 a80d 7abf e65d 04c0 13cc 763f
000001b0: 4126 6f3f 6c9a 80bf 2aca 1b3f cf1d ea3f
000001c0: 4c44 0740 6e9a f13f b3d2 1a40 aa04 d23e
000001d0: b006 10c0 d38b 8abf 655d f6bf dca9 6a3f
000001e0: 5b9d 893f ec04 773f 15a9 3840 5e6f 7c40
000001f0: 9627 4d40 9b62 0f40 10a3 0a40 954f 0c3f
00000200: 8c07 0cc0 3d77 81bf 5cdd 84bf 1f55 6b3f
00000210: f7c3 873f 1b0c 8a3f f691 863f 6fad 923f
00000220: 63eb 9a3f 1742 29bf 1d5c ccbf 3382 9cbf
00000230: c948 77bf fc33 88bf 44fe 863f ec87 8a3f
00000240: e6b2 85bf a3f8 7bbf bceb 6ebf bde9 85bf
00000250: 2047 80bf 51af 81bf bd20 71bf f1a3 87bf
00000260: 57e0 7fbf 7cdc 6dbf 3cc5 81bf e2b8 81bf
00000270: 88bb 6cbf 7187 83bf 367f 7dbf 8785 88bf
00000280: 8e36 7ebf c08e 79bf 673a 80bf 455f 7dbf
00000290: b256 8abf 4551 76bf dcd8 70bf e038 81bf
000002a0: 5e34 87bf 27a7 74bf 5378 71bf 8686 79bf
000002b0: ff90 81bf ba8c 6dbf c399 83bf 787c 7fbf
000002c0: d622 7cbf 3e62 6bbf 329e 80bf 13b7 87bf
000002d0: e848 7ebf 016d 71bf 2eeb 88bf 1435 79bf
000002e0: 3785 72bf d405 87bf c894 84bf a7cf 82bf
000002f0: bb59 77bf 8716 7fbf b44e 80bf 49ec 73bf
00000300: 6dea 83bf 3ec1 82bf f46e 7fbf 6a7c 7cbf
00000310: 259a 77bf 54a8 73bf 188c 84bf 8fed 88bf
00000320: 498d 7dbf a782 83bf 28c6 7dbf 5c8f 89bf
00000330: 6f4a 88bf 9463 7abf c8da 75bf a92b 71bf
00000340: c3b1 70bf 864b 83bf 11a2 7ebf bf43 6bbf
00000350: 798e 76bf f233 7cbf 1372 82bf 0e18 81bf
00000360: c86a 86bf d52c 87bf f2cf 6ebf b67c 7fbf
00000370: 144f 88bf c09e 85bf e3c1 87bf c406 83bf
00000380: 1fbd 85bf f4e4 82bf bc81 7dbf d3f4 76bf
00000390: 3236 72bf d229 7ebf 7f3a 7fbf eb1c 76bf
000003a0: 99fb 71bf 36e9 84bf e052 8abf 0b84 78bf
000003b0: e29e 82bf 434b 6dbf 8b9b 6ebf 72e2 84bf
000003c0: dc58 6dbf 3de9 6ebf 3150 7fbf aa6a 7cbf
000003d0: d28d 86bf a996 79bf 2035 7fbf 9ade 88bf
000003e0: 0482 85bf 3e78 81bf ca02 6ebf daf2 6cbf
000003f0: 9c41 77bf 6514 80bf a07a 89bf a287 87bf

bias f4 [5]
0.91875976 -1.0411614 -2.8686655 -1.1977158 -1.0659597
00000000: d733 6b3f c744 85bf 3798 37c0 c04e 99bf
00000010: 5e71 88bf

weight f4 [10, 5]
-1.2672586 -0.21757017 -0.23842005 -0.13431887 0.111466676 4.7371607 0.68528086 1.0024971
2.863748 0.7427953 -0.5799917 -0.1276659 -0.995007 -1.3161646 -0.9329348 -0.32196137
0.036357727 0.566541 0.100824766 1.2215654 2.4241552 1.2521844 0.31112346 -0.75701165
1.1769651 -2.5615964 0.35374397 2.5049973 1.2042183 0.09783757 -0.18385798 -0.75919586
-0.3628493 1.3417356 0.7556263 -0.6003713 -0.8524813 -0.7116276 0.639391 0.7912781
-0.9266609 0.15067723 -0.8563885 -1.150757 -1.0967196 -1.1833105 0.26767296 -0.18640509
0.014439537 0.90414065
00000000: 8835 a2bf b7ca 5ebe 6324 74be e38a 09be
00000010: a448 e43d d296 9740 916e 2f3f d351 803f
00000020: a647 3740 d527 3e3f 567a 14bf daba 02be
00000030: c7b8 7ebf 1578 a8bf d1d4 6ebf 1fd8 a4be
00000040: d7eb 143d d508 113f 377d ce3d 415c 9c3f
00000050: 5c25 1b40 9447 a03f 934b 9f3e 84cb 41bf
00000060: cba6 963f 32f1 23c0 ee1d b53e e051 2040
00000070: d323 9a3f 105f c83d 4445 3cbe a95a 42bf
00000080: 62c7 b9be febd ab3f ba70 413f efb1 19bf
00000090: 373c 5abf 3a2d 36bf 21af 233f 3491 4a3f
000000a0: a639 6dbf 224b 1a3e 473c 5bbf 014c 93bf
000000b0: 4f61 8cbf b876 97bf 6e0c 893e fae0 3ebe
000000c0: cf93 6c3c c375 673f

bias f4 [10]
-0.76685786 -0.99658203 -1.2269205 -0.4417938 1.0831943 1.786263 -0.47154438 -0.54747653
-1.8635591 -1.0746081
00000000: cc50 44bf 0020 7fbf bb0b 9dbf cc32 e2be
00000010: 1ca6 8a3f 44a4 e43f 446e f1be 6c27 0cbf
00000020: 1b89 eebf c28c 89bf

weight f4 [10, 10]
0.049603492 3.517606 0.8132799 1.5759784 2.7606359 -1.4914246 2.1515133 2.5386665
0.85525614 0.53847367 0.33298177 -0.675654 0.92365646 0.54060525 1.2187338 1.5603353
0.665257 0.80730164 0.5048202 0.9739332 -1.0134323 -1.3617601 -0.73305213 -1.314481
-2.157136 -4.120101 -1.1151677 -1.6114906 -0.93413395 -1.1337426 -1.2912527 -1.5336723
-1.2746832 -1.3122154 -2.1017888 -3.9899087 -1.2788488 -1.8420329 -0.9008036 -1.1592149
-0.45907226 -1.672847 -0.84709305 -1.4206884 -2.3721378 -4.17602 -1.4578116 -1.5441314
-0.77793837 -1.1905425 -0.40151867 -1.284468 -1.0518119 -1.3246051 -2.2720456 -4.1763625
-1.16969 -1.9626485 -1.2173624 -1.1946775 -0.69012606 -1.3313563 -0.976626 -1.1111817
-2.192989 -4.072431 -1.2513843 -1.6914415 -1.2918588 -1.0774643 -1.154772 -1.4442261
-0.7967636 -1.3109795 -2.0501845 -4.0607615 -1.3825631 -2.1382792 -1.2075943 -1.1271354
-1.2333944 -1.6839201 -1.0888789 -1.1109245 -2.1650121 -4.175845 -1.0570464 -1.8238578
-0.9589013 -1.0409914 -0.9211035 -1.3211592 -0.886686 -1.4912157 -2.058362 -4.0948277
-1.6820167 -1.9274981 -1.298867 -0.84354985
00000000: 082d 4b3d 7520 6140 1d33 503f a9b9 c93f
00000010: 42ae 3040 00e7 bebf 65b2 0940 8379 2240
00000020: 11f2 5a3f 69d9 093f 967c aa3e a9f7 2cbf
00000030: c074 6c3f 1b65 0a3f 78ff 9b3f 11b9 c73f
00000040: 484e 2a3f 52ab 4e3f e63b 013f b053 793f
00000050: 26b8 81bf 284e aebf 4ea9 3bbf ea40 a8bf
00000060: 840e 0ac0 ded7 83c0 d1bd 8ebf 5345 cebf
00000070: 6723 6fbf 7a1e 91bf c547 a5bf 604f c4bf
00000080: d228 a3bf adf6 a7bf b583 06c0 aa5a 7fc0
00000090: 51b1 a3bf bcc7 ebbf 119b 66bf 2761 94bf
000000a0: 850b ebbe da1f d6bf 17db 58bf 1ed9 b5bf
000000b0: 1bd1 17c0 f5a1 85c0 9299 babf 19a6 c5bf
000000c0: f826 47bf b263 98bf db93 cdbe 7369 a4bf
000000d0: c6a1 86bf a98c a9bf 3269 11c0 c3a4 85c0
000000e0: 67b8 95bf 1138 fbbf 88d2 9bbf 31eb 98bf
000000f0: 1aac 30bf e269 aabf 2904 7abf 343b 8ebf
00000100: ef59 0cc0 5b51 82c0 5c2d a0bf 2881 d8bf
00000110: a15b a5bf 5aea 89bf 92cf 93bf 67dc b8bf
00000120: b3f8 4bbf 2dce a7bf 3936 03c0 c2f1 81c0
00000130: d4f7 b0bf 91d9 08c0 7392 9abf f945 90bf
00000140: dedf 9dbf b28a d7bf 6260 8bbf c632 8ebf
00000150: 8f8f 0ac0 86a0 85c0 4c4d 87bf 2c74 e9bf
00000160: 8e7a 75bf 353f 85bf 70cd 6bbf bf1b a9bf
00000170: dbfd 62bf 28e0 bebf 34bc 03c0 d408 83c0
00000180: 534c d7bf 42b8 f6bf 4641 a6bf e2f2 57bf

bias f4 [10]
2.2759876 0.89879376 -1.797942 -1.8851093 -1.9166843 -1.5501566 -1.7287289 -1.705504
-1.8135202 -2.115254
00000000: c8a9 1140 5917 663f f722 e6bf 434b f1bf
00000010: e955 f5bf 886b c6bf fd46 ddbf f44d dabf
00000020: 6e21 e8bf 5260 07c0

weight f4 [1, 1, 5, 5]
6.010992 3.7441735 3.5277152 1.823947 0.8080684 4.1195903 1.4246141 0.24790823
2.7580347 2.8983123 1.6907177 -0.5032844 -1.121216 0.6269904 1.5174344 -0.4368979
-0.6350871 -2.2920852 -0.6536764 1.2095045 -0.1502613 -1.4265363 -1.8218111 0.8507062
2.0646207
00000000: 0c5a c040 8aa0 6f40 16c6 6140 1877 e93f
00000010: 92dd 4e3f afd3 8340 c159 b63f a8db 7d3e
00000020: a483 3040 f37d 3940 7069 d83f 3fd7 00bf
00000030: 0284 8fbf 7182 203f 4a3b c23f 15b1 dfbe
00000040: 1195 22bf 86b1 12c0 5657 27bf 0bd1 9a3f
00000050: 19de 19be be98 b6bf 1b31 e9bf e2c7 593f
00000060: bf22 0440

weight f4 [5, 144]
-2.0149922 -2.0467777 -1.1858312 -1.0155445 -0.9844403 -0.9272528 -0.9001758 -1.8861578
-1.9375099 -1.9292655 -1.9757882 -2.0522897 -2.0363684 -1.036676 -1.0408368 -1.042043
-1.0096315 -1.0213845 -0.87374455 -1.9974445 -1.9514185 -1.0535953 -1.9295334 -2.043717
-1.0146513 -0.9255864 -0.9605211 -0.9848663 -0.95718074 -1.0618128 -0.9897903 -1.0668677
-1.0696965 -1.0047566 -1.0002809 -2.0012138 -0.97586435 -0.935909 -1.0494049 -1.0176986
-1.0139065 -1.0647788 -1.0547744 -1.0757581 -0.97177464 -0.91142535 -1.0622237 -0.979302
-0.94927996 -0.9835484 -0.9829183 -1.0409954 -0.95861375 -0.97154206 -0.9002384 -1.033482
-1.0505838 -0.911336 -1.0417668 -0.993967 -1.0054142 -1.0025085 -0.9352706 -1.0098498
-0.94351923 -0.88136184 -0.8805663 -0.9168902 -0.99690634 -1.0704255 -1.0078012 -0.99761343
-1.0130935 -0.9139419 -0.899578 -0.91149205 -0.81429005 -0.856628 -0.97615314 -1.0554148
-1.0307791 -0.9522926 -0.97215486 -0.9790756 -1.0095165 -0.9734579 -0.92568815 -0.9668094
-1.0070091 -1.0260248 -0.98346645 -0.96881336 -1.0193113 -0.9221054 -0.90326357 -1.0389181
-0.9558443 -1.0325245 -0.8419143 -0.95555085 -0.93024015 -0.9066316 -0.87626845 -1.0105531
-0.9883369 -0.9750344 -0.9604974 -0.9856453 -1.0107908 -0.9553348 -0.9582015 -0.98115444
-0.90899396 -0.9019466 -0.99645156 -1.0502734 -1.0462174 -0.91093975 -1.0107318 -1.0239401
-0.9065506 -0.9123755 -0.9703459 -0.9235886 -0.96200573 -1.0674238 -1.0748854 -0.9773354
-0.9913705 -0.9599383 -1.0074259 -1.0296677 -0.9875885 -0.91013736 -0.9156771 -1.0253909
-0.96184033 -0.95307153 -1.0459776 -0.9589922 -0.9265057 -0.9908821 -1.0213113 -1.0004165
0.58759916 0.643961 1.594708 1.5622011 1.7219824 1.7054131 1.7691225 1.7073988
1.7458973 0.67530954 0.52788013 0.62512785 0.64201564 1.5026679 1.6427468 1.8240283
2.5184534 3.3212333 3.5477333 3.3045397 1.0316396 1.7540839 0.66737866 0.51458514
1.5877507 1.6012388 1.5796592 1.9123082 3.676913 5.1783347 5.0835485 5.2662663
4.283748 4.0459127 0.38863146 1.5697188 -0.5023264 0.40269253 0.21606825 1.4600911
-0.47487983 -1.5598254 -3.324389 -3.4064481 -1.3943691 -1.1249259 0.24732377 1.1275638
1.4872465 -0.9723372 -2.0608249 -0.79669034 -2.580702 -2.4615557 -1.9131072 -5.049288
-2.8629715 -2.9216197 0.8097224 1.0092657 1.4798424 -1.4670602 -0.014976469 -0.32535872
-1.7264888 -0.26167393 -0.19366427 0.6862377 -1.8070683 -3.315458 0.7648938 1.1824234
1.6147251 1.6275257 0.9863399 -0.30082783 0.9916862 3.0331411 2.6275265 1.2159024
0.2338028 -2.5156455 2.4155538 -0.6070715 1.5897967 1.9446189 2.1017075 3.6670737
3.7790534 3.108115 3.201737 -0.20995814 -1.2734096 1.7259737 4.695687 2.5924034
1.5041357 2.6493955 4.2690587 5.6549463 4.879001 1.8477359 1.623978 -1.0526779
0.01717684 3.3309155 2.9302943 3.4162724 1.5170716 2.572039 4.345607 4.3963065
00000000: a2f5 00c0 68fe 02c0 51c9 97bf 5dfd 81bf
00000010: 4804 7cbf 7160 6dbf ec71 66bf 9e6d f1bf
00000020: 5300 f8bf 2cf2 f6bf a1e6 fcbf b758 03c0
00000030: dc53 02c0 cdb1 84bf 243a 85bf aa61 85bf
00000040: 9b3b 81bf babc 82bf b9ad 5fbf 43ac ffbf
00000050: 15c8 f9bf 36dc 86bf f3fa f6bf 42cc 02c0
00000060: 18e0 81bf 3bf3 6cbf b6e4 75bf 3320 7cbf
00000070: cc09 75bf 7be9 87bf e662 7dbf 1f8f 88bf
00000080: d1eb 88bf dd9b 80bf 3409 80bf e313 00c0
00000090: 3fd2 79bf bb97 6fbf e652 86bf f343 82bf
000000a0: b0c7 81bf ac4a 88bf d902 87bf 71b2 89bf
000000b0: 39c6 78bf 2c53 69bf f2f6 87bf 89b3 7abf
000000c0: 0304 73bf d4c9 7bbf 89a0 7bbf 563f 85bf
000000d0: b667 75bf fbb6 78bf 0676 66bf 2349 84bf
000000e0: 8879 86bf 514d 69bf 9d58 85bf 9f74 7ebf
000000f0: 6ab1 80bf 3352 80bf e56d 6fbf c242 81bf
00000100: 7a8a 71bf eea0 61bf cb6c 61bf 51b9 6abf
00000110: 4135 7fbf b403 89bf a1ff 80bf 9863 7fbf
00000120: 0cad 81bf 19f8 69bf be4a 66bf 8b57 69bf
00000130: 5075 50bf f94b 5bbf 2ce5 79bf d517 87bf
00000140: 92f0 83bf 73c9 73bf 24df 78bf b3a4 7abf
00000150: d637 81bf 8934 79bf e6f9 6cbf d280 77bf
00000160: ade5 80bf c854 83bf 75c4 7bbf 2704 78bf
00000170: cb78 82bf 190f 6cbf 483c 67bf 45fb 84bf
00000180: 36b2 74bf c329 84bf b287 57bf fb9e 74bf
00000190: 3824 6ebf 0219 68bf 2153 60bf ce59 81bf
000001a0: a603 7dbf db9b 79bf 28e3 75bf 4053 7cbf
000001b0: 9861 81bf d290 74bf b24c 75bf f02c 7bbf
000001c0: d4b3 68bf f9e5 66bf 7317 7fbf 5c6f 86bf
000001d0: 74ea 85bf 5933 69bf a95f 81bf 7810 83bf
000001e0: b313 68bf 7191 69bf 9768 78bf 4d70 6cbf
000001f0: 0246 76bf 58a1 88bf d895 89bf a732 7abf
00000200: 75ca 7dbf 84be 75bf 55f3 80bf 27cc 83bf
00000210: 9ad2 7cbf c3fe 68bf d069 6abf 0240 83bf
00000220: 2b3b 76bf 7ffc 73bf 98e2 85bf 8380 75bf
00000230: 7a2f 6dbf 73aa 7dbf 54ba 82bf a60d 80bf
00000240: e66c 163f a1da 243f 641f cc3f 35f6 c73f
00000250: eb69 dc3f fa4a da3f 9b72 e23f 0b8c da3f
00000260: 9079 df3f 16e1 2c3f 2723 073f 6108 203f
00000270: 235b 243f 6c57 c03f 8745 d23f c279 e93f
00000280: 572e 2140 168f 5440 100e 6340 947d 5340
00000290: c40c 843f d285 e03f 54d9 2a3f dabb 033f
000002a0: 6a3b cb3f 65f5 cc3f 4632 ca3f 84c6 f43f
000002b0: 8b52 6b40 ebb4 a540 6eac a240 4185 a840
000002c0: 7714 8940 1e78 8140 b4fa c63e 8cec c83f
000002d0: 7798 00bf b72d ce3e ff40 5d3e 44e4 ba3f
000002e0: 7323 f3be 5ca8 c7bf cac2 54c0 3f03 5ac0
000002f0: b07a b2bf 92fd 8fbf 7142 7d3e 0354 903f
00000300: 185e be3f 17eb 78bf 8ee4 03c0 e6f3 4bbf
00000310: 392a 25c0 218a 1dc0 b2e0 f4bf c493 a1c0
00000320: ed3a 37c0 d1fb 3ac0 f849 4f3f 9e2f 813f
00000330: 7a6b bd3f a1c8 bbbf dd5f 75bc 6b95 a6be
00000340: 96fd dcbf 20fa 85be ed4f 46be 46ad 2f3f
00000350: 044e e7bf 7730 54c0 14d0 433f a659 973f
00000360: 50af ce3f c352 d03f c680 7c3f 1b06 9abe
00000370: 26df 7d3f fc1e 4240 6529 2840 b1a2 9b3f
00000380: 006a 6f3e 5600 21c0 6f98 1a40 0a69 1bbf
00000390: 757e cb3f 46e9 f83f 6082 0640 56b1 6a40
000003a0: 03dc 7140 5beb 4640 42e9 4c40 44ff 56be
000003b0: 16ff a2bf b5ec dc3f 1143 9640 f0e9 2540
000003c0: 8587 c03f b28f 2940 219c 8840 52f5 b440
000003d0: c720 9c40 9c82 ec3f 83de cf3f 26be 86bf
000003e0: 72b6 8c3c b82d 5540 f189 3b40 35a4 5a40
000003f0: 672f c23f 499c 2440 360f 8b40 8bae 8c40

bias f4 [5]
-0.84989566 -3.3836086 0.73342925 -0.954653 -0.23129393
00000000: c392 59bf 0b8d 58c0 05c2 3b3f 2464 74bf
00000010: 51d8 6cbe

weight f4 [10, 5]
-0.6678881 -1.2082632 -1.3181013 -0.38540566 -1.3773859 -1.3016518 -1.2975917 -1.0515678
1.1205744 -1.3240411 0.46508792 -0.3963246 -0.053641725 -0.18820207 0.13663025 -1.2958429
-1.2187862 -1.3856595 -0.81059486 -1.3380704 0.7398901 -0.24791588 3.065746 -1.1049489
1.6304065 -0.26570785 -0.36958477 0.048800163 0.55663425 -0.2963738 0.2896371 -0.39093924
-0.37592924 0.19098298 -0.12511957 -0.03154272 3.4309208 -2.0140107 1.3415477 1.3591785
-0.58711517 -0.88672704 -1.3599548 0.0585069 -1.291559 -0.3986796 -0.35268623 -0.36316124
0.08938058 -0.26666808
00000000: b7fa 2abf 5ea8 9abf 8bb7 a8bf e453 c5be
00000010: 2e4e b0bf 879c a6bf 7c17 a6bf c699 86bf
00000020: fb6e 8f3f 2e7a a9bf 0120 ee3e 0feb cabe
00000030: 6db7 5bbd 0bb8 40be cde8 0b3e 2ede a5bf
00000040: 3001 9cbf 4a5d b1bf 2583 4fbf e445 abbf
00000050: 7069 3d3f a9dd 7dbe 2f35 4440 f76e 8dbf
00000060: 29b1 d03f dc0a 88be 373a bdbe aee2 473d
00000070: 957f 0e3f 4fbe 97be 504b 943e 3029 c8be
00000080: cc79 c0be 0b91 433e 581f 00be f032 01bd
00000090: 3594 5b40 8de5 00c0 d6b7 ab3f 90f9 ad3f
000000a0: 2e4d 16bf 8b00 63bf 0013 aebf eea4 6f3d
000000b0: ce51 a5bf bc1f ccbe 4a93 b4be 45f0 b9be
000000c0: 2a0d b73d b888 88be

bias f4 [10]
-1.4760907 -0.7107925 -0.37803933 -0.6868649 1.492249 1.2970631 -0.42230552 0.017102359
-1.4134042 -0.06762426
00000000: 8af0 bcbf 7ff6 35bf 5f8e c1be 61d6 2fbf
00000010: 0402 bf3f 2a06 a63f 6e38 d8be 3f1a 8c3c
00000020: 6eea b4bf 977e 8abd

weight f4 [10, 10]
-0.58466077 1.004214 0.39208582 0.81341505 -1.2562605 1.0305643 0.03140395 3.2169118
-1.2495654 -0.28578603 0.8562376 0.77176934 -0.14239469 1.0613312 1.5773576 1.2615606
0.070851564 -1.2532358 0.7224517 -0.2507086 -0.92352957 -1.0149399 -0.98600227 -0.99151677
-2.3023293 -1.92852 0.1497127 -1.7858672 -1.1440572 0.12149282 -1.1003063 -1.0073557
-1.9972293 -0.8140599 -2.8452437 -1.6682975 0.13230312 -1.5078204 -1.1199298 0.07269741
-1.153185 -0.960715 -2.2882566 -1.1152112 -2.9979644 -1.452386 0.3040005 -1.4300197
-1.2318004 -0.16262847 -1.1997415 -1.0852027 -1.7371371 -0.70712316 -3.070614 -1.5925136
0.28177693 -1.2764403 -0.7186465 0.27886215 -0.7288767 -1.1899726 -1.1061862 -1.2839816
-2.787227 -2.1351254 -0.13582182 -1.4817348 -0.7091316 -0.030848067 -0.8238109 -1.0805247
-1.4222723 -1.238097 -3.0038598 -1.9750464 -0.116366886 -1.4392043 -1.1627647 -0.04245054
-1.3093321 -0.6967804 -2.0765758 -0.7144028 -2.9293354 -1.4584002 -0.30476955 -1.4401575
-0.96645874 -0.017342975 -1.0040028 -0.91735494 -1.2905735 -1.1022074 -3.1295722 -2.0172164
-0.1435562 -1.3378373 -0.8592384 0.30459732
00000000: 54ac 15bf 168a 803f 79bf c83e f83b 503f
00000010: 25cd a0bf 88e9 833f 6ea1 003d e2e1 4d40
00000020: c2f1 9fbf 8c52 92be 6332 5b3f ad92 453f
00000030: eacf 11be b3d9 873f dbe6 c93f d17a a13f
00000040: a01a 913d 086a a0bf 98f2 383f e15c 80be
00000050: 6f6c 6cbf 8de9 81bf a56a 7cbf 0bd4 7dbf
00000060: 5d59 13c0 bed9 f6bf 494e 193e 4c97 e4bf
00000070: 7770 92bf 3ad1 f83d d6d6 8cbf 08f1 80bf
00000080: 36a5 ffbf 3b66 50bf 7918 36c0 c68a d5bf
00000090: 787a 073e 4200 c1bf dc59 8fbf 61e2 943d
000000a0: 919b 93bf 6bf1 75bf cc72 12c0 3ebf 8ebf
000000b0: a6de 3fc0 c9e7 b9bf f4a5 9b3e e30a b7bf
000000c0: a3ab 9dbf 1488 26be 2191 99bf ece7 8abf
000000d0: 825a debf 0606 35bf f184 44c0 7cd7 cbbf
000000e0: 1145 903e 6562 a3bf 38f9 37bf 05c7 8e3e
000000f0: aa97 3abf 0651 98bf 8297 8dbf 8259 a4bf
00000100: ed61 32c0 e5a5 08c0 e014 0bbe 7ca9 bdbf
00000110: a689 35bf 16b5 fcbc 45e5 52bf a24e 8abf
00000120: 050d b6bf f679 9ebf 3d3f 40c0 52ce fcbf
00000130: c351 eebd d937 b8bf 79d5 94bf 9ee0 2dbd
00000140: 3298 a7bf 3360 32bf 9ee6 04c0 1ae3 36bf
00000150: 3b7a 3bc0 dcac babf c10a 9cbe 1557 b8bf
00000160: d769 77bf db12 8ebc 2a83 80bf c6d7 6abf
00000170: 8331 a5bf 2215 8dbf e94a 48c0 131a 01c0
00000180: 6600 13be 413e abbf 0cf7 5bbf 2ef4 9b3e

bias f4 [10]
1.2905561 0.9876319 -1.8539655 -1.2096796 -1.2757777 -0.86061037 -1.7152566 -1.3059491
-1.3737819 -1.3350861
00000000: f130 a53f 72d5 7c3f be4e edbf c8d6 9abf
00000010: af4c a3bf f650 5cbf 878d dbbf 5729 a7bf
00000020: 16d8 afbf 1ae4 aabf

weight f4 [1, 1, 5, 5]
2.5082104 2.7128468 1.5758291 0.45416692 -0.20563628 -0.0092100585 0.8488413 1.2644478
-0.29767928 -0.37932345 -2.0179553 1.7275109 2.4389405 -0.54199463 -0.060547683 0.1978756
1.2919663 1.187242 -1.8279794 -0.22091216 1.0497402 2.6191325 1.5845109 -0.41989803
0.8165053
00000000: 8586 2040 489f 2d40 c5b4 c93f 9188 e83e
00000010: 5192 52be c9e5 16bc aa4d 593f 6dd9 a13f
00000020: 6b69 98be af36 c2be 2e26 01c0 141f dd3f
00000030: 9a17 1c40 29c0 0abf d900 78bd e79f 4a3e
00000040: 275f a53f 8cf7 973f 3bfb e9bf cc36 62be
00000050: e35d 863f de9f 2740 41d1 ca3f e0fc d6be
00000060: 7e06 513f

weight f4 [5, 144]
0.8234394 0.82558817 0.81733584 0.42678246 -0.67426664 -1.4233774 -0.6714189 -0.5649781
-1.5662109 0.36826274 -0.6411392 0.9466499 0.8592523 0.55103016 -1.1995076 -0.18703079
-0.36927703 -0.59991986 -0.96253157 -0.8968637 -0.7000238 0.16381101 -1.0033827 0.40783244
0.8513204 -1.6368719 -2.5725746 0.0018612178 -1.0990951 0.84794915 0.08291187 -0.19164678
2.0705144 2.9236448 0.10005347 0.044333052 0.9206062 -1.645297 -2.4661102 -0.869545
0.3111203 0.002279164 0.6175227 2.3822606 5.371967 3.2398171 0.92471933 0.7653656
0.86287385 -1.0728916 -1.9126791 -2.3034022 -0.75368005 1.0854101 1.7345356 1.8333709
2.5810158 2.1521554 -0.31228825 -0.4184198 0.9598508 -0.97924525 -2.8993657 -0.45564607
-0.25389302 -0.15555885 1.9921334 1.9122502 1.5488101 1.1095703 -2.0843852 -0.44080573
0.8576912 -0.8566877 -3.2593818 -1.23613 -3.2270718 -2.3819978 -0.73381585 0.37221053
0.2694122 -0.18950264 -2.3273647 -0.24944617 0.37651962 -0.21290717 -1.7120687 -2.0437179
-3.5225499 -3.9233825 -1.8480322 -0.32055613 0.96709925 0.56439775 0.602568 1.176709
0.027132062 0.29585278 1.5771798 0.03464884 -2.3760211 -3.8671384 -0.94241124 -0.46527767
0.08631575 0.73305404 3.3152142 0.82183653 0.7471234 0.6788425 0.74194044 1.3578204
1.822408 0.9682924 1.1465881 0.54524565 -0.05408323 0.06423228 2.344718 0.90626675
0.837626 0.083306395 0.46477526 1.4022621 1.7688465 1.1175351 2.2400286 1.8110878
0.16462167 1.2758776 1.710685 0.8883446 0.9547407 0.9060178 0.5379571 0.0816413
0.9044562 2.4588394 1.780241 0.6567008 1.5932549 1.0118399 0.8829093 0.8369044
-1.0589916 -1.0110596 -1.0058473 -1.065987 -1.082092 -1.0502006 -0.98048186 -0.99730295
-0.91786164 -0.9209886 -0.9516194 -1.0785471 -0.9897031 -1.0809655 -0.9568047 -0.9490106
-0.9271001 -0.96361303 -0.99456656 -1.0443671 -0.9214059 -0.9864373 -1.009037 -1.0708333
-0.9788526 -1.0109884 -0.99515635 -1.0592186 -1.0507281 -1.0546569 -1.0656544 -1.0576001
-1.0810307 -1.0357523 -0.94539225 -1.0811993 -1.0375867 -0.95923805 -0.96966785 -0.9353856
-1.06856 -1.0269904 -0.9412383 -1.0034802 -1.008038 -1.0691357 -0.9840787 -1.0120457
-0.9218192 -0.9197628 -1.0401912 -1.0222552 -0.9195015 -1.0532271 -0.97029704 -0.96807593
-1.0375253 -0.9607077 -0.93441254 -0.93411845 -1.003822 -0.96151674 -1.0016782 -1.0432163
-1.0540144 -1.0313365 -0.9329249 -0.95682925 -0.9193746 -1.0233147 -0.92433494 -0.9884989
-1.059076 -1.0719604 -0.91681 -1.0539072 -1.0552447 -0.92406034 -0.94660825 -1.0185593
-0.976514 -0.97582275 -1.0770671 -0.98632455 -0.9395295 -1.0251564 -0.9768847 -0.96289694
-1.0590532 -0.9464612 -0.96456414 -1.0010277 -0.9867242 -1.0272834 -0.941863 -0.9291478
-0.9881758 -1.020596 -0.9880856 -0.93726677 -0.9805695 -0.9390256 -0.976618 -0.9510997
-0.9951486 -1.0576062 -0.99547225 -1.0437443 -1.036719 -1.0318605 -1.0022438 -0.961148
00000000: edcc 523f bf59 533f ec3c 513f 3b83 da3e
00000010: bd9c 2cbf 3b31 b6bf 1ce2 2bbf 68a2 10bf
00000020: 9979 c8bf ef8c bc3e b321 24bf a657 723f
00000030: f5f7 5b3f 5010 0d3f 7789 99bf 0085 3fbe
00000040: e111 bdbe 5994 19bf 7868 76bf dc98 65bf
00000050: c234 33bf 13be 273e d86e 80bf 6acf d03e
00000060: 22f0 593f 0585 d1bf 10a5 24c0 1bf4 f33a
00000070: 26af 8cbf 3213 593f b3cd a93d 0e3f 44be
00000080: 4f83 0440 ff1c 3b40 d5e8 cc3d 9396 353d
00000090: d9ac 6b3f 1899 d2bf c0d4 1dc0 809a 5ebf
000000a0: 294b 9f3e 075e 153b f815 1e3f f576 1840
000000b0: 27e7 ab40 2a59 4f40 68ba 6c3f 00ef 433f
000000c0: 4de5 5c3f 8354 89bf abd2 f4bf f16a 13c0
000000d0: 2df1 40bf b8ee 8a3f 4305 de3f e6ab ea3f
000000e0: 5d2f 2540 eabc 0940 3fe4 9fbe 1f3b d6be
000000f0: c8b8 753f d1af 7abf 358f 39c0 714a e9be
00000100: 44fe 81be d24a 1fbe 3afe fe3f 9dc4 f43f
00000110: 693f c63f 6606 8e3f 9166 05c0 4ab1 e1be
00000120: a791 5b3f e34f 5bbf b699 50c0 8239 9ebf
00000130: 5888 4ec0 a772 18c0 5bdb 3bbf 6192 be3e
00000140: 65f0 893e fb0c 42be 8bf3 14c0 d16e 7fbe
00000150: 2ec7 c03e 5604 5abe 1125 dbbf 46cc 02c0
00000160: 7571 61c0 b318 7bc0 528c ecbf ef1f a4be
00000170: d193 773f 5f7c 103f e541 1a3f 679e 963f
00000180: 0f44 de3c 047a 973e 07e1 c93f f1eb 0d3d
00000190: bb10 18c0 327f 77c0 dd41 71bf e038 eebe
000001a0: 50c6 b03d 6ea9 3b3f 782c 5440 e163 523f
000001b0: 7b43 3f3f 9fc8 2d3f cfef 3d3f 0fcd ad3f
000001c0: aa44 e93f 03e2 773f 66c3 923f 3895 0b3f
000001d0: 6186 5dbd 378c 833d dc0f 1640 1901 683f
000001e0: a86e 563f 8b9c aa3d 06f7 ed3e 537d b33f
000001f0: 9069 e23f 640b 8f3f a15c 0f40 bad1 e73f
00000200: 9592 283e f54f a33f baf7 da3f 8d6a 633f
00000210: e369 743f c8f0 673f 8eb7 093f 8e33 a73d
00000220: 718a 673f a05d 1d40 f0de e33f 8b1d 283f
00000230: c7ef cb3f f883 813f 5806 623f 5e3f 563f
00000240: 098d 87bf 676a 81bf 9bbf 80bf 4372 88bf
00000250: fe81 8abf f96c 86bf dc00 7bbf 3f4f 7fbf
00000260: fbf8 6abf e9c5 6bbf 549d 73bf d50d 8abf
00000270: 2f5d 7dbf 145d 8abf 27f1 74bf 5cf2 72bf
00000280: 6f56 6dbf 58af 76bf ea9b 7ebf d2ad 85bf
00000290: 42e1 6bbf 2887 7cbf 2028 81bf 1111 89bf
000002a0: 1696 7abf 1168 81bf 91c2 7ebf 7a94 87bf
000002b0: 427e 86bf fffe 86bf 5d67 88bf 715f 87bf
000002c0: 375f 8abf 8893 84bf 3a05 72bf bd64 8abf
000002d0: a4cf 84bf a090 75bf 273c 78bf 6e75 6fbf
000002e0: 93c6 88bf 6c74 83bf fef4 70bf 0a72 80bf
000002f0: 6407 81bf 70d9 88bf 95ec 7bbf b78a 81bf
00000300: 58fc 6bbf 9375 6bbf fc24 85bf 42d9 82bf
00000310: 7364 6bbf 25d0 86bf 6365 78bf d3d3 77bf
00000320: a1cd 84bf f1f0 75bf a935 6fbf 6322 6fbf
00000330: 3d7d 80bf f625 76bf fe36 80bf 1d88 85bf
00000340: f2e9 86bf d602 84bf 2bd4 6ebf c3f2 74bf
00000350: 225c 6bbf fafb 82bf 37a1 6cbf 440e 7dbf
00000360: cd8f 87bf 0036 89bf 0fb4 6abf 6ee6 86bf
00000370: 4212 87bf 388f 6cbf eb54 72bf 2760 82bf
00000380: d2fc 79bf 85cf 79bf 56dd 89bf c47f 7cbf
00000390: 0185 70bf 5338 83bf 1e15 7abf 6a80 76bf
000003a0: 0e8f 87bf 484b 72bf aded 76bf ad21 80bf
000003b0: f599 7cbf 067e 83bf ef1d 71bf a1dc 6dbf
000003c0: 17f9 7cbf e4a2 82bf 2ef3 7cbf b7f0 6fbf
000003d0: 9a06 7bbf fb63 70bf a303 7abf 457b 73bf
000003e0: 0fc2 7ebf a45f 87bf 45d7 7ebf 6a99 85bf
000003f0: 35b3 84bf 0114 84bf 8649 80bf cc0d 76bf

bias f4 [5]
2.7057343 -0.9570645 -1.0434173 -1.0286522 -0.9887091
00000000: c02a 2d40 2e02 75bf b38e 85bf e0aa 83bf
00000010: 0a1c 7dbf

weight f4 [10, 5]
-0.0015514862 -0.13947666 -0.3340469 -0.2102154 -0.1847538 0.62289447 0.78525394 1.3503616
1.0593747 -0.79550123 -0.3942186 -0.9773801 0.1450642 1.9929771 1.4337654 -0.12242597
0.28059942 -0.002163988 0.052186918 0.39831942 -1.1951736 -1.086502 -1.3265105 -1.0252533
-0.06219486 -1.1253716 -0.29082322 -0.75388664 0.24342677 0.064005926 -0.7331423 -0.6410448
-0.55254495 -0.7656692 -0.954672 -1.4462564 -1.3486688 -1.2683221 -0.5872796 -0.075008035
1.2998463 1.0082358 -0.06786327 0.5702294 0.584459 -0.6371455 -0.33306637 -0.53347945
-0.052961167 1.2869031
00000000: 3d5b cbba f8d2 0ebe 3208 abbe b542 57be
00000010: 1a30 3dbe 0376 1f3f 6706 493f a6d8 ac3f
00000020: 9799 873f f8a5 4bbf 05d7 c9be 9535 7abf
00000030: b68b 143e e019 ff3f a085 b73f 78ba fabd
00000040: baaa 8f3e b2d1 0dbb f3c1 553d 86f0 cb3e
00000050: 73fb 98bf 7f12 8bbf 19cb a9bf 803b 83bf
00000060: 0ac0 7ebd 2d0c 90bf c8e6 94be b7fe 40bf
00000070: de44 793e 8a15 833d 37af 3bbf 831b 24bf
00000080: 9673 0dbf e602 44bf 6265 74bf ee1e b9bf
00000090: 2ea1 acbf 6158 a2bf f557 16bf d09d 99bd
000000a0: 5d61 a63f df0d 813f e6fb 8abd 8efa 113f
000000b0: 1b9f 153f f81b 23bf ad87 aabe 1c92 08bf
000000c0: cfed 58bd 3eb9 a43f

bias f4 [10]
-0.18918307 2.7991402 2.1531837 -0.44436002 -0.74942905 -1.2754023 -1.4366412 -0.5765768
-0.2927826 -1.0925254
00000000: 35b9 41be 1d25 3340 c3cd 0940 2883 e3be
00000010: 95da 3fbf 6240 a3bf dce3 b7bf 8a9a 13bf
00000020: 9ae7 95be dfd7 8bbf

weight f4 [10, 10]
-0.042467877 1.0366571 0.73204833 0.27705026 0.7080157 -0.8074069 0.8959679 0.8921543
0.97946316 -0.6358121 0.29757687 1.4201205 1.4351757 0.29429242 0.79056454 0.82358783
1.1257606 1.0242144 -0.35564503 0.32486144 -0.21089397 -3.174883 -2.4046695 0.20017591
-0.837936 -1.0263371 -1.1818992 -1.2890184 -5.6097107 -0.7981159 -0.19644438 -2.8335927
-2.379392 -0.09667209 -1.0234789 -0.7938876 -0.82629085 -0.6975657 -5.6533637 -1.1914672
0.048957277 -2.623199 -2.5028965 0.31368592 -1.1862532 -0.96153194 -0.85260224 -1.2426215
-6.7403316 -1.2862691 0.070358105 -3.0158007 -2.2400663 -0.0011673342 -0.890385 -0.95397043
-0.7530857 -0.95580864 -5.9870763 -0.81801057 0.22870462 -3.0513585 -2.6858943 -0.019924073
-1.0848919 -0.2973785 -1.1506605 -1.2839173 -5.290027 -0.12830819 0.006211382 -2.7694695
-2.6389022 0.12636474 -1.1649956 -0.9389628 -0.9272049 -1.2259011 -6.0180984 -1.0159609
-0.076119155 -2.9728944 -2.142903 -0.10720634 -1.0068604 -1.1146705 -0.874784 -0.95756024
-6.198934 -0.8793434 -0.062335104 -2.978864 -2.3148904 -0.28945658 -0.72672427 -0.7175594
-1.1640239 -0.78186363 -5.6655383 -0.9252438
00000000: ccf2 2dbd 2eb1 843f 8567 3b3f 88d9 8d3e
00000010: 8440 353f 38b2 4ebf 275e 653f 3964 643f
00000020: 19be 7a3f 95c4 22bf ff5b 983e 82c6 b53f
00000030: d6b3 b73f 7fad 963e 7062 4a3f a7d6 523f
00000040: ec18 903f 7519 833f 1b17 b6be 3d54 a63e
00000050: 97f4 57be 4831 4bc0 1be6 19c0 eafa 4c3e
00000060: f982 56bf 045f 83bf 7948 97bf 8efe a4bf
00000070: c082 b3c0 5351 4cbf b728 49be 9559 35c0
00000080: f547 18c0 04fc c5bd 5b01 83bf 383c 4bbf
00000090: cc87 53bf aa93 32bf 5be8 b4c0 ff81 98bf
000000a0: 6d87 483d 7ee2 27c0 752f 20c0 719b a03e
000000b0: 25d7 97bf f526 76bf 2444 5abf 390e 9fbf
000000c0: ccb0 d7c0 77a4 a4bf e917 903d e102 41c0
000000d0: 3f5d 0fc0 3c01 99ba 45f0 63bf 6837 74bf
000000e0: 39ca 40bf e0af 74bf 2196 bfc0 2469 51bf
000000f0: 8b31 6a3e 7549 43c0 b1e5 2bc0 cf37 a3bc
00000100: bddd 8abf ff41 98be d848 93bf 6757 a4bf
00000110: e747 a9c0 3963 03be d988 cb3b fd3e 31c0
00000120: c6e3 28c0 c265 013e 931e 95bf de5f 70bf
00000130: 4d5d 6dbf 54ea 9cbf 4394 c0c0 020b 82bf
00000140: 5ce4 9bbd e743 3ec0 5325 09c0 ff8e dbbd
00000150: cde0 80bf 86ad 8ebf d8f1 5fbf ab22 75bf
00000160: ab5d c6c0 a61c 61bf 1853 7fbd b5a5 3ec0
00000170: 2a27 14c0 a733 94be 9a0a 3abf f9b1 37bf
00000180: bcfe 94bf 3728 48bf 174c b5c0 c7dc 6cbf

bias f4 [10]
-0.65679103 3.3705473 -1.646582 -1.6759094 -1.7568947 -1.921458 -1.7103002 -2.0608616
-1.6267128 -1.7166408
00000000: 7523 28bf 0cb7 5740 33c3 d2bf 3384 d6bf
00000010: ede1 e0bf 56f2 f5bf 1eeb dabf 28e5 03c0
00000020: 2038 d0bf e3ba dbbf

weight f4 [1, 1, 5, 5]
4.0360985 0.5390552 -0.11910352 -0.536569 0.46660373 -0.7811521 -0.6933511 -0.09007169
-1.1469312 0.7492324 -1.1085724 -1.9777988 -0.9647738 -0.6554313 3.1086378 0.29389054
-1.008586 -1.6670936 -0.1292874 2.9220304 -0.1919682 -1.8686055 0.37725532 2.7988558
1.2168291
00000000: b827 8140 86ff 093f 8cec f3bd 965c 09bf
00000010: afe6 ee3e 96f9 47bf 757f 31bf 8277 b8bd
00000020: a4ce 92bf b2cd 3f3f b3e5 8dbf 8328 fdbf
00000030: 6afb 76bf 58ca 27bf ecf3 4640 d278 963e
00000040: 5919 81bf 5363 d5bf eb63 04be 8c02 3b40
00000050: 5093 44be 772e efbf 9c27 c13e 7420 3340
00000060: 0ec1 9b3f

weight f4 [5, 144]
-0.05021284 -1.0269808 -1.8617842 3.682485 1.7328054 3.3259737 -1.7358845 1.4710058
0.98723423 0.5217042 -0.71398044 0.37552273 0.07555897 -2.842439 -1.6925867 0.048362073
-2.682144 -0.8040299 1.3781713 2.0179 4.0270553 3.7240243 3.059352 1.0253409
2.5415046 -2.2678814 -0.6840094 0.65957195 0.9656286 -1.0120193 -2.9568827 -2.6129997
-2.3106427 -0.7261951 1.1773154 1.3948207 0.44509503 2.0106947 0.46582523 0.24514596
1.8847748 1.1038204 -2.6177554 -2.765531 -3.5972059 -2.271321 -0.91093713 -1.1048361
-1.7267056 0.70229584 0.8633406 1.9096209 1.1345062 -0.39088786 -3.070763 -1.7483656
-0.33445826 -4.85499 -1.9561898 -3.161467 -0.11716766 1.9912256 0.20587064 1.1481457
-1.1614113 -0.96124446 -1.0241889 1.2638144 1.7382563 -1.1616623 0.041621033 -0.8146402
-0.09945327 -2.3324566 -2.6199307 -0.021438489 -0.6960868 -0.35263884 0.85922265 1.5642438
2.136524 1.2538366 2.0720294 0.026174285 3.4183276 -0.11487457 -2.699346 -4.354622
-2.1616821 0.65758383 0.021524355 0.8968847 1.0000991 0.09689542 2.5256774 1.0014244
1.2149619 1.4827799 -1.3034862 -2.9256036 -0.090731345 1.1318438 0.66651964 -0.5705954
0.23552129 2.594148 -0.2707583 1.9817425 2.3061476 0.9501664 0.08253698 -0.6638244
-1.4033542 -0.88517284 0.23062004 0.35376438 -0.15326007 0.22870353 1.4683378 2.662271
0.18686675 2.0472372 2.5856237 5.370907 1.1996676 0.6192208 0.8341363 2.1344697
0.6987009 -0.26706636 2.3345852 0.010873467 0.982561 -0.0004391916 1.4124106 1.1885024
0.84488946 2.4413917 0.8901265 0.27593577 -1.2652106 0.7692452 1.3693066 -0.98239774
0.99587494 0.1222384 0.06314303 -1.1437696 0.6085197 0.8519408 -3.0259218 0.27886778
-0.022467306 0.63531435 -0.26391104 0.038515456 0.021891467 -0.46106043 0.21286054 0.6854022
-0.12184062 -0.9253963 -1.123044 -0.12232719 -0.13621368 -0.46149135 -0.6554351 -0.05305805
-0.5606562 0.5756959 -1.2614484 0.64044476 -0.45755166 -2.9441488 5.1040173 7.1778264
7.3757386 4.462775 1.0354108 0.6325627 0.35886627 -0.9354213 -0.30723876 -2.4329717
-3.922035 -2.7762947 2.3902721 5.8809676 7.539512 5.9580393 2.3266797 2.128255
1.3631477 -1.4711789 1.699027 -3.6749065 -0.39171436 -4.028227 3.2582936 4.014619
6.3213525 6.455603 1.938677 0.60502195 1.1481895 -0.30174026 -3.0405262 -2.744074
-2.009523 1.2085115 -0.73862565 -0.17773545 -0.7699539 0.43757463 0.8627689 3.161129
0.06555924 -0.4619117 -2.1065626 1.4961134 -0.47297567 -0.7235695 -0.8693553 -1.673945
-1.7286264 -0.38627905 -1.2865384 0.024079906 -0.8619579 -1.5332422 1.9280629 6.576377
-1.751239 -1.617401 -1.4157366 -1.1381471 -1.8640263 -0.5018005 0.63626796 0.93639225
2.561899 0.4807832 1.6900251 -0.457463 -2.1232228 -2.7188544 -0.6556433 -3.108614
-2.7162595 1.0490563 0.23690015 0.8852576 1.3390033 2.1205502 2.8291142 0.8720298
00000000: fbab 4dbd 1b74 83bf f24e eebf d6ad 6b40
00000010: 91cc dd3f c1dc 5440 7731 debf eb49 bc3f
00000020: 62bb 7c3f 688e 053f 6cc7 36bf 8444 c03e
00000030: a9be 9a3d 85ea 35c0 aea6 d8bf 4f17 463d
00000040: 3fa8 2bc0 e7d4 4dbf eb67 b03f 4625 0140
00000050: a3dd 8040 6a56 6e40 6ccc 4340 5f3e 833f
00000060: 03a8 2240 f824 11c0 3d1b 2fbf b5d9 283f
00000070: 7033 773f d989 81bf 913d 3dc0 633b 27c0
00000080: 92e1 13c0 ece7 39bf 45b2 963f 7c89 b23f
00000090: 7fe3 e33e 39af 0040 a580 ee3e 8b07 7b3e
000000a0: 4d40 f13f fd49 8d3f 4e89 27c0 76fe 30c0
000000b0: 9f38 66c0 535d 11c0 2d33 69bf 456b 8dbf
000000c0: b004 ddbf a9c9 333f e403 5d3f 756e f43f
000000d0: 8037 913f 7422 c8be 6287 44c0 72ca dfbf
000000e0: 1d3e abbe 145c 9bc0 6d64 fabf 7a55 4ac0
000000f0: 99f5 efbd 7be0 fe3f c1cf 523e 70f6 923f
00000100: 20a9 94bf 1e14 76bf 9f18 83bf acc4 a13f
00000110: 2f7f de3f 5ab1 94bf d17a 2a3d 438c 50bf
00000120: 28ae cbbd f846 15c0 f2ac 27c0 c59f afbc
00000130: bf32 32bf 148d b4be 04f6 5b3f 2439 c83f
00000140: cfbc 0840 b87d a03f 219c 0440 746b d63c
00000150: e1c5 5a40 5c43 ebbd 16c2 2cc0 1059 8bc0
00000160: 0059 0ac0 6a57 283f d853 b03c 3c9a 653f
00000170: 3f03 803f 1b71 c63d b3a4 2140 ad2e 803f
00000180: df83 9b3f bbcb bd3f a3d8 a6bf 173d 3bc0
00000190: 5bd1 b9bd 42e0 903f 08a1 2a3f 8a12 12bf
000001a0: 7e2c 713e 8506 2640 d5a0 8abe bda9 fd3f
000001b0: ec97 1340 1b3e 733f 2609 a93d 65f0 29bf
000001c0: 1ca1 b3bf b09a 62bf a927 6c3e 9b20 b53e
000001d0: 35f0 1cbe 4231 6a3e 7ef2 bb3f a662 2a40
000001e0: ff59 3f3e ef05 0340 dc7a 2540 78de ab40
000001f0: b58e 993f 4185 1e3f f589 553f 279b 0840
00000200: 10de 323f ecbc 88be d869 1540 a026 323c
00000210: 1e89 7b3f 4c43 e6b9 dfc9 b43f d920 983f
00000220: ad4a 583f c33f 1c40 55df 633f 7447 8d3e
00000230: 6cf2 a1bf 41ed 443f 7045 af3f 6b7e 7bbf
00000240: a9f1 7e3f 2058 fa3d 2251 813d 0b67 92bf
00000250: f2c7 1b3f cb18 5a3f b4a8 41c0 c2c7 8e3e
00000260: 5b0d b8bc f6a3 223f 591f 87be 62c2 1d3d
00000270: bc55 b33c 1d10 ecbe 1df8 593e 8576 2f3f
00000280: 9387 f9bd c6e6 6cbf e8bf 8fbf ae86 fabd
00000290: 997b 0bbe 9848 ecbe 98ca 27bf 6653 59bd
000002a0: 2a87 0fbf ce60 133f 2477 a1bf 30f4 233f
000002b0: 3644 eabe ef6c 3cc0 1c54 a340 c1b0 e540
000002c0: 0d06 ec40 0ecf 8e40 5788 843f a1ef 213f
000002d0: 52bd b73e c577 6fbf 664e 9dbe cfb5 1bc0
000002e0: 9f02 7bc0 d0ae 31c0 38fa 1840 e330 bc40
000002f0: af43 f140 42a8 be40 52e8 1440 5435 0840
00000300: a07b ae3f 974f bcbf b779 d93f ab31 6bc0
00000310: c98e c8be 3ce7 80c0 e287 5040 c277 8040
00000320: 8548 ca40 4d94 ce40 9126 f83f b8e2 1a3f
00000330: e0f7 923f b37d 9abe fb97 42c0 e99e 2fc0
00000340: 069c 00c0 81b0 9a3f 9216 3dbf 4800 36be
00000350: b31b 45bf c809 e03e 6cde 5c3f f04f 4a40
00000360: ec43 863d b17f ecbe ecd1 06c0 a580 bf3f
00000370: de29 f2be da3b 39bf 128e 5ebf d443 d6bf
00000380: a143 ddbf 5ec6 c5be 4aad a4bf 3943 c53c
00000390: 46a9 5cbf 4841 c4bf c4ca f63f ae71 d240
000003a0: 9928 e0bf ff06 cfbf db36 b5bf ceae 91bf
000003b0: 6a98 eebf ff75 00bf 75e2 223f 67b7 6f3f
000003c0: 27f6 2340 3729 f63e be52 d83f 9738 eabe
000003d0: e2e2 07c0 b601 2ec0 3dd8 27bf 88f3 46c0
000003e0: 32d7 2dc0 7a47 863f f495 723e 3ea0 623f
000003f0: 7664 ab3f 18b7 0740 3510 3540 583d 5f3f

bias f4 [5]
6.6527877 -3.999005 -0.79837 -0.98655033 -1.6291656
00000000: a3e3 d440 b3ef 7fc0 fa61 4cbf 908e 7cbf
00000010: 8088 d0bf
