models/pre_trained/mnist_pre_trained_10_5_04_18_29_36_57_expert_model.pt (torch, 70399 bytes, 70 tensors)

weight f4 [1, 1, 5, 5]
00000000: a5dd 993e 969a 523f e374 233f 8e4e 5d40
00000010: 4754 8b40 2be1 f43f f34c 4540 5ad9 1640
00000020: 87ef 7f3f 8c22 0a40 1157 e83d 5a70 8e3f
00000030: 8714 c03f 2afd 0f3f f01a 49bd d811 e9be
00000040: a7ec 86bf 1ca1 1cc0 a345 a8bf 77f1 43bf
00000050: 1991 16c0 1610 d1be d670 dcbf 5ad7 95bf
00000060: 2643 57bf
0.30051914 0.8226713 0.6385023 3.4579196 4.354038 1.9131216 3.0828216 2.357016
0.99974865 2.1583586 0.113447316 1.1128037 1.5006264 0.5624567 -0.049097955 -0.45521426
-1.054097 -2.4473333 -1.3146251 -0.7654032 -2.352606 -0.40832585 -1.7221935 -1.1706345
-0.84086835

weight f4 [5, 144]
00000000: 8354 413d 56cb 0bbd 80a2 003d 6762 93bd
00000010: 3bf7 2c3d fbe7 e6bc 5620 20bc f7a1 6abf
00000020: 43a8 123d 0671 a2bc d0da d8bc 06f7 09bd
00000030: 2cd8 9fbd 902b 39bd 9b1e 3cbd bf02 61bf
00000040: 43e2 80bd b0d1 76bf 6ebe 85bf 5213 7dbf
00000050: a83d 6cbf b669 5dbc 0094 fb3a 6788 993d
00000060: 8b2d 4dbc 3ef3 08bd fbfe 6fbf 9ebc 83bf
00000070: a68a 7fbf f5b9 86bf 4f34 89bf 497d 6bbf
00000080: 66d3 6ebf 0694 70bf bead a6bd ab1d 9d3b
00000090: b30e a23d 96cb ffbc 09a6 83bf 7b51 7cbf
000000a0: 3846 89bf f047 8abf 8e9e 81bf ad53 83bf
000000b0: 375b 70bf 4988 86bf 0b1f c4bc d84b 583d
000000c0: 60d6 ee3c 960f 79bf 511b 75bf 49bd 7abf
000000d0: 4b7f 83bf c379 81bf 75a6 7abf f2a2 85bf
000000e0: 0575 73bf da48 72bf 1faf 82bf 5605 b0ba
000000f0: 989b 1f3d f011 82bf 8d6b 72bf 7f5e 86bf
00000100: 3331 6bbf 46d2 84bf b13d 86bf 19cc 74bf
00000110: d413 89bf 6691 81bf 9691 88bf 00aa d7ba
00000120: 4bd3 6bbc 99a1 8abf 658e 7fbf 1598 81bf
00000130: 13e3 80bf 6c2b 79bf 0116 71bf a7a2 81bf
00000140: a1aa 85bf eed7 87bf d7b0 76bf a06c 823d
00000150: f680 81bc bc0b 6fbf 957d 88bf 65e6 86bf
00000160: 0b4d 81bf c5ac 89bf af9d 81bf 3976 87bf
00000170: 7b44 89bf 23c8 7dbf c860 85bf 36c1 b4bc
00000180: 46a4 88bd 4c12 81bf ce72 7ebf 0d00 84bf
00000190: 523c 84bf 478a 77bf f349 7dbf 615f 74bf
000001a0: 609b 6ebf 8d8d 86bf 6012 f13c 865e 74bd
000001b0: 0094 c13a ea21 89bf 5d44 7abf 185f 76bf
000001c0: 0d31 87bf 259c 6ebf 87af 6cbf d6a5 88bf
000001d0: 992c 89bf 2ba0 e43b 303b bebc e692 9d3d
000001e0: d351 77bd dd04 6dbf ae9c 88bf a836 81bf
000001f0: c8f6 6abf 3712 82bf f267 82bf 1d01 7bbf
00000200: 68fb 70bf b68b 47bd bee8 8b3d 8027 4abc
00000210: d68c f3bc 46c2 d73c 168f 6bbf 0f8f 87bf
00000220: b64e 86bf da13 6cbf 18db 7abf 06b1 84bf
00000230: a8df 9f3d 9f3f 97bd 7b8c e53c 566c 14bb
00000240: a6a0 8abc d69b 2dbd e687 efbc fb7b 103d
00000250: 26ee 003d 73d2 86bf 6a02 6f3f 4951 70bf
00000260: 10e5 39bd f68a 183d 7430 93bd 5686 04bd
00000270: 8b05 babc cb70 48bd 96e8 f93b d95f 82bf
00000280: e3e3 723f 5781 84bf 1451 8abf 0180 6d3f
00000290: 258a 79bf 1db9 6dbf 0a10 88bd 4b6b 1f3c
000002a0: b622 8ebd a6d6 623f 5379 84bf e18e 763f
000002b0: 99f3 75bf a0d8 84bf 89fa 89bf 2b29 7dbf
000002c0: bbb9 6cbf 5599 8abf 57e6 9fbd 6760 9ebd
000002d0: a202 6cbf deb5 853f e12d 8abf f49c 6e3f
000002e0: 9212 723f 79e7 803f 000c 783f 24eb 77bf
000002f0: 0770 72bf 7b66 74bf 2b8f 6d3f 03a4 89bd
00000300: ae8c 69bf d47c 72bf f8bf 85bf 7701 82bf
00000310: 365d 813f f6d1 87bf 99d6 83bf 59fc 79bf
00000320: 946b 78bf 0874 6ebf 9a34 7cbf 5b45 5bbd
00000330: b507 77bf 40be 87bf 25e6 85bf 967a 72bf
00000340: 60f1 82bf 7904 71bf da4c 6fbf 6a60 74bf
00000350: 0a35 79bf 4b94 89bf 5219 81bf e7db a0bd
00000360: 2a68 76bf 3818 87bf 1ae7 75bf 35c5 76bf
00000370: 0636 85bf 8080 83bf 64df 81bf 652a 82bf
00000380: baba 85bf 8dbb 7ebf e7ba 89bf 38ff 753d
00000390: f7d7 89bf da13 86bf 5ec7 70bf c6b9 7abf
000003a0: 519b 89bf 9b90 88bf 674d 6bbf 0ab1 6abf
000003b0: a025 6ebf e0ee 80bf 2717 88bf 508d 6bbd
000003c0: 4a43 933d d8c7 88bf 20ca 77bf 3740 7ebf
000003d0: ec02 72bf d38c 85bf 42ca 87bf 0d24 75bf
000003e0: f95a 82bf 2b74 7bbf dd18 75bf 6b83 513d
000003f0: f0aa 81bc 77c0 7fbf 3c01 6dbf efc6 873f
0.047199737 -0.034129463 0.031404972 -0.07196503 0.042227965 -0.028186789 -0.0097733345 -0.9165339
0.035804998 -0.019829284 -0.026471525 -0.033682846 -0.078049034 -0.04520756 -0.045927625 -0.87894815
-0.06293156 -0.9641371 -1.044874 -0.98857605 -0.9228158 -0.013513973 0.0019193888 0.0749672
-0.012523065 -0.0334351 -0.93748444 -1.0291936 -0.99820936 -1.05255 -1.0719088 -0.91988045
-0.9329132 -0.93975866 -0.081386074 0.0047947965 0.0791296 -0.031225007 -1.0285045 -0.9856183
-1.0724554 -1.0803204 -1.0126512 -1.0259911 -0.9388918 -1.0510341 -0.023940584 0.052806705
0.029154956 -0.9728941 -0.95744807 -0.97945076 -1.0273222 -1.0115284 -0.97910243 -1.0440352
-0.9510043 -0.9464241 -1.0209693 -0.0013429325 0.038966745 -1.0161724 -0.9469536 -1.0497588
-0.9187195 -1.037667 -1.0487577 -0.9562393 -1.0709176 -1.0122497 -1.0669429 -0.0016453862
-0.014393638 -1.0830566 -0.9982665 -1.0124537 -1.0069298 -0.9733188 -0.941742 -1.0127763
-1.0442697 -1.0612772 -0.96363586 0.06368375 -0.015808564 -0.9337728 -1.0663325 -1.0539061
-1.0101637 -1.075585 -1.0126246 -1.0582954 -1.0724024 -0.9913351 -1.042016 -0.022064786
-0.06671958 -1.0083709 -0.9939393 -1.0312515 -1.0330908 -0.9669537 -0.9894096 -0.95458037
-0.93205833 -1.0511948 0.029427707 -0.059660457 0.0014768839 -1.0713475 -0.97760564 -0.9623885
-1.0561844 -0.9320701 -0.92455333 -1.0675609 -1.0716735 0.0069771013 -0.023221582 0.07694034
-0.060380768 -0.92585546 -1.0672815 -1.0094805 -0.9178281 -1.0161809 -1.0187972 -0.98048574
-0.94133615 -0.048717223 0.068315014 -0.012338519 -0.029730242 0.026337754 -0.92015207 -1.0590533
-1.0492771 -0.9221779 -0.9799056 -1.0366523 0.07806331 -0.07385182 0.028021088 -0.002264758
-0.016922306 -0.042384945 -0.029239606 0.035274487 0.031477116 -1.0532974 0.9336306 -0.9387403
-0.045384467 0.0372419 -0.07186976 -0.032354675 -0.022707721 -0.048935693 0.0076266034 -1.01855
0.9487898 -1.0351971 -1.0805993 0.92773443 -0.97476417 -0.92860585 -0.06643684 0.0097301705
-0.06940214 0.8860878 -1.0349525 0.96311766 -0.96074826 -1.0378609 -1.0779582 -0.9889094
-0.924709 -1.0828043 -0.07807606 -0.07733231 -0.9219152 1.0446126 -1.0795251 0.9320824
0.94559586 1.007064 0.9689331 -0.9684317 -0.9470219 -0.9546887 0.9279658 -0.06720736
-0.91230285 -0.9472172 -1.0449209 -1.0156697 1.0106571 -1.061095 -1.0299865 -0.97650677
-0.9703915 -0.931458 -0.98517764 -0.05353294 -0.96496135 -1.0604935 -1.046086 -0.947183
-1.0229912 -0.9414745 -0.9347664 -0.95459616 -0.97346556 -1.074838 -1.0085852 -0.07854443
-0.9625269 -1.0554266 -0.9605576 -0.96394664 -1.0407112 -1.027359 -1.0146298 -1.0169188
-1.044761 -0.9950493 -1.0760163 0.06005785 -1.0769032 -1.0474808 -0.9405421 -0.9793972
-1.0750524 -1.066913 -0.9191498 -0.9167639 -0.9302616 -1.0072899 -1.0632066 -0.057507813
0.07190569 -1.0685987 -0.96792793 -0.99316734 -0.9453571 -1.0433601 -1.0608599 -0.95758134
-1.0184013 -0.98224133 -0.95741063 0.05115072 -0.01582858 -0.99903053 -0.9258001 1.0607585

bias f4 [5]
00000000: c5f5 7fbf 4d09 7fbf 27bd 6bbf 71e1 863f
00000010: 6e00 73bf
-0.9998439 -0.99623567 -0.920855 1.0537549 -0.9492253

weight f4 [10, 5]
00000000: 8c64 20bf e009 89bf ed80 2bbf d9d9 8fbf
00000010: 03c8 1fbf 4a98 ab3e 48df aebe 7abd 08be
00000020: 9f88 9cbf b407 c5be b11d 8dbf 8b7b 6dbf
00000030: 395f 36bf 8d03 79bf fe0c 55bf ede0 c6be
00000040: 465c acbe fbbb 83be 2cb2 0abe 6524 d8bc
00000050: e073 913f 0d67 0e3f e257 513f d32a 8f3e
00000060: 4b85 ae3f 4ed6 8a3f 3fb7 2e3f 24fe 383f
00000070: cb67 553f 034c 813f 834c 253f d21f 7c3f
00000080: 8d58 7a3f 383e 2540 e305 6f3f ea85 b7bf
00000090: 0a1b 73bf e7d0 4cbf ab21 4d3f a714 b8bf
000000a0: 08e3 d2be 01a5 3cbe 518a 56be c8ee 38bf
000000b0: a3ac 6bbd f9ca 783e ccf5 b63f 9548 a83f
000000c0: 96c9 4440 0408 1d3e
-0.6265342 -1.0706139 -0.669936 -1.1238357 -0.6241457 0.33514625 -0.34154725 -0.1335353
-1.2229193 -0.3848244 -1.1024686 -0.92766637 -0.7123905 -0.97271043 -0.8322295 -0.3884348
-0.3366415 -0.25729355 -0.1354453 -0.026384542 1.1363487 0.55625993 0.81774724 0.2796236
1.3634428 1.0846651 0.6824836 0.7226279 0.833615 1.0101322 0.6456987 0.98486054
0.9779137 2.5819225 0.9336836 -1.4337742 -0.94963133 -0.8000626 0.801295 -1.4381303
-0.41188836 -0.18422319 -0.20951201 -0.7223935 -0.057537686 0.24296178 1.4293761 1.314715
3.0748038 0.15335089

bias f4 [10]
00000000: e2be 72bf 723c 32bf 4bcf 85bf 8604 d4be
00000010: d73c a23f c38b eb3f 158e 9b3f 9229 5240
00000020: 1e67 7cbf 83e7 8e3f
-0.94822514 -0.6962348 -1.0453886 -0.414097 1.2674817 1.8402027 1.2152735 3.2837873
-0.98594844 1.1164402

weight f4 [10, 10]
00000000: 6658 473f d176 ed3f df53 7b3f 8fe8 963e
00000010: a4ab 3140 aad9 87bf 7d1c 2f40 c3ab f3be
00000020: 90fc 723f f7bd 3b40 1f36 653f db63 7e3e
00000030: 1d32 8dbf bc67 0bbe 2abb a33f 75b9 123f
00000040: e482 8a3f 19fc 5440 f97d 0bbf d1fc 0fbf
00000050: 725a 3fbf 9452 98bf 9693 a4bf dd43 3dbd
00000060: f5a2 f2bf ef35 11c0 8c05 0bc0 7c1f dcbf
00000070: eae9 f9bf 6899 ffbf 6fc6 89bf 8b6f 4ebf
00000080: ef94 52bf 183b 943c 144c 10c0 bd85 12c0
00000090: 86ce 11c0 08d0 dcbf 9926 ebbf bd3f 00c0
000000a0: 824e 8dbf bf43 45bf 1030 9dbf c222 36bd
000000b0: 822f 13c0 0052 15c0 e903 f1bf 6a2b d0bf
000000c0: 4145 e2bf 8e91 18c0 a3ed 53bf 6ded 9cbf
000000d0: 225b 41bf 2fd2 e3bd b188 16c0 60fb 25c0
000000e0: 3e15 0dc0 ad4f 94bf d08e 9ebf b715 11c0
000000f0: 7b15 37bf 9227 86bf f58e 9ebf 3cae 58be
00000100: 9baa 00c0 230a 13c0 55b0 19c0 66dd b9bf
00000110: 92f2 efbf 2f51 18c0 68d9 72bf 713c 8bbf
00000120: 87c5 31bf eb92 d63d 81c1 fabf c44d 2dc0
00000130: 8aec 13c0 9b1d 99bf 0375 cdbf 490c f2bf
00000140: ac26 87bf 0876 70bf cc3d 30bf e131 b33d
00000150: 4104 07c0 93a1 2dc0 e615 16c0 009a a4bf
00000160: 9e83 f4bf dc63 ebbf 547d 4abf 46ab 79bf
00000170: c581 a0bf 2822 4abe 4e45 17c0 ee25 2bc0
00000180: bde7 efbf b4a6 a2bf 3fd7 cdbf 0529 0dc0
0.7786926 1.8551885 0.9817485 0.29474303 2.776101 -1.0613301 2.7361138 -0.4759198
0.9491663 2.9334695 0.8953571 0.2484278 -1.1030918 -0.1361379 1.2791493 0.57314235
1.0821195 3.3278868 -0.54489094 -0.5624514 -0.74747384 -1.1900201 -1.285754 -0.046207298
-1.895598 -2.2689168 -2.1722136 -1.7197108 -1.952451 -1.9968691 -1.0763682 -0.8063895
-0.82258505 0.018094584 -2.2546434 -2.2894127 -2.2782302 -1.7250986 -1.8371154 -2.0038903
-1.1039584 -0.770565 -1.2280293 -0.04446674 -2.2997746 -2.33313 -1.8829318 -1.6263249
-1.7677385 -2.383884 -0.8278448 -1.2259957 -0.7552968 -0.11124074 -2.352093 -2.5934677
-2.2044215 -1.1586815 -1.2387333 -2.2669504 -0.7151715 -1.0480826 -1.2387377 -0.21160215
-2.010413 -2.2974937 -2.4013875 -1.452069 -1.8745902 -2.379955 -0.94862986 -1.087782
-0.6944203 0.10477241 -1.9590303 -2.7078714 -2.3113122 -1.196216 -1.6051334 -1.8909999
-1.0558677 -0.939301 -0.68844295 0.08749748 -2.1096346 -2.7129867 -2.3450866 -1.2859497
-1.9102666 -1.838985 -0.79097486 -0.9752697 -1.2539603 -0.19739592 -2.363605 -2.67419
-1.8742596 -1.2707124 -1.6081313 -2.2056286

bias f4 [10]
00000000: e8c9 a53f d801 0540 99cd debf 5ca4 e0bf
00000010: df00 debf c7d3 c2bf 2386 e6bf 6873 f2bf
00000020: 18c9 d4bf 22d8 d0bf
1.2952242 2.0782375 -1.7406493 -1.7550159 -1.7344016 -1.5220879 -1.8009685 -1.8941469
-1.6623869 -1.6315958

weight f4 [1, 1, 5, 5]
00000000: 6ba9 3440 f8b5 6abf c2cf 9cbd 88ea 0f3e
00000010: 0e14 7d40 ced0 3b40 3a69 babf b8b7 02c0
00000020: 49a5 46bf 7a2a ca3f aab2 a03f e7d5 40bf
00000030: 453d e5bf ea0c 81bf 31df b8be 927d a03e
00000040: ee97 55bf 18fc 26bf 8a1f 43bf c14d 153e
00000050: 4ead 9abf ae8a 86bf 94ea 93bf de14 ab3f
00000060: c2a5 cb3f
2.8228405 -0.9168391 -0.07656814 0.1405431 3.954349 2.9346194 -1.4563363 -2.0424633
-0.77595955 1.5794213 1.2554524 -0.7532639 -1.7909323 -1.0082066 -0.36107782 0.31345803
-0.8343495 -0.65228415 -0.7622 0.14580442 -1.2084138 -1.0511072 -1.1555963 1.3365743
1.590996

weight f4 [5, 144]
00000000: ba5e 81bf 050c 85bf e555 85bf fa4d 85bf
00000010: d38f 76bf 6129 76bf a70a 8abf bb08 6bbf
00000020: 11c7 7ebf 326d 76bf 41bc 83bf 1187 74bf
00000030: 71c8 7dbf ab1f 7fbf 7542 6ebf d250 83bf
00000040: 5602 7fbf 8493 82bf 8d44 7dbf 1624 84bf
00000050: bbe3 88bf ba0b 89bf 13a4 70bf 34ba 82bf
00000060: 2e40 6bbf 22b3 6abf 3a41 6ebf 41ce 86bf
00000070: 9145 6bbf 311f 80bf 7b17 79bf c02b 78bf
00000080: ffbf 73bf 2c19 80bf b902 83bf 8c2c 86bf
00000090: a41b 80bf 588b 6dbf be7c 70bf 885f 89bf
000000a0: 3e9a 77bf b599 76bf 7add 74bf cd59 81bf
000000b0: 4199 84bf 0f1b 6fbf eb6d 83bf d874 80bf
000000c0: 4f75 6abf 84cb 75bf f866 8abf 2064 73bf
000000d0: 9dd5 80bf b979 71bf 8907 81bf 34ab 81bf
000000e0: 9c5d 80bf 9bc5 84bf afcb 75bf a28c 6dbf
000000f0: 6054 72bf 535a 74bf c6ce 7fbf 6229 7cbf
00000100: 36a3 78bf 3bad 82bf 29c8 89bf 0caf 6fbf
00000110: f1ea 88bf 65fd 7cbf b503 7abf 1f75 85bf
00000120: 381d 86bf 6e1e 85bf 2ae5 85bf 36c3 7cbf
00000130: eeae 78bf b18a 7bbf d90e 76bf ca9b 7ebf
00000140: 3536 84bf a2f7 78bf 4c3c 80bf a63a 81bf
00000150: d85f 70bf 8b15 72bf 5dfe 6abf 9309 84bf
00000160: 1c77 81bf 041f 7bbf 8f40 6abf 93b7 7fbf
00000170: fb9a 6cbf 0c57 88bf c828 84bf 6dd5 87bf
00000180: 3a7b 75bf db3b 87bf 996f 88bf e48e 87bf
00000190: 905d 86bf 65f4 7dbf 1fb3 83bf 78cb 84bf
000001a0: 4616 73bf 6e0a 86bf 7907 87bf 503e 7abf
000001b0: 32ba 82bf a4a0 7bbf 10b1 7bbf cc3b 6fbf
000001c0: eb62 89bf 0ba8 6bbf 54fe 74bf 25e1 73bf
000001d0: 7b88 89bf 163f 85bf c425 8abf 2097 89bf
000001e0: 97ed 77bf 14ae 76bf b0f7 87bf f300 7cbf
000001f0: 9fca 78bf 8ab6 82bf 26fa 7bbf 1b12 89bf
00000200: b805 87bf 18f5 75bf beb1 77bf 5ee6 89bf
00000210: d576 88bf 97b8 87bf 9a3f 7cbf 6eba 79bf
00000220: a485 75bf 5189 82bf 2758 89bf b617 7cbf
00000230: 0468 80bf b955 83bf 8d52 77bf b7ea 79bf
00000240: f9c8 843e 43b7 183e 09f8 96bf 0cb7 a0bf
00000250: 84f5 5dbe b778 6e3e 520d 2e3e e953 bfbe
00000260: aef1 e23e e67f bebe 98ca 953e f86c 633e
00000270: cc3a 5c3e 6727 2dbf a528 37bf 3084 423e
00000280: 4d8a b6be 7372 86be c430 8dbc b8bb f9bd
00000290: 8598 0ebf 2c30 c0bf 28fb 6ebe 3d5b 31bf
000002a0: dde5 d3be 7a0c 3fbf 19fa 2dbe 81eb 88be
000002b0: ff42 5ebf 54c1 c8be 21b8 5abf 45cc 88bf
000002c0: 51a7 b6bf 211c 1cc0 d215 62bf 8831 b5bf
000002d0: c090 7e3e 5c6a 11bf cf7e 46bf 79b6 a0bf
000002e0: 428d c3bf baf1 88bf 0af0 9cbf 74e5 a3bf
000002f0: 979d b5bf aa83 abbf a840 46be 80e3 95bf
00000300: 3ceb 1fbf 6a81 4dbf 9112 04bf 2136 c3bf
00000310: d761 ebbf eec0 b8bf cb7d 97bf f21d 83bf
00000320: 0b9a 55bf d74c 2bbf b751 44bf 7e69 99be
00000330: 5018 1ebf f318 2ebf 86cd 11c0 9f23 f5bf
00000340: fe8a b5bf 2c73 57bf f6a7 a5bf 76b8 74bf
00000350: ba8d 80bf a595 fbbf 5d29 b63e 0ab8 ca3e
00000360: e056 25bf fb1e ef3d 2a5c bfbf b54b e9bf
00000370: a7b8 44bf a804 81bf 29d9 a9bf 81b9 41c0
00000380: eeef 2cc0 ef5b b7bf dd31 bebd c6ae 443e
00000390: 2698 dd3e 9634 7a3d 0620 cfbf 971e 40bf
000003a0: ff13 59bf 573c 94bf 86c9 a0bf 3069 07c0
000003b0: 08e8 2ac0 ddcd bdbf 9fdb ccbe c9c9 14bf
000003c0: 2457 e03e e2d1 14bf c2c2 a2bf 5921 39bf
000003d0: dee3 b2bf d8cd b0bf 20f8 c7bf 3f07 0ac0
000003e0: 3d23 d7bf ca68 84bf 7931 f9be 9858 52bf
000003f0: a271 3fbc 6cdd 16bf 82ff 36bf d61b a6bf
-1.0107033 -1.0394293 -1.0416838 -1.0414422 -0.9631321 -0.9615689 -1.0784501 -0.91810197
-0.995225 -0.9626037 -1.0291826 -0.95518595 -0.99133974 -0.99657696 -0.93070155 -1.0259039
-0.9961294 -1.0201268 -0.98932725 -1.0323513 -1.0694498 -1.0706704 -0.9400036 -1.0213075
-0.91894805 -0.91679585 -0.9306828 -1.0531694 -0.91903025 -1.0009519 -0.97301453 -0.9694176
-0.9521484 -1.0007682 -1.0235206 -1.0482345 -1.0008435 -0.92790747 -0.9394034 -1.0732279
-0.9671973 -0.9632829 -0.95650446 -1.010553 -1.0359269 -0.93400663 -1.0267919 -1.0035658
-0.9158525 -0.96013665 -1.0812674 -0.95074654 -1.006519 -0.9432636 -1.0080425 -1.0130372
-1.0028567 -1.0372804 -0.9601392 -0.92792714 -0.94659996 -0.95450324 -0.99924886 -0.98500645
-0.9712404 -1.0209116 -1.0764209 -0.93626475 -1.0696698 -0.9882415 -0.97661906 -1.0426368
-1.0477667 -1.0399911 -1.046056 -0.9873537 -0.9714192 -0.982585 -0.96116406 -0.99456465
-1.0329043 -0.9725286 -1.0018401 -1.0096023 -0.93896246 -0.9456412 -0.9179438 -1.0315422
-1.0114474 -0.980942 -0.9150476 -0.9988949 -0.9242398 -1.0651565 -1.0324945 -1.0612007
-0.95891154 -1.0565141 -1.0659057 -1.0590482 -1.0497303 -0.9920104 -1.0289038 -1.0374594
-0.9495586 -1.0471933 -1.0549155 -0.9775133 -1.0213072 -0.98291993 -0.9831705 -0.9345062
-1.0733312 -0.9205329 -0.95700574 -0.9526542 -1.0744776 -1.0409877 -1.0792775 -1.0749245
-0.9684691 -0.9635937 -1.0622463 -0.9843895 -0.97184175 -1.0211957 -0.9842857 -1.070865
-1.054862 -0.9607711 -0.9675559 -1.0773427 -1.0661265 -1.0603207 -0.9853455 -0.97550094
-0.95907044 -1.0198156 -1.0730027 -0.9847368 -1.0031743 -1.0260535 -0.9661034 -0.9762377
0.2593458 0.14913659 -1.1794444 -1.2555861 -0.21675688 0.23288237 0.16997269 -0.37368706
0.44325012 -0.37206954 0.2925613 0.22209537 0.21506804 -0.6763825 -0.71546394 0.18995738
-0.3565239 -0.26259193 -0.017235167 -0.12194008 -0.55701476 -1.5014701 -0.23337996 -0.69279844
-0.4138631 -0.7462841 -0.16989936 -0.26742175 -0.8682098 -0.39209998 -0.8543721 -1.0687338
-1.4269811 -2.4392169 -0.88314545 -1.4155741 0.24859905 -0.56802917 -0.77537245 -1.2555686
-1.5277483 -1.0698769 -1.2260754 -1.2804399 -1.4188718 -1.3399556 -0.19360602 -1.1710052
-0.62468314 -0.80275595 -0.5159083 -1.5250894 -1.8389233 -1.4433877 -1.1835264 -1.0243514
-0.83438176 -0.66914123 -0.76687187 -0.29963297 -0.6175585 -0.6800682 -2.2781692 -1.9151496
-1.4183042 -0.84160113 -1.2941883 -0.95593965 -1.0043252 -1.9655043 0.35578433 0.39593536
-0.64585686 0.11675831 -1.4950001 -1.8226229 -0.7684426 -1.0079546 -1.3269397 -3.0269473
-2.7021441 -1.4324931 -0.092868544 0.19207296 0.43280143 0.061085306 -1.6181648 -0.75046676
-0.84796137 -1.1580914 -1.25615 -2.1157951 -2.670412 -1.482845 -0.40011308 -0.581204
0.43816483 -0.58132756 -1.2715685 -0.7231651 -1.397579 -1.3812819 -1.5622597 -2.1566923
-1.6807629 -1.0344479 -0.48670557 -0.82166433 -0.011684807 -0.5893161 -0.71483624 -1.2977245

bias f4 [5]
00000000: c248 87bf 7614 fabe 4c0c 6bbf 0b06 75bf
00000010: 3f62 14c0
-1.0569079 -0.48843735 -0.9181564 -0.95712346 -2.3184965

weight f4 [10, 5]
00000000: cab1 37bf 3d11 a7be bf70 8fbf 44ff 50bf
00000010: 7c34 b7bf b7db 87bf 5fa7 5d3f f274 663f
00000020: 6692 753f 3227 27bf 3c44 a53f a5c8 1ebf
00000030: 7339 5c3f c314 883f 80cf 27bf 403a 5ebf
00000040: 87f6 28bf 7b43 32bf c854 82bf 5da3 a9bf
00000050: de06 943d 2e3b 9cbe 24a7 cfbe 518e f03c
00000060: 9a4a b7bd ee51 8cbf b8e2 5dbf cd88 5ebf
00000070: 50cc 87bf 939f 50bf 4a84 8ebf 9f5a 473f
00000080: 1a35 b13f cbcb 543f 70bb 67be 5240 70be
00000090: 603f d1be 585f 40be 4753 1f3d 0c99 5fbe
000000a0: 9f55 833f 6e79 af3f 43f3 393f c58e 583f
000000b0: 5cfc 853e d132 033e 9bb2 04c0 b2b5 31bc
000000c0: ad57 533e fbb6 c1bf
-0.7175566 -0.3263034 -1.1206282 -0.81639504 -1.4312892 -1.0613927 0.86583513 0.90022194
0.9592651 -0.6529418 1.2911448 -0.6202491 0.8602516 1.0631336 -0.65550995 -0.8680763
-0.6600117 -0.6963422 -1.0182123 -1.325298 0.07227872 -0.305139 -0.40557206 0.029364737
-0.08949776 -1.0962503 -0.8667407 -0.8692749 -1.0609226 -0.8149349 -1.1134121 0.7787265
1.384433 0.83123463 -0.22630095 -0.23462036 -0.40868664 -0.18786371 0.03889778 -0.21835726
1.0260504 1.3708932 0.7263681 0.8459285 0.26169097 0.12812354 -2.0734012 -0.010846542
0.20638914 -1.5133966

bias f4 [10]
00000000: c6c4 efbf c959 b13f 5ebc dfbe 4e1c 8cbf
00000010: 4cfc d2be 59fe 0cbf 4cf3 c2be b78a 83be
00000020: b4b7 cbbf 3890 d9bf
-1.8731925 1.3855525 -0.436984 -1.0946138 -0.41208112 -0.55075604 -0.38076246 -0.2569177
-1.5915437 -1.6997137

weight f4 [10, 10]
00000000: 3b5b e4be 2220 1740 8d6a 0040 dfbd 493e
00000010: 1bc6 29be b8e5 6b3f 7b34 f43f 7054 053e
00000020: b3d2 f03f 4176 7e3e 36d9 2840 9274 053f
00000030: fc26 0840 6e60 d13f 5316 583e 32f3 5c3f
00000040: 0eb7 0c40 c920 80bd 426c 1340 2f51 5c3f
00000050: a7f5 b8bf a56d 36c0 cd3c 0ec0 0070 a5bf
00000060: 2d96 1c3d fa5d 7bbf 2602 09c0 f419 5a3e
00000070: 77e0 1bc0 f940 81bf 096b b6bf 065c 1fc0
00000080: 8207 08c0 e411 47bf 2776 403e df52 40bf
00000090: 8742 01c0 5e02 773d 592c 00c0 a770 47bf
000000a0: c1f2 89bf e285 27c0 24da 0cc0 a524 86bf
000000b0: af31 5abd b5fd 8cbf 74c4 edbf 6483 1cbe
000000c0: 42ea 1dc0 d58e 98bf d288 9fbf 301a 1ec0
000000d0: 045e e3bf c22c 96bf 40c2 3cbd b610 80bf
000000e0: 2023 eebf ada5 913e d2b1 00c0 9210 7ebf
000000f0: 1884 93bf 1f4b 28c0 2a1e 0bc0 ae78 7cbf
00000100: 7d3f 35be d516 a9bf a2ec 06c0 9e8d 84be
00000110: 9e0c 01c0 a4a9 9cbf b581 a2bf 19f9 24c0
00000120: b7c3 03c0 7479 89bf 9cd4 863e cdfa a3bf
00000130: 8d24 f4bf 2d26 8ebe b27b 0fc0 0c45 5fbf
00000140: 9d48 93bf ecd8 1ac0 2ad2 f1bf a0f1 3dbf
00000150: a209 593e 1368 92bf a7f7 f8bf dabb 533e
00000160: 7106 04c0 becc 73bf 6884 a0bf de92 27c0
00000170: 001c 0bc0 9d0e 68bf 673e 85bd 5d55 6dbf
00000180: c9f3 d7bf b773 13be c1ac eebf 208b 82bf
-0.44600853 2.3613362 2.0065033 0.19701336 -0.16579477 0.921474 1.9078516 0.13020492
1.88143 0.24849798 2.6382575 0.52131 2.1273794 1.6357553 0.21102266 0.86308587
2.1986728 -0.06256253 2.3034825 0.86061376 -1.4449967 -2.8504422 -2.222461 -1.2924805
0.038229156 -0.9819027 -2.1407561 0.21298963 -2.4355752 -1.0097953 -1.4251415 -2.4899917
-2.1254582 -0.77761674 0.18795072 -0.7512645 -2.0196855 0.060304992 -2.0027068 -0.7790627
-1.0777208 -2.6175466 -2.2008142 -1.0479933 -0.05327004 -1.1014925 -1.8575578 -0.15284497
-2.467423 -1.1918589 -1.2463629 -2.4703484 -1.7763066 -1.1732409 -0.04608369 -1.00051
-1.8604469 0.28446713 -2.0108533 -0.99244034 -1.1524687 -2.629585 -2.173716 -0.9862164
-0.177 -1.3210093 -2.108193 -0.25889295 -2.016395 -1.223927 -1.2695833 -2.5777037
-2.0588205 -1.074019 0.26334083 -1.2810913 -1.9073654 -0.277635 -2.2419248 -0.8721473
-1.1506535 -2.4194899 -1.8892262 -0.74196815 0.21195081 -1.1438011 -1.9450577 0.20677128
-2.0628932 -0.95234287 -1.2540407 -2.618339 -2.173584 -0.906473 -0.06506043 -0.9270838
-1.6871272 -0.1439961 -1.864647 -1.0198708

bias f4 [10]
00000000: 7303 3e40 9939 5b3f 461a 3dc0 6eac 32c0
00000010: d1ab 25c0 1b4b 2ac0 fb2b 32c0 8327 3ac0
00000020: 5f62 25c0 66f9 33c0
2.9689605 0.8563476 -2.9547286 -2.7917743 -2.5886118 -2.660834 -2.7839344 -2.9086616
-2.584129 -2.812097

weight f4 [1, 1, 5, 5]
00000000: cbd2 17bf d1cb 7d3e 7c74 bcbf b257 88bf
00000010: 970b 49bf b5b6 f0bd 1a35 aabf 2de0 21bf
00000020: fbf7 25bf 9434 1240 fd68 733f 78fc 5cbf
00000030: 7068 1fbf 2562 0d40 e5e1 7640 7a9d 01bf
00000040: f5ae 7ebf f09a 72bf 25d3 5b40 b243 3e40
00000050: 7f59 26ba 0ef8 22bf be16 2bbf 79bd 4540
00000060: a268 8d40
-0.5930602 0.24784781 -1.4723048 -1.0651762 -0.7853331 -0.117535986 -1.3297455 -0.6323269
-0.64831513 2.284459 0.95082074 -0.86322737 -0.62268734 2.2091153 3.8575375 -0.50630915
-0.99485713 -0.94767666 3.4347622 2.9728818 -0.00063457334 -0.6365975 -0.66831577 3.0896895
4.4190226

weight f4 [5, 144]
00000000: 5321 71bd 0be2 fa3c bbbb 83bf 3806 70bf
00000010: 3ff9 88bf 99cd 6dbf c449 82bf 77d2 7abf
00000020: 120c 85bf 5e10 81bf 2662 1c3d 36fc c13c
00000030: abe2 25bb 6bd6 a93b df92 8ebd d647 71bf
00000040: 1ae0 7abf debd 89bf dc7c 75bf 9069 86bf
00000050: f6e7 88bf d52e 7cbf 2d42 87bf ec29 a1bd
00000060: b63d c73c 8ee0 2f3d ed15 7abf e648 6fbf
00000070: 3dc9 80bf e030 87bf 35d5 88bf 3f53 76bf
00000080: 32a2 82bf a923 79bf e8cb 76bf da84 a63d
00000090: 00b2 31bb f89a 38bd d166 7bbf b092 85bf
000000a0: 5a49 6dbf f9c0 77bf 2cdf 87bf 0089 83bf
000000b0: bd22 79bf bf88 7cbf b093 87bf c1b5 81bf
000000c0: 3837 88bd 46a1 f5bc 5770 78bf a2ab 73bf
000000d0: baa0 75bf 9593 77bf 1ade 74bf 07d0 6dbf
000000e0: ff12 82bf 584c 88bf 6f64 85bf 8693 f9bc
000000f0: 1f6f 8ebd 643f 6dbf d95e 78bf b270 83bf
00000100: 8694 7ebf ccc9 6dbf 9fec 84bf 43f4 72bf
00000110: 0346 76bf ae46 71bf dad2 6ebf cc5c 9bbd
00000120: 2b10 8b3b d5eb 89bf f653 83bf 4f90 84bf
00000130: 79b6 80bf 83e3 84bf 6ab9 7ebf 2d6d 87bf
00000140: 9fea 76bf a569 7ebf c03b 6fbf 38ac 73bf
00000150: 6417 893d 6e14 963d 5fb8 83bf ae15 87bf
00000160: 777a 8abf 33c5 72bf 6545 79bf 4df3 7bbf
00000170: acbe 81bf 53ce 84bf a99a 71bf 0a0b 80bf
00000180: af51 a73d 1901 86bf c028 7cbf c225 81bf
00000190: 5d75 7abf 643b 80bf 7a45 6bbf 2f96 83bf
000001a0: 3787 78bf 6e25 87bf 5cec 83bf 2e61 85bf
000001b0: 8048 bd3b c901 72bf 16c3 89bf 396f 75bf
000001c0: 70f3 74bf d1a9 81bf b7a5 89bf 0233 81bf
000001d0: 4b7b 79bf d1be 87bf 08bc 89bf dabb 6dbf
000001e0: d610 fd3c 3338 403d 8c0b 89bf 4d9a 87bf
000001f0: 2f97 76bf 1d02 84bf f284 6ebf 0a28 83bf
00000200: d8d6 7cbf 3cc2 6bbf d449 80bf 38cf 79bf
00000210: bb25 8ebd 6073 7f3c 761e 7dbf 3754 80bf
00000220: 17d9 75bf 08ca 7abf 7a2b 78bf ca01 77bf
00000230: ff59 6fbf 2781 77bf 093c 8abf 2b39 89bc
00000240: 8a43 9bbd abc3 0abc e8a5 70bf cc90 7dbf
00000250: c42e 6dbf 5ca1 6cbf b612 6bbf 045d 7abf
00000260: 5f8a 7abf 5c82 88bf a6c3 6ebf 1619 b9bc
00000270: 9894 84bd 4e07 1fbd 2c22 a03d 40c0 83bf
00000280: c33a 80bf d100 80bf 4685 80bf bc16 84bf
00000290: a7a4 85bf d451 81bf 4a84 85bf bbc8 7bbf
000002a0: 131e 18bd 5b24 babc ac00 a03d 8390 88bf
000002b0: d59a 79bf d162 76bf 69be 87bf 6bc0 77bf
000002c0: ca82 7ebf ab7b 7bbf b85f 89bf dffc 7cbf
000002d0: c38d 553d 8b31 193d e0cb 89bf 8526 76bf
000002e0: 7c44 75bf 0726 85bf c0f0 85bf b412 79bf
000002f0: 5971 7cbf 2c8f 72bf a965 7ebf 49ff 84bf
00000300: 566a ee3b 23ed 323d 715e 84bf ade7 89bf
00000310: 022d 7dbf eb76 88bf 9269 8abf 7021 86bf
00000320: 6caa 7cbf 3223 82bf bf35 6fbf d07e 84bc
00000330: 9b6f 553d cb05 12bc ca8b 89bf 494e 7fbf
00000340: b11f 6bbf f57d 6bbf 61bf 7dbf 82a0 6fbf
00000350: 79ef 84bf ae5a 89bf a623 77bf bbd2 8d3c
00000360: 8beb 803c 84df 883d 5236 86bf 031e 7ebf
00000370: de5d 80bf ef63 7abf ba41 85bf 3e06 71bf
00000380: 8a81 78bf b233 85bf cf6c 7ebf 9abb 77bf
00000390: fe76 5cbd c3eb 963d 7102 86bf e374 8abf
000003a0: f06d 77bf 2f32 7cbf 2d6c 84bf 9825 76bf
000003b0: 3bb6 6abf d97d 84bf c3f9 78bf 26f2 87bf
000003c0: 3bca a53c 1456 7abf a098 84bf 80d6 75bf
000003d0: 4bc8 83bf 5679 79bf 0672 6dbf b6e8 80bf
000003e0: 4a6a 78bf c1df 73bf 6963 80bf d5f4 6abf
000003f0: 402f c6bc 9597 79bf 7b3c 6dbf 4ff2 86bf
-0.05886967 0.030625364 -1.0291666 -0.9375949 -1.0701064 -0.9289184 -1.0178761 -0.97977394
-1.0394309 -1.008312 0.03817954 0.023679834 -0.0025312107 0.0051830313 -0.06961607 -0.9425024
-0.979982 -1.0761068 -0.95893645 -1.0500965 -1.0695789 -0.9850896 -1.056707 -0.07869324
0.024321418 0.04293876 -0.97689706 -0.9347061 -1.0061413 -1.056179 -1.0690066 -0.96220773
-1.0205748 -0.9732004 -0.96404886 0.08130808 -0.0027114153 -0.045069665 -0.9820376 -1.043539
-0.9269005 -0.9677883 -1.0614982 -1.0276184 -0.9731863 -0.9864616 -1.0591946 -1.0133592
-0.06651157 -0.029984128 -0.97046417 -0.95183766 -0.95948374 -0.9670957 -0.956514 -0.9289555
-1.0162047 -1.0648298 -1.0421275 -0.030465852 -0.069547884 -0.9267485 -0.97019726 -1.0268767
-0.9944538 -0.9288604 -1.0384711 -0.94903964 -0.9620058 -0.94248474 -0.93290484 -0.07586059
0.0042438707 -1.0775095 -1.0259998 -1.035654 -1.0055686 -1.0381931 -0.9950167 -1.0580193
-0.96451753 -0.9937995 -0.93450546 -0.9518466 0.066939145 0.073281154 -1.029064 -1.0553491
-1.0818623 -0.9483215 -0.9737151 -0.9841812 -1.0136313 -1.0375465 -0.9437662 -1.0003369
0.08169877 -1.0469085 -0.9849968 -1.0089648 -0.9783533 -1.0018125 -0.9190289 -1.0280207
-0.9708132 -1.0558298 -1.0306506 -1.0420282 0.005776465 -0.94533974 -1.076266 -0.9587284
-0.95683956 -1.0129949 -1.0753697 -1.0093691 -0.97453755 -1.0605108 -1.0760508 -0.92864764
0.030891817 0.046928596 -1.0706649 -1.0593964 -0.9632444 -1.0313145 -0.9317161 -1.0246594
-0.98765326 -0.92093253 -1.002253 -0.97581816 -0.0694079 0.015591472 -0.98874605 -1.00257
-0.9603438 -0.97964525 -0.9694134 -0.96487105 -0.934967 -0.96681446 -1.0799571 -0.016750893
-0.075812414 -0.008469502 -0.9400315 -0.9904907 -0.92649484 -0.92433715 -0.91825426 -0.9779818
-0.9786739 -1.0664783 -0.93267286 -0.02259497 -0.064736545 -0.038825326 0.07819018 -1.0293045
-1.0017933 -1.0000249 -1.0040672 -1.0319438 -1.0440873 -1.0103097 -1.0430996 -0.98353165
-0.037138056 -0.022722414 0.07812628 -1.0669101 -0.9750188 -0.9624453 -1.0604984 -0.9677798
-0.9941832 -0.9823558 -1.0732336 -0.9882335 0.052137148 0.037400763 -1.0765343 -0.96152526
-0.95807624 -1.040223 -1.0464096 -0.97294164 -0.98610455 -0.9474971 -0.9937387 -1.0390407
0.00727586 0.043683182 -1.0341321 -1.0773827 -0.988968 -1.0661291 -1.0813468 -1.0478954
-0.98697543 -1.0166991 -0.93441385 -0.01617375 0.05210839 -0.008912514 -1.0745785 -0.9972883
-0.9184523 -0.9198907 -0.99120146 -0.9360429 -1.0385581 -1.0730798 -0.9653877 0.017312398
0.015737316 0.06683257 -1.0485327 -0.99264544 -1.0028646 -0.97808737 -1.0410683 -0.9415015
-0.9707266 -1.0406401 -0.9938478 -0.9677063 -0.053824417 0.07369187 -1.0469495 -1.0816921
-0.96652126 -0.98514074 -1.0345513 -0.96151114 -0.9168431 -1.0350906 -0.97256106 -1.0620773
0.020238033 -0.97787595 -1.0359077 -0.96030426 -1.02955 -0.9745077 -0.9275211 -1.0071018
-0.97037184 -0.95263296 -1.0030338 -0.91779834 -0.024192452 -0.9749692 -0.9267041 -1.0542697

bias f4 [5]
00000000: aae8 70bf 4a4a 85bf 0bf2 88bf c9bd d73e
00000010: 2202 c4be
-0.9410502 -1.0413296 -1.0698866 0.42136982 -0.38282877

weight f4 [10, 5]
00000000: b73f 30bf 8aa2 44bf b601 14bf 0472 5fbf
00000010: 6492 28bf 7b37 84bf cebe 29bf 3aad 6bbf
00000020: 2c71 28bf 541b 8abf 445f 673f a0b9 ab3f
00000030: 0c3d 6a3f cbf4 50bf e4da 85bf ecb0 293f
00000040: a0c9 2c3f 76d2 413f ae5c bcbf 143b 89be
00000050: 24c5 b23e 3a26 7f3e 7e9b c73e 29ed 6ebf
00000060: e6e4 16bf 9d76 253f 4686 393f e475 7d3f
00000070: 39cf 833e 35a9 80be 27c4 343f a616 5b3f
00000080: 3b7e 143f 9e83 20be 8bd9 273e fbac c23e
00000090: 8c3d e53d 3c42 503e e716 b5bf e64e 9fbf
000000a0: 79a8 71bf 27db 88bf 59a3 4fbf 1bb5 89bf
000000b0: ecd7 7bbf 6c4f 32bf af28 98bf ae2c 80bf
000000c0: f245 96bf b8a1 a3bf
-0.6884722 -0.76810515 -0.5781511 -0.8728335 -0.65848374 -1.0329431 -0.6630677 -0.920612
-0.65797687 -1.078959 0.9037974 1.3416023 0.914994 -0.81623524 -1.0457425 0.66285586
0.67495155 0.7571176 -1.4715784 -0.26802886 0.3491603 0.24916926 0.3898582 -0.9333063
-0.5894302 0.64634115 0.7247051 0.9900801 0.25744036 -0.25129095 0.70611805 0.85581434
0.5800511 -0.15675208 0.1639158 0.380226 0.1119338 0.20337766 -1.4147614 -1.2445953
-0.94397694 -1.069188 -0.81108624 -1.0758394 -0.98376346 -0.6965244 -1.1887416 -1.0013635
-1.1740096 -1.2783728

bias f4 [10]
00000000: 129f 24bf 81d6 62bf fabf 03bf c61b 4240
00000010: db51 aabf 517e 08bf 8a80 49be 08ba 04c0
00000020: 346f cdbf b514 5abf
-0.6430522 -0.88608557 -0.5146481 3.0329452 -1.330623 -0.53317744 -0.1967794 -2.0738544
-1.6049562 -0.85187846

weight f4 [10, 10]
00000000: 81f3 a13f 6da3 503f 6b8d 0d40 8875 e83f
00000010: d32b 463f f4ba 9c3f 8988 1f40 58ee 2c3f
00000020: 377a 0040 7167 313f a288 0040 fc3a 683f
00000030: 14fb ee3f c9fb 1440 5b14 49bf 9e47 603f
00000040: bfa2 c93f e7ef 6d3f 1f77 823f 8368 4c3f
00000050: 814f c8bf e440 9ebf b9e1 f8bf 0b08 18c0
00000060: d81c 0dbe df5a 0dc0 3059 fabf 73a7 8fbf
00000070: eca2 e0bf bf5e 61bf bc28 d3bf 9a7d 7dbf
00000080: 6947 0fc0 8ba5 05c0 c130 5abe 3d03 11c0
00000090: 8dda 05c0 68b2 69bf 4191 f8bf 35a6 68bf
000000a0: a3f8 b8bf c5cd 5cbf c1e3 00c0 b8c2 f4bf
000000b0: 7ecb 913c a8b2 f9bf a4b5 f7bf 04cf 9ebf
000000c0: d745 efbf 9da9 82bf 7f15 c1bf 8bda 75bf
000000d0: b0fc d9bf cca9 f3bf 8267 38be 585c 0ac0
000000e0: 3483 0bc0 69af 8dbf 0aa5 f1bf bb34 68bf
000000f0: 7a3f c5bf 72dd 55bf 0235 03c0 ee59 05c0
00000100: f8dd 2f3e 3c9f 12c0 94b0 10c0 0f16 8ebf
00000110: 88ef acbf d94b 95bf 1325 ebbf aa44 52bf
00000120: c872 ecbf 0474 0bc0 bdc8 9cbe bd21 0dc0
00000130: 9bb3 e5bf 3361 96bf 4afc f0bf 1d0c 91bf
00000140: 5b74 f1bf 6112 38bf 8559 d4bf 1ec3 0dc0
00000150: 0994 ce3d 6c40 0bc0 4bf2 debf 2529 82bf
00000160: 06d7 f4bf f670 45bf d0c6 f9bf 3128 a5bf
00000170: 8982 04c0 b03d 05c0 d9b0 443e f5bc 0ec0
00000180: 0d32 edbf cd21 61bf ae26 eebf ee01 7cbf
1.2652436 0.8149937 2.2117565 1.8160868 0.7741062 1.2244554 2.4927084 0.67551184
2.0074594 0.69298464 2.0083394 0.90715003 1.8670373 2.3278677 -0.78546685 0.8760928
1.5752791 0.92944187 1.0192603 0.7984697 -1.5649263 -1.2363553 -1.9443885 -2.375491
-0.13780534 -2.2086713 -1.9558468 -1.1222976 -1.754972 -0.88035196 -1.6496806 -0.9901978
-2.2387335 -2.088229 -0.2130766 -2.2658226 -2.0914643 -0.9128785 -1.9419328 -0.9087861
-1.4450878 -0.8625148 -2.013901 -1.9121923 0.017797228 -1.9507647 -1.9352307 -1.2406926
-1.8693188 -1.0208012 -1.5084685 -0.96036595 -1.7030239 -1.9036193 -0.18008235 -2.1618862
-2.179883 -1.1069156 -1.8878491 -0.9070546 -1.5409997 -0.83541024 -2.0501103 -2.0836139
0.17174518 -2.290969 -2.2607775 -1.1100482 -1.3510599 -1.1663772 -1.8370689 -0.82136023
-1.8472528 -2.178956 -0.306219 -2.2051842 -1.7945436 -1.1748413 -1.8826993 -1.1331822
-1.8863634 -0.71903044 -1.6589819 -2.215034 0.10086829 -2.175807 -1.7417692 -1.0168806
-1.912812 -0.7712549 -1.9513798 -1.290289 -2.0704672 -2.08189 0.19208087 -2.230283
-1.8530899 -0.879422 -1.8605554 -0.98440444

bias f4 [10]
00000000: adb4 a33e da1f 3540 4722 b5bf 9ef4 fcbf
00000010: 1aba f8bf ebaf bfbf e05d cdbf bc5f cfbf
00000020: a917 f0bf c160 05c0
0.31973782 2.830069 -1.4151086 -1.9762151 -1.9431794 -1.4975561 -1.6044273 -1.6201091
-1.875722 -2.0840304

weight f4 [1, 1, 5, 5]
00000000: a393 6d40 c696 9240 df89 bb3f 3735 8fbf
00000010: 9d93 863e 2647 6f40 658b 7d40 6dd3 f83d
00000020: 43f6 6dbf 0095 71be 07ed 453f 5e1f 8d3f
00000030: d412 04bf a832 84bf bbc2 eebf 8335 d93f
00000040: fa28 da3e c01d af3e 76ea 96be 3da1 ecbf
00000050: 24e5 5640 dfb6 2f40 e1ee ad3f 0d34 633e
00000060: 44ca a33f
3.712136 4.580905 1.465145 -1.1188115 0.26284495 3.7387176 3.961633 0.12149701
-0.9295389 -0.23591995 0.773148 1.1025198 -0.5159123 -1.0327959 -1.8653177 1.6969455
0.42609388 0.34202385 -0.29475754 -1.8486706 3.3577356 2.7455366 1.3588525 0.22187825
1.2796102

weight f4 [5, 144]
00000000: 1bad 85bf 0204 8abf 8138 72bf 2da2 81bf
00000010: 18f8 6cbf 626c 81bf 1514 83bf fffc 84bf
00000020: e5fa 83bf 1527 73bf 4f5d 88bf 01ac 88bf
00000030: a22b 87bf f9d7 83bf a310 7ebf e56b 83bf
00000040: f9ed 83bf f276 75bf 5bc9 80bf 6d80 73bf
00000050: 5214 7bbf 128c 6fbf 6ef2 82bf 0847 6cbf
00000060: 903f 89bf fc0a 81bf 984e 77bf 6790 6ebf
00000070: 522e 81bf 309f 7abf 10c8 7dbd 23d5 6abf
00000080: 6b67 7ebf a235 7abf 95d2 75bf 3609 81bf
00000090: f83e 6fbf b7bf 7ebf 7e83 5b3d 43a6 36bd
000000a0: 6b03 3a3d 9009 7abf e60c 53bd 1c52 853d
000000b0: 7e06 80bf 3594 7dbf 368c 75bf 43c3 7ebf
000000c0: 45cf 7fbf c9ac 7abf b3e1 83bf 0a17 8abf
000000d0: bd22 7bbf f9db 87bf cb73 88bf 4430 85bf
000000e0: bc40 83bf c793 70bf 9d38 83bf 981e 6ebf
000000f0: 93a3 83bf b956 88bf 7782 72bf 50b7 7cbf
00000100: 26d0 88bf b36e 85bf 1533 89bf d797 71bf
00000110: 0a5b 81bf 47bd 6ebf 7448 85bf 0986 84bf
00000120: d76e 76bf 2603 8abf dfad 83bf fb5c 79bf
00000130: 01e0 88bf 5429 70bf 4914 80bf ab02 dcb9
00000140: d686 77bf a804 72bf 5015 82bf 7d65 8abf
00000150: 4e43 85bf 0ade 6cbf 2fa7 84bf ba78 89bf
00000160: b1be 6bbf c723 8abf 0e73 39bd 6858 08bd
00000170: b647 3f3d 36ed 83bf 9588 76bf c020 82bf
00000180: 6219 8abf 47e1 74bf 2b45 72bf b5ab 83bf
00000190: 3eaa 77bf b7a0 72bf 09fe 84bf 831f 85bf
000001a0: 6322 7ebf 4891 89bf 692d 87bf f2d8 77bf
000001b0: a4e7 80bf 4899 88bf 22c0 76bf 28f9 89bf
000001c0: 7b76 84bf d9ec 6ebf 5324 8abf c43c 72bf
000001d0: e7db 74bf f17a 6cbf 1fc7 84bf 84b0 6fbf
000001e0: edd8 83bf bea2 86bf e667 89bf 4f77 7abf
000001f0: ac78 9abd 1ad4 86bf ad72 81bf 3223 84bf
00000200: 6251 82bf 25be 86bf d5c4 84bf 6a6e 87bf
00000210: e3c4 80bf 5889 89bf 7dcd 83bf 5dd5 77bf
00000220: 3dea 71bf 2e70 84bd e0ff 78bd cb43 6fbf
00000230: 86be 82bf 2d57 74bf 4eaa 70bf d302 81bf
00000240: 9e5a 8abf 023a 88bf 0f64 84bf d266 89bf
00000250: db2e 6bbf 2278 83bf 9486 72bf 523c 7bbf
00000260: c5a2 81bf f045 7cbf 7b82 83bf d8dd 88bf
00000270: 73c2 87bf 96b3 89bf 0683 83bf 11dd 6fbf
00000280: e749 82bf abc1 7fbf 736a 6fbf 28f6 88bf
00000290: c824 82bf 8c78 72bf 9c0a 6ebf f2e2 70bf
000002a0: 1875 72bf 15bf 70bf 050b 73bf d7e0 75bf
000002b0: 16de 6abf 0413 84bf 4fa4 80bf 82d8 6cbf
000002c0: 4b87 6bbf 573f 85bf 76e4 6dbf ed64 8abf
000002d0: 683e 77bf 5c19 6ebf 6c04 82bf b0ad 75bf
000002e0: f19e 73bf 4a29 8abf a25b 86bf 02d3 88bf
000002f0: 2655 80bf 1cb2 89bf 9fe5 6abf 6776 84bf
00000300: f423 74bf 8b76 71bf 179a 77bf 3366 83bf
00000310: 7e98 80bf 3cfc 88bf f8d1 7ebf 5f3c 83bf
00000320: f19b 7cbf 9e22 88bf 0c85 82bf eb06 78bf
00000330: b3d8 87bf 186c 84bf 4912 73bf 8906 85bf
00000340: 29df 84bf 093a 79bf fb02 82bf 5ff2 87bf
00000350: fd90 89bf 42ac 83bf 0d21 86bf 03d2 88bf
00000360: 3703 74bf e146 85bf f2ea 86bf d019 7fbf
00000370: cdfe 70bf a8e9 81bf ce94 53bd 97b3 75bf
00000380: 0446 84bf 8702 77bf c0f7 7bbf 315e 86bf
00000390: 34fb 7dbf 4c92 81bf 86c5 74bf 0f92 84bf
000003a0: 6580 75bf 58f3 85bf 591d 87bf e87b 81bf
000003b0: e20b 86bf f8ca 78bf fdd8 6ebf f0bd 82bf
000003c0: 18f9 89bf 9d2c 87bf c734 88bf 905e 81bf
000003d0: 892a 85bf 89b8 6cbf fc7d 7cbf 0102 80bf
000003e0: 5288 82bf 3e1d 85bf c5b1 7dbf 2211 78bf
000003f0: de84 6bbf 0cd3 81bf 6704 82bf 62f0 77bf
-1.0443453 -1.0782473 -0.9461747 -1.0127617 -0.9256606 -1.0111201 -1.0240504 -1.0389708
-1.0310942 -0.9498151 -1.0653476 -1.0677491 -1.0560191 -1.0300285 -0.99244136 -1.0267302
-1.0306998 -0.9588462 -1.0061449 -0.9511784 -0.9807788 -0.93573105 -1.0230234 -0.92295885
-1.0722523 -1.0081477 -0.966043 -0.9318909 -1.0092261 -0.9789915 -0.061958373 -0.9173147
-0.99376553 -0.9773809 -0.9602445 -1.0080936 -0.9345546 -0.99511284 0.053592198 -0.044592153
0.045413416 -0.9767084 -0.051525973 0.06509802 -1.0001981 -0.9905427 -0.9591707 -0.99516696
-0.99925643 -0.979199 -1.0303253 -1.0788281 -0.9809988 -1.0614005 -1.0660337 -1.0405354
-1.025413 -0.9397549 -1.0251652 -0.9301543 -1.0284294 -1.0651466 -0.94730324 -0.9871721
-1.0688522 -1.0424408 -1.0718714 -0.94372314 -1.0105908 -0.93257564 -1.0412736 -1.0353404
-0.9626288 -1.0782211 -1.0287436 -0.974075 -1.069336 -0.9381306 -1.000619 -0.00041963658
-0.9669012 -0.94538355 -1.0162754 -1.0812222 -1.0411165 -0.92526305 -1.036352 -1.0739968
-0.92087847 -1.0792168 -0.04527574 -0.033287436 0.04669925 -1.0306766 -0.9630216 -1.0166245
-1.0788996 -0.95656246 -0.9463679 -1.0286776 -0.96744144 -0.9477648 -1.0390025 -1.0400242
-0.9927122 -1.0747461 -1.0560733 -0.9681541 -1.0070691 -1.0671778 -0.9638692 -1.0779161
-1.0348657 -0.9333015 -1.0792335 -0.9462397 -0.95648044 -0.92375094 -1.0373267 -0.93628716
-1.0300575 -1.0518415 -1.0734832 -0.978383 -0.075425476 -1.0533478 -1.0113121 -1.0323241
-1.0181086 -1.0526778 -1.0372568 -1.0580571 -1.0060085 -1.0745039 -1.0297085 -0.9680994
-0.94498044 -0.06466709 -0.060790896 -0.9346282 -1.0214393 -0.9544552 -0.94009864 -1.0078987
-1.0808904 -1.0642703 -1.0343035 -1.0734503 -0.9186837 -1.0271037 -0.947366 -0.98138916
-1.0127798 -0.98544216 -1.0274194 -1.0692701 -1.0606216 -1.075793 -1.027436 -0.93696696
-1.0178803 -0.9990489 -0.93521804 -1.0700121 -1.0167475 -0.9471519 -0.9298494 -0.9409629
-0.9470992 -0.9404157 -0.9493869 -0.96046203 -0.91745126 -1.0318303 -1.0050143 -0.92517865
-0.92003316 -1.0409955 -0.9292673 -1.081205 -0.965796 -0.93007445 -1.01576 -0.9596815
-0.951644 -1.079385 -1.0496714 -1.0689394 -1.0025985 -1.075748 -0.91756624 -1.0348634
-0.9536736 -0.9432151 -0.967195 -1.0265564 -1.0046537 -1.0701976 -0.99539137 -1.0252799
-0.9867545 -1.0635564 -1.0196853 -0.96885556 -1.0613006 -1.0345488 -0.94949776 -1.0392619
-1.0380603 -0.9735418 -1.015716 -1.0620841 -1.0747372 -1.0286944 -1.0478836 -1.068909
-0.95317405 -1.0412256 -1.054045 -0.9964876 -0.94138795 -1.0149431 -0.051655583 -0.9597716
-1.0333867 -0.9648823 -0.9842491 -1.0497495 -0.9921143 -1.0122771 -0.95613897 -1.0357074
-0.9589904 -1.0464888 -1.0555831 -1.0115938 -1.0472376 -0.97184706 -0.9329985 -1.0214214
-1.0779142 -1.056049 -1.0641106 -1.0106983 -1.0403606 -0.9246908 -0.98629737 -1.0000612
-1.0197852 -1.0399549 -0.9909938 -0.9690114 -0.91999614 -1.0142531 -1.0157593 -0.9685117

bias f4 [5]
00000000: 3b80 6dbf afec 6abf 3adb 7fbf 0d5e 89bf
00000010: d801 943f
-0.9277379 -0.917674 -0.9994389 -1.0731827 1.1563063

weight f4 [10, 5]
00000000: 8e0c 3b3f 9531 a43f ed42 4c3f 16dc 3a3f
00000010: 4c07 83bf fe75 cebe ef70 dc3d 02ff 5d3b
00000020: 1a81 64bd 1616 68be f1de 77be d57a 873f
00000030: 209c 773f e9cd c1be 58b8 b93e b613 ad3f
00000040: 63ba 833f 5e2e 22bf d0bf 353f 0914 50bf
00000050: dedc 103e 8c24 5cbf d152 5dbf f314 b4bf
00000060: 3729 97bf 94e1 b53e b9f4 fbbc fe3b 3cbd
00000070: acae 15be aec4 84bd f4b1 c1bd 6adf 8c3c
00000080: 0db7 b7bd 3402 15bd 915a 0dbe 8cac 7e3f
00000090: 449a 6b3f 5302 87bf 81dd 513f 2a65 54bf
000000a0: be2d 9e3e fed9 a73e ec44 d0be bd45 debe
000000b0: 6a7d cbbf 7c76 82bf d6ea 12bf fa5f 8abf
000000c0: 0f17 4bbf 30a4 b0bf
0.7306603 1.2827631 0.7978962 0.72992074 -1.0236602 -0.40324396 0.10763728 0.003387392
-0.055787183 -0.22664675 -0.24206139 1.058436 0.967226 -0.3785241 0.36273456 1.352164
1.0291256 -0.63352 0.7099581 -0.8128057 0.14146754 -0.85993266 -0.8645449 -1.4068893
-1.1809453 0.35523665 -0.030756341 -0.04595565 -0.14617413 -0.06482826 -0.0945777 0.017196376
-0.08970461 -0.036379054 -0.1380408 0.99482036 0.92032266 -1.0547584 0.81978613 -0.82966864
0.30894274 0.32783502 -0.40677583 -0.4341258 -1.5897648 -1.0192409 -0.5738958 -1.081054
-0.7933206 -1.3800106

bias f4 [10]
00000000: 4462 ff3e 6cfa eabd 3520 e7bd 52ab 45c0
00000010: 44c3 80bf 7e14 d8be f9a8 b9be d627 603f
00000020: 282e babf 66ef 24bf
0.49879658 -0.114735454 -0.1128544 -3.0885816 -1.005959 -0.42203134 -0.36261728 0.87560785
-1.4545336 -0.64427793

weight f4 [10, 10]
00000000: 7929 0540 5b14 02be ba16 cb3f e73c dd3f
00000010: 11f5 383f f81e 61be 2b4c 2f3e 2609 fe3f
00000020: 4d5a 3ebb 95f4 f43f 370b e73f bfff f43d
00000030: a521 593f 566a d93f e4b5 793f 6215 1c3e
00000040: 4e2a 24be b3c6 e73f fdc9 df3f c425 363f
00000050: 848e 41c0 e6b3 e2bd 0ea9 f3bf 166f dabf
00000060: 2c16 65bf bd55 21be c9a3 5ebc a35e 16c0
00000070: c28a 85bf e033 86bf 30a9 29c0 93b7 253e
00000080: fd2c f5bf 42da 09c0 67e0 55bf 1f1b 943e
00000090: b4cf 963e 8069 1ac0 85f3 82bf 0a67 80bf
000000a0: 1087 4cc0 4c9b 78be 52e6 06c0 b6bd fbbf
000000b0: 44c1 94bf 5ae8 84be 6c7d 933e 71c3 0bc0
000000c0: 2e8e a6bf e4cf 8dbf 81bf 2cc0 4451 ea3d
000000d0: c95f 01c0 6599 09c0 d656 92bf e4e1 2f3d
000000e0: bf05 95be 7966 11c0 6c3e 55bf 7cb2 85bf
000000f0: 751d 43c0 534e 41bd 6ef3 eebf 9646 05c0
00000100: 6766 63bf e3c4 74bd b6a8 55be e883 0cc0
00000110: efc0 86bf eb34 b7bf 5973 3cc0 aa59 963e
00000120: 96ba 1bc0 07a3 f8bf d288 a5bf 5261 893e
00000130: 3fd3 543e c3e0 09c0 dbbe 7fbf 7374 b8bf
00000140: e276 24c0 e130 58bd 6501 f0bf eac2 efbf
00000150: 6325 70bf 8e6f 103e d25f 6f3e 27c9 febf
00000160: 0735 59bf a526 80bf 8fc0 4fc0 c207 d63d
00000170: afdb 16c0 90e2 e4bf 781a 6dbf ec1d 8e3e
00000180: a794 47be e584 0fc0 8c82 92bf 0501 86bf
2.0806563 -0.12703077 1.5866311 1.7284211 0.7224894 -0.2198447 0.171189 1.9846542
-0.0029045523 1.913714 1.8050297 0.11962842 0.8481696 1.6985576 0.9754317 0.15242532
-0.16031763 1.8107513 1.7483517 0.71151376 -3.0243235 -0.11069469 -1.9035966 -1.7065151
-0.89486957 -0.15755363 -0.013588854 -2.3495262 -1.043297 -1.0484581 -2.6509514 0.1618331
-1.9154354 -2.1539464 -0.83545536 0.28926942 0.2945534 -2.4126892 -1.0230566 -1.0031445
-3.1957436 -0.24277991 -2.1078076 -1.966727 -1.162148 -0.2595852 0.28806627 -2.1838038
-1.301214 -1.1079068 -2.6991885 0.114412814 -2.0214713 -2.1499875 -1.143275 0.042940035
-0.29105946 -2.2718794 -0.83298373 -1.0445094 -3.048673 -0.047193836 -1.8668039 -2.0824332
-0.8882813 -0.05975808 -0.2086514 -2.195551 -1.0527629 -1.4313024 -2.9445403 0.29365283
-2.4332633 -1.9424752 -1.2932379 0.26832062 0.20783709 -2.1543434 -0.999006 -1.4410537
-2.569756 -0.05278099 -1.8750426 -1.8731358 -0.9380705 0.14105055 0.23376396 -1.9905137
-0.8484654 -1.0011793 -3.2461278 0.104506984 -2.3571584 -1.7881641 -0.92618513 0.27757204
-0.194903 -2.2424862 -1.144609 -1.0469061

bias f4 [10]
00000000: e3ae 12be a336 7040 72e2 1bc0 2716 1cc0
00000010: 0766 1cc0 48db 1cc0 ad7c 2fc0 5382 1dc0
00000020: 3acb 22c0 164c 10c0
-0.14324526 3.7533348 -2.4356961 -2.438852 -2.4437273 -2.4508839 -2.7419846 -2.4610794
-2.543654 -2.254644

weight f4 [1, 1, 5, 5]
00000000: 2074 3440 abd3 19be 7d72 c0bf 1bfd a8bc
00000010: b738 e2be d429 573f 9b91 25c0 561f 65c0
00000020: 52f3 d73f 05e4 a43d 46e6 233f c93d 70bf
00000030: defb 5b3f 77da 2840 b3a5 5c3f 13e8 2f3f
00000040: ec2a 623f a937 9b40 835a 5e40 de77 c83e
00000050: a718 0f3f 0265 8740 c421 f73f dd3f d53f
00000060: 952a 7dc0
2.8195877 -0.15022151 -1.5034939 -0.020628503 -0.44183895 0.840482 -2.587012 -3.5800376
1.687113 0.08051304 0.64023244 -0.93844277 0.85931194 2.638334 0.86190337 0.6871349
0.88346744 4.8505445 3.4742744 0.3915395 0.5589699 4.23108 1.930718 1.6660115
-3.955724

weight f4 [5, 144]
00000000: 6bbd 933b 9618 0dbc f4fa 8fbd aba3 1ebc
00000010: 03c3 893f 4ab6 6f3f 5c31 6d3f 1757 0240
00000020: 0470 fb3f 1580 803f ad37 86bf 28f3 603f
00000030: 9c8d 91bd 7a41 a4bd a6ef cdbc adbc 94bc
00000040: 24c1 883f db0b 0540 ca3a ff3f 84d0 c93c
00000050: 95aa 7cbf 8d6a 83bf 88ca 88bf 9306 893f
00000060: 2b67 17bd 9d38 86bf 716c 88bf 7d4f 80bf
00000070: c4ae 84bf 1bef 04c0 6887 01c0 c178 01c0
00000080: c821 83bf 5b13 6bbf 3ff6 6bbf 4e81 82bf
00000090: 7664 81bf 6f69 80bf e9e4 6dbf e1c3 cabf
000000a0: 088e 9dbf 4f15 00c0 52c9 fbbf 1d0a fabf
000000b0: 5f4c 00c0 539f 8abf 9d8d 70bf c9a5 78bf
000000c0: 46e1 82bf 6c40 6cbf 876d 87bf fa3d 82bf
000000d0: e93f 83bf d0f0 04bc 5081 f23b 2042 7ebf
000000e0: 1bfd aabf 9fd2 81bf d8ec 6cbf e879 77bf
000000f0: d536 6dbf 87be 72bf fe53 71bf d05e 7abf
00000100: fb15 0440 f2e8 a23d 178e 1d3c ef77 84bf
00000110: 5ed3 74bf b5a1 89bf 7b37 78bf 6b1b 19bd
00000120: 9fcd 6e3f 56f2 7dbf b63b 87bf 2177 82bf
00000130: 8492 83bf 627d 74bf 895b 8abf a832 b0bd
00000140: 2ab3 81bf 871c 32bf db2e a7bf d6ad e03c
00000150: fe16 6dbf 2e22 883f f5ed 833f ae46 863f
00000160: 6b33 83bf 2831 98bf 417d 05c0 f422 03c0
00000170: 5139 cd3f 8dde de3f 924a 753f d695 60bc
00000180: 22df 6c3f e762 88bf 7c82 88bf aba7 70bf
00000190: 75ce 78bf 9a57 00c0 044b fbbf 2c82 603f
000001a0: e989 e33f 3d91 ff3f 219a 813f 0091 6a3b
000001b0: 80e8 a8bc cdfa 80bf da4d 7d3f bd88 40bd
000001c0: 56cf 51bd fcb2 a0bd 7ca5 743f 1faf 5140
000001d0: 7c6c 8abc 1505 853f c0d0 563d 68a6 4e3d
000001e0: 6607 b4bc 969d a53b 21cf 6ebf 5215 18bf
000001f0: 24a2 923a ef2b aa3c a4e9 26bf d14c 54bc
00000200: e3b5 713d dc52 03c0 9b7c f53c 8b42 213c
00000210: 5657 cc3b 0e87 7cbf 5124 80bf 6078 86bf
00000220: 1a28 82bf 822e 8abf e631 80bf 1438 8abf
00000230: e652 7bbf 23e6 6c3f 0e75 28bd 9b6a 12bd
00000240: 5690 5c3c 7bcc 8d3c abeb 7a3d d054 8cbc
00000250: ddea 73bf 5286 70bf 9db9 87bf b43f 81bf
00000260: c630 73bf 60b5 7ebf 4d3b 88bf 31e9 123f
00000270: 8eb3 1dbd 6ed4 94bd 81f4 773f eb53 6cbf
00000280: b6f0 72bf 5ac2 78bf dd50 79bf 3b58 85bf
00000290: d7ac 79bf c83b 6ebf 82dc 80bf 2d4c 7ebf
000002a0: eb0b b13b 0627 793f c344 83bf a210 85bf
000002b0: b003 6ebf 860e 70bf 8d3f 82bf 6d48 77bf
000002c0: b9b9 73bf 5f28 89bf 0dda 78bf e060 74bf
000002d0: 5522 6cbf 8ace 84bf 1ac1 71bf a3c0 81bf
000002e0: 5ad4 87bf 6ef2 6dbf 156a 70bf 3a11 76bf
000002f0: d545 87bf c1a3 6bbf 4240 83bf 54f8 81bf
00000300: a2b9 86bf 1291 7fbf f0c7 7abf 7d84 86bf
00000310: fa56 7dbf 6d3a 7fbf 9a24 8abf 715f 80bf
00000320: 2739 6ebf 8bf3 6cbf d55b 71bf f687 8abf
00000330: d6ea 85bf d919 83bf 597b 6ebf e6fd 83bf
00000340: d871 85bf 06c2 6bbf 6115 8abf c69b 85bf
00000350: fce4 89bf 4e14 83bf 40f9 2c3c fa53 8c3d
00000360: cd31 833f 01b0 74bf 9ff5 83bf fa2b 7bbf
00000370: 369b 6cbf 19ac 7fbf 5323 6fbf f2e1 86bf
00000380: 1b8d 83bf 816c 71bf 1bb7 83bf 20fc 4b3d
00000390: 86d4 7dbf 0803 86bf 9f67 78bf cfac 70bf
000003a0: 4b26 6e3f e1cc 7bbf d5fb 6fbf 5a12 7ebf
000003b0: 762f 77bf 8009 76bf 9e39 7bbf 9869 42bd
000003c0: 8ae7 76bf 0b9c 6cbf 4ce5 86bf d3dd 6ebf
000003d0: 0d94 74bf 0534 6dbf 03ef 75bf 7833 77bf
000003e0: 22bf 6abf d307 81bf 8bc0 83bf abac 8a3d
000003f0: 4bd5 803d f55c 86bf a788 85bf 900d 7fbf
0.0045086644 -0.008611819 -0.070302874 -0.009682576 1.0762638 0.93637526 0.9265344 2.0365655
1.964356 1.0039088 -1.0485741 0.87871027 -0.07107088 -0.08020301 -0.025138687 -0.018156374
1.0683942 2.0788486 1.9939816 0.02463556 -0.9869779 -1.0266892 -1.0686808 1.0705131
-0.036963623 -1.0486027 -1.0658094 -1.0024258 -1.0365834 -2.0770938 -2.0238895 -2.0229952
-1.0244684 -0.9182641 -0.92172617 -1.0195711 -1.0108783 -1.0032176 -0.92927414 -1.5841027
-1.230897 -2.0013006 -1.9670813 -1.9534336 -2.0046613 -1.0829872 -0.93966085 -0.9712797
-1.0224998 -0.922858 -1.05803 -1.0175164 -1.0253879 -0.008114055 0.007400669 -0.9931965
-1.3358492 -1.0142401 -0.92548895 -0.9667039 -0.9266179 -0.9482197 -0.94268787 -0.9780092
2.0638416 0.07954587 0.009616396 -1.0349101 -0.9563502 -1.0752474 -0.96959656 -0.037379663
0.932825 -0.991979 -1.0565097 -1.0192605 -1.0279088 -0.9550382 -1.0809184 -0.08603412
-1.0132802 -0.6957478 -1.3061174 0.027426641 -0.9261321 1.0635431 1.0306994 1.049032
-1.0250067 -1.1890001 -2.08577 -2.0490084 1.6033117 1.7411667 0.9581691 -0.013707599
0.92527974 -1.0655183 -1.0664821 -0.9400584 -0.9719003 -2.0053468 -1.9632268 0.87698627
1.7776462 1.9966198 1.0125161 0.0035791993 -0.020618677 -1.0076538 0.9894692 -0.047005404
-0.05122312 -0.078466386 0.9556501 3.2763135 -0.016897433 1.0392176 0.052445173 0.050451666
-0.021976184 0.005054186 -0.93284804 -0.5940753 0.0011187238 0.020772902 -0.6520026 -0.012957768
0.05901135 -2.0519323 0.029966643 0.009842525 0.006235997 -0.9864358 -1.0011083 -1.0505486
-1.0168488 -1.0795443 -1.0015228 -1.0798364 -0.9817337 0.9253866 -0.041127257 -0.0357462
0.013462147 0.017309418 0.061259907 -0.017130286 -0.9528025 -0.93954957 -1.060352 -1.0097566
-0.949963 -0.99495506 -1.0643097 0.5738707 -0.038501315 -0.0726708 0.9685746 -0.9231555
-0.94898546 -0.97171557 -0.9738901 -1.0417551 -0.9752936 -0.9305997 -1.0067294 -0.99334985
0.005403032 0.9732517 -1.025536 -1.0395701 -0.92974377 -0.9377216 -1.0175644 -0.9659489
-0.95205265 -1.0715445 -0.9720772 -0.9546032 -0.92239887 -1.0375531 -0.94435275 -1.0136913
-1.061168 -0.92948043 -0.9391187 -0.96120036 -1.0568186 -0.92046744 -1.0253985 -1.0153909
-1.0525401 -0.99830735 -0.9796133 -1.0509182 -0.9896084 -0.99698526 -1.079242 -1.0029126
-0.9305596 -0.9255912 -0.9428075 -1.0822742 -1.0462291 -1.0242263 -0.93156964 -1.0311859
-1.0425367 -0.9209293 -1.0787774 -1.0438163 -1.0773005 -1.0240571 0.010557473 0.06851955
1.0249573 -0.9558106 -1.0309333 -0.9811398 -0.92424333 -0.99871975 -0.93413275 -1.0537703
-1.0277437 -0.9430619 -1.0290254 0.049800992 -0.9915241 -1.0469675 -0.97033113 -0.94013685
0.9302718 -0.98359495 -0.9374364 -0.9924675 -0.96556795 -0.96108246 -0.9813479 -0.047463983
-0.9644705 -0.924256 -1.0538726 -0.93307227 -0.9553841 -0.926575 -0.9606783 -0.9656291
-0.91697896 -1.0080513 -1.0293134 0.06771215 0.062906824 -1.0497118 -1.0432328 -0.9963007

bias f4 [5]
00000000: ac78 b2be 65a9 80bf ced9 60bf 3cfd 91c0
00000010: fd6a 3bc0
-0.3485769 -1.0051695 -0.87832344 -4.5621624 -2.928405
