models/pre_trained/mnist_with_reg_importance_1.0_10_5_models.pt (torch, 683433 bytes, 43 tensors)

weight f4 [1, 1, 5, 5]
000000 34 ce 65 be c6 ff 30 3e 1c b9 2f 3e df 11 58 3e
       -0.22441941 0.1728507 0.17160457 0.21100567
000010 7e 30 2c 3d c5 df de bd 03 46 16 3f 4c 46 75 3e
       0.042038433 -0.108825244 0.5870058 0.23952597
000020 cc 8f 91 be 38 38 70 bd 3e 7b 80 bd e3 90 3d 3f
       -0.2843002 -0.058647364 -0.062735066 0.74049205
000030 40 34 e7 3d cb b2 26 be e7 9f ed be e0 c6 87 3d
       0.11289263 -0.16279142 -0.46411058 0.06629729
000040 2d 55 d7 3f ab e9 d3 be 06 bf f8 bd 01 52 ea be
       1.6822869 -0.41389212 -0.1214581 -0.4576569
000050 76 f6 01 3f eb 83 11 3f cf 0d 24 3f d1 c7 24 bd
       0.50766695 0.56841916 0.6408357 -0.040229622
000060 43 86 d6 3e
       0.4189931

weight f4 [5, 144]
000000 ef 93 af 3d 9f 90 5f be c4 7b 65 bf 7f 04 31 3f
       0.08573138 -0.21832512 -0.89641976 0.69147485
000010 5e 23 c9 3e 84 0a cd 3e 92 ff 9a 3e 98 f6 09 3f
       0.39284796 0.40047085 0.3027311 0.538919
000020 0f be 61 3f 60 88 bb 3f dd b9 05 3f b2 3c 15 3e
       0.8818063 1.4650993 0.5223673 0.14573935
000030 10 30 2a 3e 16 39 a0 bf 22 2e 9b bf 43 c7 8e bf
       0.16619897 -1.2517421 -1.2123454 -1.115456
000040 2a 65 83 bc 02 a5 8d bf 9d 3f 93 be 46 01 07 bf
       -0.01603945 -1.1065981 -0.2875947 -0.5273632
000050 de fd 0f bf 2d 44 25 3f c6 88 32 3e 58 04 00 40
       -0.56246746 0.64557153 0.17434987 2.0002651
000060 62 85 67 bc a0 6d 8f bf 5c 8b 88 bf 9e f1 49 be
       -0.014130922 -1.120533 -1.0667529 -0.19721076
000070 be 3d f2 3e 06 24 d0 3e e9 78 4b 3e 81 c9 03 be
       0.4731273 0.40652484 0.19870342 -0.12869836
000080 08 e2 55 be 91 a7 e2 bd ee 3e f1 3e 2a 18 e4 3f
       -0.20887005 -0.11067117 0.47118324 1.7819874
000090 a7 06 a4 3a 9f ed b5 bf ef 50 34 bf ab a3 c8 3e
       0.001251419 -1.4213141 -0.70435995 0.3918737
0000a0 22 01 fe 3e 30 54 4a 3f 59 ea 17 3f 8f 9a 14 bf
       0.4961024 0.7903471 0.5934196 -0.5804834
0000b0 40 d5 bd be 42 df 59 bf 18 93 89 bf 99 55 81 3d
       -0.3707676 -0.8510629 -1.0748014 0.063151546
0000c0 45 f8 15 be 26 c5 5a bf da d2 a0 be 75 59 88 3f
       -0.14645489 -0.85457075 -0.31410867 1.06523
0000d0 2f 37 0c 3f e0 9d 9a 3f e4 03 54 3f 93 02 73 3e
       0.54771703 1.207943 0.82818437 0.2373145
0000e0 fd 18 1b bf a6 ed 99 bf 08 ca e8 bf 0a e9 c7 bf
       -0.60585004 -1.202565 -1.8186655 -1.5617993
0000f0 8d 5e 21 be f2 80 22 bf 5f 99 91 3e 5e 84 30 3f
       -0.15758725 -0.63478005 0.28437325 0.68951976
000100 bc d6 d6 3d 63 0e 89 3f 22 4e 93 3d cb 5d 11 be
       0.10490176 1.0707515 0.07192637 -0.14195935
000110 46 30 04 bf fc 38 9d bf 23 6c 40 bf 0f 17 84 bf
       -0.5163616 -1.2283015 -0.75165004 -1.0319537
000120 f8 8e 46 be 93 53 86 bf 20 63 03 3f ad dd 0c bf
       -0.19390476 -1.0494255 0.5132313 -0.5502575
000130 fa 06 9e be 49 ab 56 3d 6d 5b cf bb ad a9 f1 bc
       -0.30864698 0.052409444 -0.0063280375 -0.029499853
000140 0e 58 15 bf b2 d9 40 bf d7 3f 58 be 2f 95 8c be
       -0.58337486 -0.75332177 -0.21118103 -0.27457568
000150 84 3b a5 3d c0 de c3 bd a2 21 59 3e c4 2f 60 bd
       0.08067992 -0.095639706 0.21204236 -0.054733053
000160 8c e5 b8 be b5 49 d6 be 34 74 06 3f bd 1b 97 3e
       -0.3611263 -0.4185311 0.5252106 0.2951335
000170 22 f0 88 be 81 78 13 bc 32 c5 d4 3d 35 38 7d 3f
       -0.26745707 -0.009000898 0.103891745 0.9891389
000180 a1 2d 93 3e 19 0a d8 be 8d 9f 0c be dc 1a 01 3f
       0.2874575 -0.42195204 -0.13732739 0.5043161
000190 69 7e 06 3f 62 1c 4a 3d de 09 f9 3e e6 c3 83 3e
       0.52536637 0.049343474 0.4864034 0.25735396
0001a0 eb 00 0f 3f 26 a7 59 3f e1 05 a7 3e 39 77 94 3f
       0.55860776 0.85020673 0.32621673 1.1598884
0001b0 28 13 d2 3c 65 e9 5f be 44 81 5b be 31 46 62 bf
       0.0256439 -0.21866377 -0.2143603 -0.88388354
0001c0 97 21 3c be 86 55 a0 bd 28 45 07 bf 1f 24 c8 be
       -0.18372189 -0.07828812 -0.528399 -0.39090058
0001d0 d5 4e fa 3e e8 9a 48 3f f8 38 6d bc 30 5b e6 3e
       0.4888827 0.7836137 -0.014478914 0.44991446
0001e0 32 48 22 3e 5c 50 30 bf 14 98 21 bf 43 54 3c bf
       0.15847853 -0.6887262 -0.6312268 -0.73566073
0001f0 c7 8b eb bc ad ee 3f 3d c6 51 fd bd 2d 65 94 3d
       -0.028753174 0.04685848 -0.12369113 0.0724586
000200 46 ff b1 3e 9d ff ae be 51 3a 65 3e 73 25 70 3e
       0.3476507 -0.34179392 0.22385527 0.23451786
000210 73 84 c0 3d cc 2f da 3e 42 e1 04 bf 99 f7 46 bf
       0.09400263 0.4261459 -0.51906216 -0.77721554
000220 f1 00 17 3e 6d 72 be 3d 17 e0 87 bd 94 ac 59 3f
       0.14746453 0.09299169 -0.066345386 0.8502896
000230 99 ed 1c 3f ec 45 fd bc 3c c3 0a 3e d0 7e 8e be
       0.61300045 -0.03091713 0.13551039 -0.27831125
000240 cf 12 23 be 21 0b 1b be d2 ba 9a 3e 22 69 82 bf
       -0.15925144 -0.15140964 0.30220658 -1.0188334
000250 b7 bf 82 bd 33 e5 71 3e d4 a3 04 3f fb 87 f6 3e
       -0.06384223 0.23622589 0.5181248 0.4815062
000260 36 0d 0a 3e 2f 60 c9 be 5c a1 39 3e fc e9 5c 3f
       0.13481602 -0.39331195 0.1812796 0.8629453
000270 57 8f 98 3e 00 77 0a bd 89 34 88 bf 08 d5 55 bf
       0.2979686 -0.033804893 -1.0641032 -0.83528185
000280 0c 1d 74 bb d0 87 88 3e be b2 42 3d 8d 3b e2 3e
       -0.0037248759 0.26666117 0.047533743 0.4418606
000290 b4 5b f1 3e 46 ec 42 3e 9d 4c 02 be 1f e5 ae 3e
       0.47140276 0.19035444 -0.12724538 0.3415918
0002a0 e7 2f aa 3c 05 6d 83 3d 40 5c f3 be 81 b5 43 bf
       0.020774795 0.06417278 -0.4753132 -0.7644883
0002b0 14 62 a3 3e 88 ff 8e 3e c4 43 2e 3e cd 9c bf bd
       0.31910765 0.2792933 0.17018038 -0.09356079
0002c0 c9 f0 58 3e 6e fa 4d be f7 b0 c8 be ee cd 1f be
       0.21185602 -0.20115063 -0.39197513 -0.156059
0002d0 36 39 2f bd 28 61 28 be 96 e3 ff 3e 17 c6 8a 3f
       -0.04277917 -0.16443312 0.49978322 1.0841702
0002e0 bd 47 85 3f e4 20 93 3e bd 25 88 3e 49 59 68 3e
       1.0412518 0.2873603 0.26591292 0.2269031
0002f0 02 ee ac 3e 3d f7 08 bc 6f 8f ba 3c 16 0b 34 3f
       0.33775336 -0.008359727 0.022773473 0.70329416
000300 dc eb 35 be be ce b6 3e 75 80 ab 3e 2b e6 67 3f
       -0.17765754 0.35704607 0.33496442 0.90585583
000310 1c 53 6d 3f 1d a0 0e 3e 3a 94 11 3f 85 66 92 be
       0.9270494 0.13928266 0.568668 -0.2859384
000320 ee fe 1f bc 8f 95 3a 3e 74 91 78 3d 86 44 01 3f
       -0.00976537 0.18221115 0.06068559 0.50495183
000330 df bf 9a be d9 4e 4c bf b2 b0 15 3f 10 d9 19 3f
       -0.3022451 -0.7980781 0.5847274 0.60096836
000340 b1 91 ff 3e 34 59 d6 3e 76 49 18 be ab db a2 bf
       0.4991584 0.41864932 -0.14871773 -1.2723287
000350 6a 4b 9b be 2e ce 55 be f2 43 39 bd 8e 7b 0d 3f
       -0.30330974 -0.20879433 -0.045230813 0.55266654
000360 64 08 00 bf f3 d3 62 3e 89 e7 c8 3d a8 f0 66 3f
       -0.50012803 0.22151165 0.09809787 0.9021096
000370 0c b4 55 3f 0e 3f d6 bd a5 cb 90 bf 0a 8a 3c bf
       0.83477855 -0.104612455 -1.1312147 -0.7364813
000380 2e 76 44 be 71 71 f8 be 14 a7 02 3e 5f c0 6f 3f
       -0.19185707 -0.4852405 0.12759048 0.9365291
000390 4d b0 8e 3e 47 7f b9 3e f3 1f f4 3e ec d8 3f 3f
       0.27868882 0.36229917 0.47680625 0.7494037
0003a0 68 72 64 3f 1b 7b 2c 3d 72 85 dc bf 80 92 06 bf
       0.8923707 0.04210959 -1.7228224 -0.5256729
0003b0 1b 4b e3 3e dc f1 e6 bd 9a 41 80 3e d0 b3 db be
       0.44393238 -0.112766 0.2505005 -0.42910624
0003c0 0e 40 7c 3e 63 d9 9d 3e f7 1b 04 3f 54 1d 59 3f
       0.2463381 0.30829915 0.5160517 0.84810376
0003d0 98 05 1a 3f 54 fb dd bd 77 71 14 3d b9 41 9f bd
       0.60164785 -0.10838953 0.03624102 -0.077762075
0003e0 90 f7 0a 3e 74 8f 86 bd 65 84 88 3d 67 6e 1d bf
       0.13571 -0.0657033 0.06665877 -0.61496586
0003f0 b1 fc 7e be 96 04 17 3f 94 dd ac 3e 13 6a 33 3f
       -0.24901082 0.5899137 0.337628 0.7008373

bias f4 [5]
000000 0a 0e 8f 3f 78 2b 18 be 11 6c 4f be cf f0 4c be
       1.1176159 -0.14860332 -0.20256068 -0.20013736
000010 71 58 5d 3e
       0.21615769

weight f4 [10, 5]
000000 f6 71 b3 bc e5 67 b8 bd 42 45 06 be aa b7 ac 3e
       -0.021904927 -0.09004191 -0.13112357 0.33733875
000010 3c 83 e5 be fc 62 8b 3e d3 b3 10 be a7 50 fd 3c
       -0.44826686 0.27223957 -0.14131097 0.030922247
000020 00 9e 11 bf ea 17 63 bf a2 f4 ae bf 0e c0 08 bf
       -0.56881714 -0.88708365 -1.3668406 -0.5341805
000030 a3 ec cb 3d 02 67 57 be cd d1 19 3f 54 ad 81 3f
       0.09957244 -0.21035388 0.60085756 1.013102
000040 f3 01 2f 3e f5 5d 35 be 29 64 7a be 14 05 0d bf
       0.17090587 -0.17711623 -0.2445227 -0.55085874
000050 e7 a5 d5 be ef f8 0e bf fe 5c f5 3e 61 b2 0f bb
       -0.41728136 -0.5584859 0.4792251 -0.002192639
000060 c6 56 5c be c5 b7 41 be 41 67 2e 3f 04 de d9 be
       -0.21517476 -0.18917759 0.681263 -0.42552197
000070 50 bd 8e bf fc 72 a6 3e 15 09 af be ea fa 36 3f
       -1.1151524 0.325096 -0.34186617 0.71476614
000080 22 d3 8c 3e 3b ac 08 bf 9f 0b eb bf 45 83 8d be
       0.27504832 -0.533878 -1.8362921 -0.27639213
000090 77 2a 92 3d 75 6e 7b be 6a 81 48 3f 85 7f 4a be
       0.07137006 -0.24553855 0.7832247 -0.19775207
0000a0 e2 24 f3 3e 31 46 e3 bf 61 e3 a2 bd 0c 74 d0 3d
       0.47489077 -1.7755796 -0.07953525 0.10178384
0000b0 9f 1e b1 3e e5 0b ac 3a c1 90 4a bf 41 1e cd 3c
       0.34593675 0.0013126103 -0.79127127 0.02503884
0000c0 30 b3 b5 3e a9 a1 26 bf
       0.35488272 -0.65090424

bias f4 [10]
000000 f4 fa dc bf 26 c6 f8 be b4 1b 2f 3f b3 34 78 3e
       -1.7264085 -0.48588675 0.68401647 0.24238853
000010 32 2d c9 be 9f 49 4e be 92 9a dd bf 7d 83 cc 3e
       -0.39292294 -0.20145272 -1.7312796 0.39944068
000020 aa 95 ab be 96 8e 83 bf
       -0.33512622 -1.0277889

weight f4 [10, 10]
000000 30 b3 7a bf 5b 67 25 bd 17 2c 30 c0 eb b1 59 3d
       -0.9792967 -0.04038177 -2.752691 0.05314819
000010 d8 97 0e bf 47 1a 8a 3e 5d 03 73 3f c8 bd f7 bd
       -0.55700445 0.26973173 0.94927007 -0.12096745
000020 36 5d 40 c0 ca a6 89 bf 06 8e 63 3d 45 91 71 bf
       -3.0056891 -1.0754025 0.055555366 -0.9436229
000030 fc 75 a9 3d 94 15 10 bf eb a1 a4 be 2d bd 5c 3d
       0.08274457 -0.56282926 -0.32154784 0.05389135
000040 36 6c 1a c0 6d e5 d7 bf 14 f5 81 3f 36 90 dd bf
       -2.4128547 -1.686689 1.0152917 -1.7309635
000050 3b 1c 70 bf dd 94 95 bf fa b0 08 be b5 1b 59 bf
       -0.93793076 -1.1686054 -0.13348761 -0.848079
000060 4a 6b ce be 1b e7 20 3e 32 f1 07 bf 54 01 fd 3d
       -0.4031623 0.1571316 -0.5310241 0.12353769
000070 b7 e1 6a 3e 35 e3 a3 bc 0e c4 7b bf 69 20 dd bf
       0.22937666 -0.020005802 -0.9834603 -1.7275516
000080 84 a0 6d 3f 6b 53 74 bf 23 53 29 bf 7a 40 31 3f
       0.9282305 -0.95439786 -0.6614248 0.6923901
000090 50 36 a7 bf 4f e2 14 bf 72 b4 0e be 52 a5 e3 bf
       -1.306345 -0.5815782 -0.13936022 -1.7784827
0000a0 04 b8 22 bf 21 60 a1 be e0 03 6a c0 94 93 43 c0
       -0.63562036 -0.31518653 -3.6564865 -3.0558825
0000b0 de e3 87 be d7 55 15 c0 f5 82 f6 be a3 12 2a c0
       -0.26541036 -2.3333642 -0.48146787 -2.6573875
0000c0 ef 07 af bf 9e 83 a6 bd 24 05 d8 be f9 b6 1c 3f
       -1.3674296 -0.08130573 -0.42191422 0.61216694
0000d0 18 b7 8b c0 e4 70 6c 3f 55 6b f2 be bb 37 bd bd
       -4.3661003 0.9235976 -0.47347513 -0.09239145
0000e0 40 09 76 bf a6 a9 d6 bd e1 7a 1d bf a7 79 32 bf
       -0.96107864 -0.104815766 -0.61515623 -0.69716877
0000f0 c8 25 21 bf 24 51 df be 4b 03 4b c0 d6 4a 70 bf
       -0.62948275 -0.43616593 -3.172076 -0.9386419
000100 e9 20 35 bf 73 47 b9 bf f2 ce 32 be e9 72 16 c0
       -0.7075334 -1.447493 -0.17461756 -2.3507636
000110 1a 8e af bf 49 09 be be e3 f7 05 bc ac c4 c4 bf
       -1.3715241 -0.3711646 -0.008176777 -1.537252
000120 4b 27 5f 3f 96 7d d8 bf ce 41 bf 3e 53 70 3f bf
       0.8716933 -1.6913326 0.37354892 -0.7478077
000130 0b bb 17 c0 84 46 9c 3e 2f 46 19 3f 05 83 06 bf
       -2.3707912 0.3052255 0.59872717 -0.5254367
000140 57 00 04 c0 a3 21 25 bf bc 40 27 c0 a6 7d 0b 3e
       -2.0625207 -0.6450445 -2.613326 0.1362215
000150 ea b8 a6 be 77 c4 4b bf 9c ae d5 bf 92 8f 32 c0
       -0.32562953 -0.79596657 -1.6693912 -2.7900128
000160 5d 10 80 be a4 65 82 bf 29 76 a6 3e 24 c5 b2 be
       -0.25012484 -1.0187268 0.32512024 -0.3491603
000170 88 0d 38 bf 32 04 0c bf 53 e1 98 3e d2 57 67 bf
       -0.7189565 -0.546939 0.2985941 -0.9036838
000180 c4 32 e3 bd 3f f4 1f 3f 40 aa c9 3d 84 51 d0 3e
       -0.11093667 0.62482065 0.09846926 0.4068719

bias f4 [10]
000000 14 f3 af bf f9 7d d6 be 6f fc da 3f c7 bb b3 3e
       -1.3746057 -0.41892985 1.7108287 0.351042
000010 e2 87 49 c0 10 c7 33 3f 67 46 f0 bf 92 04 4b 3d
       -3.1489186 0.7022562 -1.8771485 0.049564905
000020 d6 9f a6 3c 46 e3 16 bf
       0.020339888 -0.5894054

weight f4 [1, 1, 5, 5]
000000 56 44 89 be b1 69 02 be 9a ef 2f be 4d 70 74 bd
       -0.2680995 -0.1273563 -0.17181244 -0.05967741
000010 c4 24 23 bf e1 d5 9b 3d fd 98 0a 3e e5 46 45 be
       -0.63727975 0.076091535 0.13534923 -0.19265325
000020 c0 2f 4e 3e 44 9a 46 3e 82 a6 68 3e e8 87 63 3d
       0.20135403 0.19394785 0.22719768 0.055549532
000030 bf 8b 42 3f 56 da b2 3f 62 84 5d 3f dc 15 71 bd
       0.75994486 1.3972881 0.86530125 -0.058858737
000040 4b bd 0c be c4 2c 7e 3f cd a0 44 3f 3c 40 32 3f
       -0.13744085 0.99287057 0.7680786 0.69629264
000050 2e c7 a9 be 2d 24 26 bf 80 ec 0d bf 90 e3 1a 3e
       -0.33159775 -0.6489895 -0.55438995 0.1512587
000060 a1 db f3 3e
       0.476285

weight f4 [5, 144]
000000 ff df 62 bd 48 3a 46 be 42 da ba be e1 dd 2f 3c
       -0.0553894 -0.1935817 -0.36494642 0.010734052
000010 86 5d e2 3e fc 60 0c be e5 ff a8 be 17 61 34 be
       0.44211978 -0.13708872 -0.33007732 -0.17615162
000020 59 c9 51 be 9c 39 49 bf 49 47 92 bd 8e 7a f7 bd
       -0.20486964 -0.7860353 -0.07142503 -0.12083922
000030 36 ca 58 be 2b 66 5e be 83 32 39 bd 5b 45 5e 3f
       -0.21170887 -0.21718661 -0.045214187 0.8682458
000040 6f 84 ad 3f 36 bc 6f 3f 20 61 7a 3f de 97 27 3f
       1.355604 0.9364656 0.9780445 0.65466106
000050 36 a3 9d 3e 0b 86 6c 3e 41 55 10 3f 82 fe a4 be
       0.30788583 0.23098008 0.5638009 -0.32225424
000060 16 9a 7e be 3f b3 77 be 89 8c 94 bb 7a 8c e7 3c
       -0.24863467 -0.2418947 -0.0045333547 0.028265227
000070 0c ab 3e 3e b6 21 e9 bd 05 b9 67 3e 59 80 14 3e
       0.18619937 -0.11383383 0.22629173 0.14502086
000080 8e 73 8a 3d de 2a db be 0c 29 91 3e 32 01 89 3e
       0.067603216 -0.42806143 0.2835163 0.26758724
000090 07 fb 01 bf 87 15 32 be 1f 78 61 3e 9f 3e 8b 3e
       -0.5077366 -0.17391025 0.22018479 0.27196214
0000a0 0d 9c 51 3e 54 10 3c bf 55 9a 04 bf 0a 6a 9a 3c
       0.20469685 -0.73462415 -0.5179799 0.018849391
0000b0 5a 34 8f 3e 96 cd 0d 3f 33 c1 57 3f 2a fa cf 3e
       0.2796963 0.55391824 0.84279174 0.40620548
0000c0 d2 f3 f8 be 1c 0a f5 3d 60 6e f8 3b 76 e6 14 3f
       -0.4862352 0.11964819 0.007581517 0.58164155
0000d0 c5 56 2c be 9b 3a c8 bf 05 82 95 bf 14 90 92 bd
       -0.16829975 -1.5642885 -1.1680304 -0.07156387
0000e0 37 32 d2 3e f7 7d 14 3f 7a 37 10 3f 20 ca 9d be
       0.41053936 0.5800471 0.5633465 -0.30818272
0000f0 fd 01 08 bf 18 ea 29 3f 02 25 94 be e9 aa ca 3e
       -0.53128034 0.66372824 -0.28934485 0.3958352
000100 17 1b 07 bf 24 17 b6 bf b9 9d a0 bf 50 c3 2b bf
       -0.5277571 -1.4225812 -1.2548133 -0.670949
000110 74 0b b6 3e 78 62 2a 3f be 43 8d 3e 61 26 4a be
       0.35555613 0.665565 0.27590746 -0.19741203
000120 a7 89 48 be e0 18 13 3f 82 b6 22 3d 22 d4 51 3e
       -0.1958376 0.5745983 0.039724834 0.20491078
000130 8e 3b 84 bd 7c d5 35 bf 8c b7 24 bf b2 99 1f 3d
       -0.06456672 -0.71028876 -0.6434257 0.038964935
000140 4d 1c e5 3e cc ef 5b 3f 62 d9 11 3f 10 a7 ee be
       0.44748154 0.85912776 0.56972325 -0.46611834
000150 45 1a 06 be c1 c5 1a 3f 81 1a 2c 3f 28 af 0b 3f
       -0.13095959 0.60458 0.6722794 0.5456414
000160 f5 db b8 3e 98 9d 64 bf 2f 5c 23 be 11 30 88 3f
       0.36105314 -0.8930297 -0.15953134 1.0639669
000170 f4 7d 5e 3f 57 06 8a 3f 2d 04 5e 3f 41 3c 33 3d
       0.8691094 1.0783185 0.8672512 0.043758634
000180 c1 fd c4 3e 3b 98 8d 3f 6c d6 6c 3f fb 9a 71 3f
       0.3847485 1.1062082 0.9251468 0.94377106
000190 2b 55 98 3e 5b bf 2e bf 6f 8c a4 3e 1f 3d b0 3e
       0.29752478 -0.68260735 0.32138392 0.34421632
0001a0 2b e9 b6 3e 28 3b 13 3f fc d2 36 3f c3 1f 77 3e
       0.35724768 0.5751214 0.71415687 0.2413321
0001b0 15 ae 96 3e 2e 0c d1 3e cb 5e 80 3e 55 0e 8a 3e
       0.2942969 0.40829605 0.2507232 0.2696406
0001c0 fb 26 be 3e 3e f3 9d 3d 54 b2 90 3e ec aa e3 3d
       0.37139115 0.077124104 0.28261054 0.11116585
0001d0 1b 48 84 3c e8 86 ba bc 0c e5 f5 3e 03 87 4c 3e
       0.016147664 -0.022769406 0.4802631 0.19973378
0001e0 7d 38 7b be 0a a3 82 be 58 1c ed bc 2c fd 82 3e
       -0.24533267 -0.25515014 -0.02894418 0.2558378
0001f0 14 d8 04 3f a7 41 1e be 2e 5b 13 3e a4 43 86 3e
       0.5189221 -0.15454732 0.14390251 0.2622348
000200 7a d9 2d be 42 5f 1e bd b3 78 c3 3e 1d 4d d2 bd
       -0.16977492 -0.038665064 0.38178024 -0.102686144
000210 9f 3d 04 bf 10 5d 50 bf 21 bc 9e bf e3 1f e0 be
       -0.51656526 -0.81392 -1.2401162 -0.43774328
000220 32 2f c9 bd 74 4a 39 bf c7 8e a1 bf dc 40 17 bf
       -0.09823455 -0.7237923 -1.2621697 -0.5908334
000230 44 9c 80 bf 7c 45 2e bf d3 b0 cf 3d e8 4a d5 bd
       -1.0047688 -0.68074775 0.101411484 -0.10414678
000240 e5 ba 58 bd 85 56 41 3e 37 74 c3 3e fc b4 75 3d
       -0.05291261 0.18880661 0.38174602 0.059987053
000250 db dd b0 be d6 d5 d0 be 65 39 5d be 0e 62 20 bf
       -0.34544262 -0.40788144 -0.21603926 -0.6264962
000260 cb 93 af 3d 1c f8 0c 3e ae 8d 68 3e e7 29 92 3d
       0.08573111 0.13766521 0.22710297 0.071368985
000270 5a b2 ab 3e b7 f4 fd 3e ac f6 8c bd ac 5d 99 bd
       0.3353451 0.49600765 -0.068829864 -0.074885696
000280 e8 52 4f bf f6 1d 94 bf 7b 9a ca bf 16 5d fd bf
       -0.8098588 -1.1571643 -1.5828394 -1.9794033
000290 70 1e 81 bf 1b 5f f1 be d0 e6 1a bf 5d 2a 5a 3d
       -1.0087414 -0.47142872 -0.6050844 0.053263057
0002a0 80 61 c9 3d 37 bb 33 3e 8c 31 0e 3e b7 f9 09 3f
       0.0983305 0.17551886 0.13886088 0.5389666
0002b0 fa aa a1 3e 62 aa 38 3d 29 21 20 3e b1 51 c9 bd
       0.31575757 0.045084365 0.1563765 -0.098300345
0002c0 fb 43 56 3e 2f f9 de 3d d3 92 ca be 8b 87 2e 3c
       0.2092437 0.10887372 -0.39565143 0.010652433
0002d0 36 11 26 3f 6e f4 04 3f 3b d5 17 3f eb c3 23 3f
       0.6487001 0.5193547 0.5930974 0.6397082
0002e0 5d aa 02 3f 1e 3a 38 3d f9 e9 1b 3e 94 ee 2b 3f
       0.51041204 0.0449773 0.15225972 0.67160916
0002f0 8b 20 0b 3e 80 8d f3 3e df 60 b3 be 1c 0d 0d be
       0.13586633 0.47568893 -0.35034844 -0.13774532
000300 0d 29 1e 3f e9 73 1d 3e 94 ac 2b 3f fb c7 04 3f
       0.6178139 0.15376247 0.6706021 0.51867646
000310 6e 6d 33 3f 4e d3 a1 be 15 6f 20 be 38 84 97 3f
       0.7008885 -0.31606525 -0.15667374 1.1837225
000320 90 ef dd 3e 5f 41 30 3f bc 08 d7 bd 1d 12 49 3e
       0.43346834 0.6884975 -0.10499713 0.19635816
000330 5b 3e 12 3f e9 f8 49 3c 80 c4 56 3f 9a 4e 5c be
       0.57126397 0.012327411 0.83893585 -0.21514359
000340 63 c9 b4 be c3 d1 29 bd 38 6d 82 3e 18 e5 06 3f
       -0.35309896 -0.04145981 0.25473952 0.5269332
000350 81 a2 92 bc 80 55 4d bd 29 07 8b be 6b 67 ba be
       -0.017899754 -0.050130367 -0.271539 -0.36407027
000360 36 f7 5d 3e 5f 92 35 3e 08 6b 5a 3d bb 0b 3a bf
       0.21676335 0.17731617 0.05332473 -0.7267415
000370 52 82 d0 be 46 3e d1 be 5d 09 0d 3e a4 54 e3 3d
       -0.40724427 -0.40867823 0.13773103 0.11100128
000380 f4 37 6e 3e 45 ec 37 3d f5 39 db bd 69 81 49 be
       0.23263532 0.04490306 -0.10704414 -0.19678272
000390 ab d0 17 3e de 87 30 bf b1 b2 b1 be db a2 0e bf
       0.14825694 -0.68957317 -0.34706643 -0.5571725
0003a0 c6 19 96 be 44 f1 83 3c 38 a8 04 3f c3 12 ac be
       -0.2931654 0.016106255 0.5181918 -0.33608064
0003b0 4d 8f d4 bd cd 2b f6 be 66 5d 4d bf 6d 8d ad be
       -0.10378895 -0.48080292 -0.8022064 -0.33896962
0003c0 4a 28 83 bf 6d 53 75 bf 44 a5 96 bf 01 e0 80 bf
       -1.024667 -0.9583042 -1.1769185 -1.006836
0003d0 16 9a bd be 3a 99 d2 bd 13 57 18 3f f4 13 2e 3e
       -0.3703162 -0.10283132 0.59507865 0.16999799
0003e0 95 d1 24 bf a3 c4 ae bf 31 d9 a3 bf 6d cd 15 be
       -0.64382297 -1.3653759 -1.2800657 -0.14629145
0003f0 f6 24 e0 be 11 1d 4c bf 73 eb 1a bf a3 99 83 be
       -0.437782 -0.7973185 -0.60515517 -0.25703153

bias f4 [5]
000000 c1 66 43 be 3c cf 5a be 2b 44 9c bd 37 16 e5 3e
       -0.19082166 -0.21368116 -0.076301895 0.4474351
000010 0f b7 cf 3b
       0.006338961

weight f4 [10, 5]
000000 c6 e3 07 bc e8 a5 ad be 53 2d 6e 3d 58 35 01 be
       -0.0082940515 -0.3391564 0.058148693 -0.12618005
000010 39 13 56 bd f5 b8 6d 3e d5 a6 a2 be a9 e6 a4 be
       -0.052264426 0.23215087 -0.31767908 -0.3220723
000020 89 91 bc be f0 e8 c5 bd 69 d0 4c bf 74 21 5c 3e
       -0.36829785 -0.0966357 -0.8000551 0.21497136
000030 cd 2d 90 3b 03 da 43 3f 4e bd 06 bf 9d 8e 51 3f
       0.004399991 0.76504534 -0.52632606 0.81858236
000040 ed 70 3d bf 35 0e c1 3e dd 1f 21 3e 83 bb 46 3f
       -0.74000436 0.37706152 0.15734811 0.7762987
000050 9e 0f 2c be e3 42 5c bd 48 36 88 3e f6 c6 52 3f
       -0.16802832 -0.053774726 0.26603913 0.8233484
000060 6a 2e 10 3f ae 97 22 be a5 f0 8c 3f 9d 1a a1 be
       0.5632082 -0.15878174 1.1010939 -0.31465617
000070 4a 92 57 be 5c d7 b3 3e 16 71 82 be 10 c8 39 bf
       -0.21051899 0.35125244 -0.25476903 -0.72570896
000080 7c ba 3e bd 3b c4 7f 3e 81 6f 67 3f 9e b8 be be
       -0.046564564 0.249772 0.90404516 -0.37250227
000090 a6 3a cd be 74 d9 89 be 11 5c 98 be fc af 01 3d
       -0.40083808 -0.26923716 -0.2975774 0.031661972
0000a0 ff 7f ac bf 1a b7 01 3e 8a fe 88 be bc 12 15 3f
       -1.3476561 0.12667504 -0.26756698 0.5823171
0000b0 e6 0c 4a bf 0a 66 0b be 9e 21 25 3f fe c8 73 be
       -0.7892593 -0.13613144 0.6450442 -0.23807141
0000c0 69 53 b7 bf 71 da 80 3e
       -1.432233 0.25166658

bias f4 [10]
000000 a0 14 4e bf 2c 01 60 3e 36 94 e5 3f be b6 89 bf
       -0.8050022 0.21875447 1.7935855 -1.0758893
000010 e6 60 ba be d7 16 33 be d5 a9 a3 bc f4 fe a1 be
       -0.36402053 -0.17489181 -0.019978443 -0.31639826
000020 07 7b 90 3f 3d e8 99 3d
       1.1287545 0.07514999

weight f4 [10, 10]
000000 3c 29 e1 be 8a e1 7b bd f6 cb d9 bf 6f f5 79 3f
       -0.43976772 -0.061494388 -1.7015369 0.97640127
000010 65 5d 0a bf 3c e3 99 be 7c a8 61 bf c1 6c 33 be
       -0.5404876 -0.3005618 -0.8814771 -0.17521955
000020 0c 94 18 c0 6e aa 7f 3d c4 db 1a bf fa e2 52 3e
       -2.384036 0.062418394 -0.60491586 0.20594397
000030 10 a2 8b 3f 83 f7 e9 be 70 e2 b7 3e 5e 6b e3 be
       1.0908833 -0.4569665 0.35914946 -0.44417852
000040 09 c7 e1 3e 20 55 ed be d8 a7 8d 3f 11 65 c7 3e
       0.44097164 -0.46354008 1.1066847 0.38944295
000050 d3 1d fe 3d 94 23 03 bf 2e 6d e6 be f5 5d 34 3f
       0.12408032 -0.5122616 -0.45005172 0.7045587
000060 fb a2 2c 3f fa 37 2c 3e 61 35 1c 3f c5 0a 63 bd
       0.6743619 0.16818228 0.6101895 -0.055430193
000070 1e 88 c5 bd b4 4b dc bd a7 d5 75 be 89 92 7e bf
       -0.09645103 -0.10756627 -0.24007283 -0.99442345
000080 8b 8f 1a c0 1e 38 92 bf 09 29 65 be ec 6e 16 bf
       -2.4150112 -1.1423376 -0.22378935 -0.58763003
000090 7d 2e d3 be e5 c0 1d bd 21 63 1c c0 a6 6a 88 bf
       -0.41246405 -0.038514037 -2.4435503 -1.0657547
0000a0 fc a4 b2 3e 85 c6 50 bf 8f b4 16 c0 7e 44 89 bf
       0.34891498 -0.81552917 -2.3547704 -1.0724027
0000b0 03 b3 31 bf 89 8e 08 bf f5 0c 82 be 51 6a f0 be
       -0.69413775 -0.5334249 -0.2540051 -0.46956113
0000c0 7e ef 01 c0 ed 4d b5 3e 3e 26 02 3e 1b 2c 27 bf
       -2.0302424 0.35411015 0.127099 -0.65301675
0000d0 8a a5 e1 bf 8a bd 38 bf 86 7c 83 bf 25 c6 fa be
       -1.7628644 -0.72164214 -1.0272377 -0.48979297
0000e0 cc d6 bf bf 64 e2 4f bf ee e1 2f c0 e2 4c 8f be
       -1.4987426 -0.8120482 -2.7481647 -0.27988344
0000f0 44 82 58 be 02 00 c7 bf 34 1d 0e c0 33 1d 66 bf
       -0.21143442 -1.5546877 -2.2205324 -0.89888304
000100 e2 f4 49 bf 24 57 6d bf 6e db 00 bf 65 86 05 bf
       -0.78889287 -0.9271109 -0.50334823 -0.52158195
000110 a5 04 33 c0 b9 7d ac bf 07 07 0f bc 6c e2 62 3d
       -2.7971585 -1.3475868 -0.008729703 0.055391714
000120 f5 e5 70 3d 63 83 43 bf 65 85 70 bd 84 13 34 3f
       0.058813054 -0.76372355 -0.058720965 0.7034228
000130 cc 26 19 bf 34 a0 f4 bd 70 a7 96 be 51 1d 60 3f
       -0.59824824 -0.11944619 -0.2942462 0.87544733
000140 97 57 3b be d5 40 60 be 21 9b d4 bf f7 c5 a2 3e
       -0.18295132 -0.21899731 -1.6609842 0.3179166
000150 7c 11 9c bf df 2f 78 bf 83 88 be bf 75 fb e5 bd
       -1.2192836 -0.96948045 -1.488541 -0.11229602
000160 2f f5 42 c0 27 d1 92 bf b6 4a a0 be 89 e9 3f bf
       -3.0462148 -1.1470078 -0.31307 -0.7496572
000170 20 6b e3 bf eb 6e 60 bf 86 6c 96 bf 37 e7 c0 be
       -1.7767067 -0.8766925 -1.1751869 -0.37676403
000180 4a 47 36 bf 66 f8 28 bf b6 29 26 c0 f0 27 fd bd
       -0.7120253 -0.66004026 -2.5962958 -0.12361133

bias f4 [10]
000000 71 d1 35 bf 82 c6 a1 3f b3 5e c5 bd 12 6b c2 bf
       -0.7102271 1.2638705 -0.09637203 -1.5188925
000010 29 c4 5c bf eb a3 82 bf fb 2a c4 bf 40 7b a4 3e
       -0.86236817 -1.0206274 -1.5325617 0.32125282
000020 0d 57 ec 3d 4e d5 b6 bf
       0.11540041 -1.4283845

weight f4 [1, 1, 5, 5]
000000 3b 8d 0b bf 76 4e a5 bd e8 8a d6 bb 64 4b 17 bf
       -0.54512376 -0.08071606 -0.0065473206 -0.5909941
000010 c1 15 4d bf 89 d1 45 bf 42 ff 24 3e 4f 1d 36 3e
       -0.8011132 -0.7727285 0.16112998 0.17784618
000020 b7 b5 8c bd 39 65 ca bd 3b b6 fc 3e 4e c6 40 3f
       -0.06870597 -0.09882588 0.4935778 0.7530259
000030 59 7a 57 3f 24 ee 30 3f 20 28 05 3f 23 3b 9e 3e
       0.8417106 0.69113374 0.5201435 0.30904493
000040 0b 75 4c 3f ad b6 2e 3f cc a6 a1 3e 38 f5 73 be
       0.79866093 0.6824749 0.31572568 -0.23824012
000050 9b 6d ce bd 67 01 f1 3e 15 83 4f 3c 86 71 3b bd
       -0.10079499 0.47071382 0.01266553 -0.04576256
000060 e7 db 01 be
       -0.12681542

weight f4 [5, 144]
000000 e6 32 fc 3d 50 14 0b 3f 44 8d 64 be e6 85 a5 3e
       0.123143956 0.5432787 -0.22319514 0.3232872
000010 1e 07 d3 3e 40 e8 8e 3e eb f9 1a be 54 ab 37 bf
       0.41216367 0.27911568 -0.15134399 -0.717458
000020 55 12 29 bf 49 22 81 be 82 ae 41 be 34 fe 38 3e
       -0.660436 -0.2522147 -0.18914226 0.18065721
000030 15 64 79 3f 8b 8c 74 3f f9 af 59 3f 5e 49 dd 3e
       0.9741834 0.9552695 0.8503414 0.43220037
000040 dc f6 1c 3f bc 4d 8e 3e 7f dd 96 bc d3 a0 3c bd
       0.6131418 0.27793682 -0.018416164 -0.04605181
000050 a6 c0 87 3e 1d c5 17 3e 7e dc be be a8 9a 0a bf
       0.26514167 0.14821286 -0.37277597 -0.54142237
000060 d1 33 78 3f 94 4a 34 3f 1a a3 50 3f f3 2b 43 3f
       0.96954066 0.704263 0.81498873 0.76238936
000070 90 70 0b 3f 90 e7 81 3d c0 54 a6 bd 65 90 31 3e
       0.5446863 0.06342995 -0.081216335 0.17340238
000080 09 5b 07 bc 78 ea f4 bd d6 f9 c9 3c 87 10 d4 3e
       -0.008261451 -0.11958784 0.024655264 0.4141886
000090 89 7b 27 3f b8 ca 3a 3e ed 55 2e 3d 75 45 58 bf
       0.65422875 0.18241394 0.042562414 -0.84480983
0000a0 28 a8 33 bf 75 57 98 3c e4 7c fe bd bc 95 13 3c
       -0.7017846 0.01859639 -0.12426165 0.009007867
0000b0 40 34 89 bd 1c 79 97 3e c2 62 33 3f 1d 87 7d 3f
       -0.06699419 0.29584587 0.7007257 0.9903429
0000c0 d6 02 84 3d f1 98 46 3d a3 b4 cf be 1e 0b 88 bf
       0.064458534 0.0484857 -0.40567502 -1.0628393
0000d0 af 5a fe be 02 64 10 3e 57 45 0a bb 20 d5 03 3e
       -0.4967856 0.1410065 -0.0021098459 0.1287427
0000e0 29 77 81 be 8d 50 bf be c4 bc a6 bd 53 87 7c 3d
       -0.25286224 -0.37366143 -0.08141473 0.061652493
0000f0 f6 d5 05 bf 34 48 37 bf 5e e4 7d bf e6 cf 41 bf
       -0.52279603 -0.7159455 -0.99176586 -0.7570785
000100 8e 5f d6 3d 31 26 c5 3e d0 41 ad be c5 a5 f9 be
       0.10467444 0.385057 -0.33839273 -0.48759285
000110 84 70 3e bf 29 af 01 bf 3c a3 a0 3d 6a 93 5f be
       -0.74390435 -0.506579 0.078436345 -0.21833578
000120 68 57 3c 3f 38 f9 af 3d b1 43 14 bf ce 12 45 bf
       0.7357087 0.085924566 -0.5791579 -0.7698182
000130 1d 6f bc bd 66 5f 12 be 7b 63 20 bf 67 ad 39 bf
       -0.09200881 -0.14294204 -0.62651795 -0.72530216
000140 bc 80 b4 be cd ad c9 be 27 2d 2c 3f ee 18 f8 be
       -0.35254467 -0.39390412 0.67256397 -0.4845652
000150 bf 58 fc 3f 00 89 99 3f 75 40 ad 3e 27 f9 0b bf
       1.9714583 1.1994934 0.3383824 -0.5467705
000160 55 87 b7 bf dd f2 97 bf 29 d8 e1 bf 0f ba b5 be
       -1.4338175 -1.1870991 -1.7644092 -0.35493514
000170 ad 20 ab 3e 64 61 d0 3e 8b 34 4a 3f 17 1c 1b bd
       0.33423367 0.40699303 0.78986424 -0.037868585
000180 08 c4 eb 3f d1 b5 f9 3f 62 17 97 3f a9 d2 6a 3f
       1.8419199 1.9508611 1.1804011 0.9172769
000190 5f 26 8c be e3 d2 a6 be f5 75 93 be 52 84 8f 3e
       -0.27373025 -0.3258277 -0.28800932 0.2803064
0001a0 56 41 e2 3e a8 4b 26 3e 94 27 b9 3e b2 ae 17 bf
       0.44190472 0.16239798 0.36163008 -0.5925094
0001b0 11 e6 0b 3f 11 5f ae 3f d6 8a 4d 3f 76 40 2e 3f
       0.5464793 1.3622762 0.8028997 0.6806711
0001c0 95 dd 8f 3e 2f 1d 06 3d 10 fc cf bd 3c 8d 7d 3e
       0.2809874 0.032742675 -0.10155499 0.24760908
0001d0 53 97 0d 3e fc bc 08 3f bc 0f c0 3e 2f 30 e6 bc
       0.13827257 0.5341337 0.37512004 -0.028099148
0001e0 22 6b da 3e bd 93 8c 3f 26 cb b3 3f 72 f9 54 3f
       0.4265986 1.0982586 1.4046371 0.83193123
0001f0 dd 0e 31 3f 12 89 55 3f 09 4c 3e 3f d4 ed ad 3e
       0.69163305 0.8341228 0.7433477 0.3397051
000200 d9 d1 e6 bd d5 7c f4 bd 6f 63 3d 3f 4f 57 76 3d
       -0.11270494 -0.11937872 0.7397985 0.060141858
000210 e9 05 19 3f 75 1f 9b 3f af ee e6 3f 9d 72 b5 3f
       0.59774643 1.2118975 1.804159 1.4175602
000220 18 a4 61 3f 05 51 40 3f ef 50 f7 3e c3 4c 24 3e
       0.8814101 0.75123626 0.48303935 0.16044907
000230 ae b1 dc bd 5c 87 13 3e 44 14 00 3f 3a 8e b0 3e
       -0.10776077 0.14407104 0.5003092 0.3448351
000240 88 f5 42 bd c0 63 a3 bd f8 c8 d5 bc 30 c0 cc bd
       -0.047597438 -0.0797801 -0.026096806 -0.09997594
000250 cf 39 1c be 65 ff 35 bd c2 37 84 3e c7 f5 67 3e
       -0.15256427 -0.044433016 0.2582379 0.2265235
000260 f1 0b 82 3e 28 a0 3b 3e ce 7a 57 3d 9e 82 4d 3d
       0.25399736 0.18322814 0.05260735 0.050173394
000270 8a 12 9a bd 16 1a 09 3d 83 36 ef 3d e9 b0 31 be
       -0.07523067 0.033472143 0.11680319 -0.17352642
000280 f4 a2 38 bd 3d 4c 85 bd 39 5d a6 bd e6 63 13 be
       -0.04507728 -0.06508682 -0.081232496 -0.14393577
000290 20 ca 31 bd a2 de 02 be 08 43 21 be df 04 95 bd
       -0.043405652 -0.1278024 -0.15748227 -0.0727632
0002a0 f5 33 8a 3e 51 02 45 3e 6a 26 e8 bc 64 9e 56 3a
       0.26992765 0.19239165 -0.02833863 0.0008187054
0002b0 7b b0 4a 3d d5 00 7c be 66 5b 1a be 94 36 71 be
       0.04948471 -0.24609692 -0.15073928 -0.23555976
0002c0 1b e0 07 be 51 d2 3e be f1 17 19 be 0c 9c a6 bc
       -0.13269083 -0.18634917 -0.14950539 -0.02033808
0002d0 2b 45 40 3e e4 15 88 3e 65 e8 57 3d 47 6b fb 3d
       0.18776385 0.265792 0.052711863 0.12276321
0002e0 f0 fa 75 bd 6e f4 2f bd 1a 8b f2 bc 8f 21 12 be
       -0.060053766 -0.042957716 -0.029607344 -0.14270614
0002f0 2d 76 ac bd d6 7e fc bd 3f 14 34 be a7 ff d4 bd
       -0.08420978 -0.123288795 -0.17585848 -0.10400324
000300 06 29 0b 3e 6d 24 ad 3e 3e 2c bb 3e dd 68 43 bd
       0.13589868 0.33816853 0.36557192 -0.047707427
000310 de 1e 07 be 3e a5 00 bd 8f 64 79 bd 4b 6a 5a bd
       -0.13195369 -0.031407587 -0.060886916 -0.053324025
000320 25 6d a4 bd da e6 f5 bd 63 fb 41 bd 24 d8 c7 3d
       -0.0802863 -0.12006922 -0.04735888 0.097580224
000330 ac 11 a1 3d 0e da 24 be e7 b4 24 3e f2 10 0d be
       0.07864699 -0.16098806 0.16084634 -0.13775995
000340 d7 ae d0 bd b7 93 27 be b9 61 00 be fb 55 2b be
       -0.10189598 -0.16364942 -0.12537278 -0.16732018
000350 59 01 eb bd e5 a7 7b be be 3d 6d be 9a c0 c3 3c
       -0.114748664 -0.24575765 -0.23168084 0.02389555
000360 76 29 7e bd 55 6f 1a bd 97 8c 56 be 3d f5 88 be
       -0.06205126 -0.03770383 -0.20952068 -0.26749602
000370 2f 5b 34 be 77 3b f4 bd 2f 0d 53 be e9 22 3f be
       -0.17612909 -0.119254045 -0.20610498 -0.18665661
000380 73 7f af ba e8 f7 2d be 18 fa 58 be 5e 8e 1a bd
       -0.0013389423 -0.169891 -0.21189153 -0.03773343
000390 57 f1 a1 bd b2 59 33 bd d2 1f 55 be 40 af 18 be
       -0.0790736 -0.043786712 -0.2081292 -0.14910603
0003a0 99 63 37 be 83 3c 27 bd 00 be eb bd 7c b1 b9 bd
       -0.17909087 -0.040829193 -0.11510849 -0.090670556
0003b0 9f cc 88 3d 7b 6c bc 3b f7 40 10 be b4 60 0b be
       0.066796534 0.0057502366 -0.14087282 -0.13611108
0003c0 ce 6c 42 3d 09 aa 15 3d 44 3d 29 bd fe 8a 01 be
       0.047467045 0.03653911 -0.041318193 -0.12650678
0003d0 8b 48 14 be d9 2f ac bd d9 9d f6 bd a1 59 17 be
       -0.14480798 -0.08407564 -0.12041826 -0.14780284
0003e0 fd 92 cc 3c 7e d6 58 bd c9 30 50 be 21 6b 2d be
       0.024972433 -0.05293893 -0.2033111 -0.16935398
0003f0 5e 05 3f bd 1a 61 87 3d 32 17 0f 3d 24 00 32 be
       -0.046635978 0.066103175 0.03493423 -0.17382866

bias f4 [5]
000000 39 c1 20 bf 85 57 a4 bd be bf 24 bf 12 f5 f4 3e
       -0.62794834 -0.080245055 -0.64355075 0.47843224
000010 4b 85 09 3e
       0.13429753

weight f4 [10, 5]
000000 0e ad 29 be 58 f7 da be 87 a3 95 bf bc 80 05 bf
       -0.16569921 -0.42766833 -1.169053 -0.5214956
000010 4d fd f5 bd 4d 51 58 3f 7e 10 99 be a6 9e 65 be
       -0.12011204 0.84499055 -0.29895395 -0.22423801
000020 e2 34 3d be f6 0a 18 3d 9c 7a 88 3f 70 36 2a 3e
       -0.18477204 0.03711983 1.0662417 0.16622329
000030 73 3d 70 bd dc 49 08 be a6 e6 69 bd 25 57 d5 3e
       -0.058652353 -0.13309425 -0.05710473 0.41668049
000040 08 ff 21 3e c6 69 39 3f ab 2d ea 3e 41 b5 c5 bf
       0.15819943 0.7242702 0.45737967 -1.5445939
000050 52 e4 c6 be 6a d8 d8 bc 74 86 98 3e 7b 63 74 3f
       -0.3884607 -0.026470382 0.2979008 0.95464295
000060 6b 6e 2e bd 81 6b 0f bf 98 0e da bc fc 1d a3 be
       -0.04258577 -0.5602341 -0.026618287 -0.31858814
000070 1b 4a 78 be 00 9b ce be 62 c1 f2 bd 7f cd c8 3d
       -0.24247019 -0.4035263 -0.11853291 0.0980482
000080 b1 25 ca 3d db ce ab bd c9 c0 87 be 25 73 5e be
       0.0987047 -0.08389064 -0.2651427 -0.21723612
000090 d5 46 fa 3d 3c 1a 7a be a4 8c c2 bd f7 a6 c3 be
       0.122205414 -0.2442407 -0.09499481 -0.38213322
0000a0 81 7c 28 3e 2b 20 c1 3d 73 a0 88 bf a4 98 80 be
       0.16453744 0.09429964 -1.0673965 -0.25116456
0000b0 44 08 a9 bd b4 a4 de be af eb b9 be 98 b2 1a bf
       -0.0825353 -0.43485034 -0.36312625 -0.6042876
0000c0 ce 75 3b 3f b4 e1 ca 3e
       0.7322663 0.39625323

bias f4 [10]
000000 b7 7f e8 3f 3a 51 c6 bf fe 8e 32 bf 7b e8 e5 3d
       1.8163975 -1.5493538 -0.6974944 0.11225983
000010 12 e5 0a bf 39 a0 8b 3f 26 3a ff be b7 48 ce 3f
       -0.54255784 1.0908271 -0.4984905 1.6115941
000020 79 c8 3f 3f 20 90 b0 be
       0.7491527 -0.3448496

weight f4 [10, 10]
000000 68 aa 0f c0 1e 04 a1 be f9 e1 1d bf d5 15 00 c0
       -2.2447758 -0.31448454 -0.6167293 -2.0013325
000010 fa 88 d2 bf 65 4c 11 c0 ae 86 8e bf 38 13 2c c0
       -1.6448052 -2.2702878 -1.1134851 -2.688673
000020 e9 cc 18 c0 05 b7 d7 bf fa b4 50 be 0d 31 1f bf
       -2.3875067 -1.6852728 -0.20381537 -0.6218422
000030 15 4f 5e bf 03 ba 79 bf 54 38 30 3f 6a 5a aa bf
       -0.8683942 -0.97549456 0.6883595 -1.3308842
000040 f8 77 45 3e 7d 0d 26 bf c1 04 c3 3e 81 c4 39 3f
       0.19284046 -0.6486433 0.38089564 0.72565466
000050 f4 77 be bf 13 ed ee 3c b8 f6 1c be 10 dd 60 3f
       -1.4880357 0.02916578 -0.1532849 0.87837315
000060 a3 47 29 3f b3 c5 49 bf 8f 4f 95 3d 62 4c 96 be
       0.66124934 -0.7881729 0.07290565 -0.2935515
000070 0b 2d 07 bf ac ca cb be b8 1b 65 bf e7 de 64 3f
       -0.52803105 -0.39803064 -0.8949542 0.8940262
000080 49 7e 0a 3f ea 5e 23 bf 70 2d d1 be ff 23 4b c0
       0.54098946 -0.638167 -0.4085498 -3.174072
000090 e5 a3 f0 bd 26 89 05 bf 01 66 5c be 62 8d 34 bf
       -0.117500104 -0.52162397 -0.21523286 -0.70528233
0000a0 0d 11 aa 3f 0b 83 86 bf be 30 27 bf e6 ea ce 3e
       1.3286453 -1.0508741 -0.6530875 0.40413588
0000b0 6f 40 49 be 0c 30 97 3f 19 f8 82 bd 75 aa 86 3f
       -0.19653486 1.1811538 -0.06394977 1.0520769
0000c0 00 62 0b 3f 98 88 89 3e 63 c1 65 c0 6e 50 b6 bd
       0.5444641 0.26862025 -3.5899284 -0.089020595
0000d0 d5 45 35 be 5c 3e 15 c0 14 85 ef bf b4 a4 c7 bf
       -0.1770242 -2.331931 -1.8712487 -1.5597138
0000e0 13 31 c7 bf 1c b2 d5 bf 06 07 df bf 43 8b 89 bf
       -1.5561851 -1.669498 -1.7424018 -1.0745624
0000f0 f9 d6 75 c0 04 b5 3f bf 3a 37 a5 bf 5d f4 dc be
       -3.841246 -0.7488558 -1.2907479 -0.43155184
000100 4e b0 84 bf 86 2f 20 c0 db e9 f7 3e f2 91 92 bf
       -1.0366304 -2.5029006 0.48420605 -1.1450789
000110 34 8d 8b c0 d2 48 1b bf 62 c2 3c c0 22 5e 50 be
       -4.3609867 -0.6065799 -2.9493642 -0.20348409
000120 5d 14 01 3f f7 81 95 be 1a c7 85 bf 92 06 1c c0
       0.50421697 -0.29200718 -1.0451386 -2.437901
000130 13 81 59 bf dd f4 c7 bf 35 cf fd bf 96 34 0b c0
       -0.84962577 -1.5621601 -1.982886 -2.1750846
000140 11 c6 0e c0 92 66 ba bf 6e 66 f7 be 75 ad c4 bf
       -2.230839 -1.4562552 -0.48320335 -1.5365435
000150 f4 a7 67 bf e0 28 b8 bf 94 0e 81 bf 81 53 d9 bf
       -0.9049065 -1.4387474 -1.0082574 -1.6978608
000160 f2 13 7c bf 70 1a 8c bf de ab d3 3d 05 0d 0e bf
       -0.98467934 -1.0945568 0.103355154 -0.55488616
000170 df 21 48 bf 01 34 af bf 0b ac 9c bf ff b1 ce be
       -0.78176683 -1.3687745 -1.2240003 -0.40370175
000180 5a 00 89 bf 7b 28 47 be b8 b5 e0 3e c7 0b 17 3f
       -1.0703232 -0.19449036 0.4388864 0.59002346

bias f4 [10]
000000 4d 4c b0 bf ad 04 7e bf 22 64 40 be 36 81 52 bf
       -1.3773285 -0.99225885 -0.18788198 -0.8222841
000010 88 47 79 3f b3 86 1c c0 b1 a6 29 be 29 45 69 be
       0.97374773 -2.4457214 -0.16567494 -0.22780289
000020 d1 44 0d c0 9e 05 b6 3d
       -2.2073252 0.0888779

weight f4 [1, 1, 5, 5]
000000 09 a1 1c 3f 74 27 14 3f 54 35 46 be 61 90 1e be
       0.6118322 0.578727 -0.1935628 -0.15484764
000010 e0 48 ea bd d6 aa aa 3e 36 a4 28 3f e5 a6 5d 3e
       -0.11439681 0.33333462 0.65875566 0.21645696
000020 eb 49 ca 3d f2 f6 9b be c2 d2 03 bf 74 10 54 3f
       0.0987738 -0.30461842 -0.51493466 0.82837605
000030 bd 40 d4 3d da 4d 0e bf 58 01 38 bf 88 62 0c bf
       0.1036391 -0.5558754 -0.7187705 -0.54837847
000040 76 c2 38 3f d8 16 0d 3f ea 85 da 3d f6 01 40 bd
       0.72171724 0.5511298 0.10670073 -0.04687687
000050 43 0d 11 be a9 1e a5 3f 75 f3 38 3f fc a6 df 3e
       -0.14165215 1.2899982 0.72246486 0.43682086
000060 f0 f7 3e 3e
       0.18649268

weight f4 [5, 144]
000000 fb 31 86 3c 06 d1 93 3b 90 a8 da 3e 14 26 ad 3e
       0.016381254 0.0045110015 0.42706728 0.33818114
000010 d9 b4 6d bd af a9 21 3f b0 3e 06 bf af 11 32 bf
       -0.058033798 0.6314954 -0.52439404 -0.69558233
000020 e1 5e 60 b9 78 27 8e 3e 72 df 56 bf 0c b6 01 3f
       -0.0002139765 0.27764487 -0.839347 0.50668406
000030 d0 f0 1d 3f 32 9b 9b 3d 06 dc 16 bd c9 dc 84 3e
       0.61695576 0.075979605 -0.036830924 0.25949696
000040 e5 42 10 b9 e4 bd f4 bc 16 a9 bc be 9d f4 a7 be
       -0.0001375783 -0.029875703 -0.36847752 -0.32803813
000050 ba cc 41 bf 15 ea 48 be 59 79 d6 3d aa 5f 55 bf
       -0.7570301 -0.19620545 0.10472364 -0.83349097
000060 fd 0b ca 3c 6d 73 ae 3c 3b ba 8d 3e 3c 7b 38 be
       0.02466392 0.021295274 0.27681145 -0.1801576
000070 63 eb 82 be 0e 6d a8 bd b5 8a 0c 3f 44 79 0c 3f
       -0.2557021 -0.082239255 0.5489915 0.54872537
000080 da 04 75 3f e7 b0 30 3f 00 a2 33 3f d7 36 51 3f
       0.9571053 0.6901993 0.7016907 0.81724304
000090 9a 38 73 bb 6b ea a6 3e 10 3d a6 3e 55 66 ba 3d
       -0.0037112595 0.32600722 0.32468462 0.091015495
0000a0 0c 67 6d 3e c8 06 58 3e 14 09 56 3f 24 a0 bd 3e
       0.2318384 0.21096337 0.836076 0.3703624
0000b0 95 d3 6a 3f 47 8b 91 3f 59 b8 e2 3f 5a dc 3c 3f
       0.917291 1.1370629 1.7712508 0.7377373
0000c0 ed 86 3d be 46 ec 13 3d 1a ab 48 bf 90 85 0c be
       -0.18508501 0.036114 -0.7838608 -0.13722825
0000d0 7f 3f 95 3e 22 6d d7 3d 45 63 74 3f 0c 18 2c 3f
       0.29150006 0.10518862 0.95463973 0.6722419
0000e0 d6 c6 ae bd 58 82 48 3e 5e ee f1 3e 60 16 c3 3e
       -0.08534019 0.19580972 0.47252172 0.38103008
0000f0 e5 f5 b5 bd 71 c7 ab bd b5 e5 0e bf 19 91 11 bf
       -0.08884791 -0.0838765 -0.55819255 -0.56862026
000100 3c ba 55 be 88 ac 0e be c3 d9 d3 3e 27 17 f8 3e
       -0.20871824 -0.13933003 0.41377077 0.48455164
000110 3d bb e9 be 7f 03 86 bf d1 d1 1e bf 77 97 b3 bc
       -0.45650664 -1.0469817 -0.62038904 -0.02192281
000120 5d e5 f1 3e aa 25 e6 be 4d 16 1c 3d 60 4b e8 be
       0.47245303 -0.4495061 0.038107205 -0.45370007
000130 8f 95 20 bf 81 b7 ad be 2c 00 f4 3b 93 75 90 be
       -0.6272821 -0.33929065 0.0074463096 -0.28214702
000140 2b a1 4e bf 85 63 b5 be 53 f8 66 be 2a de 22 bf
       -0.8071467 -0.3542749 -0.22555666 -0.63620245
000150 18 23 46 3f e7 8f 8c bf 22 31 5d bf e8 d3 4e bf
       0.773973 -1.0981416 -0.86403096 -0.80792093
000160 eb 40 ef 3c 66 12 36 bf 38 bd 82 be b5 b2 a1 bd
       0.02920576 -0.71121824 -0.25534987 -0.07895414
000170 f6 7d 81 be 51 67 91 bd 7b 28 fe 3e 04 bc 59 be
       -0.25291413 -0.07099784 0.4964026 -0.21263129
000180 b2 75 42 3f 3d 16 92 bf c4 bb 34 bf a3 ea f9 be
       0.7596084 -1.1413037 -0.7059901 -0.48811826
000190 42 6c 1a 3e 36 4e 2c bf df f5 cd 3e 8a fd 20 bd
       0.1508036 -0.6730684 0.40226647 -0.039304294
0001a0 6b 1e 5b 3e 26 f5 2f bd 84 97 94 bd 64 a1 b2 be
       0.21398322 -0.0429584 -0.07255462 -0.34888756
0001b0 1e 74 77 bd 47 18 25 3e e7 c2 e4 be ca b1 5f be
       -0.060413472 0.16122542 -0.4467995 -0.21845165
0001c0 55 f9 22 3f 54 71 40 3e a1 c0 ab 3e 80 0a c9 3e
       0.636617 0.18793231 0.33545402 0.39265823
0001d0 e3 57 c1 3d cf 8f 00 3f d0 99 af 3d bb dd ed be
       0.09440591 0.50219434 0.08574259 -0.4645823
0001e0 29 1f b4 3a f0 5f d2 be d6 4f 8a 3f 8e 5a 88 3f
       0.0013742197 -0.4108882 1.0805614 1.0652635
0001f0 47 98 01 3e a9 85 22 3f fc 8d 8a 3e 85 79 91 be
       0.12655745 0.634852 0.2706145 -0.28413025
000200 ca 80 a4 be 53 2f 47 3f 94 7b e9 3e 5c 4c c7 3b
       -0.32129508 0.77806586 0.45602095 0.006082101
000210 60 91 ac bc 06 16 ce 3c e3 9d 96 be 9e 76 57 3f
       -0.021065414 0.025156986 -0.29417333 0.8416537
000220 0c 06 ea be 8b da 09 bf ad 3b c5 bd 0a bd 81 be
       -0.45707738 -0.53849095 -0.09630523 -0.25339538
000230 d7 0a 64 bd bf b4 02 3f c4 d9 e8 3e 09 b8 b9 3c
       -0.0556744 0.51057047 0.45478642 0.022670763
000240 00 96 0d 3c 21 e9 93 3d 61 44 ab 3e 57 82 a0 bd
       0.00864172 0.072222 0.33450606 -0.0783736
000250 37 a6 0e 3d ea 0b b8 3b e4 08 34 be aa 5f a7 bd
       0.034826484 0.0056166546 -0.17581517 -0.08172543
000260 23 be 11 3f 91 bd 7c be 11 8d a9 3e c6 71 3f bf
       0.5693075 -0.24681689 0.33115438 -0.7478298
000270 a6 4e cd bb 7e b6 84 bd 52 57 03 3f 51 c3 d6 3d
       -0.006265479 -0.0648012 0.51305115 0.104864724
000280 ac 67 2e be bf a9 f0 be 7e ee 00 3e ec 80 ca be
       -0.17031735 -0.47004506 0.12590978 -0.39551485
000290 0b a6 1f bf 7f 64 67 bf 60 c3 82 bf 4e 08 83 bf
       -0.62362736 -0.9038772 -1.0215874 -1.0236909
0002a0 c1 49 51 be 33 e6 9b be df 90 5c bf 1a 00 57 bf
       -0.20438291 -0.30449066 -0.86158556 -0.8398453
0002b0 47 d2 90 be c1 85 8b 3d ef 7f 4a 3e 2e 0a 0e bf
       -0.2828543 0.06812621 0.19775365 -0.5548428
0002c0 4d 05 91 bf 09 4c 83 bf 09 6b 85 bf 60 e7 90 bf
       -1.1329743 -1.0257579 -1.042329 -1.132061
0002d0 ae 88 b0 3d bd a7 4b be cd a4 ee bc e8 1e 41 bf
       0.086198196 -0.19888206 -0.029131318 -0.75437784
0002e0 12 2e 1a bf 09 57 80 bf 81 3a e0 3d f8 e0 17 bf
       -0.6022655 -1.0026561 0.10948659 -0.5932765
0002f0 2c fd 62 bf ed 63 1f bf 47 80 6d bf f5 99 54 bf
       -0.8866756 -0.6226185 -0.9277386 -0.8304742
000300 35 c3 26 3e 9e fa be be 23 31 c2 3d 0a 4d 07 bf
       0.16285403 -0.3730058 0.09482028 -0.5285193
000310 c6 80 ac be 48 8a 4f bf ee 9b 8b 3e 9f ae 09 3d
       -0.33691996 -0.81070375 0.27267402 0.033613797
000320 3c 6b 19 bf ae aa d0 bc 0f e8 fc 3e cb 2e 27 3f
       -0.5992925 -0.025472011 0.49395797 0.65305775
000330 8a 6b 52 3c bd 44 04 bf 9c 8a da 3c 2d c5 09 bc
       0.012843022 -0.51667386 0.026677422 -0.008408827
000340 0d 53 93 be 27 3f 7e be 35 9c 1c 3f dc 78 51 3d
       -0.287743 -0.24828778 0.61175853 0.05114065
000350 34 fa ca be f1 02 80 3f df 7c 89 3f 49 12 33 3f
       -0.39644015 1.0000898 1.0741233 0.69949776
000360 44 f8 ec 3d 7a b7 1e bf fe 94 24 3f 3c d3 95 bd
       0.115707904 -0.61998713 0.64289844 -0.073156804
000370 10 d3 9a be 07 9e 15 3f 31 81 23 3f 8f 18 dc 3e
       -0.30239153 0.58444256 0.63869005 0.42987487
000380 c9 d6 ce 3e e1 d6 25 3f 8d de 3e 3f 7a d0 52 3f
       0.40398243 0.64781004 0.74558336 0.8234936
000390 49 47 0f 3e 76 da 13 bf 0a 8e a3 3e 23 fc a5 3e
       0.13992037 -0.5775522 0.31944305 0.32418928
0003a0 21 0f 6b 3f 52 ae 9d 3f 72 a7 99 3f a0 c5 db 3e
       0.9181996 1.2318823 1.2004225 0.42924213
0003b0 06 ba e9 3d a4 79 c0 3e ba 9a b1 3e 17 0c d0 3e
       0.11412434 0.37592804 0.3468836 0.40634224
0003c0 fa 99 88 be 23 d7 47 3e d9 0c 2a bf 03 3b 8f 3e
       -0.26679975 0.19515662 -0.66425854 0.2797471
0003d0 6f df 88 3f cb 1a 79 3f 7b 02 1e 3f 21 31 94 3e
       1.0693187 0.9730651 0.61722535 0.28943732
0003e0 5a d0 4a 3e 9a 7a 00 3f 58 ce 1e bf ae e2 10 bf
       0.19806042 0.50187075 -0.62033606 -0.56595886
0003f0 84 d1 ed 3d 11 ea 6d 3e bd 1f 27 bf 7c b7 82 bd
       0.116122276 0.2323382 -0.65282804 -0.06382653

bias f4 [5]
000000 bf 9e 7e 3e ec 3e 5d 3e f9 d1 1a 3e 9c a2 82 3f
       0.24865244 0.21606034 0.1511916 1.0205874
000010 d9 a9 9a be
       -0.30207708

weight f4 [10, 5]
000000 45 de c0 be c4 4f 1f 3f 95 da 97 bf cd 75 91 be
       -0.37669578 0.6223109 -1.1863581 -0.28410187
000010 5f 86 82 3e 21 d4 c6 3e 18 f1 39 bf 5d 15 93 3d
       0.25493142 0.38833717 -0.72633505 0.07181809
000020 4b 5f ce bd f3 e9 6f bf 39 fc 48 3e 05 53 40 3f
       -0.100767694 -0.93716353 0.19627465 0.7512668
000030 24 bc 90 bf d1 6e 67 bf 19 92 58 3f d9 5a 66 bb
       -1.1307416 -0.9040347 0.8459793 -0.0035149364
000040 1b 1f ea be e6 c1 04 bf 67 b2 18 bd 14 a0 eb be
       -0.45726857 -0.51858366 -0.037279513 -0.46020567
000050 7a 4b c0 3d 65 34 0c bf 61 bd 12 3f 49 5f ac 3d
       0.09389396 -0.5476745 0.5732022 0.08416612
000060 37 cf 83 3c 87 a0 37 bf 14 ab e8 3e 86 fc 22 3e
       0.016090019 -0.7172932 0.45443022 0.15916643
000070 9e 91 04 bd ac 9c 06 3f 9b 72 b4 3e 17 3d 9e bf
       -0.032365434 0.5258281 0.35243687 -1.2362393
000080 51 07 50 3e b3 08 f5 be 4a 36 54 bf 1e fc 91 bf
       0.20315291 -0.478582 -0.8289534 -1.1405065
000090 f2 c4 45 bc b0 ee c2 bb ea 4f 24 be 01 6b 20 3f
       -0.012070881 -0.005948864 -0.1604611 0.62663275
0000a0 b8 71 4d 3f fb 83 a9 be 0e 28 b4 be c6 69 42 3f
       0.80251646 -0.33108506 -0.3518681 0.7594265
0000b0 a2 e4 9c 3e 70 75 6b 3e ca ea a3 3e dd 7d e8 be
       0.30643183 0.22994018 0.32015067 -0.45408526
0000c0 74 b6 3c 3f be 3e 48 bf
       0.737159 -0.78220737

bias f4 [10]
000000 83 11 8f be 2c 11 03 bf 17 5e 83 be 69 c5 32 bf
       -0.27943048 -0.5119808 -0.25657722 -0.69832474
000010 6b f2 bc 3e a0 d3 c3 be 67 6c 8e 3e fd f8 bd be
       0.369037 -0.38247395 0.2781708 -0.37104025
000020 46 28 af bc 65 74 03 3f
       -0.021381509 0.5134948

weight f4 [10, 10]
000000 1a a7 10 be f2 0d ec bf 6f 13 2a bf 1e d2 77 be
       -0.14126244 -1.8441756 -0.66435903 -0.24201247
000010 e0 2d 0e c0 d5 16 e2 bf a6 4f be bf e8 44 e1 bb
       -2.22155 -1.7663218 -1.4868057 -0.0068746693
000020 e7 0c 28 bf 88 14 87 bf d1 50 d1 bf 32 6d 8f bf
       -0.6564469 -1.0553141 -1.6352788 -1.1205199
000030 d7 8b 8c bf 3b 98 f5 bd ba 94 40 c0 45 44 ca bf
       -1.0980176 -0.11991926 -3.0090775 -1.5802084
000040 ec 18 1b c0 a5 4a ca bf de 01 9b bf 1f 61 0b c0
       -2.423396 -1.580403 -1.2109945 -2.1778028
000050 ba 7a cf be 17 bc a8 bf bf 33 89 bf 49 44 6b 3e
       -0.4052332 -1.31824 -1.0718917 0.22975267
000060 77 06 35 c0 cc 5e 58 bf 2e c3 45 c0 ca 4c 8f bf
       -2.8285196 -0.8451965 -3.0900378 -1.1195309
000070 13 8a 82 bf 23 2e 8d bf 57 aa 1e bf 40 4d 09 be
       -1.0198387 -1.1029705 -0.6197867 -0.13408375
000080 0a 14 86 bf ab ad 89 3e 2a a9 07 3f 08 5e 23 3e
       -1.0474865 0.2689031 0.529925 0.15953839
000090 d5 35 0a bf 53 a5 47 bf 78 4d 48 3f 4b b9 66 3f
       -0.5398839 -0.7798664 0.7824321 0.90126485
0000a0 9a 09 bc bf bf aa 20 bf 14 ee 86 be ea b1 02 be
       -1.469043 -0.6276054 -0.26353514 -0.12763181
0000b0 17 c7 dc 3e 89 7d 20 bf a8 d0 05 be e6 84 ca bf
       0.43120643 -0.6269155 -0.13067877 -1.5821807
0000c0 a9 5a 6f bf c7 90 68 3e 5b a3 ae bf 60 1f 04 c0
       -0.9349771 0.22711478 -1.3643602 -2.064415
0000d0 b3 3a 8f bd bc a3 b5 3d cc 0a 9d 3e 08 12 0a 3f
       -0.06993618 0.088691205 0.306723 0.53933764
0000e0 b8 fd 17 bf d3 23 ea 3e 41 fc 1c bd 92 f6 6c bf
       -0.5937152 0.45730457 -0.038326506 -0.92563736
0000f0 b1 0d 03 3f e2 0b 79 bf 44 11 00 3f 41 26 b3 3d
       0.51192766 -0.97283757 0.50026345 0.08747531
000100 92 56 81 bf ff 38 c2 3e b5 6c ac bf e2 0d b2 bd
       -1.0104544 0.3793411 -1.3470675 -0.08694054
000110 57 7c 89 3d a6 1c 20 3f 00 52 1c bf e8 07 d2 bf
       0.06713169 0.62543714 -0.6106262 -1.6408663
000120 f3 9d 3d bf 78 5d 8e 3d 0e ec 77 bf c2 1b 29 c0
       -0.74069136 0.069514215 -0.96844566 -2.6423192
000130 0e e1 85 bf ab c0 22 c0 71 cb 5f bf 70 f9 a5 bf
       -1.0459306 -2.5430095 -0.874198 -1.2966747
000140 89 24 5e be 98 7f 70 be 73 35 3b 3f cc ef 20 3e
       -0.21693625 -0.23486173 0.7312843 0.15716475
000150 d6 e7 9f 3d 1e 49 a3 be d6 47 4c be bd 67 87 be
       0.07807891 -0.3189172 -0.19949278 -0.26446334
000160 c5 77 16 3f fb 5f d2 be e0 36 e4 bf a4 17 49 3f
       0.58776504 -0.41088852 -1.7829247 0.785517
000170 95 d1 24 bf 4a 85 10 3e 68 eb f3 3e 6b 2e 7d bf
       -0.64382297 0.14113346 0.47640538 -0.98898953
000180 48 d1 0f 3f 5f 6e a0 bf fa 2c 22 bf f7 08 83 be
       0.5617871 -1.2533683 -0.6334988 -0.25592777

bias f4 [10]
000000 94 83 ae bf 56 41 21 c0 5a 82 07 c0 67 36 07 3f
       -1.3633904 -2.5196128 -2.117331 0.52817386
000010 c9 07 6e 3f cc 51 00 bf 0b 65 7e be e5 18 b5 bf
       0.9298063 -0.5012481 -0.24843232 -1.4148222
000020 23 09 91 bf df 87 67 3d
       -1.1330913 0.05652606

weight f4 [1, 1, 5, 5]
000000 ef 1f 73 bf 4b 38 8f 3e 95 be 07 3f e0 d6 11 bd
       -0.949706 0.27972636 0.5302518 -0.03560531
000010 7c 2e 43 bd 27 07 9f be 2e 5f a5 3f c9 e1 1e 3f
       -0.047651753 -0.31060144 1.2919672 0.6206327
000020 80 d1 05 bf 10 32 e5 be c2 d5 74 3e de 99 29 3f
       -0.52272797 -0.44764757 0.23909667 0.6625041
000030 4a 56 27 bf 55 22 ff be 93 c1 ab 3d 16 82 bb 3e
       -0.6536604 -0.4983088 0.08386531 0.36622685
000040 5d de 99 be 55 29 a8 bd 8d 93 68 3d eb 28 88 3e
       -0.30052462 -0.082110085 0.05678134 0.26593718
000050 94 f5 ea 3e b3 58 96 be e3 78 9b bd 7b 6f 01 3f
       0.45890486 -0.29364547 -0.07591417 0.5056073
000060 d8 dd 67 be
       -0.2264322
