models/pre_trained/mnist_pre_trained_10_5_05_19_26_37_48_expert_model.pt (torch, 70335 bytes, 70 tensors)

weight f4 [1, 1, 5, 5]
4.8626413 1.7554771 -0.28055337 -0.057453357 0.060538866 3.4285183 1.3945868 -0.82101214
-1.3780307 -1.1322395 0.11504948 2.0904217 -0.3913944 -0.75426775 -0.29255626 -1.5878597
1.3162918 -0.0782095 0.22188875 -0.90322316 -0.900412 5.2275996 2.6377687 4.043687
1.1686983
00000000: c29a 9b40 79b3 e03f b1a4 8fbe 3654 6bbd
00000010: 9af7 773d d86c 5b40 d281 b23f da2d 52bf
00000020: 4f63 b0bf 39ed 90bf 109f eb3d 78c9 0540
00000030: d964 c8be b117 41bf efc9 95be fd3e cbbf
00000040: 407c a83f 4d2c a0bd ce36 633e a239 67bf
00000050: 6781 66bf 7f48 a740 34d1 2840 e265 8140
00000060: e897 953f

weight f4 [5, 144]
0.0074285865 0.023881933 0.0038917563 0.07760865 -1.0209829 0.81432563 -1.582551 0.4424175
0.67277336 -0.8720899 1.9762036 -0.03397659 -0.04483422 -0.07942963 0.055155292 0.7041578
-1.6445827 0.4787444 -1.1059544 -2.5042496 -4.384047 -2.6299236 -0.31397602 0.34689143
-0.054081988 -0.036722235 -0.0053646457 1.4591844 2.2894528 0.41189373 -2.2044427 -3.3008425
-0.8746654 -0.35864118 -3.1950524 -1.0670625 -0.037502825 -0.07681515 0.006106324 2.0819118
1.0076389 0.0076852837 -2.6130557 -2.3071764 -2.6861043 -2.8415093 -2.7841022 -2.8128219
-0.02026268 -1.005402 2.8352785 0.46182245 2.6745477 0.47848424 1.8536072 -0.022737948
-4.9832416 -6.154268 -3.5822926 -2.8429224 -0.034328513 -0.98598844 -1.2871974 1.5854036
5.3782063 2.1322052 4.377446 2.606678 1.54855 -3.1843145 -5.8034596 -3.866885
-0.068921074 -0.937429 -3.652015 -2.852894 0.79251695 3.0036952 5.359481 3.3697884
1.8967292 0.34633142 -1.4023193 -1.936229 -1.0092554 -1.5275422 -2.1195788 -5.1245203
-3.6845312 1.6401843 3.767228 1.4247612 -0.29926273 0.36450166 0.32573855 -2.2681363
-0.9195177 0.29927486 -3.0548427 -2.9369805 -2.9882126 -2.9867556 3.1542056 0.40173537
0.40610847 3.546017 1.4679545 0.23857905 -0.028030813 -0.94859236 -1.0428445 -1.9955212
-1.9634076 -4.0137486 -0.38032186 2.199005 0.5920136 0.19629146 -0.09498446 -0.92465377
-0.07674229 0.05632577 -1.6225543 -0.9311673 -2.7035797 -2.9187608 0.6070748 -1.475621
-2.0176709 -0.9742673 0.31533906 0.004013648 -0.013188571 -0.03358814 -0.06494221 0.9576679
1.0133561 1.3256956 0.8007819 0.015810732 0.011979741 -0.003005671 -0.08206826 -0.013505052
-0.9216533 -1.0428593 -1.0348613 -0.98474616 -0.9749465 -0.9597343 -0.919064 -1.0140995
-1.0698447 -1.0011855 -1.0788782 -1.0243024 -0.9324145 -1.0463377 -0.9948003 -1.0608286
-1.075559 -0.94763565 -0.9591273 -1.0013705 -0.9539038 -0.94592476 -1.0617105 -1.0260018
-0.95098823 -1.0640943 -1.0437039 -1.038029 -0.99660474 -1.009003 -0.9241724 -1.0364089
-1.0221157 -1.010041 -0.9666807 -1.0675089 -0.9511814 -1.0382354 -0.93699914 -0.95150506
-0.9272557 -0.95293146 -1.0657566 -0.94114095 -0.9968077 -0.9650059 -1.0230433 -0.9221162
-1.063124 -0.99856484 -0.9371319 -0.9701001 -1.0778953 -0.9206138 -0.9944154 -0.93190557
-1.0027484 -0.94102407 -1.0391102 -0.94460714 -0.9568229 -0.9549961 -1.0338378 -0.95349073
-0.99555695 -1.011936 -1.0335257 -1.0071642 -1.0082407 -0.9567857 -1.0182639 -0.99525213
-1.0726993 -0.9604836 -0.9443468 -1.0632087 -0.9680049 -1.0757158 -0.9327182 -0.9235389
-0.9976074 -1.0371988 -1.0566093 -0.9296937 -0.99286497 -0.96854687 -1.0795857 -0.9347269
-0.9213346 -0.98697346 -1.0643296 -0.9692913 -0.9535264 -1.0601797 -0.96441656 -1.0772232
-1.0278968 -1.0019184 -1.051858 -1.0011691 -1.010667 -0.9515657 -0.9547455 -1.0380468
-0.927997 -0.95174557 -0.92152303 -0.92474115 -1.0180988 -1.0467608 -1.0314437 -0.9778304
00000000: 806b f33b 0ba4 c33c d60c 7f3b 49f1 9e3d
00000010: 91af 82bf a577 503f 0891 cabf 8c84 e23e
00000020: e03a 2c3f 4941 5fbf 3df4 fc3f 092b 0bbd
00000030: 16a4 37bd 00ac a2bd 84ea 613d b043 343f
00000040: b081 d2bf fc1d f53e ea8f 8dbf a045 20c0
00000050: 1d4a 8cc0 ab50 28c0 77c1 a0be c19b b13e
00000060: 1385 5dbd 0e6a 16bd e9c9 afbb 8ec6 ba3f
00000070: 6586 1240 bce3 d23e 9715 0dc0 0141 53c0
00000080: 12ea 5fbf d19f b7be bd7b 4cc0 8195 88bf
00000090: 909c 19bd 4351 9dbd 8f17 c83b 0b3e 0540
000000a0: 50fa 803f d5d4 fb3b 4e3c 27c0 c7a8 13c0
000000b0: 22e9 2bc0 4adb 35c0 bb2e 32c0 4605 34c0
000000c0: ebfd a5bc 03b1 80bf 3475 3540 fe73 ec3e
000000d0: ca2b 2b40 e3fb f43e 0043 ed3f ef44 babc
000000e0: b776 9fc0 c3ef c4c0 4844 65c0 71f2 35c0
000000f0: 0e9c 0cbd bd69 7cbf e2c2 a4bf 81ee ca3f
00000100: 441a ac40 0d76 0840 0a14 8c40 d0d3 2640
00000110: e336 c63f cfcb 4bc0 f1b5 b9c0 0b7b 77c0
00000120: 7e26 8dbd 59fb 6fbf 9dba 69c0 d195 36c0
00000130: 64e2 4a3f 8b3c 4040 de80 ab40 9daa 5740
00000140: 06c8 f23f 5a52 b13e 337f b3bf 5ad6 f7bf
00000150: 482f 81bf 8186 c3bf 2ea7 07c0 12fc a3c0
00000160: 5ccf 6bc0 8ff1 d13f 431a 7140 935e b63f
00000170: f738 99be f69f ba3e 34c7 a63e 2529 11c0
00000180: 8365 6bbf 8e3a 993e 8b82 43c0 7df7 3bc0
00000190: e03e 3fc0 0127 3fc0 81de 4940 42b0 cd3e
000001a0: 73ed cf3e f1f1 6240 efe5 bb3f 114e 743e
000001b0: e0a0 e5bc f3d6 72bf ee7b 85bf 3d6d ffbf
000001c0: f150 fbbf a170 80c0 8cb9 c2be 7fbc 0c40
000001d0: 348e 173f a100 493e 3687 c2bd 1cb6 6cbf
000001e0: 102b 9dbd dab5 663d dcaf cfbf fb60 6ebf
000001f0: 7307 2dc0 facc 3ac0 4169 1b3f 26e1 bcbf
00000200: 8521 01c0 9569 79bf 1f74 a13e eb84 833b
00000210: e014 58bc b893 09bd 6c00 85bd b929 753f
00000220: a7b5 813f 65b0 a93f 0b00 4d3f 8285 813c
00000230: ad46 443c cbfa 44bb 6713 a8bd 4b44 5dbc
00000240: 78f1 6bbf 6a7c 85bf 5676 84bf 5318 7cbf
00000250: 1896 79bf 26b1 75bf c747 6bbf 03ce 81bf
00000260: acf0 88bf d926 80bf ae18 8abf 571c 83bf
00000270: b7b2 6ebf 65ee 85bf 3cab 7ebf 3bc9 87bf
00000280: ebab 89bf 4098 72bf 5e89 75bf e92c 80bf
00000290: 0a33 74bf 2028 72bf 21e6 87bf 0754 83bf
000002a0: f773 73bf 3e34 88bf 1798 85bf 22de 84bf
000002b0: 7d21 7fbf 0327 81bf 9096 6cbf 0ca9 84bf
000002c0: b0d4 82bf 0649 81bf 6378 77bf 22a4 88bf
000002d0: a080 73bf e6e4 84bf 2ddf 6fbf d695 73bf
000002e0: a160 6dbf 51f3 73bf b66a 88bf 9dee 70bf
000002f0: ca2e 7fbf a00a 77bf 15f3 82bf cf0f 6cbf
00000300: 7214 88bf f2a1 7fbf e0e7 6fbf 7b58 78bf
00000310: 79f8 89bf 59ad 6bbf 0292 7ebf 5d91 6ebf
00000320: 0f5a 80bf f4e6 70bf 9001 85bf c6d1 71bf
00000330: 58f2 74bf a07a 74bf cc54 84bf f817 74bf
00000340: d2dc 7ebf 1e87 81bf 924a 84bf c2ea 80bf
00000350: 080e 81bf e8ef 74bf 7956 82bf d8c8 7ebf
00000360: 364e 89bf 41e2 75bf b6c0 71bf 3917 88bf
00000370: 2bcf 77bf 0eb1 89bf 9fc6 6ebf 0c6d 6cbf
00000380: 3363 7fbf eec2 84bf f93e 87bf 6800 6ebf
00000390: 662c 7ebf b0f2 77bf dd2f 8abf 434a 6fbf
000003a0: 96dc 6bbf 4baa 7cbf f43b 88bf 7a23 78bf
000003b0: 4e1a 74bf f8b3 87bf 01e4 76bf 73e2 89bf
000003c0: 1f92 83bf dd3e 80bf 48a3 86bf 4f26 80bf
000003d0: 895d 81bf cf99 73bf 336a 74bf b8de 84bf
000003e0: 3691 6dbf 99a5 73bf efe8 6bbf d6bb 6cbf
000003f0: 1051 82bf 42fc 85bf 5906 84bf 1853 7abf

bias f4 [5]
2.433812 -1.0752847 -1.6850567 -0.9889094 -4.9315267
00000000: 93c3 1b40 eea2 89bf f0af d7bf 2b29 7dbf
00000010: 11cf 9dc0

weight f4 [10, 5]
0.94562685 1.2237226 0.1619085 0.63763815 -0.49811485 5.1623096 -0.94149476 -0.40464157
-0.88843745 -0.59677446 -4.1706862 -0.8462342 1.142847 0.79318213 0.6882825 -0.2213373
-0.09863453 -0.18742211 -0.19592507 -0.110929936 -0.8966679 -0.87614137 -1.7897849 -0.599037
-2.0147855 -4.101757 0.9602206 2.4350529 1.3103353 2.2974217 -0.12787917 0.045155864
-0.6731744 -0.2905047 -1.114792 -3.2930474 0.81250554 1.3248748 0.96393526 0.8181096
-0.31846204 -0.3841193 -0.27784222 -1.382317 -0.8950033 -0.24207498 -0.6340038 -1.3009566
-0.8155798 -1.1173668
00000000: 9a14 723f f1a2 9c3f 58cb 253e 413c 233f
00000010: e908 ffbe a431 a540 cd05 71bf 2e2d cfbe
00000020: a370 63bf 36c6 18bf 4376 85c0 cea2 58bf
00000030: cf48 923f fc0d 4b3f 4833 303f 3fa6 62be
00000040: e700 cabd 95eb 3fbe 95a0 48be 3c2f e3bd
00000050: 078c 65bf cd4a 60bf ac17 e5bf 7d5a 19bf
00000060: 3ff2 00c0 9841 83c0 04d1 753f e8d7 1b40
00000070: 11b9 a73f f508 1340 c2f2 02be 5bf5 383d
00000080: 2855 2cbf 08bd 94be 81b1 8ebf 4ac1 52c0
00000090: 5d00 503f 7f95 a93f 76c4 763f a16f 513f
000000a0: 750d a3be 49ab c4be 5641 8ebe c3ef b0bf
000000b0: f01e 65bf 81e2 77be 134e 22bf bf85 a6bf
000000c0: d6c9 50bf e005 8fbf

bias f4 [10]
0.9029562 -0.06540651 -1.9854008 -0.12149744 -2.2675364 -1.3091935 -1.5569724 -1.1498889
-0.90262204 -0.7964987
00000000: 2328 673f d9f3 85bd 9d21 febf a6d3 f8bd
00000010: 511f 11c0 a793 a7bf df4a c7bf 8f2f 93bf
00000020: 3d12 67bf 57e7 4bbf

weight f4 [10, 10]
2.0537112 1.4599242 2.4972334 -0.05565262 -0.1272866 2.9449954 1.1931549 2.9046052
-0.98325175 0.8396699 2.1831875 2.2083852 0.6786472 0.2535903 -0.08696805 1.031987
-0.8010397 1.035427 0.9835418 1.1897141 -3.7042875 -1.4788281 -1.22566 -0.28047505
-1.1843486 -2.0200768 -1.0953542 -1.8925661 -0.7046346 -0.8758554 -2.952972 -1.7315903
-1.887371 -0.1693902 -0.7889069 -1.686974 -0.76377237 -1.733261 -1.0550838 -0.72739387
-3.4810183 -2.0544243 -1.5970632 0.070763804 -1.0093762 -1.8773957 -0.9473636 -1.7963558
-1.009045 -1.1126405 -3.5381966 -1.9727529 -1.5912527 -0.27117082 -0.692472 -2.0560853
-1.1203496 -1.5506732 -0.7870213 -0.7926049 -2.8948722 -1.5833712 -1.524857 -0.12898993
-1.1262485 -1.7795781 -0.84659123 -2.0531094 -0.8756907 -0.897974 -3.1285672 -1.7131561
-1.4282357 0.09395137 -0.75050277 -1.8413697 -1.1649599 -1.9184701 -0.98455036 -0.8734089
-3.7695665 -1.8952848 -1.2746229 0.24076594 -1.2946634 -2.0438523 -1.1254035 -1.8110318
-1.0712272 -0.7214673 -3.3714328 -1.5950623 -1.6535621 0.29227623 -1.108279 -1.8796985
-1.2726754 -1.7638297 -0.85903484 -0.7489275
00000000: 0170 0340 ccde ba3f acd2 1f40 00f4 63bd
00000010: 6b57 02be ce7a 3c40 4db9 983f 0de5 3940
00000020: 63b6 7bbf 9bf4 563f 58b9 0b40 2f56 0d40
00000030: d3bb 2d3f 96d6 813e 4e1c b2bd 2618 843f
00000040: f010 4dbf df88 843f 65c9 7b3f 8d48 983f
00000050: 0c13 6dc0 3d4a bdbf 6de2 9cbf 6d9a 8fbe
00000060: bc98 97bf f048 01c0 9134 8cbf 9b3f f2bf
00000070: ef62 34bf 0f38 60bf 7efd 3cc0 c0a4 ddbf
00000080: 5f95 f1bf a074 2dbe cdf5 49bf c4ee d7bf
00000090: 9686 43bf 7fdb ddbf fc0c 87bf 7c36 3abf
000000a0: 01c9 5ec0 b07b 03c0 916c ccbf 9dec 903d
000000b0: 3d33 81bf 814e f0bf 6c86 72bf fdee e5bf
000000c0: 6328 81bf 016b 8ebf d071 62c0 2b83 fcbf
000000d0: 2bae cbbf e7d6 8abe d845 31bf e796 03c0
000000e0: 9e67 8fbf 767c c6bf 3a7a 49bf 28e8 4abf
000000f0: 9645 39c0 e8ab cabf 842e c3bf f015 04be
00000100: e928 90bf 37c9 e3bf 34ba 58bf 2566 03c0
00000110: 442d 60bf a0e1 65bf 723a 48c0 b348 dbbf
00000120: 6dd0 b6bf 9369 c03d f320 40bf 01b2 ebbf
00000130: 681d 95bf 6e90 f5bf 7e0b 7cbf ba97 5fbf
00000140: 9440 71c0 b198 f2bf d826 a3bf 598b 763e
00000150: 88b7 a5bf 7ace 02c0 390d 90bf e4cf e7bf
00000160: f91d 89bf 15b2 38bf 8ec5 57c0 002b ccbf
00000170: eca7 d3bf 3ba5 953e 16dc 8dbf f699 f0bf
00000180: 07e7 a2bf 2cc5 e1bf b5e9 5bbf b6b9 3fbf

bias f4 [10]
1.2688235 2.219432 -1.5608563 -1.6941618 -1.721319 -1.8709307 -2.0697024 -1.8475292
-1.614541 -1.4846392
00000000: cf68 a23f 2d0b 0e40 24ca c7bf 4bda d8bf
00000010: 2e54 dcbf a87a efbf 0176 04c0 d67b ecbf
00000020: 48a9 cebf a808 bebf

weight f4 [1, 1, 5, 5]
-0.3468854 0.4192597 0.07101625 -1.2279733 -0.92855334 -0.12395612 0.8383216 0.12207819
-1.931021 -0.9691838 -0.48667815 3.344112 3.4772305 1.197065 -0.62778115 -2.9426155
3.1870878 2.921442 -1.3104231 -1.150511 2.1078856 3.577364 1.5448526 0.04523138
-0.03178216
00000000: f79a b1be 35a9 d63e f870 913d 3b2e 9dbf
00000010: acb5 6dbf b5dc fdbd 3f9c 563f 2104 fa3d
00000020: b22b f7bf 6e1c 78bf e12d f9be ee05 5640
00000030: f28a 5e40 6d39 993f 44b6 20bf d053 3cc0
00000040: 3ff9 4b40 e8f8 3a40 f2bb a7bf f243 93bf
00000050: 99e7 0640 88f3 6440 bbbd c53f 8a44 393d
00000060: 032e 02bd

weight f4 [5, 144]
0.041814648 -0.07814201 -0.056339663 0.029277425 -1.0526568 -1.0670838 -0.9277306 -0.9905097
-0.077154994 -0.063143186 -0.007118424 -0.041074514 -0.056115776 -1.0337743 -0.97171783 -1.0126634
-1.0426618 -0.92471176 -1.017833 -1.0531167 -1.0722265 -0.06304859 -0.07530609 -0.014466068
-1.0079621 -0.95967567 -0.92782867 -1.0334117 -0.97179055 -0.9671605 -1.0451368 -0.9969668
-0.97356784 -0.9775712 -0.028419217 0.03624159 -0.9342257 -0.9715732 -0.99291354 -1.0384928
-0.99749464 -0.9801728 -0.94485384 -0.98309004 -1.0569029 -1.0314091 -0.93933505 -1.047535
-1.0416802 -0.9303335 -0.9491057 -0.91724926 -1.0314347 -0.9496663 -1.0073252 -1.0254731
-0.95046437 -0.96004164 -0.96956027 -0.9774674 -0.92087805 -1.0300415 -1.0331055 -1.0528754
-0.9689364 -1.0151743 -1.0699946 -1.0298805 -1.0279526 -1.0324849 -0.026185554 0.06862913
-1.0405374 -0.07015075 -1.0235825 -0.94882464 -0.9213598 -0.9404344 -1.0462021 -0.93806785
-1.0544463 -1.030709 -0.07419337 -0.069427356 -0.9891546 -1.0316646 -1.0451682 -1.0293393
-0.94336975 -1.062033 -0.94926107 -1.0308841 -1.0466437 0.052903533 0.021758467 -0.010682693
-0.024208546 -0.9267702 -0.9294039 -0.9743729 -1.0759791 -1.0037426 -0.9168654 -0.96460086
-1.0344713 -0.04518941 -1.0402185 -0.019621065 -0.026562026 0.009890249 -0.035610043 -0.021484762
-1.0259932 -0.9708844 -1.035912 -0.96646893 -1.0368075 -1.055233 -0.9168638 -0.020599416
-0.054059368 0.072012156 0.00047216815 0.05181911 -1.0198294 -0.9759253 -1.0024643 0.035596155
-1.06156 -1.0471654 -1.0532048 -0.9556247 -0.00194635 -0.026065838 -0.05929482 -0.038731366
-0.94802547 -0.9628056 -0.048686486 -1.0389684 0.01854254 0.02758506 -0.051360898 -0.05696293
-1.0644163 -0.99160343 -0.9239442 -1.0355422 -2.2677572 -1.3720251 -1.6774714 -1.969311
-2.0500638 -2.397225 -2.2641566 -0.9546046 -0.99343896 -0.96418417 0.02807249 0.89813185
0.88988113 0.44482243 0.0056222426 -0.0067854766 0.09114078 0.41291818 0.32554644 0.15797725
-1.0522013 0.12774277 0.38129556 -0.080295846 -0.09704698 -1.048323 -0.7590394 -0.5362432
-0.7001063 -0.6193886 -0.22907352 -0.00460424 -0.04033644 0.17041284 -0.013315347 -0.05482582
-0.62440753 -1.2380337 -2.294441 -2.4227743 -1.1224972 -1.017853 -0.45711568 0.9683934
0.05883238 0.4691344 0.24338563 -0.39333123 -0.75034505 -3.1163876 -0.14172283 -0.39035514
-1.1640621 -0.85818 -0.36768898 0.781149 -0.91974825 0.39963904 0.17056485 -0.23393856
-0.4047828 -0.5540097 -0.30877438 -0.8464236 -0.9137911 -0.5853447 0.45447183 0.6504639
-0.035014067 0.8567452 0.22280729 -2.1309698 -0.17902021 -3.5034378 -1.2118253 -1.2403959
-1.6596602 -2.090285 -0.28451222 0.9846651 -0.9964446 0.63595545 -1.5971644 -1.9473178
-2.2787113 -0.3954838 -0.5379692 -3.1031547 -2.456223 -0.9207344 1.0938685 0.022806285
-1.0321522 0.04196241 -2.0610473 -1.4156889 0.098340645 -1.3103576 -0.650343 -2.6826634
-2.2953186 0.25172916 1.3236612 -0.00846487 -1.0714353 -1.0562675 -0.030706145 -0.32581526
00000000: d645 2b3d eb08 a0bd 6bc4 66bd 36d7 ef3c
00000010: 75bd 86bf 3496 88bf c17f 6dbf 0b92 7dbf
00000020: 7003 9ebd 3751 81bd ab41 e9bb c03d 28bd
00000030: a8d9 65bd b752 84bf 80c2 78bf f49e 81bf
00000040: f175 85bf e9b9 6cbf 5a48 82bf 87cc 86bf
00000050: b83e 89bf 9f1f 81bd 143a 9abd 1603 6dbc
00000060: e704 81bf 4ead 75bf 2e86 6dbf d646 84bf
00000070: 44c7 78bf d597 77bf 0bc7 85bf 3739 7fbf
00000080: be3b 79bf 1b42 7abf 6bcf e8bc 1072 143d
00000090: 6a29 6fbf 05b9 78bf 952f 7ebf 55ed 84bf
000000a0: cf5b 7fbf 9bec 7abf f1e1 71bf caab 7bbf
000000b0: 9848 87bf 3705 84bf 4378 70bf a015 86bf
000000c0: c755 85bf 562a 6ebf 97f8 72bf d9d0 6abf
000000d0: 0d06 84bf 551d 73bf 08f0 80bf b442 83bf
000000e0: a251 73bf 4ac5 75bf 1a35 78bf 4e3b 7abf
000000f0: aabe 6bbf 66d8 83bf cd3c 84bf 9fc4 86bf
00000100: 370c 78bf 3bf1 81bf 95f5 88bf 20d3 83bf
00000110: f393 83bf 7728 84bf 1683 d6bc 6e8d 8c3d
00000120: 5430 85bf 32ab 8fbd c004 83bf 2ce6 72bf
00000130: 3cde 6bbf 4fc0 70bf f3e9 85bf 3725 70bf
00000140: 19f8 86bf 46ee 83bf b2f2 97bd ee2f 8ebd
00000150: 3c39 7dbf 960d 84bf 12c8 85bf 64c1 83bf
00000160: ae80 71bf b3f0 87bf c602 73bf 03f4 83bf
00000170: 6cf8 85bf 60b1 583d d03e b23c 7606 2fbc
00000180: 0051 c6bc d040 6dbf 6aed 6dbf 8170 79bf
00000190: afb9 89bf a37a 80bf b1b7 6abf 15f0 76bf
000001a0: 8e69 84bf 8818 39bd e125 85bf 5bbc a0bc
000001b0: 9b98 d9bc b60a 223c d6db 11bd d000 b0bc
000001c0: bf53 83bf e18b 78bf c498 84bf 826a 77bf
000001d0: 1cb6 84bf e011 87bf 96b7 6abf 1bc0 a8bc
000001e0: 5b6d 5dbd 1c7b 933d 568d f739 4640 543d
000001f0: c589 82bf 3ed6 79bf c050 80bf 46cd 113d
00000200: 33e1 87bf 8409 86bf 6acf 86bf d2a3 74bf
00000210: ab1c ffba 0688 d5bc 20df 72bd c8a4 1ebd
00000220: ccb1 72bf 6e7a 76bf 7b6b 47bd ebfc 84bf
00000230: 86e6 973c 10fa e13c ce5f 52bd f651 69bd
00000240: cb3e 88bf b9d9 7dbf 9b87 6cbf a68c 84bf
00000250: ef22 11c0 859e afbf 62b7 d6bf 6212 fcbf
00000260: 3f34 03c0 226c 19c0 f1e7 10c0 f860 74bf
00000270: 0452 7ebf c6d4 76bf 47f8 e53c f8eb 653f
00000280: 40cf 633f c4bf e33e ca3a b83b b458 debb
00000290: 04a8 ba3d 036a d33e 06ae a63e cac4 213e
000002a0: 88ae 86bf 00cf 023e 2c39 c33e 2672 a4bd
000002b0: 91c0 c6bd 732f 86bf 6850 42bf 3c47 09bf
000002c0: 2b3a 33bf 4090 1ebf 4092 6abe 2adf 96bb
000002d0: d337 25bd b480 2e3e 9d28 5abc 0a91 60bd
000002e0: 2cd9 1fbf e377 9ebf 1fd8 12c0 bc0e 1bc0
000002f0: fdad 8fbf 0249 82bf 110b eabe a1e8 773f
00000300: 39fa 703d 6232 f03e 153a 793e b662 c9be
00000310: 9d16 40bf e572 47c0 ca1f 11be a1dc c7be
00000320: fdff 94bf afb1 5bbf bb41 bcbe 62f9 473f
00000330: 9f74 6bbf 7d9d cc3e 8da8 2e3e 978d 6fbe
00000340: b13f cfbe 94d3 0dbf ad17 9ebe 38af 58bf
00000350: 37ee 69bf 26d9 15bf 88b0 e83e cd84 263f
00000360: e96a 0fbd a753 5b3f 9827 643e cf61 08c0
00000370: 1351 37be 5338 60c0 171d 9bbf 4bc5 9ebf
00000380: bf6f d4bf 3bc7 05c0 96ab 91be 0313 7c3f
00000390: fe16 7fbf facd 223f e26f ccbf b641 f9bf
000003a0: 68d6 11c0 da7c cabe 59b8 09bf 169a 46c0
000003b0: c232 1dc0 40b5 6bbf e203 8c3f 3fd4 ba3c
000003c0: 901d 84bf c7e0 2b3d 33e8 03c0 4b35 b5bf
000003d0: d266 c93d ccb9 a7bf e17c 26bf c2b0 2bc0
000003e0: 80e6 12c0 a5e2 803e bb6d a93f 3db0 0abc
000003f0: cb24 89bf c633 87bf 748b fbbc 42d1 a6be

bias f4 [5]
-1.0684434 0.17306307 0.7336682 0.18448707 -1.6919743
00000000: c1c2 88bf 7237 313e aed1 3b3f 2eea 3c3e
00000010: 9d92 d8bf

weight f4 [10, 5]
1.1345843 -0.042410046 -2.416069 -0.5852129 0.22793046 0.7350344 -1.3632127 -0.07090991
-1.1950812 0.5667149 -0.76939625 -1.1387109 -0.9565425 -1.4144393 -1.3587198 1.1074418
1.0144264 -1.470532 -0.9637072 -0.020970928 -1.0909997 -1.3848313 -1.4097663 -1.3042196
-0.6469557 0.59602004 -0.5957954 -0.70758355 -0.72429687 -0.6250639 0.28108504 -1.2243907
-1.3304813 -0.64528453 -0.7382173 0.69851667 -1.3140368 0.74936646 -1.4746451 -0.6312856
-0.11402011 -0.3008857 -0.19683121 -0.26152837 0.112040795 -1.3664815 1.8678797 -0.7149259
0.3899215 0.6794073
00000000: 0f3a 913f 28b6 2dbd e0a0 1ac0 83d0 15bf
00000010: 9a66 693e 372b 3c3f c17d aebf 3739 91bd
00000020: 6cf8 98bf 3a14 113f 27f7 44bf 47c1 91bf
00000030: f8df 74bf 590c b5bf 88ea adbf a7c0 8d3f
00000040: b9d8 813f 643a bcbf 84b5 76bf 39cb abbc
00000050: e1a5 8bbf 2742 b1bf 3973 b4bf abf0 a6bf
00000060: e49e 25bf c594 183f 0c86 18bf 3224 35bf
00000070: 856b 39bf 3004 20bf 61ea 8f3e d6b8 9cbf
00000080: 364d aabf 5e31 25bf cffb 3cbf fdd1 323f
00000090: 5c32 a8bf 7bd6 3f3f 2cc1 bcbf ef9b 21bf
000000a0: 6083 e9bd b10d 9abe 1f8e 49be 0ce7 85be
000000b0: a575 e53d dee8 aebf af16 ef3f 6205 37bf
000000c0: caa3 c73e a3ed 2d3f

bias f4 [10]
-0.93956834 -0.1453213 -0.9171246 -1.0629148 -0.7874264 1.4595147 -1.2456262 -2.159896
-0.23608847 -0.43087277
00000000: 8d87 70bf 1bcf 14be aec8 6abf 980d 88bf
00000010: c794 49bf 61d1 ba3f ae70 9fbf bc3b 0ac0
00000020: 2dc1 71be 5b9b dcbe

weight f4 [10, 10]
0.4906321 2.3709552 0.8366424 1.747795 0.86339515 0.82489884 -1.010223 2.382789
0.1156411 0.3549587 1.5530219 1.9455476 0.8890539 2.241092 0.76878035 1.6606135
0.7188782 1.8856962 0.28704387 1.5930932 -1.6621535 -2.2553024 -1.0550297 -1.629286
-1.2292114 -2.99253 -0.73450017 -2.153476 -0.24163829 -0.9887967 -1.4178234 -1.9903697
-1.1370629 -1.9177474 -0.9485348 -2.8651295 -0.92217016 -1.8331587 -0.25124836 -0.7968804
-1.2021552 -2.1652722 -0.8696612 -2.1791108 -0.9307339 -2.9474347 -1.1937659 -1.8535082
0.30067986 -1.2121648 -1.4398971 -1.7663945 -1.2805452 -2.014011 -0.9910701 -2.9022632
-1.0686748 -2.182819 -0.15297396 -0.7123259 -1.6696942 -2.1807508 -0.9411566 -1.852277
-0.74981266 -2.9986582 -0.8374683 -2.220157 0.03412528 -0.68865305 -1.2337464 -1.8559017
-1.1420522 -1.758025 -0.7700873 -2.9179451 -1.2896591 -2.0382466 -0.16480953 -1.2795615
-1.6065874 -1.976194 -0.85422635 -1.8627965 -1.1544051 -2.89466 -0.8641892 -1.7482744
0.14485839 -0.93246865 -1.5714135 -2.0483801 -1.2136724 -1.7591977 -1.028547 -3.0178165
-0.84227675 -2.243743 -0.28144342 -0.95368993
00000000: 2134 fb3e bbbd 1740 322e 563f bfb7 df3f
00000010: 7707 5d3f 922c 533f fd4e 81bf 9d7f 1840
00000020: 3ed5 ec3d 26bd b53e 6cc9 c63f b407 f93f
00000030: 0999 633f 0d6e 0f40 cace 443f fc8e d43f
00000040: 6708 383f 7e5e f13f 6af7 923e 7aea cb3f
00000050: 72c1 d4bf e056 10c0 370b 87bf 728c d0bf
00000060: cd56 9dbf 9d85 3fc0 3408 3cbf 8dd2 09c0
00000070: 0770 77be c821 7dbf 3d7b b5bf 6fc4 febf
00000080: 478b 91bf bf78 f5bf 2dd3 72bf 485e 37c0
00000090: 5813 6cbf f2a4 eabf a0a3 80be 5b00 4cbf
000000a0: 39e0 99bf d293 0ac0 1ea2 5ebf 8d76 0bc0
000000b0: 9444 6ebf c5a2 3cc0 52cd 98bf c23f edbf
000000c0: b6f2 993e 3728 9bbf 8c4e b8bf 3719 e2bf
000000d0: e8e8 a3bf 8ee5 00c0 c5b6 7dbf aebe 39c0
000000e0: 56ca 88bf 4eb3 0bc0 35a5 1cbe fd5a 36bf
000000f0: 8ab8 d5bf 6c91 0bc0 a4ef 70bf 6a17 edbf
00000100: b9f3 3fbf 04ea 3fc0 5364 56bf 0d17 0ec0
00000110: f3c6 0b3d 914b 30bf 67eb 9dbf 308e edbf
00000120: c42e 92bf f706 e1bf 7124 45bf 9dbf 3ac0
00000130: 8d13 a5bf a272 02c0 d4c3 28be acc8 a3bf
00000140: a8a4 cdbf edf3 fcbf 94ae 5abf 1e70 eebf
00000150: 8cc3 93bf 1c42 39c0 813b 5dbf 75c7 dfbf
00000160: c255 143e 44b6 6ebf 1424 c9bf a918 03c0
00000170: 9e59 9bbf 642d e1bf 6ea7 83bf e823 41c0
00000180: 739f 57bf 7c99 0fc0 5a19 90be 0625 74bf

bias f4 [10]
0.15886517 2.937556 -1.8589933 -1.9748785 -1.8994843 -1.9339488 -2.1018085 -1.8110626
-1.9867657 -2.0993118
00000000: 8dad 223e eb00 3c40 7ef3 edbf d2c8 fcbf
00000010: 4d22 f3bf a28b f7bf 0884 06c0 e6d0 e7bf
00000020: 574e febf 205b 06c0

weight f4 [1, 1, 5, 5]
2.3043594 -0.07162927 0.021958737 0.16982941 0.07195608 0.5368301 1.9118541 -0.6268705
-2.2375844 -0.7316153 1.2423141 1.709502 -1.5725907 -1.9832455 0.9102255 1.7824018
2.2576945 -1.3947757 -1.5544693 1.3830224 2.3540351 1.2489785 -1.0316176 -0.36840758
0.42295185
00000000: a07a 1340 5eb2 92bd cfe2 b33c c3e7 2d3e
00000010: b65d 933d b36d 093f a3b7 f43f 967a 20bf
00000020: 9534 0fc0 244b 3bbf 2604 9f3f f6d0 da3f
00000030: a74a c9bf fdda fdbf 8a04 693f be25 e43f
00000040: 117e 1040 0388 b2bf daf8 c6bf e106 b13f
00000050: 83a8 1640 87de 9f3f 0c0c 84bf eb9f bcbe
00000060: 258d d83e

weight f4 [5, 144]
-0.9762835 -1.0744427 -0.985606 0.05118212 -0.06457951 -0.17610954 -0.26933533 -0.20690179
-0.12573789 0.07865079 -1.0378748 -1.0139915 0.037554152 0.057031687 -0.030601032 -0.053839497
-0.17660539 -0.16210532 -0.50660485 -0.8071704 -0.41072062 -0.06715467 -0.9290366 -0.9597018
-0.021538105 -0.00041469053 0.009232703 -0.25492397 -0.2209878 -0.41679537 -0.39838722 -0.3412849
-0.5306284 -0.102724984 -1.0378349 -1.0755286 -1.0461507 -0.026664343 -0.21607761 -0.26561385
-0.32990155 -0.36993897 -0.26870552 -0.086329624 -0.23247355 -0.055944167 -0.03928984 -0.957957
-1.0625741 -0.031500425 -0.3002017 -0.29706788 -0.22523376 -0.11894051 -0.08815949 -0.22485048
-0.10224291 -0.07119386 0.016498946 -0.9716451 -1.0585564 -0.039139282 -0.3599608 -0.37847224
-0.3141153 -0.58580625 -0.7157646 -0.7076041 -0.5294522 -0.16334844 -0.029498417 -0.964373
-0.9980301 -0.0994639 -0.39910376 -0.5018089 -0.7593818 -1.3021393 -1.278004 -1.3643976
-1.0982856 -0.6818287 -0.22862422 -0.03631979 -0.95963544 -0.2609807 -0.5378368 -0.7666525
-1.1188328 -1.3514937 -1.1623789 -1.346239 -1.170829 -0.80420446 -0.23203735 -0.7108764
-0.05525128 -0.06878208 -0.5432019 -1.3010342 -1.6686985 -1.457974 -1.2807498 -1.2219105
-0.63710433 -0.47723296 -0.15526001 -0.13886167 0.06109914 -0.014200154 -0.3126313 -1.0006114
-1.4524542 -1.4726391 -1.3494667 -0.7453098 -0.52839875 -0.19366102 -0.092321716 -0.08486741
-0.016223364 0.07524336 0.092963226 -0.09447957 -0.6084899 -0.80855525 -0.654844 -0.4497165
-0.2121418 -0.08802185 -0.0014890953 -0.9992744 -0.9885036 -0.93417245 -0.92828405 -0.9589558
-0.9735662 -1.0452427 -1.0458375 -0.966465 -0.9837785 -0.99443525 -1.0340029 -1.0205526
0.06663436 -0.028650593 0.045851182 -0.06745621 -0.062954575 0.093991555 0.049636584 0.027909337
0.06797626 1.060497 0.059101682 0.0285423 -1.0081124 -1.9792491 -1.9479091 -1.9317161
-2.029082 0.020926189 -0.062271554 -0.092977814 -2.0130122 -2.009556 -1.0468963 -0.0013057392
-1.9564801 -2.0461214 -1.9449164 -1.9217377 -1.9741626 -0.012502536 -0.124337144 -2.037117
-2.0725427 -2.0511842 -2.049872 -0.050257664 -1.0557082 0.016537458 -2.0299273 -2.0635924
0.009007912 -0.0676107 -1.9712226 -2.0567553 -1.9002453 -1.8215413 -0.06346381 -0.042981237
-0.97062325 0.070862725 -0.04384699 -0.075049005 -0.059260312 -0.043053836 -2.0593512 -2.0649002
-1.9403881 -0.24763334 0.16362868 -0.047444057 -0.020494886 -1.9753398 -0.0607326 0.018320246
-0.23483996 -0.4009188 -0.23164903 -0.059458144 -2.1216588 -0.28435197 -0.007409765 -0.9210238
0.96479815 0.068635195 -0.07084915 -0.20418835 -0.40566885 -0.3488465 -0.21549398 -0.39601594
-0.2287358 -0.34017158 -0.19203044 -0.032509107 0.9157705 -2.0586298 -2.0787885 -2.117501
-0.33214036 -2.3966749 -2.3963716 -0.3503993 -0.2188787 -0.271252 -2.0204308 -2.0156646
-0.97946334 -1.9600326 -2.0056243 -2.0721762 -0.18892792 -2.4282854 -0.578441 -0.4268255
-0.30092433 -2.145061 -2.091674 -2.0050669 -0.9417083 -1.9517155 -2.1407154 -2.160405
00000000: b7ed 79bf 5787 89bf ad50 7cbf 58a4 513d
00000010: 4342 84bd 0f56 34be 52e6 89be 10de 53be
00000020: 6fc1 00be aa13 a13d 15d9 84bf 79ca 81bf
00000030: 62d2 193d 0f9a 693d 04af fabc ce86 5cbd
00000040: 0bd8 34be f0fe 25be dbb0 01bf b8a2 4ebf
00000050: f949 d2be 6388 89bd 58d5 6dbf 04af 75bf
00000060: ae70 b0bc d26a d9b9 c344 173c 6585 82be
00000070: a04a 62be 3466 d5be 69f9 cbbe e5bc aebe
00000080: 43d7 07bf 7a61 d2bd c6d7 84bf ecaa 89bf
00000090: 44e8 85bf 2e6f dabc 7343 5dbe 8afe 87be
000000a0: dbe8 a8be a468 bdbe c593 89be 96cd b0bd
000000b0: 8c0d 6ebe b625 65bd 62ee 20bd ac3c 75bf
000000c0: 6e02 88bf 9706 01bd 0ab4 99be 4819 98be
000000d0: aea3 66be 1597 f3bd f68c b4bd 343f 66be
000000e0: bb64 d1bd 16ce 91bd cc28 873c bcbd 78bf
000000f0: c77e 87bf 8350 20bd c84c b8be 1dc7 c1be
00000100: b8d3 a0be 66f7 15bf 593c 37bf 8b25 35bf
00000110: 2e8a 07bf d044 27be aaa6 f1bc 26e1 76bf
00000120: e77e 7fbf bbb3 cbbd 5457 ccbe 8c76 00bf
00000130: d866 42bf 80ac a6bf a395 a3bf 95a4 aebf
00000140: 9f94 8cbf 538c 2ebf 781c 6abe 0fc4 14bd
00000150: abaa 75bf 439f 85be acaf 09bf 5743 44bf
00000160: ea35 8fbf bffd acbf d5c8 94bf 8f51 acbf
00000170: badd 95bf 58e0 4dbf 339b 6dbe fffb 35bf
00000180: 2b4f 62bd 9fdd 8cbd 480f 0bbf 4a88 a6bf
00000190: ea97 d5bf e49e babf 9cef a3bf 9067 9cbf
000001a0: 4519 23bf e157 f4be 7bfc 1ebe c131 0ebe
000001b0: 1843 7a3d c3a7 68bc 3611 a0be 0914 80bf
000001c0: 05ea b9bf 707f bcbf 53bb acbf a0cc 3ebf
000001d0: 2445 07bf 134f 46be 2b13 bdbd f7ce adbd
000001e0: dce6 84bc 3119 9a3d 8163 be3d 817e c1bd
000001f0: fec5 1bbf 7afd 4ebf dba3 27bf 3e41 e6be
00000200: b33b 59be cd44 b4bd bf2d c3ba 72d0 7fbf
00000210: 920e 7dbf ed25 6fbf 06a4 6dbf 217e 75bf
00000220: a23b 79bf 83ca 85bf 01de 85bf 406a 77bf
00000230: e8d8 7bbf 4f93 7ebf 355a 84bf 78a1 82bf
00000240: 9877 883d a6b4 eabc 73ce 3b3d 7b26 8abd
00000250: 54ee 80bd a57e c03d bb4f 4b3d 1fa2 e43c
00000260: 2337 8b3d 5ebe 873f 9b14 723d 8bd1 e93c
00000270: d409 81bf 0958 fdbf 1655 f9bf 7942 f7bf
00000280: 7bdc 01c0 666d ab3c 7510 7fbd 276b bebd
00000290: 31d5 00c0 919c 00c0 b300 86bf 5625 abba
000002a0: f16d fabf a7f3 02c0 05f3 f8bf 80fb f5bf
000002b0: 5cb1 fcbf 70d7 4cbc 79a4 febd 2060 02c0
000002c0: 8aa4 04c0 9a46 03c0 1a31 03c0 fbda 4dbd
000002d0: 7221 87bf 9079 873c 54ea 01c0 e611 04c0
000002e0: ec95 133c 7b77 8abd 0651 fcbf e1a1 03c0
000002f0: 3d3b f3bf 4428 e9bf 50f9 81bd 180d 30bd
00000300: c47a 78bf 7a20 913d e798 33bd 4bb3 99bd
00000310: f1ba 72bd 3859 30bd 69cc 03c0 5327 04c0
00000320: a35e f8bf 9893 7dbe 478e 273e b354 42bd
00000330: e4e4 a7bc efd7 fcbf bfc2 78bd 5714 963c
00000340: e379 70be 3b45 cdbe 6735 6dbe 628a 73bd
00000350: 42c9 07c0 9596 91be 9dcd f2bb 37c8 6bbf
00000360: 03fd 763f 9c90 8c3d 5c19 91bd c016 51be
00000370: d4b3 cfbe 029c b2be 74aa 5cbe 9ac2 cabe
00000380: b839 6abe f82a aebe a1a3 44be 4528 05bd
00000390: ef6f 6a3f 97c0 03c0 df0a 05c0 2385 07c0
000003a0: 4d0e aabe 1f63 19c0 275e 19c0 8967 b3be
000003b0: bd21 60be 8be1 8abe bd4e 01c0 a600 01c0
000003c0: 1cbe 7abf 59e2 fabf 265c 00c0 899e 04c0
000003d0: 5276 41be 0769 1bc0 b614 14bf df88 dabe
000003e0: c112 9abe ae48 09c0 fddd 05c0 0453 00c0
000003f0: cc13 71bf d0d1 f9bf 7b01 09c0 1344 0ac0

bias f4 [5]
-0.75589275 -0.14165068 -0.03305596 -0.98432523 -1.474471
00000000: 3082 41bf e00c 11be b065 07bd bdfc 7bbf
00000010: 77bb bcbf

weight f4 [10, 5]
1.0929593 2.683656 -0.67096865 0.5940029 0.3524736 0.16852959 -1.2768426 -0.19605471
-0.4401766 -2.3059733 -0.7048447 0.6254105 -1.5453827 -0.38561523 -0.69246817 -0.13407059
-1.1664265 0.36922428 0.3149324 -1.1958988 -0.6743374 -0.8191138 -1.7515008 0.55423176
-2.1009688 -0.41379687 0.030402828 -0.09078119 -0.43234172 -0.37644374 -1.2071604 -0.6896141
-0.35860547 0.83540326 -1.2920773 -0.5636101 -0.9195684 -1.1337155 0.27703145 -0.35654563
-1.2266588 -1.0445814 -0.9228845 -1.3188289 -0.016536588 -0.041533686 -0.02621581 -0.25076714
-0.36967564 -0.13724624
00000000: 17e6 8b3f 05c1 2b40 9ac4 2bbf 9310 183f
00000010: 6b77 b43e 0593 2c3e 946f a3bf 91c2 48be
00000020: d45e e1be 1195 13c0 b470 34bf e71a 203f
00000030: 1acf c5bf 5c6f c5be 9845 31bf cd49 09be
00000040: 774d 95bf f70a bd3e d23e a13e 3613 99bf
00000050: 60a1 2cbf 71b1 51bf 2e31 e0bf 22e2 0d3f
00000060: 4676 06c0 2fdd d3be 5a0f f93c 7deb b9bd
00000070: e55b ddbe 3cbd c0be 3b84 9abf 8d8a 30bf
00000080: 239b b7be fddc 553f ca62 a5bf c048 10bf
00000090: d668 6bbf 971d 91bf 11d7 8d3e 268d b6be
000000a0: 2803 9dbf d8b4 85bf 2942 6cbf 63cf a8bf
000000b0: bd77 87bc 3a1f 2abd 8ac2 d6bc 8d64 80be
000000c0: 2046 bdbe 478a 0cbe

bias f4 [10]
-0.52074057 -0.77501196 -2.578668 1.8997318 -0.47545364 -0.2537438 -0.89164 -1.3136971
-0.93798876 -0.023858085
00000000: 414f 05bf 2f67 46bf e608 25c0 692a f33f
00000010: a96e f3be b5ea 81be 8542 64bf 3a27 a8bf
00000020: 0820 70bf 0872 c3bc

weight f4 [10, 10]
1.0048316 -0.38883674 -0.0973384 0.37017673 1.435004 -0.042615086 0.9239519 0.6947151
0.937716 -0.23848344 1.536782 0.22940066 0.73156977 -0.45531282 0.9095508 0.05896346
1.198424 -1.1760994 0.7713301 0.014938191 -2.5467772 -1.3608056 -0.78027284 -3.5014653
-2.3236282 0.20868574 -0.97936606 -0.8017362 -1.2358875 0.09246703 -2.0835454 -1.1237531
-1.0762631 -2.0622637 -1.7778519 -0.28009138 -0.92847884 -0.75601864 -1.2343941 0.19669148
-2.501135 -2.3420415 -1.5129995 -4.542323 -1.7510443 0.07193136 -0.81934553 -1.1286585
-1.0166441 0.19444713 -2.3537247 -1.4823164 -0.89054143 -3.5465105 -2.0483124 0.09310457
-0.99899524 -1.2062901 -0.8909223 0.23020773 -2.479187 -1.0126942 -0.97584736 -3.130748
-2.0977826 0.3151067 -0.70725036 -0.8374105 -1.2733246 -0.3122126 -2.4926746 -1.626261
-0.86449295 -4.1253114 -2.2266905 -0.0004751743 -0.7455668 -0.9746185 -1.1845179 0.051021505
-2.3945563 -1.0806597 -1.218479 -3.0831356 -1.949607 -0.21193178 -1.159286 -1.0382669
-0.83394593 0.0010091186 -1.8668463 -1.3640871 -0.9182026 -2.1551614 -1.8129996 0.16046526
-0.76590717 -1.1005887 -0.81975746 -0.16889429
00000000: 529e 803f 9c15 c7be 5b59 c7bd ce87 bd3e
00000010: 36ae b73f 288d 2ebd 1d88 6c3f d9d8 313f
00000020: 280e 703f 0135 74be 46b5 c43f 02e8 6a3e
00000030: 2848 3b3f c31e e9be 52d8 683f ab83 713d
00000040: f565 993f 6d8a 96bf e475 453f 50bf 743c
00000050: 66fe 22c0 e12e aebf f6bf 47bf 0218 60c0
00000060: 53b6 14c0 b7b1 553e bcb7 7abf 953e 4dbf
00000070: 9031 9ebf 5b5f bd3d cf58 05c0 24d7 8fbf
00000080: fdc2 89bf 21fc 03c0 a790 e3bf 2368 8fbe
00000090: cab0 6dbf 708a 41bf a000 9ebf 7e69 493e
000000a0: 9912 20c0 02e4 15c0 f8a9 c1bf b65a 91c0
000000b0: 3822 e0bf c050 933d a1c0 51bf e277 90bf
000000c0: 6521 82bf 261d 473e 6da3 16c0 8bbc bdbf
000000d0: 86fa 63bf 07fa 62c0 8d17 03c0 9cad be3d
000000e0: 27be 7fbf b767 9abf 7c13 64bf 93bb 6b3e
000000f0: 00ab 1ec0 f79f 81bf 22d1 79bf 2d5e 48c0
00000100: 1242 06c0 aa55 a13e 5c0e 35bf 8960 56bf
00000110: 4dfc a2bf 54da 9fbe fb87 1fc0 5229 d0bf
00000120: 694f 5dbf 8d02 84c0 1982 0ec0 d120 f9b9
00000130: 77dd 3ebf 9980 79bf 489e 97bf edfb 503d
00000140: 6940 19c0 0f53 8abf 1ff7 9bbf 1852 45c0
00000150: b98c f9bf a504 59be 7c63 94bf eee5 84bf
00000160: 7b7d 55bf 6744 843a d2f4 eebf 689a aebf
00000170: 530f 6bbf 2aee 09c0 5f10 e8bf 0151 243e
00000180: 7e12 44bf 17e0 8cbf a0db 51bf a0f2 2cbe

bias f4 [10]
2.1353786 0.8180903 -2.814149 -2.889964 -2.3482306 -2.6782694 -2.5106885 -2.4869995
-2.49981 -2.8193257
00000000: 0baa 0840 5e6e 513f 041b 34c0 2cf5 38c0
00000010: 6949 16c0 c468 2bc0 1faf 20c0 002b 1fc0
00000020: e3fc 1fc0 d56f 34c0

weight f4 [1, 1, 5, 5]
-1.2190125 -0.7131788 -0.42805803 -1.653671 -2.3630104 -0.29268834 -0.29228133 -0.5015074
-1.9079645 -2.837279 1.1959586 1.1333646 0.06315038 -1.6100829 -0.8534717 2.9670224
2.7027252 1.2218119 1.2021772 1.9085513 3.1567755 0.90775234 0.01449693 0.4073516
1.3543614
00000000: 9a08 9cbf e392 36bf 6c2a dbbe 7eab d3bf
00000010: 903b 17c0 3fdb 95be e6a5 95be ca62 00bf
00000020: 2e38 f4bf fb95 35c0 2c15 993f 1712 913f
00000030: fd54 813d 3217 cebf 1f7d 5abf b2e3 3d40
00000040: 73f9 2c40 5564 9c3f f1e0 993f 694b f43f
00000050: 9c08 4a40 7562 683f 8884 6d3c 6490 d03e
00000060: b75b ad3f

weight f4 [5, 144]
-0.92892134 -1.0403965 -0.9313002 -1.000371 -1.9929812 -2.1691053 -2.3783011 -2.0708306
-1.9594972 -1.023771 -0.9665798 -1.0517595 -1.0464048 -1.0009845 -2.0772204 -1.4385189
-0.8180951 1.2404472 -0.054255214 -0.56519556 -3.5561256 -2.003962 -1.9734213 -0.99745893
-1.0153859 -0.93264276 -1.964813 -0.2492468 -1.0896555 0.16837856 1.3876768 1.5377778
0.9815813 -2.567311 -1.5772843 -0.94687754 -0.9345846 -2.3432539 -2.1180947 -0.86780787
-0.09081965 2.5554636 3.6150172 1.5235115 3.5144217 1.5068245 -2.3121634 -0.9354588
-0.92991924 -0.8874689 -0.785181 0.47352526 -0.48420152 -0.97573286 -1.3846655 -0.46209875
2.4647453 1.40576 0.05776022 -0.9896839 -0.98611826 -0.928093 -1.0429143 1.4517623
2.0435958 0.15460812 -0.72864944 -0.40847152 2.8330154 -0.9135256 -0.9635071 -0.9785877
-1.0250138 -0.98238146 -1.0434109 -0.58590996 0.37548438 -0.80753905 0.051017888 2.2711265
2.0378857 -2.7076838 -0.98121417 -0.9649023 -1.0550518 -2.040667 -2.0761752 -1.9343752
-0.9092028 -0.16115016 3.3242376 3.357895 -1.1118045 -3.5705636 -2.4786813 -2.0273957
-0.99951714 -0.99855155 -0.9968054 -1.0083284 -2.3074756 0.9875263 1.8820928 0.36955783
-2.9834967 -2.6481097 -1.8332672 -1.3332582 -0.93694717 -1.7904651 -1.8923666 -2.7853606
-2.3279903 0.33536416 0.14527066 -4.392977 -3.2078912 -1.944702 -0.9583515 -1.0328918
-0.9616042 -0.9607651 -1.0634097 -1.2046658 -0.020493353 1.6784792 0.12903914 -1.7576591
-1.937719 -0.954529 -1.0217686 -1.0528008 -1.0325278 -1.0514778 -0.97645706 -0.86206114
0.25060558 -0.1869602 0.24508186 0.5275615 -0.9779376 -1.023897 -0.9788525 -1.0123752
1.0272577 0.9778782 0.24818996 -0.80620337 -0.8718734 -1.0830892 -1.7998143 -1.9231948
-1.4265568 -0.028236318 0.002543671 0.2579431 1.5694839 0.0064644413 0.029064761 1.2835631
0.41589612 -0.093361974 -0.38844988 -1.8542756 -1.90201 -1.3310988 -0.908301 0.5502764
2.119649 1.3029399 2.7448542 4.17721 2.9069242 2.7348127 2.431667 2.936629
2.9168618 0.40259054 0.426952 1.742819 1.9651321 1.6787885 2.577856 2.8436754
2.0412226 3.581566 1.4279159 1.041446 2.637972 2.0158503 1.4441873 1.6961046
1.7571487 2.741976 1.720194 3.0484507 -3.2112112 -1.9077213 -1.9108963 -2.631266
0.9902507 1.8332274 3.4291863 2.125316 1.0166475 1.5648857 0.5171442 0.38013083
0.0706877 -1.1440705 -0.60354394 -0.40172067 0.3920387 -0.56939757 0.542515 1.5203924
1.0720081 0.081011094 0.22667699 1.659036 1.5403051 2.0182939 1.8740753 0.8375913
2.4026713 -0.21344832 -1.1162463 0.4587681 0.9495439 0.11415246 -0.22490998 -0.304604
0.37107894 2.6286132 2.4318712 1.6654707 -0.66731775 -0.81284887 -1.5627718 -0.29367465
0.98736185 -0.8411121 -0.5261293 -0.84667355 -0.8520865 -0.805004 -0.6686167 -1.1833335
-1.4690458 -0.3322664 -0.5505105 0.019447964 0.9864064 -0.1486181 -0.8110362 -2.3764505
00000000: cacd 6dbf b62b 85bf b169 6ebf 280c 80bf
00000010: 021a ffbf 9fd2 0ac0 1636 18c0 7d88 04c0
00000020: ced0 fabf ee0a 83bf c671 77bf 0ea0 86bf
00000030: 98f0 85bf 4320 80bf 2ef1 04c0 6321 b8bf
00000040: ae6e 51bf f9c6 9e3f b73a 5ebd a8b0 10bf
00000050: 9097 63c0 ea40 00c0 1299 fcbf 7859 7fbf
00000060: 2af8 81bf adc1 6ebf fe7e fbbf 8e3a 7fbe
00000070: d579 8bbf 6e6b 2c3e 659f b13f e7d5 c43f
00000080: e948 7b3f d34e 24c0 74e4 c9bf 9166 72bf
00000090: f040 6fbf dff7 15c0 dd8e 07c0 a828 5ebf
000000a0: a7ff b9bd b78c 2340 715c 6740 6d02 c33f
000000b0: 49ec 6040 a0df c03f 7cfa 13c0 3a7a 6fbf
000000c0: 300f 6ebf 2931 63bf 9f01 49bf e771 f23e
000000d0: 43e9 f7be a1c9 79bf b83c b1bf 3598 ecbe
000000e0: 63be 1d40 f2ef b33f fb95 6c3d ed5b 7dbf
000000f0: 3f72 7cbf 8197 6dbf 377e 85bf 59d3 b93f
00000100: 46ca 0240 9751 1e3e c588 3abf 2e23 d1be
00000110: 2050 3540 d0dc 69bf 67a8 76bf b984 7abf
00000120: a733 83bf 5a7d 7bbf 7d8e 85bf 32fe 15bf
00000130: 7d3f c03e e1ba 4ebf 22f8 503d 235a 1140
00000140: b86c 0240 b14a 2dc0 da30 7bbf d603 77bf
00000150: f00b 87bf 4a9a 02c0 0ee0 04c0 9b99 f7bf
00000160: 84c1 68bf 8c04 25be 4fc0 5440 c0e7 5640
00000170: 9c4f 8ebf 1d84 64c0 b7a2 1ec0 dac0 01c0
00000180: 5be0 7fbf 13a1 7fbf a42e 7fbf e810 81bf
00000190: aead 13c0 86ce 7c3f 6be8 f03f af36 bd3e
000001a0: 9cf1 3ec0 a17a 29c0 80a8 eabf 34a8 aabf
000001b0: c5db 6fbf f62d e5bf 1239 f2bf 5943 32c0
000001c0: cbfd 14c0 dab4 ab3e d5c1 143e 4593 8cc0
000001d0: 174e 4dc0 ffeb f8bf 8656 75bf cc35 84bf
000001e0: b12b 76bf b4f4 75bf cf1d 88bf 7d32 9abf
000001f0: ade1 a7bc 68d8 d63f d622 043e f9fa e0bf
00000200: 2d07 f8bf 035c 74bf 50c9 82bf 2dc2 86bf
00000210: df29 84bf d396 86bf 17f9 79bf 0ab0 5cbf
00000220: 604f 803e 7f72 3fbe bdf6 7a3e 450e 073f
00000230: 1e5a 7abf 0f0f 83bf 1496 7abf 8395 81bf
00000240: 2e7d 833f 3a56 7a3f 8225 7e3e 5863 4ebf
00000250: 1833 5fbf aba2 8abf 5160 e6bf 3f2b f6bf
00000260: 6a99 b6bf da4f e7bc b8b3 263b 1e11 843e
00000270: d9e4 c83f aad3 d33b 3919 ee3c cc4b a43f
00000280: 56f0 d43e 9034 bfbd e7e2 c6be e758 edbf
00000290: 1075 f3bf 7261 aabf 6a86 68bf eade 0c3f
000002a0: 54a8 0740 bcc6 a63f b1ab 2f40 b4ab 8540
000002b0: 0c0b 3a40 2c07 2f40 6fa0 1b40 bbf1 3b40
000002c0: ddad 3a40 5920 ce3e 7499 da3e b114 df3f
000002d0: 7389 fb3f 8be2 d63f 98fb 2440 c7fe 3540
000002e0: 64a3 0240 6138 6540 f3c5 b63f 1a4e 853f
000002f0: 89d4 2840 b103 0140 21db b83f f519 d93f
00000300: 40ea e03f 897c 2f40 512f dc3f d119 4340
00000310: 7c84 4dc0 3630 f4bf 4098 f4bf aa66 28c0
00000320: 1281 7d3f 32a7 ea3f ca77 5b40 2d05 0840
00000330: 8121 823f 2d4e c83f 9063 043f 82a0 c23e
00000340: b6c4 903d e770 92bf db81 1abf 55ae cdbe
00000350: 4cb9 c83e 0ac4 11bf 43e2 0a3f 389c c23f
00000360: 9037 893f 25e9 a53d 031e 683e 4b5b d43f
00000370: b828 c53f ba2b 0140 b3e1 ef3f 626c 563f
00000380: 5ec5 1940 3292 5abe 29e1 8ebf a7e3 ea3e
00000390: 4f15 733f c4c8 e93d cd4e 66be 0ef5 9bbe
000003a0: 0ffe bd3e 333b 2840 c7a3 1b40 252e d53f
000003b0: 56d5 2abf dd16 50bf e808 c8bf 865c 96be
000003c0: bfc3 7c3f 1f53 57bf 69b0 06bf 99bf 58bf
000003d0: 5722 5abf be14 4ebf 772a 2bbf 7977 97bf
000003e0: b109 bcbf d21e aabe 42ee 0cbf 5651 9f3c
000003f0: 2185 7c3f 582f 18be 12a0 4fbf c417 18c0

bias f4 [5]
0.1808467 0.33768684 -0.48415008 -0.31029814 1.6184382
00000000: e12f 393e 4ae5 ac3e 85e2 f7be 66df 9ebe
00000010: fc28 cf3f

weight f4 [10, 5]
-1.6352606 -1.8156275 2.7970493 0.5757255 -1.2686373 -1.9907949 -0.8720283 2.5310092
1.8180302 -1.9727169 0.8876382 -0.24936397 -0.88011926 0.08766432 -1.0386258 -0.7844785
-1.6644099 0.7071419 -1.3046815 0.009409689 -1.305834 -0.35881588 -0.8209944 -2.0794764
-0.29084605 0.1493856 2.1666903 -1.3089172 0.59283864 3.7252674 1.1558573 -0.54656595
1.0743195 1.0084125 -0.72596717 -0.58252007 -1.7033006 -1.0995911 -1.1024456 -1.1899326
-0.86000466 -0.99213535 -0.85436505 -1.0875684 -1.3840576 0.6879198 4.274689 0.775012
0.18790388 1.608931
00000000: 3850 d1bf 7b66 e8bf db02 3340 bf62 133f
00000010: b562 a2bf 5ed2 febf 3f3d 5fbf 0efc 2140
00000020: 37b5 e83f fd81 fcbf 423c 633f 4559 7fbe
00000030: 7f4f 61bf 5a89 b33d b1f1 84bf 95d3 48bf
00000040: 620b d5bf 4007 353f ceff a6bf 192b 1a3c
00000050: 9225 a7bf b7b6 b7be b02c 52bf 2416 05c0
00000060: c6e9 94be 8af8 183e 0eab 0a40 998a a7bf
00000070: 46c4 173f c86a 6e40 22f3 933f bfeb 0bbf
00000080: 4d83 893f a913 813f fcd8 39bf 0920 15bf
00000090: c105 dabf 67bf 8cbf f01c 8dbf b64f 98bf
000000a0: 4429 5cbf 95fc 7dbf abb7 5abf 7135 8bbf
000000b0: cd28 b1bf 831b 303f 41ca 8840 3067 463f
000000c0: e069 403e 73f1 cd3f

bias f4 [10]
1.2869627 3.1519928 -0.40361875 -1.2331766 -2.676146 -1.2437905 1.9985002 -1.3605374
-1.2471796 1.4927719
00000000: 32bb a43f 40ba 4940 1ea7 cebe bbd8 9dbf
00000010: fa45 2bc0 8734 9fbf dbce ff3f 1726 aebf
00000020: 95a3 9fbf 2613 bf3f

weight f4 [10, 10]
3.2065408 3.1839879 -0.3079368 1.5326303 -0.21362533 -0.80845153 1.5189812 1.0130577
1.7351583 -0.0065743616 -0.87635654 -0.33136296 0.03934953 0.2042307 -0.05742626 2.6006365
1.0159031 0.7538563 0.53172994 2.201893 -1.8066899 -2.083883 -3.267844 -0.73974764
-0.86059 -1.0081758 -2.2747118 -0.92480147 -1.296789 -1.7837963 -1.619516 -2.1883597
-2.3923843 -0.8325792 -0.70889217 -1.1213214 -2.3475418 -0.697633 -1.0766319 -1.635942
-1.7946105 -2.288312 -2.639853 -0.9604509 -1.233729 -1.3345377 -2.3763947 -1.2408886
-1.0048249 -1.6595148 -1.6086289 -2.0453603 -3.5747173 -0.702621 -1.2911017 -1.0196378
-2.3749576 -1.0655397 -1.1262463 -1.879329 -1.7084969 -2.045013 -2.074741 -0.70553637
-1.8454882 -1.7167234 -2.4471815 -1.2301341 -1.1877714 -1.8650572 -1.7809123 -2.319622
-3.0549128 -0.8062302 -1.6829178 -0.9865418 -2.1372845 -1.2258465 -0.8241541 -1.6402916
-1.6896454 -2.2471569 -1.8934063 -0.78304243 -2.0332193 -1.8630916 -2.2279153 -1.271756
-1.0837967 -1.7610888 -1.8850616 -2.0786972 -1.8244766 -1.1028935 -1.9401331 -2.0174823
-2.32072 -1.1647431 -0.94441044 -1.8502738
00000000: f737 4d40 75c6 4b40 e4a9 9dbe 3b2d c43f
00000010: 99c0 5abe aef6 4ebf fa6d c23f e0ab 813f
00000020: ab19 de3f be6d d7bb e758 60bf 68a8 a9be
00000030: f92c 213d da21 513e cc37 6bbd d470 2640
00000040: 1d09 823f bafc 403f 741f 083f d1eb 0c40
00000050: 9d41 e7bf 575e 05c0 5b24 51c0 1a60 3dbf
00000060: a04f 5cbf e80b 81bf e194 11c0 cabf 6cbf
00000070: 2ffd a5bf 7053 e4bf 4d4c cfbf 160e 0cc0
00000080: d31c 19c0 e923 55bf f579 35bf 7687 8fbf
00000090: 203e 16c0 1498 32bf 13cf 89bf 8c66 d1bf
000000a0: ccb5 e5bf b473 12c0 5af3 28c0 1ce0 75bf
000000b0: d5ea 9dbf 22d2 aabf da16 18c0 70d5 9ebf
000000c0: 1a9e 80bf fb6a d4bf 8de7 cdbf 2fe7 02c0
000000d0: 2bc8 64c0 f8de 33bf d242 a5bf 7e83 82bf
000000e0: 4eff 17c0 9b63 88bf d728 90bf da8d f0bf
000000f0: 07b0 dabf 7ee1 02c0 8ec8 04c0 089e 34bf
00000100: f538 ecbf 98bd dbbf 9f9e 1cc0 0975 9dbf
00000110: e508 98bf 32ba eebf eff4 e3bf b074 14c0
00000120: b183 43c0 1a65 4ebf da69 d7bf 018e 7cbf
00000130: 45c9 08c0 8ae8 9cbf c3fb 52bf 13f5 d1bf
00000140: 4d46 d8bf 6bd1 0fc0 235b f2bf 7875 48bf
00000150: 4420 02c0 c979 eebf 2a96 0ec0 e7c8 a2bf
00000160: dab9 8abf 5c6b e1bf b349 f1bf 6009 05c0
00000170: 7388 e9bf 9d2b 8dbf 4856 f8bf 6e1e 01c0
00000180: ad86 14c0 4d16 95bf e2c4 71bf c6d5 ecbf

bias f4 [10]
0.59745777 2.051307 -1.4317012 -1.5102075 -1.9197954 -1.6857377 -1.4767346 -1.8157564
-2.0174975 -1.5538502
00000000: fef2 183f 9d48 0340 fc41 b7bf 7b4e c1bf
00000010: dbbb f5bf 41c6 d7bf a405 bdbf b56a e8bf
00000020: ae1e 01c0 90e4 c6bf

weight f4 [1, 1, 5, 5]
1.7171469 1.6102018 -0.23664804 -0.66619015 -0.22887988 0.81810814 -1.2877572 1.080929
0.8074793 0.7484823 3.5427098 2.3441842 2.4772782 2.7394466 3.0614476 2.7890925
2.2291255 1.4292433 4.535973 2.6650047 -0.03071325 -1.183425 -1.0995787 -1.8322852
0.1694386
00000000: 78cb db3f 181b ce3f dd53 72be 708b 2abf
00000010: 7d5f 6abe 896f 513f 3ad5 a4bf e25b 8a3f
00000020: f7b6 4e3f 899c 3f3f c2bb 6240 1d07 1640
00000030: ba8b 1e40 1853 2f40 c2ee 4340 7e80 3240
00000040: fea9 0e40 72f1 b63f b126 9140 708f 2a40
00000050: 5b9a fbbc 787a 97bf ffbe 8cbf 5288 eabf
00000060: 5081 2d3e

weight f4 [5, 144]
-0.94572115 -0.9300506 -1.0139421 -1.0744877 -1.002579 -0.9926637 -0.92873645 -0.9197786
-0.9180562 -1.0808884 -0.99618447 -1.0556053 -0.9673191 -0.98523927 -0.9913238 -1.0038067
-1.0299872 -1.059161 -0.9796708 -1.0202932 -0.96598774 -1.0455173 -1.0687428 -1.0296975
-1.0557631 -0.985169 -0.96235037 -1.0380377 -0.9728453 -1.017293 -1.0724336 -1.0067893
-1.0470767 -1.0266668 -1.0137949 -1.0367789 -1.0431983 -0.97597563 -1.054706 -0.9925597
-0.9402152 -1.025965 -0.9613193 -1.0473095 -1.0599066 -1.0223261 -0.98775387 -1.0189922
-0.9764561 -0.92411274 -0.99080384 -0.92998546 -0.944647 -0.9426944 -1.0673212 -0.9293468
-1.04481 -1.0070978 -1.0408201 -0.93373847 -0.9631221 -1.0831587 -1.0634795 -0.9323979
-1.065951 -0.9311968 -1.0087942 -1.0604798 -0.973324 -1.0580527 -1.0137588 -0.9506288
-0.94876295 -1.0297282 -1.0072857 -1.0180575 -1.0585448 -0.92310333 -1.0788965 -0.96148574
-0.9599199 -0.9662114 -1.0074843 -0.98890996 -1.0083766 -1.0220556 -1.0801957 -1.0801067
-1.0591198 -0.9414932 -0.9196385 -1.0304409 -1.0770574 -1.0396227 -0.951556 -1.0494051
-1.060136 -0.95051396 -1.0079377 -1.0563596 -1.0167055 -1.0187224 -1.0031563 -0.9725401
-0.99212515 -0.92385954 -0.9574622 -1.0391295 -0.9815321 -0.9974648 -1.050263 -1.0317199
-1.0193377 -0.9644192 -1.0816659 -0.93628275 -0.98720556 -1.0830829 -0.9243573 -0.9921091
-1.0471847 -1.0766304 -0.926708 -0.9958333 -0.98228747 -0.93624526 -0.9774542 -1.0186898
-1.040258 -0.9238813 -1.0331067 -0.9963537 -1.025604 -0.98478466 -0.9401171 -0.96922135
-0.9599701 -0.96596986 -1.0771776 -0.92137796 -1.010669 -1.0038514 -0.92526424 -0.9913736
-0.021931183 -0.007862419 -0.06389338 -0.02406798 -1.011037 -1.074151 -0.9481479 -0.049791258
-1.0826584 -0.041214287 0.019581199 0.02644245 0.7866017 0.9589658 2.0439954 0.7892764
-1.0278718 -1.1152239 -1.0478805 -2.967697 -2.8795786 -0.553206 0.9830539 0.0266593
0.8769124 1.3662841 3.241705 0.5120545 -0.9706068 0.019332772 -1.8452181 -2.655371
-2.4062586 -0.8024982 -1.9042853 0.99768037 0.74855673 2.3287747 1.0995516 1.079238
-0.5176555 -1.0737053 -2.3598661 -2.4713802 -0.7242743 1.6301557 -1.0150656 0.79280365
0.49011296 2.4082568 0.52203834 0.038295668 -1.6003668 -2.502666 -3.5130656 -3.0376105
-0.2739042 3.4477293 -0.2960336 -1.1113478 0.9839456 0.15986617 0.6403248 0.14712933
-1.3010063 -4.163928 -3.5244267 -1.637121 0.44198656 2.1620202 -2.256421 -1.0038936
1.0027771 -0.5928298 1.0744901 2.400885 0.4045876 -1.7226274 -0.4744481 -0.048323054
1.9246225 2.834431 1.7232927 0.8017711 -0.027876543 0.62454873 2.484809 3.2211432
0.026878353 -2.4936624 -1.0348979 0.3773461 2.6139958 0.825671 3.689415 1.3115672
-0.012238066 1.3159713 0.78719056 -0.79924333 -1.2240363 -2.8109012 -1.0901566 0.12395927
2.9510584 -0.29340377 -1.2130878 0.46852654 0.042411517 1.0680239 -2.2042613 -2.7115426
00000000: c81a 72bf cc17 6ebf dbc8 81bf d088 89bf
00000010: 8254 80bf 351f 7ebf acc1 6dbf 9c76 6bbf
00000020: bb05 6bbf 8d5a 8abf f205 7fbf 131e 87bf
00000030: 39a2 77bf a438 7cbf 66c7 7dbf bd7c 80bf
00000040: 9fd6 83bf 9692 87bf b5cb 7abf f898 82bf
00000050: f94a 77bf 83d3 85bf 90cc 88bf 21cd 83bf
00000060: 3f23 87bf 0934 7cbf 985c 76bf 6bde 84bf
00000070: 640c 79bf a836 82bf 8145 89bf 79de 80bf
00000080: 9c06 86bf d169 83bf 08c4 81bf 2cb5 84bf
00000090: 8687 85bf 8ad9 79bf 9b00 87bf 6418 7ebf
000000a0: f1b1 70bf d252 83bf 0619 76bf 3d0e 86bf
000000b0: 05ab 87bf 95db 82bf 70dd 7cbf 566e 82bf
000000c0: 07f9 79bf a792 6cbf 52a5 7dbf 8713 6ebf
000000d0: 63d4 71bf 6c54 71bf fb9d 88bf ace9 6dbf
000000e0: 56bc 85bf 95e8 80bf 9839 85bf 7c09 6fbf
000000f0: 2c8f 76bf f2a4 8abf 1920 88bf a1b1 6ebf
00000100: 1571 88bf ea62 6ebf 2b20 81bf cdbd 87bf
00000110: c32b 79bf 456e 87bf d9c2 81bf 695c 73bf
00000120: 21e2 72bf 22ce 83bf bdee 80bf b54f 82bf
00000130: 657e 87bf 8050 6cbf 4819 8abf ee23 76bf
00000140: 50bd 75bf a159 77bf 3ff5 80bf 3429 7dbf
00000150: 7c12 81bf b8d2 82bf da43 8abf f040 8abf
00000160: 3d91 87bf b305 71bf 6e6d 6bbf 7de5 83bf
00000170: 04dd 89bf 5b12 85bf 2d99 73bf e852 86bf
00000180: 89b2 87bf e254 73bf 1a04 81bf cb36 87bf
00000190: 6823 82bf 7f65 82bf 6d67 80bf 63f8 78bf
000001a0: eafb 7dbf 0f82 6cbf 3e1c 75bf 3202 85bf
000001b0: b045 7bbf da59 7fbf 056f 86bf 660f 84bf
000001c0: a879 82bf 2de4 76bf 0774 8abf 3ab0 6fbf
000001d0: 81b9 7cbf 76a2 8abf aea2 6cbf ddfa 7dbf
000001e0: 260a 86bf 06cf 89bf bc3c 6dbf eeee 7ebf
000001f0: 3177 7bbf c5ad 6fbf 703a 7abf 6d64 82bf
00000200: 2d27 85bf 7c83 6cbf d73c 84bf 0911 7fbf
00000210: fe46 83bf d91a 7cbf 84ab 70bf e41e 78bf
00000220: 9ac0 75bf cd49 77bf f5e0 89bf 6ddf 6bbf
00000230: 9a5d 81bf 347e 80bf 1ede 6cbf a9ca 7dbf
00000240: 06a9 b3bc 60d1 00bc 88da 82bd 362a c5bc
00000250: a969 81bf c87d 89bf d2b9 72bf ebf1 4bbd
00000260: 8d94 8abf 50d0 28bd c068 a03c d69d d83c
00000270: bb5e 493f c87e 753f d2d0 0240 050e 4a3f
00000280: 4e91 83bf a8bf 8ebf f320 86bf bfee 3dc0
00000290: 044b 38c0 e99e 0dbf 6ca9 7b3f 9b64 da3c
000002a0: 557d 603f 66e2 ae3f 1878 4f40 0116 033f
000002b0: b079 78bf c35f 9e3c 1b30 ecbf 99f1 29c0
000002c0: 2400 1ac0 8670 4dbf 9fbf f3bf fb67 7f3f
000002d0: 6aa1 3f3f a50a 1540 1bbe 8c3f 7924 8a3f
000002e0: 1285 04bf 2d6f 89bf 0c08 17c0 182b 1ec0
000002f0: 0a6a 39bf f1a8 d03f abed 81bf 2ef5 4a3f
00000300: 16f0 fa3e e120 1a40 4ea4 053f ebdb 1c3d
00000310: d2d8 ccbf ae2b 20c0 11d6 60c0 3668 42c0
00000320: 2c3d 8cbe 99a7 5c40 b791 97be a540 8ebf
00000330: dce3 7b3f f5b3 233e 53ec 233f 12a9 163e
00000340: 6087 a6bf e63e 85c0 3590 61c0 2e8d d1bf
00000350: 104c e23e 8a5e 0a40 3469 10c0 967f 80bf
00000360: 005b 803f b2c3 17bf e488 893f 1aa8 1940
00000370: 1b26 cf3e 0e7f dcbf ddea f2be 65ee 45bd
00000380: 085a f63f 5167 3540 db94 dc3f df40 4d3f
00000390: 595d e4bc 6de2 1f3f 1c07 1f40 3627 4e40
000003a0: fe2f dc3c 2a98 1fc0 8977 84bf 8233 c13e
000003b0: b54b 2740 2d5f 533f 601f 6c40 6fe1 a73f
000003c0: 2b82 48bc bf71 a83f 5285 493f 369b 4cbf
000003d0: 39ad 9cbf cee5 33c0 408a 8bbf 5cde fd3d
000003e0: 24de 3c40 0539 96be 7646 9bbf b6e2 ef3e
000003f0: b3b7 2d3d 02b5 883f 9e12 0dc0 ea89 2dc0

bias f4 [5]
-0.9491388 -1.2648476 -1.0634917 -0.783152 -0.7477282
00000000: c3fa 72bf 87e6 a1bf 7f20 88bf a67c 48bf
00000010: 1e6b 3fbf
