xai_neurips_2021/models/pre_trained/fmnist_mnist_with_reg_importance_1.0_12_6_models.pt (torch, 881605 bytes, 50 tensors)

weight f4 [1, 1, 3, 3]
00000000: 8f3a aabe 31d2 1b3f 2e60 8ebe 2cee a53e
00000010: 06d2 393f c4f6 593e fa04 f53e 1a0f 1e3e
00000020: af16 92bf
-0.33247802 0.608676 -0.27807754 0.32408273 0.72586095 0.2128554 0.4785536 0.15435448
-1.1413172

weight f4 [5, 169]
00000000: 0161 683f 0725 613f dc7c 9e3d 8ea0 4dbf
00000010: 57c9 53bf 0f2f 85bf ed52 b7bf 0d88 5abf
00000020: 2a96 f9be 3ece 04bf d9b5 b53e 93e1 8abd
00000030: f83e 6e3f 559a 4b3f c0ee 1a3f 044a e8be
00000040: 1fb0 d3bf eec7 83bf 0c29 93bf ef9e 37bd
00000050: 7ae4 1fbf 31e2 d2be 05d9 8c3e 52a6 dbbe
00000060: bc67 5fbe 4be9 d9be 4d2a 453f edd1 d5bd
00000070: a5ae 92be eda7 65bf b5e2 213f ad9f 223e
00000080: a3b8 323e 0f7b babd c443 86be 74db e03e
00000090: 27a0 f63e c056 c93d 5cbf cf3d ae72 303f
000000a0: 6745 093e 2e1d adbe a774 00be 9de0 a53e
000000b0: b2b1 e2bc 60fc 293f 297a da3c bfdd 05bf
000000c0: 4e60 a53e 8295 3a3f e4e1 bc3f 0975 d33f
000000d0: 1024 113f 7829 ee3e bf4b 74bf 08b7 d63c
000000e0: 20ae f0be 445f c83d fbe9 173f 309f b0be
000000f0: a44a 80bf dc03 b2be 8b7d fdbe 370c 7f3d
00000100: 2788 8e3f 865e af3e 94ab 3cbf 5898 8ebf
00000110: 7581 6ebd 8335 343f 05ec 8a3f 2972 2b3f
00000120: 08de f5be c757 81bf 8a31 bbbf ee1b 8cbf
00000130: 7418 88bf 6bcf acbe 9e38 e73d 678f d3be
00000140: 8b99 02be 64ff 993e 1c56 0d3f a7c0 563e
00000150: 7e8e 0b3f 37b6 42bf 5187 48bf e870 b2bd
00000160: 4ed7 d43d fba0 5ebf 2be3 b6be 8a05 15bf
00000170: 00d1 a23d 5d02 2a3f cf66 8dbe 5a39 14bf
00000180: 05fd 13bf f810 f9be 604a f1be 9420 95be
00000190: d61b 063f fe7f 983f e775 e6bc 8e37 63be
000001a0: 7367 ba3d 699b bfbe 4403 79be af00 74bd
000001b0: 2f2a a7bf 2f80 bfbf eb41 b1bf 568b 3b3f
000001c0: deb6 c63e e550 7a3e 1464 813f 2656 c13e
000001d0: 106b f33d 9542 933e 948f 2f3e 4250 b83e
000001e0: 1a84 313e 1a56 cabe ac94 94be 5d50 9bbc
000001f0: a79e 103f 528d d63e 4b1a a23e ea27 293f
00000200: 514a 3b3e a4b0 813f f569 803e 2e03 1f3e
00000210: 829c da3e 41ac 3b3f a9c0 683f 96cb 433f
00000220: 6a5a 373e f456 373e dffd 073f 14cd 50be
00000230: ce76 183f 4d44 643e 920e 553c cef6 243e
00000240: 2ada 583f 45ae a8be 8beb 6c3e a292 d93e
00000250: 51ab 023f 28d1 803e a22d ebbd bd3d 8e3e
00000260: e0f8 8fbe dca3 8e3e 0e47 86bd 464d 89be
00000270: 4e59 3d3f 7759 7d3f e834 a8be 812d 09bf
00000280: 4ecf 15bf 8d1d d9be 84c9 f4be ed62 62be
00000290: 0176 dfbd 245c c2be e054 17bf 2dba 90be
000002a0: 50f3 f93e 5e50 4bbf d740 9cbe 6d68 6a3f
000002b0: ae36 bd3d c5b9 8c3f a6fd 93be ff73 093f
000002c0: fbcc 843f 80a9 c23f 68fb 6bbe 951f 6abd
000002d0: 51dc 6c3f fdf2 0dbe 26b5 a8bf 82f7 47be
000002e0: baee 9a3f 5f34 0bbe 809c bdbe e5bc b93d
000002f0: f17d 043f ee09 003f 7519 0f3f 905e aa3e
00000300: f3b6 bb3e 52f2 dd3f b151 963e dbdc 9ebf
00000310: dd5e 523f eefe b03f d5b0 c1bc edc4 6cbf
00000320: 4a02 c6be 30ee 943e 91ff 31be beca 5ebe
00000330: 5a12 85be b3b7 0bbf 1cec b43f 6b68 4b3f
00000340: ea95 3d3e e4b0 7a3f 12a5 1e3f 9111 3ebf
00000350: 04d7 7abf 1dac e8bc 3406 bebc ed4b 04bf
00000360: cd28 17bf 9854 9f3d bf11 0fbf 2790 333f
00000370: e8fe a53e 0ace 823e 5495 9d3f c5fa 6dbd
00000380: faef 8dbe 1def 97bc d70b bfbc d7f7 15be
00000390: 8e10 f5bc cba3 f5be 4619 3b3f 374b 8f3e
000003a0: 8a5f 9e3f 43c4 4a3f 2ae5 d8be ad38 1ebd
000003b0: 6cc8 36bf 6368 0abf de0e babe 2095 a4be
000003c0: 4f10 543e 29d9 a6be 8434 c4be 371e 003f
000003d0: c718 513e 7940 133f ea14 8d3f f4e0 0f3d
000003e0: 056f 213e bf25 543c c4b8 1e3e 5c7c 403d
000003f0: da47 b9bd c23a 20bf c46f cbbe da51 8dbc
0.90773016 0.87947124 0.07738659 -0.8032311 -0.82729095 -1.0404986 -1.4322182 -0.85363847
-0.4874738 -0.518772 0.354903 -0.06781306 0.9306483 0.79532367 0.60520554 -0.4536897
-1.6538123 -1.0295389 -1.1496902 -0.044829305 -0.62458 -0.41188195 0.27509323 -0.4290033
-0.21816915 -0.425608 0.7701767 -0.10440431 -0.28648868 -0.8970936 0.6323655 0.15881224
0.17453246 -0.09105503 -0.26223576 0.4391743 0.48169062 0.098309994 0.10143921 0.6892499
0.13405381 -0.33811325 -0.125445 0.3239793 -0.027672622 0.6640072 0.026669579 -0.5229148
0.32300037 0.7288438 1.4756436 1.6520091 0.5669565 0.46516013 -0.9542808 0.026210323
-0.47007847 0.097837955 0.593414 -0.3449645 -1.0022779 -0.3476857 -0.49509844 0.06226751
1.11353 0.34251803 -0.7369931 -1.1140242 -0.05822893 0.7039415 1.0853277 0.6697107
-0.4802096 -1.0104913 -1.4624493 -1.0946023 -1.0632463 -0.33751997 0.11290096 -0.41320345
-0.12753884 0.3007766 0.5520952 0.20971929 0.545143 -0.7605929 -0.78331476 -0.087129414
0.103926286 -0.86964387 -0.3572019 -0.58211577 0.0795002 0.66409856 -0.276175 -0.5790001
-0.5780795 -0.4864576 -0.47127056 -0.29126418 0.52386224 1.191406 -0.028132392 -0.22189161
0.091017626 -0.37423256 -0.24317652 -0.059570964 -1.3059748 -1.4960994 -1.3848242 0.73259485
0.38811392 0.24444921 1.0108666 0.3776104 0.11885655 0.28761736 0.17144614 0.35998732
0.17335549 -0.39518815 -0.29019678 -0.018959219 0.56492084 0.41904694 0.31660685 0.6607653
0.18290068 1.0132031 0.2508084 0.15528557 0.4269753 0.73309714 0.90918976 0.7648252
0.17905584 0.17904264 0.5312175 -0.20390731 0.5955628 0.2229168 0.013003962 0.16109774
0.8470789 -0.32945457 0.23136728 0.42494684 0.5104266 0.25159574 -0.11483313 0.27781478
-0.28119564 0.2785939 -0.06556521 -0.26816767 0.73964393 0.9896464 -0.32852864 -0.5358506
-0.58519447 -0.42405358 -0.47809994 -0.2210805 -0.10911179 -0.37960923 -0.59113884 -0.2826704
0.48818445 -0.79419506 -0.3051822 0.9156559 0.09238945 1.0994192 -0.28904456 0.5369262
1.0375055 1.5207977 -0.23045123 -0.057159025 0.92523676 -0.13862224 -1.3180282 -0.1952801
1.2104104 -0.13594197 -0.37033463 0.09069232 0.5175467 0.5001515 0.5589822 0.3327527
0.36663017 1.7339575 0.293592 -1.241115 0.82176 1.3827798 -0.02364389 -0.92487985
-0.3867362 0.29087973 -0.17382647 -0.21757028 -0.25990564 -0.5457718 1.4134555 0.79456204
0.18514219 0.97926164 0.6197063 -0.74245554 -0.9798434 -0.028402383 -0.023196317 -0.51678354
-0.5904663 0.07779807 -0.55886453 0.70141834 0.3242104 0.2554782 1.2311196 -0.05810048
-0.2772215 -0.018546635 -0.023321075 -0.14645325 -0.02991512 -0.47976527 0.7308544 0.27987072
1.2372906 0.7920572 -0.42362338 -0.03862827 -0.7139957 -0.5406553 -0.36339468 -0.32145023
0.20709346 -0.32587555 -0.38321316 0.50046104 0.20419608 0.5752025 1.1022007 0.03512664
0.15765007 0.0129484525 0.1550017 0.0469936 -0.09046908 -0.6258966 -0.39733708 -0.017250944

bias f4 [5]
00000000: 8fbc 843f 7795 25bd 5ca3 cbbe 3f7d d43e
00000010: d5b6 2bbf
1.0370044 -0.040425744 -0.3977307 0.41501805 -0.67075855

weight f4 [10, 5]
00000000: 3177 8e3f 6b2d bebf f544 513f da12 543e
00000010: eadb 64be a59c 46bf 76b2 b03d c354 dfbe
00000020: 4c00 413f 1be7 52be 4156 97bd 610f 693e
00000030: b290 343f 988e 52bf 276d aabe a6e3 67bd
00000040: 3bea 1abf 1314 ac3e b98d 1d3f 16f4 5dbf
00000050: 548c a6be d6bd 2c3f 6561 abbd db86 583e
00000060: 35e0 a1bf 5be4 83bf 6766 02be 9398 f03d
00000070: 285f 0abe 7155 4d3f d042 4cbe 1235 6c3f
00000080: 470f 893f 2e6d 39bf 1665 0fbf c7c6 d13e
00000090: fb67 25bf 9978 c2be 0c65 8bbf f9c3 31be
000000a0: 3c12 413f a91f bbbf b280 6cbe 9674 593e
000000b0: a063 3a3b f5bd 913f f33c 14bf 3e68 27bf
000000c0: 9dad eebe 12fc 953e
1.1130124 -1.485761 0.81745845 0.20710316 -0.22349516 -0.7758277 0.08627789 -0.43619356
0.7539108 -0.20595972 -0.073894985 0.22759773 0.7053329 -0.8224883 -0.33286402 -0.056613587
-0.6051366 0.33609065 0.61544377 -0.8670057 -0.32528937 0.67477167 -0.08368186 0.21145193
-1.2646548 -1.0304064 -0.12734376 0.11747851 -0.13512862 0.802085 -0.19947362 0.9226848
1.0707787 -0.7243222 -0.5601362 0.40971968 -0.64611787 -0.37982634 -1.0890212 -0.17359914
0.7541845 -1.4619037 -0.23095968 0.2123588 0.0028440729 1.1386095 -0.579055 -0.65393436
-0.4661683 0.29293877

bias f4 [10]
00000000: 00f2 993e b047 f1bc 6255 2ebf ebec fa3e
00000010: 429a 7d3e e537 6fbf 9eab c53e aedf 5cbe
00000020: 734f 2c3f eafe 053f
0.30067444 -0.029453129 -0.68099034 0.4900888 0.24765876 -0.93444663 0.38607496 -0.21569702
0.6730873 0.52342093

weight f4 [12, 10]
00000000: e012 18c0 bcfb 4e3f 5bc7 49bf 3b56 1cbe
00000010: 7fe8 523f a07c 10be bc04 02c0 132e a4bf
00000020: 9616 48bf 43d0 f2bf 84cf a1bf 1bda b2bf
00000030: 3e1a 5abf f7bb c9bf b65e fabf a425 09c0
00000040: a52d 3ec0 4442 87be d1fb 24c0 7bae 38c0
00000050: fa28 c1bf e314 ec3e 9fe6 29bf 267b 1cc0
00000060: d6b0 5b3f cbb2 b7bf 190a 1dbe a8e7 a8bf
00000070: 484b d6bf f7d4 04c0 ac48 433e d3f1 093e
00000080: a6cb e2be 06fc 453f 6932 01bd 2b44 0ebf
00000090: 979d 0ec0 1f40 c3bf 38f5 e73e 88e6 c8bf
000000a0: aa4b 4dbe 15a2 acbf 81fb adbe 10f0 c83d
000000b0: e263 8bbf 3bcc 01c0 4a2c 27bf e518 fcbf
000000c0: 2cd6 9dbe 932c 2dc0 cfdb a7be 7a20 d5bf
000000d0: fa1a 353f 72f3 0fbf 1133 0fbe 5bce edbf
000000e0: c9e6 863f 8f17 023e b5d4 3bbf 8016 fcbd
000000f0: 09c1 12c0 16e7 c6bf 31c3 68bf 95b8 35c0
00000100: 51de 42c0 2684 aabf e000 b0bf 8aac aabe
00000110: acff 0cc0 a40d 86bf e78a ff3e ee5e 5cbf
00000120: 90f7 a9be 2aca 06c0 549b 44bf cd2c 0cbf
00000130: 1ddd 63bf 0ef0 5c3e e993 f73e 1949 2c3f
00000140: 0863 643f ca18 8dc0 7230 123f 0f15 16be
00000150: ac62 32c0 4b38 58be a9e3 e73d be09 913d
00000160: 1aaa 63bf 8e26 16bf ad7d c6bf 7ab7 ebbf
00000170: 2061 abbf 21c8 2dc0 cd3d 0ac0 e2b1 f9bf
00000180: 57cf 0cc0 0706 2fbe fa4b 20c0 c74d aabf
00000190: 5c8a f5be e0c1 d0be 236a 56be df2a 13c0
000001a0: 3617 b3bf 4082 4b3f daa7 85bf 8262 b43e
000001b0: 1ef8 e63d e055 4f3e 0398 01c0 99da 25bf
000001c0: 8bce ddbf ab30 15c0 1b76 03c0 e354 a6bd
000001d0: 8d87 b2bf f55c 96bc a109 5abe 93e1 61be
-2.376152 0.80852866 -0.7881982 -0.1526727 0.8238601 -0.1411004 -2.031539 -1.2826561
-0.78159463 -1.8969806 -1.2641454 -1.397281 -0.8519629 -1.5760487 -1.9560153 -2.1429224
-2.971536 -0.26417744 -2.5778697 -2.8856494 -1.509063 0.46109685 -0.66367525 -2.4450164
0.85816705 -1.4351438 -0.15335883 -1.3195696 -1.6741724 -2.0754983 0.19070691 0.13471155
-0.44295996 0.7733768 -0.031542215 -0.55572766 -2.2283685 -1.5253943 0.45304275 -1.5695353
-0.20048395 -1.3486964 -0.33980945 0.09811413 -1.0889857 -2.0280902 -0.65301955 -1.9695097
-0.30827463 -2.7058456 -0.32784888 -1.6650536 0.7074429 -0.56230843 -0.13984324 -1.85786
1.053918 0.127043 -0.7337144 -0.12308979 -2.293032 -1.5539272 -0.9092284 -2.839391
-3.044819 -1.3321579 -1.3750267 -0.33334762 -2.203105 -1.0472913 0.49910662 -0.8608235
-0.33196688 -2.106089 -0.7679951 -0.5475586 -0.8900927 0.21575949 0.48355034 0.6729904
0.8921361 -4.409276 0.5710517 -0.1465647 -2.7872725 -0.21115224 0.113227196 0.07081936
-0.8893143 -0.5865258 -1.5507103 -1.8415368 -1.3389015 -2.71534 -2.160022 -1.950741
-2.200155 -0.17092143 -2.5046372 -1.3304986 -0.47957122 -0.40772915 -0.20938925 -2.2994916
-1.3991458 0.7949562 -1.0441849 0.35231405 0.11277793 0.20247602 -2.024903 -0.6478668
-1.7328657 -2.3310955 -2.0540836 -0.081216596 -1.3947617 -0.018354872 -0.21292736 -0.22058706

bias f4 [12]
00000000: 2b4c d0be 753e 1ec0 0f91 113e 9ef5 7b3e
00000010: 5419 1b3e 2a9e ea3e ebcf d0bf 0a5f 903f
00000020: 2439 69bf 5a99 d0bf dd5c b3bf e8f4 3f3e
-0.40683112 -2.472562 0.14215492 0.24605414 0.1514638 0.45823795 -1.6313452 1.1279004
-0.91102815 -1.6296799 -1.4012715 0.18745768

weight f4 [1, 1, 3, 3]
00000000: 3072 49bf 859f 50bd c394 75be f45c 3bbd
00000010: 4e4a bcbe ebb3 ff3d fa74 e33e a27d 483f
00000020: 8aa8 4a3f
-0.7868986 -0.05093338 -0.2398253 -0.045742944 -0.3677544 0.124854885 0.44425184 0.783167
0.7916342

weight f4 [5, 169]
00000000: 9d4b f7be 679c 58bf 0e45 58bf 15af 42bf
00000010: a22e 2dbf 1e64 35bf 11cf f93e 9b67 8e3c
00000020: 7f98 97be c80b 963e fcd9 d2be e344 f0be
00000030: 3c8b ab3d 2300 89bf d220 93bf ead1 a5be
00000040: adf0 a0be d440 d1bd 977e 05bf 5168 783e
00000050: 826f 9b3e 49b9 723e df51 e73d 5b35 7cbe
00000060: d74b 8c3c 54c4 30be ff48 8ebf 9ad4 11bf
00000070: c54c 97be 284d 943d 6cfd 0dbe 2bb1 05bf
00000080: 40bd 9dbf 7168 d2bf f7be 45bf 3a83 3b3e
00000090: a64b 673f 88d0 a03e 5dae e8be 3efa 8abf
000000a0: 9eaa 23bf 753b 8ebf 0fab c6be 5ee9 d4be
000000b0: f324 88bf 1ea3 94bf 958d 21bf b8e8 d53e
000000c0: 04ae ef3e 3824 4e3f b57e 403f e79b b13f
000000d0: f6e0 6dbf 675f 83bf 68a4 90bf d09c 08bf
000000e0: 26a8 51be d629 59be dc88 ea3e 3a25 9d3f
000000f0: 38f0 ae3e 7199 833d 2a51 333e 207d 8b3f
00000100: 5161 fc3f 725f 22bf fd79 80be 1722 92be
00000110: efd7 913e 6e63 0c3d 981c 363f cf86 a83e
00000120: c66c 2a3f 9f45 5ebc 725d 36be cbb0 403f
00000130: 3d3a 153f 3282 d93f 58dc 2c3f bad4 2d3f
00000140: c245 a0bc 4c5e e03e a477 013f 5a0c 9bbd
00000150: 40a1 9c3e 7cbc 0f3f bf36 c03e afcd 633f
00000160: 5c56 773f db4e b83f 1978 f33f 4bf7 8c3f
00000170: 9dea db3e 1b14 c43c 99af 353e 8fe2 23be
00000180: 5743 0b3e c599 2c3f 09e1 0e3f 94cc 493f
00000190: 7843 a53f 0945 973f 40e0 843f 5f62 0c40
000001a0: 77ea 1e3f c737 083e 7e31 973e 2202 e5bd
000001b0: 8577 44be d262 af3d d1d5 1f3f a95d 7d3e
000001c0: 3893 0bbe 42b7 1dbd caf6 4c3f fb51 c83f
000001d0: 97e2 1840 55aa 403f 8fad 193f d9a7 c23e
000001e0: f6cf 59bf 837c 64be 9822 813e d5ac c13d
000001f0: 59dc 273d e1c7 f1be c0a6 1bbe 63f9 253f
00000200: 6c39 af3f f85c ce3f 8dc2 463f d36d 913f
00000210: 2ce0 923f 071e c9be a3f1 5e3e b99b 03bd
00000220: 1e35 113f b0cb 5c3f 7142 81be a1c9 ddbe
00000230: b6d8 923f e0c3 a63f 9656 d73e eaad b43f
00000240: 5b2e d83f d0f5 ab3e 5684 04be 0417 c9be
00000250: 35a1 87bc c1d9 9a3e 41b0 0f3d aae0 d6bd
00000260: c225 863d 246f 933f 85e2 413f 5139 5b3f
00000270: b1e2 cf3f d5c4 dd3f a439 433e bf02 28bf
00000280: 5172 1fbf 3825 34bf 0a9d 8ebf e2fc b5bf
00000290: 1f70 8fbf 738b 21be 358a da3f 0d8a 4b3f
000002a0: 9b21 153f 2e02 8c3f b9c6 9a3d 707c cbbf
000002b0: 97e8 06c0 00f1 ddbf 7fd3 d6bf ce08 ddbf
000002c0: c7af 94bf 2329 95bf 6f97 95bf 3628 12bf
000002d0: 0cb1 923e 79fc a73f c36f ef3d 8517 97be
000002e0: 04c7 ed3e fee3 4dbe b3fd bc3e 862f 543e
000002f0: 0b8c ecbe b06e e23c 3991 c73e 9883 493f
00000300: 244a 6a3f 01cd 673f ee3c 9e3f fb0a 62bf
00000310: c769 35bf 9085 88be c8f8 adbe 1fd6 83bd
00000320: bd0d 9bbe a80a c8be e3ef 713e 8eb3 1b3c
00000330: 6056 f1bd c1fd 4f3e e05d a13e 79e2 c63e
00000340: 78aa 28bf 748d 9cbe 5b84 2dbe e323 aabe
00000350: 4ccb c2bd 2c97 5abe 6717 80be d695 ef3d
00000360: b41b cb3e bbc3 b53e 5119 243e a664 c5be
00000370: c286 dc3e 08d2 fabd 00c6 aa3e 9c47 2e3f
00000380: 2455 bcbd 1b30 b53e 30b5 90be b0a8 c7be
00000390: ca8d 863e e992 68be f40b cfbd cefe 77be
000003a0: 71f4 95be 09ea 49be 4a33 db3e 916a 153f
000003b0: bfbe 013f 4f82 d43e 90dc a63f 7591 533f
000003c0: d286 123f 620b 053f 1498 0c3f 50fc 9c3e
000003d0: dee1 063f 5e7b 66bd f059 8dbe 43f4 0cbe
000003e0: fe1e 4f3f 6609 713f 28bf 603f 2ec7 533f
000003f0: 9074 a93e be35 833f bd6b 203f cbf8 cc3e
-0.48299876 -0.8461365 -0.8448037 -0.76048404 -0.6764928 -0.7085589 0.48790792 0.017383387
-0.29608533 0.29305863 -0.41181934 -0.46927556 0.08376166 -1.0703167 -1.1494391 -0.32386714
-0.3143362 -0.10217443 -0.52146286 0.24258544 0.3035851 0.23703493 0.112949125 -0.24629728
0.017126007 -0.17262393 -1.1116027 -0.5696503 -0.29550758 0.07241279 -0.13866204 -0.5222346
-1.232338 -1.6438123 -0.77244514 0.18311778 0.90349805 0.31409097 -0.4544553 -1.0857618
-0.63932216 -1.1111895 -0.38802382 -0.41584295 -1.0636276 -1.161228 -0.6310666 0.41779113
0.4681245 0.80524015 0.7519334 1.3875703 -0.9292139 -1.026349 -1.1300173 -0.53364277
-0.204743 -0.21207365 0.4580754 1.2276986 0.34167647 0.06425751 0.1751143 1.089756
1.9717199 -0.6342689 -0.2509307 -0.28541633 0.28485057 0.03427451 0.7113738 0.3291535
0.66572225 -0.013566404 -0.17809084 0.75269765 0.5829199 1.6992857 0.6752372 0.6790272
-0.019564513 0.43821943 0.5057318 -0.07570715 0.30591774 0.5614698 0.37541768 0.88985723
0.9661615 1.4399065 1.9021026 1.1012968 0.42952433 0.023935368 0.17742766 -0.16004394
0.13599907 0.67422134 0.55812126 0.78827786 1.2911215 1.1817943 1.0380936 2.193504
0.62076515 0.13302527 0.29529947 -0.111820474 -0.19186218 0.0856377 0.6243563 0.2474276
-0.13630378 -0.038504846 0.8006407 1.5650018 2.38883 0.75259906 0.60030454 0.38018683
-0.8508295 -0.22313122 0.25221705 0.09456793 0.040981624 -0.47222808 -0.15200329 0.6483366
1.3689399 1.6122122 0.7764061 1.1361641 1.1474662 -0.39280722 0.21771865 -0.03213093
0.56721675 0.862483 -0.25246003 -0.43317893 1.1472385 1.3028526 0.42058247 1.4115574
1.6889147 0.33585978 -0.12941107 -0.39275372 -0.016556362 0.30244258 0.0350802 -0.1049207
0.065501705 1.1518292 0.75736266 0.8563433 1.6241056 1.7325693 0.19064957 -0.6562919
-0.6228381 -0.7036929 -1.1141675 -1.4217799 -1.1206092 -0.15775852 1.7073427 0.79507524
0.582544 1.0938165 0.075574346 -1.589735 -2.1079462 -1.7339172 -1.6783293 -1.7268312
-1.1616143 -1.1653179 -1.1686839 -0.5709261 0.286507 1.3123924 0.11691239 -0.2951013
0.464409 -0.20106503 0.36912307 0.20721254 -0.46200594 0.02764067 0.38977984 0.7871642
0.9151938 0.90547186 1.2362344 -0.88298005 -0.7086453 -0.266644 -0.33978868 -0.06437325
-0.3028392 -0.3907063 0.23626666 0.009503258 -0.11784053 0.20311643 0.31516933 0.3884466
-0.65885115 -0.3057667 -0.16945021 -0.33230504 -0.09511432 -0.2134673 -0.25017855 0.11698501
0.39669573 0.35500893 0.16025282 -0.3855335 0.43071562 -0.122470915 0.33354187 0.6807802
-0.09195927 0.35388264 -0.28263235 -0.38995886 0.2628005 -0.22712292 -0.10109702 -0.24218294
-0.29288056 -0.19718184 0.42812568 0.5836573 0.5068168 0.41505668 1.303606 0.82643825
0.5723697 0.51970494 0.5491955 0.3066125 0.52688396 -0.056269996 -0.2760768 -0.13765053
0.80906665 0.94154966 0.8779168 0.827258 0.33096743 1.0250776 0.62664396 0.40033564

bias f4 [5]
00000000: e9d0 623f ca05 65be 6f0c 0ebf f5b2 553f
00000010: 510c 2d3f
0.8860002 -0.2236549 -0.5548772 0.8347619 0.6759692

weight f4 [10, 5]
00000000: c140 d9bf ebd6 e1be 9ac0 323f ebe5 d23e
00000010: 5969 8f3e 13dc 073f f9dc 7cbe 2745 dabf
00000020: 8b0d 3a3f 7255 833f 21c5 fd3e f831 98bf
00000030: 6361 e43e cc9c 3ebf e8ca 283f 5fa5 9c3f
00000040: f6d9 e1bd 1da5 9a3d 7f53 45bf ca54 5fbf
00000050: 223d 5e3f af84 ba3e 650b 69bf ad75 a4be
00000060: 0526 043e d35c 003e 36a0 8a3f b42c b53e
00000070: 692e 43bf ab2b c8be 6cf2 73bf a0a5 6dbf
00000080: 9b9e bdbe ef74 c8bd c056 253f 858a 0c3f
00000090: a236 f4be 5a5b e8bd 5bcd a23e 4b9c e1be
000000a0: 729d 5cbf 3d06 73bf 42a7 7dbe 3b3d cc3e
000000b0: 09d5 773f 986b 9d3f 57b5 883e b53d f5be
000000c0: 3f7a 9ebe 8bdc fcbe
-1.6972886 -0.44109282 0.69825137 0.41191038 0.2801006 0.5307018 -0.2469367 -1.7052354
0.72676915 1.0260451 0.4956446 -1.1890249 0.4460555 -0.74458003 0.6593461 1.2237967
-0.11027901 0.07551024 -0.7708053 -0.8723875 0.8681203 0.36429355 -0.9103301 -0.3212103
0.12905128 0.1253541 1.0830142 0.35385668 -0.7624269 -0.39095816 -0.9529178 -0.9283085
-0.3703507 -0.09787928 0.64585495 0.54898864 -0.47697932 -0.11345549 0.317973 -0.44064555
-0.8617774 -0.94931394 -0.24770835 0.39890465 0.9680944 1.229846 0.2670085 -0.4789864
-0.3095264 -0.4938701

bias f4 [10]
00000000: d113 5ebd e5e9 e93e 61d1 8abd c64b 8ebe
00000010: e40f c2be 603b e7be 9b69 913e 0c6c cd3f
00000020: 7060 02be 2e9c 4b3f
-0.054218117 0.4568626 -0.06778217 -0.27792186 -0.3790275 -0.45162487 0.28400883 1.6048598
-0.127321 0.79535186

weight f4 [12, 10]
00000000: 9f8c 363f e9f0 ee3e 6bec 983d 7d1a 3fbf
00000010: 98ca a2bf 1187 9fbf a3b5 7e3f b866 93be
00000020: c69a 803f 3d19 1e3d 4355 67bc 073e 8fbf
00000030: a2ac ae3e d787 6abe 11f2 e8be 26b2 74bf
00000040: 4798 51bf 4aa9 bcbf 2b57 bfbf 862e 67be
00000050: d363 6ebf 2cb0 6f3f 1542 2bbf 31ed 3cbf
00000060: c61e 5abf 2e70 a3be dbe3 9fbd e3fb 7b3f
00000070: dd6a 153e 6ee9 f63e 932b 1e3f 30b9 c2be
00000080: 7edc 92bf 25f2 63bf 1368 a8bf 14dd 00c0
00000090: 96c5 0fbf f452 fd3e 0d6a 2d3f 1343 dbbe
000000a0: 95a5 93bf d8a0 7bbd 4821 75bf 7308 47bf
000000b0: 2cad 46bf 86ea a2bf 63b8 acbf 28a5 ddbf
000000c0: 1648 88bf 3782 32bf 8789 3abf 431e 1f3f
000000d0: b846 b33e 86ec ce3e ce50 2c3f 53d7 00bf
000000e0: 9e79 e8bf 70bc a63e d189 28c0 34ed 153f
000000f0: 5464 94bf 76cb 9fbf 860f 22bf f0f3 ae3e
00000100: bcfb 203f 9a16 393f 35a1 99bf 99b7 efbe
00000110: 1a11 2ac0 bad4 133f 4f55 1ebf d6bc 7dbf
00000120: 6c2b 27c0 2fe9 23bd c791 9ebd 5d31 cdbe
00000130: 6522 87bf 53d5 91bf 99cf 64c0 024a 6dbf
00000140: 60e0 c3bf 6da7 6abf d50d 1cc0 1861 7bbe
00000150: d600 13bf b1b2 56bf 36c7 ebbe 9999 c8bf
00000160: ecff 30c0 2246 89bf 046c a6bd c016 a3bf
00000170: e61e 7b3f 99a4 b73e c3c5 c83e 0626 adbc
00000180: 4f9f 8ebf dbcc eebf f249 9bbf cf25 aabe
00000190: 4fc9 eabf fe27 3bbf 8eea 6fbf a438 e33d
000001a0: a283 a9be 3a99 33bf 12e5 52bf 6ba0 05c0
000001b0: f98f f7bf c22f 5ebf 0e31 4d3f 47b3 dcbf
000001c0: 8abe 98bf b433 37be 6ef4 abbe 2a08 2a3f
000001d0: 3723 68bf ccfe 96bf 37fa fdbf 74a5 5ebf
0.7130832 0.46668175 0.07466968 -0.7464979 -1.2718077 -1.2463094 0.99495906 -0.28789306
1.0047233 0.038598288 -0.014119449 -1.1190804 0.34116083 -0.22903381 -0.45497182 -0.9558433
-0.8187298 -1.4739163 -1.4948477 -0.22576341 -0.9312107 0.9362819 -0.6689771 -0.73799425
-0.85203207 -0.31921524 -0.07807132 0.98431224 0.14591546 0.48224968 0.6178524 -0.38031912
-1.1473539 -0.8904136 -1.3156761 -2.0134935 -0.5616087 0.4947735 0.67739946 -0.4282461
-1.1534907 -0.06143269 -0.9575391 -0.7774727 -0.7760799 -1.2727821 -1.349377 -1.7316027
-1.0646999 -0.6972994 -0.728661 0.6215555 0.35014892 0.40414828 0.673108 -0.5032856
-1.8162115 0.3256564 -2.6334116 0.5856507 -1.1593118 -1.2483966 -0.63304937 0.34170485
0.62884116 0.7230011 -1.2002321 -0.4681976 -2.6572938 0.5774647 -0.6184892 -0.99116266
-2.6120253 -0.040017303 -0.077426486 -0.40076724 -1.0557371 -1.1393226 -3.5751708 -0.9269105
-1.5302849 -0.9166172 -2.4383442 -0.24548757 -0.5742315 -0.8386641 -0.46050423 -1.5671874
-2.7656202 -1.0724528 -0.08126071 -1.2741318 0.9809402 0.35867766 0.3921338 -0.021136295
-1.1142367 -1.8656267 -1.2131941 -0.3323197 -1.8342685 -0.731079 -0.9371728 0.11094788
-0.3310824 -0.7015568 -0.82380784 -2.0879161 -1.9340812 -0.8679162 0.80152977 -1.7242211
-1.1933148 -0.17890817 -0.33584923 0.6641871 -0.90678734 -1.1796508 -1.9841985 -0.8697121

bias f4 [12]
00000000: 2e14 8fbf dd08 a0be d6b7 293f a5a5 e23f
00000010: 5256 c9bf 33b7 3fbf 5a71 c03e f3b5 eebf
00000020: adc6 ccbf abd5 1dbf 3454 9abf 0eba 51bf
-1.1178033 -0.31256762 0.66296136 1.7706801 -1.5729468 -0.74888915 0.3758648 -1.8649276
-1.5998131 -0.61654156 -1.2056947 -0.8192452

weight f4 [1, 1, 3, 3]
00000000: 8921 2c3f c8bb a5be a241 2bbe b8ff 93be
00000010: 5630 83bf 2cf4 893e 9b01 4ebf ad5c bcbe
00000020: fd10 ec3e
0.6723867 -0.32369828 -0.16724256 -0.28906035 -1.0249126 0.269441 -0.804712 -0.36789456
0.4610671

weight f4 [5, 169]
00000000: 3832 c8bd 8694 f9bd 2b40 edbd 7c02 e0bd
00000010: 4323 1bbe fba3 0ebe 3a61 b9bd 0a59 e4bd
00000020: 59b9 eabd 8d98 c3bd 2315 d9bd 9e1d d1bd
00000030: 5f6e e4bd cc68 65bd e3ac e7bd bfa8 13bd
00000040: 74c6 b7bd 3c13 83bd 17d3 cdbd bc19 aebd
00000050: 2f98 18be 9297 09bd 5a90 08be d979 1dbe
00000060: 504f 26bd 76f0 a4bd 89d7 18be a1fe 45bd
00000070: ef2b 1cbe 5231 d1bc 6fc7 e9bd 9552 17be
00000080: 1508 f8bd f9d4 cbbc 93ed 04be e60f 26be
00000090: 9c15 0dbe 802a f4bd e00e f4bd 1349 1cbe
000000a0: 842d 48bd e381 14be 2921 31be b147 05be
000000b0: e21d 25be 5274 1fbe 86b9 90bd 162f 82bd
000000c0: 1e10 91bd bc2e cfbd 251f 6ebd 9fff 27be
000000d0: 571b b7bd 7a02 1bbe 40fa 50bd e634 9ebd
000000e0: 5aff 4abd 65a2 dabd 4c77 cdbd 9102 30be
000000f0: f936 1ebe 2298 7dbd 93cc c6bd 1c91 13be
00000100: aad3 43bd ced5 90bd 049b 08be 32a2 2bbe
00000110: dc0e d8bd de0b fcbd 7334 94bd f436 10be
00000120: bfba 2dbd b2fa b4bd 14c0 aabd 68a8 23be
00000130: 0d1e b8bd 5d09 2abe 76e6 f1bd 03e6 2abe
00000140: d804 17bd cb48 18be e680 0fbe f8b7 adbd
00000150: 5a13 e6bd b988 35bd 54c9 15be 2194 30be
00000160: 0735 f9bd 7246 01be beb6 f9bd cc7b c6bd
00000170: 2fe1 8ebd 9f92 f6bd e7a2 06be d6d2 c5bd
00000180: cfa5 3fbd 9501 24be d233 9abd 9159 1ebd
00000190: e754 1cbe 9eee ffbd c720 d3bd b435 21be
000001a0: 843c 14be b9f1 9dbd 63f2 25be 5874 22be
000001b0: e9c1 0abe 3c35 a9bd 7fae c9bd 1439 943b
000001c0: abf4 2bbe 8b34 82bd f355 2bbe 5b79 0fbe
000001d0: d5fb b5bd 1938 dabd 4855 2abd deee 24be
000001e0: db96 41bd edd5 01be 9334 b8bd df70 9abd
000001f0: f600 0ebd 1e77 25be f275 20be f53f 84bd
00000200: c5d5 c0bd 7d48 0dbe b100 21be 8f2d b8bd
00000210: 7fba d6bd 88d6 25bd 67ae a4bd c62a d2bd
00000220: 206a 12bd 0ebe aabd 7a26 b8bd 90a7 95bd
00000230: 492d 26be 0107 01bd db36 d6bd da9e dbbd
00000240: 5f3f aabd 2188 fabd b511 0ebe c346 57bd
00000250: caa6 5fbd 2f54 ffbd 5142 8dbd 969e bcbd
00000260: 0272 4fbd f6ca f3bd 2b72 f9bd 2e29 09bd
00000270: b9fd 00bd 13ff 08be ae8e ecbd 5fdf 12be
00000280: 9eda 81bd b100 1abe 840e 0cbe 368d 2abe
00000290: bf3c a5bd c4a0 b0bd fc54 8bbd 1a20 3cbd
000002a0: b76c bbbd 8f1e a7bd 6a42 efbd 10c7 61bd
000002b0: 787c c8bd 39e2 bfbd 17e9 14be e129 33be
000002c0: 5609 f4bc 26d8 f1bd f6ee 03bd 91e3 a4bd
000002d0: 89ca 8fbd 59fd 08be 2e42 a1bd 5b4e 1abe
000002e0: b73d ebbc ca10 ebbd c8ee 30bd af88 24bd
000002f0: fee7 f3bd a030 d1bd ce75 28be 130c 8fbd
00000300: cf1d 1fbe 141f 07be 04f6 02be c752 13be
00000310: 2eb2 14bd d39f eabd f886 8ebd 6e38 cbbd
00000320: 4c29 e5bd 01d7 45bd 7267 cebd 880a 00be
00000330: 1349 09be 9feb 79bd b17f 32bd 33b8 15be
00000340: a52f fdbc 3dd9 24bd a922 19be 19d3 15be
00000350: 0cdb 7bbd 9047 d2bd 8654 c0bc df8b 02bd
00000360: 5f19 d4bd c176 10be 146c 21be f6b0 3bbd
00000370: 9f75 95bd 41f0 96bd 80d1 03be 914a 15be
00000380: c50b f9bc dc02 2fbd 98ec 71bd c427 1dbd
00000390: 4757 5fbd eaf8 35be 72af febd 6dfb 25bd
000003a0: 1fdf 4ebd f8cd cdbd 88f1 20be 19c7 29bd
000003b0: 32a6 34bd cd54 0ebe ddeb 15be e7d7 07be
000003c0: 6d07 9abd ece0 06be 7707 c8bc f78b c6bd
000003d0: c635 03be cc42 bfbd 2e65 07be 4221 f8bd
000003e0: 388e 0fbe 2b87 94bd 23d1 86bd 2cd8 febd
000003f0: e62f 73bd eb12 65bd 17fb eabd b279 a0bd
-0.097752035 -0.12186532 -0.11584505 -0.10937974 -0.1515017 -0.13929741 -0.090517476 -0.11149795
-0.114611335 -0.09550581 -0.10599735 -0.10210727 -0.11153864 -0.056008145 -0.113122724 -0.0360496
-0.08973399 -0.06400153 -0.10050028 -0.08501002 -0.14901803 -0.033591814 -0.13336316 -0.15378512
-0.040602982 -0.08053677 -0.1492597 -0.048338536 -0.15251134 -0.025536213 -0.11414992 -0.14777596
-0.121109165 -0.024881827 -0.12981252 -0.16217002 -0.13777775 -0.11922169 -0.119169 -0.1526225
-0.048871532 -0.14502673 -0.17297806 -0.1301563 -0.1612468 -0.15571716 -0.07066636 -0.06356637
-0.07083152 -0.10116336 -0.05813517 -0.16406105 -0.089407615 -0.15137663 -0.051019907 -0.07724933
-0.04955993 -0.106755055 -0.1003252 -0.17188479 -0.15450658 -0.061912663 -0.09706988 -0.14410824
-0.04780928 -0.0707203 -0.13340384 -0.16761091 -0.10549709 -0.12306951 -0.072365664 -0.14083463
-0.042414423 -0.08836879 -0.08337417 -0.1598221 -0.08990107 -0.16605134 -0.11811535 -0.16689305
-0.036869854 -0.14871518 -0.14014015 -0.08482355 -0.1123416 -0.044319842 -0.14627582 -0.17244007
-0.12168317 -0.12624529 -0.121930584 -0.09691581 -0.06976544 -0.120396845 -0.1314808 -0.096593544
-0.046788987 -0.16016228 -0.07529415 -0.038659636 -0.15266763 -0.124966845 -0.10308986 -0.15743142
-0.1447621 -0.077121206 -0.16205744 -0.15864694 -0.13550533 -0.08262107 -0.098477356 0.004523406
-0.16792552 -0.06357678 -0.16732006 -0.14011137 -0.08885924 -0.10655231 -0.041585237 -0.16106746
-0.047263008 -0.12679262 -0.08994403 -0.0754106 -0.034668885 -0.16158721 -0.15669993 -0.06457511
-0.09415773 -0.13797183 -0.1572292 -0.089930646 -0.1048479 -0.040487796 -0.08041077 -0.10262065
-0.03574574 -0.08337031 -0.08991714 -0.07307351 -0.16228212 -0.03150082 -0.104596816 -0.10723658
-0.08312868 -0.12232996 -0.13873942 -0.052557718 -0.05460242 -0.124672286 -0.068974145 -0.09209935
-0.050645836 -0.11903946 -0.12179979 -0.033486538 -0.03149197 -0.13378553 -0.115506515 -0.14343022
-0.06340526 -0.15039326 -0.13677412 -0.1665543 -0.08068227 -0.086244136 -0.06803319 -0.045929052
-0.09151595 -0.081601255 -0.11682589 -0.05512148 -0.097893655 -0.093693204 -0.14542042 -0.17496444
-0.029789608 -0.11808805 -0.032210313 -0.08051217 -0.070210524 -0.13377894 -0.07873951 -0.15068953
-0.028715951 -0.11477812 -0.04319647 -0.040169414 -0.119094834 -0.102143526 -0.16451189 -0.06984725
-0.15538715 -0.13195449 -0.1278916 -0.14387046 -0.036302738 -0.11456265 -0.06959337 -0.099228725
-0.111895174 -0.048300747 -0.100783244 -0.12504017 -0.13406782 -0.06101572 -0.043578807 -0.14621048
-0.030906508 -0.040246237 -0.14954628 -0.14631309 -0.061488196 -0.10267556 -0.023477804 -0.031871673
-0.10356402 -0.14107801 -0.15763885 -0.04582306 -0.07297825 -0.073700435 -0.12872887 -0.14579226
-0.03040112 -0.042727336 -0.059063524 -0.038368 -0.054526594 -0.17770734 -0.12435807 -0.04052298
-0.050505754 -0.10049051 -0.15717137 -0.04144964 -0.04410381 -0.13899536 -0.14640756 -0.13265954
-0.075209476 -0.13171738 -0.024417622 -0.09694665 -0.12813482 -0.09338912 -0.1322219 -0.121157184
-0.14019096 -0.07252344 -0.065828584 -0.12443575 -0.05937185 -0.055926245 -0.11473673 -0.078357115

bias f4 [5]
00000000: 7047 6cbd 1cbb 23be e42b 22be d7eb a13e
00000010: 4081 803f
-0.057685316 -0.15989345 -0.15837055 0.31625244 1.0039444

weight f4 [10, 5]
00000000: ddb9 1bbd 207c d93d 05b0 e0bd 34f5 99be
00000010: 278c cb3d 87bf 1b3e e84f dfbd 3f4a ed3d
00000020: 3e4c 103f 7798 ccbf b571 87be 5502 3fbd
00000030: 8994 dfbe e6b7 e3be 356a 72bd b499 38be
00000040: ecca c63e 8705 d3be 9ae3 87bf 8657 f23e
00000050: 991c 60be e7d5 d3bc 7aec cd3d 8355 c63e
00000060: a7ed 5a3f 6d90 58be 5ee0 a43e a54b 6d3e
00000070: 7515 0ebe 3f21 9abe b864 0abd 79cb 85be
00000080: bccd 8abe 27f0 b03f e9dc 523d 26bd c3be
00000090: 5534 08bf 9323 8f3e 1930 93bd 4629 f23e
000000a0: c92c 3cbd 06bb aa3e a3b9 823d 2e18 a3bc
000000b0: a198 323f d031 c53e 7d66 dd3e 5fed a8be
000000c0: c3e9 72be 8ee6 87be
-0.03801905 0.10619378 -0.10971073 -0.30069888 0.09938841 0.1520978 -0.10903913 0.11586427
0.56366336 -1.5984029 -0.2645394 -0.046633083 -0.4366801 -0.4447624 -0.05918332 -0.18027383
0.38826692 -0.41215155 -1.0616333 0.473324 -0.21885909 -0.025858833 0.1005487 0.38737115
0.8551888 -0.21148844 0.3220243 0.23173387 -0.13875373 -0.3010349 -0.03378746 -0.261318
-0.27110088 1.3823289 0.051480208 -0.38230246 -0.5320485 0.27956828 -0.07186908 0.47297114
-0.045941148 0.33345813 0.06383064 -0.01990899 0.69764143 0.38514566 0.43242255 -0.329936
-0.23721986 -0.26543087

bias f4 [10]
00000000: bca6 6740 2a1c a03f 9bf6 b5be 1fed 51bf
00000010: 78dd 0fc0 d4a1 4dbe d45b fb3c 15ae f3bc
00000020: ce2c d93c 0cf6 aebe
3.6195517 1.2508595 -0.35539708 -0.82002443 -2.2478924 -0.20081264 0.030683435 -0.029746095
0.026510622 -0.34172094

weight f4 [12, 10]
00000000: b777 a83f a777 40c0 e47f 8cbe 030d 52bf
00000010: c52f aabf 2cf6 513c 59f9 8bbd 1987 6c3e
00000020: 1a3c 203e 9bc4 8c3d fa4c dd3d d0ba 863f
00000030: 0089 3d3d 8469 12bf 3dab 02c0 2e5a 3abe
00000040: bb35 9f3e 81d3 58be 3226 f8be 23e2 d73d
00000050: 3aa8 a43f 344e c83f 4a10 a83d d49f 6fbf
00000060: b5c2 2dc0 44cc c1bd ca33 52c0 b09b cbbf
00000070: bb63 febf 71dc a63d ad0a 403f 7a51 71bf
00000080: d44e a13e e8b6 8d3f dcb8 d5bd 173c ce3d
00000090: dc1c 79bf 6185 163f 8e0d 133f 355f 983d
000000a0: 05c3 043e 4180 91bf a083 b0bd c8c6 e7bf
000000b0: 5d07 ecbf 3a36 443e 21f3 87c0 dd95 a4bf
000000c0: a300 c4bf cfa7 24be d4dc 2fc0 9d40 03c0
000000d0: 2d02 653e 0f57 26bf cef9 0abf bb05 f33d
000000e0: 530f 6ebf 610a 2bbf 3060 75bf 0f33 1a3e
000000f0: 63d6 35c0 f548 fbbf 3714 8ebe b30a 14bf
00000100: 6674 96bd becd 6ebd c8c6 23bf 04bc 7abf
00000110: 658a 73bf d09d 0dbe 3078 8fbf 5676 79be
00000120: 2a69 1abe 734a 9cc0 9811 a63d 5714 babe
00000130: 3c3c c93e 3fd5 3f3d 4258 ed3d a7da 0c3e
00000140: e159 b4bf d336 11c0 b559 1d3e b946 dabe
00000150: 5593 8a3f bad1 bbbe d391 ce3e 7f4c e43e
00000160: 42a9 163f b16b a7bc f186 1fc0 7fab 11c0
00000170: 1f60 2f3c 4af0 2bbf ccb6 38bf 7b58 e53b
00000180: 6b44 48bf b347 6abf c750 b5bf 689e 9cbe
00000190: 0db5 11bf 8dbf 20bf 2b0e 61be dea2 80c0
000001a0: a6ed 9e3d c68c 24be b11a 743e 3cb9 823e
000001b0: 4dc3 c43e 7c6c cebd cb8b 10c0 a978 063f
000001c0: 0aca 1f3e 917d bdbe 305d 993e 126e abbe
000001d0: c4b3 773e 99e2 94be 8c01 c8be a757 07be
1.3161534 -3.007303 -0.27441323 -0.82051104 -1.3295828 0.01281504 -0.06834669 0.2309841
0.15647927 0.06873437 0.10805698 1.0525761 0.04627323 -0.57192254 -2.0417016 -0.18198463
0.3109568 -0.21174432 -0.4846664 0.10541179 1.2863839 1.5648866 0.08206232 -0.93603253
-2.715009 -0.09462789 -3.284411 -1.5906887 -1.9874185 0.081475146 0.7501629 -0.9426495
0.31505454 1.1071444 -0.1043565 0.10070055 -0.9730966 0.5879727 0.5744256 0.07440034
0.12965019 -1.1367265 -0.086188555 -1.8107538 -1.8439747 0.19161311 -4.248429 -1.2858235
-1.5312694 -0.16079639 -2.7478533 -2.0508187 0.22364111 -0.6497659 -0.5428742 0.118663274
-0.9299213 -0.6681271 -0.95849895 0.1505854 -2.8412101 -1.963164 -0.27749798 -0.57828826
-0.0734642 -0.05830168 -0.6397519 -0.9794314 -0.9513305 -0.13829732 -1.1208553 -0.24361548
-0.1507918 -4.884088 0.081088245 -0.36343643 0.39303768 0.046834227 0.115890995 0.13755284
-1.4089929 -2.2689712 0.15366252 -0.42632082 1.0826212 -0.36683446 0.4034563 0.44589612
0.58852017 -0.020437093 -2.4926112 -2.2760923 0.010704069 -0.67163527 -0.72153926 0.006999073
-0.782294 -0.91515654 -1.4165276 -0.30589604 -0.56916887 -0.62792283 -0.21978061 -4.0198812
0.077601716 -0.16069326 0.23838307 0.25531948 0.38430253 -0.100792855 -2.2585323 0.5252786
0.15604416 -0.37009862 0.2995391 -0.33482414 0.24189669 -0.2907913 -0.3906368 -0.1321703

bias f4 [12]
00000000: 61f1 8a3f 8454 353f cf4b af3f f91e 6e3e
00000010: 1864 713e ddf9 91bf 30bd 63bf ff18 37bf
00000020: 5704 17c0 d3f2 adbf 4ec0 96be 0a9d e0bf
1.0854913 0.70832086 1.369501 0.23254003 0.23573339 -1.1404377 -0.8896055 -0.71522516
-2.35964 -1.3589729 -0.29443592 -1.7547925

weight f4 [1, 1, 3, 3]
00000000: c2a6 453e f812 473f 51df 453c 88ad cfbc
00000010: b2db e03e 901b 17be c298 a33d b414 ccbb
00000020: 35ec 6fbf
0.19301894 0.7776332 0.012077169 -0.0253513 0.43917614 -0.14756608 0.079881206 -0.006228054
-0.937198

weight f4 [5, 169]
00000000: 5912 fd3c 0501 953c 7c91 dabc aed3 09be
00000010: 7c03 b4bd 50de 22be 3737 08be 32f0 26be
00000020: 8253 f8bd 19f6 02be 9f82 8dbd 082a 993d
00000030: 4af5 903c 17bf 2ebd 4868 4e3d fb5d 25be
00000040: 4581 0abe 6787 2cbe 8300 41bd 1d5d f3bd
00000050: 15b5 c8bc a60f 2abe bd45 e5bd 2008 a1bd
00000060: 5a5e a3bc 1160 7e3b 4a63 483d 9b10 94bd
00000070: c070 3bbd 8aa5 a6bd 26c5 a8bd 6d78 29bd
00000080: f3b0 1abe 4a1a e9bd c6aa 7fbd 7121 07be
00000090: ffad f93c ac65 963c 9a54 47bc ed6e df3b
000000a0: 1447 8cbd 1b76 e2bd 4934 66bd 7081 e0bc
000000b0: 86fd f8bd 6447 57bd ea0d e4bd 8d52 cebd
000000c0: d42f f6bb 4b1c 593d 420c b03d 4d54 513d
000000d0: 8f0e 7f3d f926 93bd 8a3f 09be 668e b6bd
000000e0: 5f0a 22be 5e09 56bd d60a 00be 59ba 05be
000000f0: 0a0d 06bd e3cf 7abb 5905 4fbe 77c7 f2bc
00000100: 8880 203d 65af 25bd 2a78 8bbd 118c 25bd
00000110: 9cc1 16be 375d 3f3b 4cf2 91bd daae aebd
00000120: 5050 26be c2a4 efbd 1c7f cdbd 9046 1cbe
00000130: 9569 12be a190 1fbe fa2f 813d dc3c 513d
00000140: c845 26bd c21a 10be 7068 783c 9e7c 2ebd
00000150: 6ce8 04be 171f c3bd d67a 4abd 3a90 10be
00000160: 76f2 26be a8ed e6bd 750a 313b ea30 513d
00000170: 8ac7 a6bd f7e0 fbbd 4165 debd 41bb 97bd
00000180: 22ba 06bd 19e7 d0bd 10a4 d6bd 010a dcbc
00000190: b444 60bd a9e9 17be 4b65 34bd 3056 c0bd
000001a0: 1ee9 e93c b093 b3bd c1d5 c4bd 778d 6ebd
000001b0: cd10 87bd ccdd f7bc a7c5 6d3d 2147 54bd
000001c0: e831 71bd ac90 e5bc 13e1 d53c 13e8 e1bd
000001d0: 23c3 a1bd 686c 70bd 8ad5 2cbe 0a79 7abd
000001e0: 7c87 dcbd a87f 05be 5db7 1ebd 2730 0cbe
000001f0: 5404 f1bd 54e8 9fbd 5ba6 bdbc 9f90 7cbd
00000200: f18e 0dbe 3f51 d7bd 27d1 f2bd 6fa1 19bd
00000210: a711 13be 9a90 c8bd 333c b2bd 8b9d 8ebd
00000220: 5a1a 30be 9b61 a9bd c0a4 39bd 06a9 52bd
00000230: 7c1b 2bbe 71f3 ea3d 0e66 55bd c6ee f2bb
00000240: 804d 90bd 304b 33bd 4f92 79bd 24e5 5bbd
00000250: caa8 16be ff00 91bd d46e fbbd 822a c6bd
00000260: dd05 68bd 0c82 41be eff3 f6bd b26a 45bd
00000270: 52c2 043d 5597 f6bc 398e e5bd 7b71 a0bd
00000280: 3120 bebd 7d94 80bd 1733 a2bd aaf9 f7bc
00000290: 3ceb 2ebe cb1e ffbd a236 f0bd bf14 93bd
000002a0: c6f7 c63c 32ab 34bf 85a2 72bf f433 16be
000002b0: 458d ea3e eb79 da3f 478f ab3d 6202 ebbe
000002c0: 7dba d0be 2a3f 9a3f 844f 743f 5e20 b93f
000002d0: f260 5d3f 70a6 afbd 9ada ccbe 4779 7a3e
000002e0: 52e8 4d3f c69a d8be dffc 7a3c ebcd a33f
000002f0: 65b9 babb 4d30 0cbf 4f3d 813e bba3 8dbf
00000300: 8acc 103e e2d7 3a3f 768c 0ebf ef3a f3be
00000310: 8a6c 593f 8af2 d1be 823d cc3e 06a2 3e3f
00000320: 80e3 483f fc01 48bf bcc9 5bbf afa0 4bbe
00000330: f829 623d eca6 82bb 0ffd 37be 4135 62bf
00000340: bff1 00bf c8d4 1b3f fa24 3abe 0eaa 5e3f
00000350: 9e3e a03d 4cba d73e 865a d2be 72d8 303e
00000360: 5009 01bf 7e61 8ebe 1451 913e d931 cdbe
00000370: 2f0c 3bbf 4f89 4abe a9f2 47be 68c4 963d
00000380: e534 ba3e 40ac 1e3e e7b3 903e 47cd 44be
00000390: 8a61 6a3e cf65 023f 542d 37bf 6bb1 4e3e
000003a0: ce0b a9be b4a2 11bf 8031 453e 071f 3f3e
000003b0: 814f ed3e 5ed4 a3bd cfdd 403f 23d0 fcbd
000003c0: a717 6cbf 1ea6 c4be 61cd 163e 9665 e7be
000003d0: 49c6 d1bd d0a6 213e 92f4 a83e cd92 073f
000003e0: d8c8 f7be 1fd2 c73e 8ae7 b33d c93c c03e
000003f0: e188 e8bd 402c 6cbf 6afa ec3b cd1f 233e
0.030892538 0.018188963 -0.0266807 -0.13459656 -0.08789727 -0.15905118 -0.13302313 -0.16302565
-0.12125303 -0.12789191 -0.069096796 0.0747872 0.017695088 -0.042662706 0.05039242 -0.16149132
-0.13525875 -0.16848527 -0.04711963 -0.11882994 -0.02450041 -0.16607532 -0.11194942 -0.07862878
-0.019942451 0.0038814584 0.048922814 -0.0722973 -0.045761824 -0.08137043 -0.08240728 -0.041374613
-0.15106563 -0.11381967 -0.06241872 -0.1319635 0.030478476 0.018359028 -0.012166167 0.0068186433
-0.068494946 -0.11057683 -0.056202207 -0.02740547 -0.12157731 -0.052558318 -0.111354664 -0.10074339
-0.007513026 0.053005498 0.08596088 0.051105786 0.062269744 -0.07185168 -0.13403144 -0.08913879
-0.15824269 -0.052255027 -0.12504134 -0.13059367 -0.03272728 -0.0038270883 -0.20216884 -0.029636128
0.039185077 -0.040450472 -0.06810029 -0.04041678 -0.14722294 0.0029199847 -0.071262926 -0.08529444
-0.16241574 -0.11701347 -0.1003401 -0.15261292 -0.14298089 -0.15582515 0.06307979 0.05108343
-0.040593892 -0.14072707 0.015161619 -0.042599313 -0.12979287 -0.09527414 -0.04943355 -0.14117518
-0.16303429 -0.11275798 0.002701429 0.05107204 -0.08143528 -0.12298768 -0.108591564 -0.07408763
-0.032892354 -0.102003284 -0.10480511 -0.026860239 -0.05475302 -0.14835228 -0.044041913 -0.09391439
0.028553542 -0.087684035 -0.09611083 -0.05824038 -0.06595001 -0.030257128 0.058049824 -0.051825646
-0.058885485 -0.028023086 0.0261083 -0.11030593 -0.078985475 -0.058697134 -0.16878334 -0.061150588
-0.10768029 -0.13036978 -0.038749088 -0.13690244 -0.11768404 -0.07807985 -0.023150614 -0.06166136
-0.13824059 -0.10513543 -0.11856299 -0.03750747 -0.14362203 -0.097932056 -0.08702888 -0.06963643
-0.17197552 -0.0827057 -0.045323133 -0.051430725 -0.16709703 0.11472214 -0.05209928 -0.007413718
-0.07046032 -0.043772876 -0.060930546 -0.053685322 -0.14712825 -0.07080268 -0.12276998 -0.096760765
-0.056646217 -0.18897265 -0.120582454 -0.048197456 0.03241188 -0.030101458 -0.112087674 -0.07834145
-0.09283484 -0.06278322 -0.07919901 -0.030270416 -0.17081922 -0.12457045 -0.117291704 -0.071816914
0.02428807 -0.70573723 -0.94779235 -0.14668256 0.45810905 1.7068456 0.08376937 -0.45900255
-0.4076728 1.2050526 0.9543383 1.4463003 0.8647605 -0.08576667 -0.4001053 0.24460326
0.8043262 -0.42305583 0.015319078 1.2797216 -0.0056983703 -0.547612 0.25242087 -1.1065592
0.14140525 0.7298566 -0.55683076 -0.475059 0.8493124 -0.41005355 0.39890677 0.7446598
0.7847214 -0.7812803 -0.858547 -0.19885515 0.055215806 -0.003987184 -0.17967628 -0.8836251
-0.50368875 0.60871553 -0.18178168 0.8697823 0.07824443 0.4213432 -0.4108469 0.17270067
-0.50404835 -0.27808756 0.2838217 -0.40077093 -0.73065466 -0.19778942 -0.19526161 0.0736168
0.3636848 0.15495396 0.28262255 -0.19218932 0.2288877 0.509366 -0.7155354 0.20184867
-0.3301682 -0.5688889 0.19257164 0.1866418 0.4634972 -0.0799949 0.75338453 -0.123443864
-0.9222359 -0.38407987 0.14726783 -0.4519469 -0.10242898 0.1578629 0.32999092 0.52958375
-0.4839542 0.39027497 0.08784397 0.37546375 -0.113542326 -0.9225502 0.007232 0.159301

bias f4 [5]
00000000: 7a9d dabd c05c d03d af16 953e 931c f43e
00000010: 8db3 ef3d
-0.106745675 0.10173941 0.2911887 0.4767805 0.117041685

weight f4 [10, 5]
00000000: 938c 843e 85cb 383f 7724 07bf 126f 8bbf
00000010: b125 e5bf 0df3 8c3e dd02 e63e f6b5 87bf
00000020: 4030 bb3e 26cd f3be 1390 86be ab9b a23f
00000030: a17e 33be 1111 7e3e b08c 22be 19c9 2b3d
00000040: 4cb4 8b3f 923b 63be 4b35 86bd 4236 e63e
00000050: 3514 c63d 61ef 5bbe d03b 01bd 9a80 7abe
00000060: 9073 b1be 8b4b b83e 2e59 b4be e6aa 053f
00000070: f5e9 073e 929b 013f 417c 0dbe 1dbd 863f
00000080: 1584 8f3d 86c1 83bf 2c4f 8d3d 1127 c1be
00000090: 4037 063f d92c 22be 8bfa 203f 6a05 7ebf
000000a0: 553e 9cbd dd8d e13e 123d 82be dc29 97bf
000000b0: 8ea6 8a3d a707 9abe 04c5 19bd 4f58 a2be
000000c0: e12e e1be 8b63 9dbd
0.258885 0.72185546 -0.52790016 -1.0893271 -1.7902128 0.27529183 0.4492406 -1.0602405
0.3656025 -0.47617453 -0.26281795 1.2703756 -0.17528774 0.24811198 -0.1587398 0.04193983
1.0914397 -0.22190693 -0.065531336 0.4496327 0.09671823 -0.21478035 -0.031551182 -0.2446312
-0.3465848 0.35995135 -0.3522429 0.52213895 0.13272841 0.50628006 -0.1381693 1.0526463
0.070076145 -1.0293434 0.068998665 -0.37725118 0.52428055 -0.1583742 0.628823 -0.9922701
-0.076290764 0.44053546 -0.25437218 -1.180965 0.06770049 -0.30083963 -0.037541404 -0.31708
-0.43981078 -0.07685002

bias f4 [10]
00000000: b7c4 0540 3199 0840 abe6 06bf adc7 8bbf
00000010: ea1c cdbe 7445 adbe 62cc a33f 14e8 0bbf
00000020: cc1c 1140 5f26 07bf
2.0901315 2.13435 -0.5269572 -1.0920311 -0.40061122 -0.3384205 1.2796748 -0.54651
2.2673826 -0.52792925

weight f4 [12, 10]
00000000: a79a 16c0 52d7 98be 6980 0cbf 7cf7 01bf
00000010: 057c 803c 2172 f3be 597f e43e 8161 00c0
00000020: 50a3 9e3f 3c74 59be 603a 46c0 dd18 cc3e
00000030: 3a2b 293f dcb8 1abc f157 b4bc 1fb0 fdbe
00000040: 7fcc 8cbf 225b 8a3f b018 d3bf 035b 45bc
00000050: b2f3 21bf 9f8a 97bf 82f8 023f 3660 5d3f
00000060: 4df1 d23d 2fc0 833e 91f5 7a3e a703 00bf
00000070: 760f 2b3d fcc2 a33e 8825 18c0 d91f d23d
00000080: 6b0b 74be 3d9f 4abe fe8e 4d3d dbc1 be3d
00000090: c776 92bf 1c70 8dbf e7d4 bcbe b466 413e
000000a0: fc46 66c0 59f0 c2bf ec90 853d b9c0 093f
000000b0: f7fc 26bd b2ca 2a3f f5de 5cbe ed5a babf
000000c0: 0c52 83bf ef86 5abd 2d21 e0bf c8f7 3cc0
000000d0: d50b 2abf 99f5 e5bf ec30 05bd 6285 0fc0
000000e0: a3ef febe b2fb 92bf 46cc d8bf 3076 1d3d
000000f0: d99c 3abf 0a4e bfbe 8445 cdbf 1b0f fbbf
00000100: 9967 fe3d 6b7d 8dc0 9b66 ddbf 7409 2fbf
00000110: 7132 87bf 9f6b 38be 1a51 f2bf 5082 78bf
00000120: 0661 06c0 a026 f4bf 2a6e 193d 88ae 45c0
00000130: ba5f 99bf 30dd 61bf 5510 fdbf e9ad ab3d
00000140: 8fdf 20c0 9c21 10c0 44ea 13bf db39 6fbf
00000150: 9c1a 853e 20cf 64c0 8305 80bf 431e bfbe
00000160: 9b43 23c0 0bc1 72bd 0d88 4b40 8b59 213f
00000170: ec7a 6cbf bce3 d4bf e6ec cdbe 4959 42c0
00000180: 70b9 223f b729 b9bf f493 2e3f e9af f33c
00000190: ecb3 b5bf bff0 03c0 7c32 d7bf 8915 9ebf
000001a0: 031f 2fbe 8d3e 33c0 26b0 aebf f061 d6bf
000001b0: 03e7 fbbf 2629 1bbd 6b07 90be 77e5 91be
000001c0: 3901 1bc0 cddc 47c0 7c34 0a3e 1210 3ec0
000001d0: 9736 98bf 6dcc 85be 8671 5cbf 67fd 98bd
-2.3531892 -0.29851776 -0.5488344 -0.50768256 0.015684137 -0.4754801 0.4462841 -2.0059512
1.2393589 -0.21235746 -3.097313 0.3986272 0.66081583 -0.009443488 -0.02201459 -0.49548432
-1.0999907 1.0809062 -1.6491909 -0.012045625 -0.63262475 -1.1839179 0.5116044 0.8647493
0.10299931 0.25732562 0.24507739 -0.50005573 0.04176279 0.319847 -2.3772907 0.10259981
-0.2383248 -0.19787307 0.050185196 0.09314319 -1.1442498 -1.1049838 -0.36881182 0.18886834
-3.5980825 -1.5229598 0.06521782 0.53809696 -0.04076859 0.6671554 -0.21569426 -1.4558998
-1.0259414 -0.05335134 -1.7510124 -2.9526234 -0.66424304 -1.7965575 -0.03251736 -2.242516
-0.49792203 -1.1483061 -1.6937339 0.03844279 -0.7289558 -0.37364227 -1.603684 -1.9613985
0.124221034 -4.42156 -1.7296938 -0.683738 -1.0562268 -0.18009804 -1.8931 -0.9707384
-2.0996718 -1.9074287 0.037458576 -3.0887775 -1.1982338 -0.8822813 -1.9770609 0.0838278
-2.513645 -2.2520514 -0.57779336 -0.93447655 0.25996864 -3.575142 -1.0001682 -0.37327775
-2.5510013 -0.05926613 3.1801789 0.63027257 -0.92375064 -1.6631999 -0.40219802 -3.0366995
0.63564205 -1.4465855 0.6819451 0.029746966 -1.4195533 -2.061569 -1.6812282 -1.2350322
-0.17101674 -2.8006928 -1.3647506 -1.6748638 -1.9679874 -0.03788104 -0.2813066 -0.2849538
-2.4219496 -3.1228516 0.13496584 -2.9697309 -1.189166 -0.26132527 -0.86110723 -0.07470208

bias f4 [12]
00000000: cfea b23f aba6 7b3e 1a8e 74bf 5e4c a13e
00000010: 21f8 b6be 2251 c3bf a448 35bf ed5b 74bf
00000020: 9385 19c0 e205 153f 09c2 b4bf 4cbb dc3d
1.3977908 0.24575298 -0.9552933 0.31503576 -0.35736182 -1.5259135 -0.70813966 -0.9545277
-2.3987777 0.582121 -1.4121715 0.107779115

weight f4 [1, 1, 3, 3]
00000000: 090a 7abf 667d 53bf 749b 1f3f 1a96 ebbe
00000010: 93c7 063f c47d 303f 868f 3c3d f699 0c3d
00000020: 23c5 0b3f
-0.9767156 -0.8261322 0.6234658 -0.46012956 0.52648276 0.68941903 0.046035312 0.034326516
0.5459768
