xai_neurips_2021/models/pre_trained/fmnist_mnist_pre_trained_12_6_03_14_25_69_711_811_expert_model.pt (torch, 90319 bytes, 84 tensors)

weight f4 [1, 1, 3, 3]
000000 c0 f2 91 3d 05 ab 53 3e 76 4b fb be 83 79 68 3e
       0.07126379 0.20670708 -0.4908101 0.22702603
000010 0d 71 d2 3e 42 b1 20 bf 6a 24 99 3e 4e ac c9 3e
       0.41101876 -0.62770474 0.29910594 0.3938927
000020 6a bc 39 bf
       -0.7255312

weight f4 [5, 169]
000000 64 99 34 be b3 fc d2 bd 1d af 24 bd ef 63 b3 bd
       -0.17636639 -0.10302105 -0.040206064 -0.08759295
000010 56 9a 02 be 26 83 10 be 75 8a 9c bd 99 47 a3 bd
       -0.12754187 -0.14112529 -0.07643596 -0.079726405
000020 c1 25 f3 bd 32 16 4e bd 94 b7 41 bd e4 96 11 bd
       -0.11872435 -0.050314136 -0.047294214 -0.03554429
000030 a5 f4 cf bd be 8f e1 bd 8f 4b 28 be 20 dd b7 bd
       -0.10154084 -0.11013745 -0.16435073 -0.08977723
000040 61 29 2e be 80 63 32 be 8e c5 04 bd ec 32 ee bd
       -0.17007972 -0.17420769 -0.032414965 -0.11630806
000050 f0 a9 31 be 07 79 3f bd f4 2c 65 bd 44 e5 19 bd
       -0.17349982 -0.04674628 -0.055951074 -0.03757216
000060 03 5a 76 bd 8a 04 23 be 63 9e c8 bd e9 5f 2c be
       -0.060144436 -0.159197 -0.09795835 -0.16833462
000070 a4 1a 04 be 25 29 2f be 55 94 a1 bd a7 ae 2f be
       -0.12900788 -0.17105539 -0.0788962 -0.17156468
000080 3c dc 1d bd 9a 78 b9 bd 4e 85 2b bd 7d 57 fa bc
       -0.03854011 -0.09056206 -0.041875176 -0.030559296
000090 7d bb 2c be 7b 07 0a be 1a ff b0 bd bc 98 06 be
       -0.16868396 -0.13479416 -0.08642407 -0.13144201
0000a0 b5 3f c2 bc 81 15 bb bd 50 13 2b bd d9 94 ce bd
       -0.023712019 -0.09134961 -0.041766465 -0.10086984
0000b0 46 29 0f be 4d e9 59 bd 32 a5 24 be 69 63 52 bd
       -0.13980588 -0.05320101 -0.16078642 -0.051364336
0000c0 78 f7 10 be b4 5e b0 bd 1e 4b 06 be 4b 7c 15 be
       -0.14156902 -0.08611813 -0.13114592 -0.14598195
0000d0 61 54 d0 bd 42 87 02 bd e4 06 07 be 66 d5 0d be
       -0.10172344 -0.031867273 -0.13186222 -0.13850936
0000e0 ad 7b fd bc 32 b8 97 bd a0 24 f2 bd 16 24 08 be
       -0.030942762 -0.07408179 -0.11823392 -0.13295016
0000f0 a0 bc d2 bd 72 07 2b be f9 73 30 be aa d7 75 bd
       -0.102898836 -0.16702059 -0.1723174 -0.060020126
000100 ea 83 f3 bd 59 d9 21 be c1 67 e2 bd 0d 19 0b be
       -0.11890395 -0.15805568 -0.11054946 -0.13583775
000110 4b a0 a7 bd 55 d3 db bc 21 1e 58 bd c9 70 7a bd
       -0.0818487 -0.02683417 -0.05276311 -0.061142717
000120 14 ad 1a be e4 59 3c be 15 aa cd bd db 10 07 be
       -0.15105087 -0.18393666 -0.10042206 -0.13190024
000130 05 b4 9a bd f5 56 0c bd cf f3 bc bd bb b4 da bd
       -0.07553867 -0.034262616 -0.0922619 -0.10679003
000140 43 d4 32 be 6e 06 f8 bc 93 f4 29 be 47 8c b0 bd
       -0.17463784 -0.030276503 -0.16597204 -0.08620506
000150 0d cd 0c be bc cb 3d bd e6 07 f4 bd 69 23 84 bd
       -0.13750096 -0.046336874 -0.11915569 -0.064520665
000160 43 1a 7b bd 75 77 93 bd f1 dc 29 bd 90 0b b5 bd
       -0.061304342 -0.07200519 -0.04147047 -0.08840096
000170 9e 4c ac bd 63 15 db bd e5 28 20 be 69 62 9e bd
       -0.08413051 -0.106974386 -0.156406 -0.07733614
000180 93 ab d3 bd e9 02 1b be 5e 5c 21 be 97 e1 a4 bd
       -0.103354596 -0.15137829 -0.15757892 -0.0805084
000190 4d 05 09 be 88 90 21 bd 4b 3c 43 bd 8e 64 82 bd
       -0.13380928 -0.039444476 -0.04766492 -0.063668355
0001a0 4f f9 f0 bd e6 04 26 bd 9f 15 e3 bd 49 a6 30 be
       -0.11766302 -0.040532015 -0.11088108 -0.17250933
0001b0 dc 77 5b bd da 77 1c be a0 b1 02 be 08 34 24 be
       -0.053581104 -0.15280095 -0.12763071 -0.16035473
0001c0 21 6a 0d be 0c f5 00 be a3 15 20 be 80 d0 1b be
       -0.13810016 -0.12593478 -0.15633254 -0.15216255
0001d0 09 5a 0f be 25 20 02 be 7c 65 af bd 15 9b c2 bd
       -0.1399919 -0.12707575 -0.085642785 -0.09502236
0001e0 39 bf e9 bd b6 66 46 bd 20 1d 0c be 88 ce d2 bd
       -0.11413426 -0.048437797 -0.13682985 -0.10293299
0001f0 de c7 0c be 24 02 14 be 4e a1 a7 bd e1 70 65 bd
       -0.13748118 -0.14453942 -0.08185063 -0.056015853
000200 12 e6 31 bd cc 49 c8 bd 2c 68 07 be 86 49 23 be
       -0.043432303 -0.09779701 -0.13223332 -0.15946016
000210 e5 7b 28 be de af 5a bd 09 11 98 bd 33 b3 7b bd
       -0.16453512 -0.053390376 -0.07425124 -0.061450195
000220 08 bd e2 bd a9 b5 c4 bd 0a 46 2c bd ed 81 08 be
       -0.11071211 -0.096049614 -0.042058982 -0.13330813
000230 bc 6a 4e bd a0 d8 11 bd c4 e7 28 be 28 a5 17 be
       -0.05039476 -0.03560698 -0.16494662 -0.14809096
000240 01 dd 0b be 4a 6a 1d be 32 9e 6e bd 88 d7 38 bd
       -0.13658525 -0.15372577 -0.058256336 -0.04512742
000250 d2 96 ea bd e2 be d2 bd 3e a1 12 be 22 29 19 be
       -0.11454548 -0.10290314 -0.14319322 -0.14957097
000260 c9 fe a7 bd 47 c4 63 bd 7c 05 e9 bd 61 07 ac bd
       -0.08202893 -0.055607107 -0.11377999 -0.08399845
000270 bd 95 d1 bc 99 fb 40 bd 5e 5a 83 bd f0 9e 9f bd
       -0.025584096 -0.047114942 -0.064137205 -0.07793987
000280 e3 72 3c be 0e 67 ff bc df dd 0c be 83 4e 2b be
       -0.18403201 -0.03117707 -0.13756512 -0.16729169
000290 ab 3a 8f bd 90 2c 1e be 21 33 f1 bd cf 3d 29 be
       -0.06993612 -0.15446687 -0.1177733 -0.16527484
0002a0 7e ef d1 bd 0a 27 a5 3c c2 e3 b7 3e 78 8f 7b bf
       -0.10250758 0.020160217 0.35915953 -0.9826579
0002b0 59 4d a7 3e 04 91 4e 3f 8a 8c 88 bd 29 7d 58 3e
       0.326762 0.80690026 -0.06667431 0.21141495
0002c0 a9 5e 4a 3f 5e bd 40 bb 4b 79 9d be a6 95 41 3e
       0.7905069 -0.0029409747 -0.30756602 0.18904743
0002d0 65 af 76 be 1d 06 30 3f d7 ea 2d bd 98 ce 2e be
       -0.24090345 0.6875933 -0.04246029 -0.17070997
0002e0 1f 5f 40 3e b6 e8 48 3e 2f f2 99 3e 51 33 61 be
       0.18786286 0.19620022 0.30067584 -0.21992232
0002f0 ec 6a 25 bf 6e c5 70 be c6 5b b8 be 81 0c 08 be
       -0.64616275 -0.23512813 -0.36007518 -0.1328602
000300 bb 19 57 bd 18 37 aa 3d 03 55 52 3f be 9b c3 bd
       -0.052514773 0.083112895 0.8216097 -0.0955119
000310 7e a8 ea be 87 12 8f 3d bc 86 4d 3e c9 0e 18 bf
       -0.45831674 0.06985956 0.20070928 -0.5939756
000320 9f af 56 be c1 77 58 3e 5a 77 81 3e d6 88 50 bd
       -0.20965432 0.21139432 0.2528637 -0.050911747
000330 84 3a 80 be e4 9c 7c be 25 d7 79 3e ad 00 64 3f
       -0.25044644 -0.24669224 0.24398477 0.8906353
000340 40 f3 ea be 0c f6 26 bf b3 0d 63 bd f1 9e 7e 3e
       -0.4588871 -0.6521919 -0.055432986 0.24865319
000350 d8 2b 42 bf 58 e8 f6 bd 2e e6 0a 3f 32 24 59 3d
       -0.7584815 -0.12056035 0.54257476 0.053013034
000360 64 9e 11 3d 70 6b cc be 6c 0f 0d 3b 8e b5 10 3f
       0.035551444 -0.39925718 0.0021524085 0.5652703
000370 fd 91 8d 3f 80 7e e2 be 24 d8 d1 bd ad 1d ba be
       1.1060177 -0.44237137 -0.10246304 -0.36350766
000380 c4 63 41 be e5 38 75 bd fc bd 3f 3f e6 a4 d0 3d
       -0.18885714 -0.059868712 0.7489927 0.10187702
000390 18 53 8e bc 66 59 aa bd fb 57 c1 be ea 34 42 3f
       -0.017373607 -0.08317833 -0.37762436 0.7586199
0003a0 bb 7e 3e 3f 06 b0 52 3f f2 bc 47 be 2e 93 80 be
       0.74412125 0.8229984 -0.1950567 -0.2511229
0003b0 9c d6 d4 3d ff 54 1b 3e 0c 00 11 bf a7 e1 f4 3e
       0.10392496 0.15169142 -0.56640697 0.4782841
0003c0 13 3a 27 be 4a e1 3c 3e 8a 6d 21 be 6d dd 88 3d
       -0.16330747 0.18445316 -0.15764442 0.066828586
0003d0 e6 47 65 3f 0a c1 86 bd 7b 02 7d 3d 90 e3 ba 3b
       0.89562833 -0.06579788 0.061769944 0.005703397
0003e0 91 21 11 3e 17 44 13 3f d1 13 e3 3e 43 94 11 bd
       0.14172961 0.5752577 0.44351056 -0.035541784
0003f0 46 f8 61 bd c3 42 86 be 6f c0 8b 3e a5 6e 6a 3e
       -0.055168413 -0.2622281 0.27295253 0.2289377

bias f4 [5]
000000 86 6a 32 be 44 f8 02 3f 81 db b4 bd 1b cd 32 be
       -0.17423448 0.51160073 -0.088309295 -0.17461054
000010 94 24 53 3d
       0.051548555

weight f4 [10, 5]
000000 7c e3 9c be b4 9d 14 bf dd fe 2b 3f bf 14 70 be
       -0.30642307 -0.58053136 0.67185766 -0.23445414
000010 8e 34 df 3e 94 98 9d 3e 48 a4 d4 bd 9d 3a 1e 3f
       0.43594784 0.3078047 -0.10382897 0.61808187
000020 c5 4b fc be 9f 8b da 3e c6 08 a7 be c5 b0 68 3f
       -0.49276558 0.42684647 -0.3262388 0.9089473
000030 7a c4 85 3e 9a 8d a1 be c0 90 52 be 53 d3 b1 bc
       0.26126462 -0.31553346 -0.2056303 -0.021707213
000040 4e 7b bf be c6 25 db 3e af db 23 3d d1 a5 30 3f
       -0.37398762 0.42802256 0.04000443 0.69003016
000050 a8 57 1b be ed f7 04 3b 36 90 11 bf 36 e7 b9 bd
       -0.15170157 0.0020289377 -0.56860673 -0.09077303
000060 d8 b8 a5 bd 33 45 25 bd db e2 f7 bd 9f c0 b7 be
       -0.08091897 -0.040349197 -0.12103816 -0.35889146
000070 48 1e ae bd 3e 69 6a bd 2d be 20 3e 09 f7 dc be
       -0.085018694 -0.057229273 0.15697546 -0.43157223
000080 ce fd 23 3f 8e e8 76 be b9 ad 65 3e 9e 8a 44 3e
       0.6405915 -0.2411215 0.22429551 0.19193503
000090 21 15 98 3f 3b cb b0 bd bc cc 92 3e 35 91 7a 3d
       1.1881448 -0.08632513 0.28671825 0.061173636
0000a0 18 6d 8f be 74 65 eb 3e 3a 69 27 3f 59 be 39 bd
       -0.2801292 0.4597584 0.6539494 -0.045347545
0000b0 0c c9 52 3f 59 f9 d1 be 81 de f0 be e4 22 3b 3f
       0.82338023 -0.4101055 -0.47044757 0.73100114
0000c0 b7 cf d1 be 99 4e 72 3f
       -0.40978786 0.9465118

bias f4 [10]
000000 e4 c9 29 3f 5e 7a fc 3e 15 01 7e 3f 0c 24 c5 bd
       0.66323686 0.4931211 0.992204 -0.09626016
000010 ad 85 27 bf 30 d6 95 be 92 21 7d 3d e1 f7 75 3f
       -0.6543835 -0.29264975 0.061799593 0.9608136
000020 65 0e 56 3f de 8d 9e bd
       0.83615714 -0.07741903

weight f4 [12, 10]
000000 c4 04 1a 3f 9c a9 e7 3e 42 23 9a 3f 3c 38 c5 be
       0.6016352 0.4524659 1.204201 -0.38519466
000010 34 a0 bd 3c 58 22 b0 bd dd 4b 03 bf 52 32 7a 3f
       0.02314768 -0.086003006 -0.51287633 0.9773303
000020 cd 2c 35 3f 2d dc 75 be d4 6e 6a 3f 49 85 0b 3f
       0.70771486 -0.24009772 0.9157536 0.5450025
000030 4f 36 c4 3e 42 65 e4 3e 72 58 47 bd fa 93 36 be
       0.38322684 0.44608504 -0.048668332 -0.17829886
000040 fe 95 24 3f d1 94 52 3e b4 ae 2e 3f 3e b6 99 3e
       0.6429137 0.20564581 0.68235326 0.30021852
000050 86 f2 95 bf 5c 0d 0e bf c1 41 25 bf c4 a4 9d bf
       -1.1714637 -0.55489135 -0.6455346 -1.2315907
000060 4f 30 ee 3c 11 4a 96 3d dd 97 89 c0 95 0b 1a bf
       0.02907577 0.07338346 -4.299788 -0.6017392
000070 09 d9 08 bf ca cf 2d bf 99 c7 68 bf 13 9c 42 bf
       -0.5345617 -0.67895186 -0.9092956 -0.760194
000080 bc 05 79 bf d6 25 0d c0 87 50 b1 be c3 98 c2 bd
       -0.97274375 -2.2054343 -0.3463175 -0.09501793
000090 80 28 8c c0 b7 8e e9 be ee d3 71 bf 3b 15 d1 be
       -4.379944 -0.45616695 -0.94464004 -0.4083651
0000a0 9c 45 94 bf d3 33 82 bf 88 4d 3d bf 7b 89 1b c0
       -1.1583743 -1.0172065 -0.7394643 -2.4302661
0000b0 7f b3 62 be de 47 62 be 3c a1 7b c0 ab 47 26 bf
       -0.22138785 -0.22097728 -3.931716 -0.64953107
0000c0 d8 ef 15 bf 23 93 4f bf b9 01 87 bf fc b9 39 bf
       -0.585691 -0.8108389 -1.0547401 -0.72549415
0000d0 d8 2b 66 bf 13 68 dd bf fb 4b f8 bd 51 27 91 3e
       -0.8991065 -1.7297386 -0.12123867 0.2835031
0000e0 1d b5 88 c0 ed be 38 bf 46 e8 15 bf c2 d0 3c bf
       -4.2721086 -0.7216633 -0.58557546 -0.7375604
0000f0 aa e1 68 bf 4a cf 0a bf 8f 70 84 bf 35 b0 de bf
       -0.90969336 -0.5422255 -1.034685 -1.7397524
000100 a8 64 d7 be cb c5 23 3e 0a 82 82 c0 19 25 47 bf
       -0.42068982 0.15993421 -4.078374 -0.7779098
000110 a3 ad 4e bf a1 6d 2b bf 59 bf 99 bf 15 4d e5 be
       -0.807337 -0.66964155 -1.201152 -0.4478537
000120 99 8f 54 bf 0c 29 a9 bf 39 93 05 bf 16 2e ca bd
       -0.8303161 -1.3215652 -0.5217777 -0.098720714
000130 ca 48 86 c0 41 a9 44 bf a4 91 67 bf b4 39 a2 be
       -4.1963854 -0.7682076 -0.90456605 -0.3168465
000140 f3 81 4b bf 47 0c 80 bf c5 d8 68 bf 66 34 00 c0
       -0.7949516 -1.0003747 -0.90955764 -2.0031981
000150 2e cc a9 be 60 bc 95 3e d2 9a 86 c0 a1 51 25 bf
       -0.3316359 0.2924528 -4.206399 -0.6457768
000160 4f c6 30 bf 16 59 fe be c6 29 7b bf 13 65 30 bf
       -0.69052595 -0.49677342 -0.98110616 -0.68904227
000170 26 b9 69 bf e0 b5 07 c0 97 4c 0e 3d 50 d7 21 be
       -0.9129814 -2.1204758 0.03474101 -0.15804791
000180 8d 74 8a c0 e6 2e 69 bf 15 c3 4a bf c0 4f 07 bf
       -4.3267274 -0.91087186 -0.7920392 -0.52856064
000190 37 a0 7c bf 95 0e 7d bf bc 7a 6f bf 97 67 15 c0
       -0.9868197 -0.98850375 -0.9354665 -2.3344476
0001a0 70 b0 d2 be e9 ed 8e 3e bd 3c 75 c0 86 8f 49 bf
       -0.41150236 0.27915886 -3.8318322 -0.78734624
0001b0 fb f5 f7 be d5 91 4f bf 6b e2 67 bf 2d 83 45 bf
       -0.48429856 -0.810819 -0.9057986 -0.77153283
0001c0 7f b8 49 bf a9 af e9 bf 73 a2 fd be f5 2f 70 be
       -0.78797144 -1.8256732 -0.49538 -0.23455794
0001d0 da 51 7d c0 1c a7 7f bf 05 42 3b bf 4b 78 d5 be
       -3.9581208 -0.99864364 -0.7314761 -0.4169334

bias f4 [12]
000000 3a b2 41 3f a5 4f 06 3f 85 79 5d bf a1 66 96 be
       0.7566258 0.5246528 -0.8651355 -0.29375175
000010 bf 0c 33 bf 96 a9 3d bf fa 16 00 bf 6e 53 0f bf
       -0.69941324 -0.7408689 -0.5003506 -0.5598668
000020 57 05 01 bf a3 de 6b be a9 a8 1a bf d6 e9 fe be
       -0.5039877 -0.23034148 -0.60413605 -0.49787778

weight f4 [1, 1, 3, 3]
000000 19 c0 2f 3f 47 73 b2 be 84 c8 18 bf 3d bb 02 3e
       0.6865249 -0.34853575 -0.5968096 0.12766738
000010 d9 58 c8 3e 56 a4 af be b0 ca d4 3e 2c 97 5c 3e
       0.39130285 -0.34305066 0.41560888 0.21542042
000020 12 74 0d bf
       -0.55255234

weight f4 [5, 169]
000000 f9 63 a6 3d 81 ac b4 3d d0 45 79 3e 40 e2 b8 be
       0.08124537 0.08821965 0.24343038 -0.36110115
000010 8a a1 02 be bb 73 f7 be 46 99 7b 3e 20 36 93 3f
       -0.12756935 -0.48330483 0.24570188 1.1500893
000020 f1 13 41 3f 9b 63 c6 bc f6 d6 01 bf 41 af e9 bd
       0.75421053 -0.024217417 -0.5071863 -0.1141038
000030 6a 3c 8e 3d e1 fe 22 3e 24 a7 67 3e 80 77 88 3d
       0.06945117 0.15917541 0.22622353 0.06663418
000040 e9 dc c4 bd 95 7a 87 3e e8 0d 49 3f 8d 04 4f 3f
       -0.09612448 0.2646071 0.78536844 0.8086632
000050 4b 86 c7 3d 40 df a6 3e 5e ad 65 3e e4 2f 29 3e
       0.09742411 0.325922 0.22429416 0.16522175
000060 0a dd fa 3d e3 5e 0d bd 7e d4 d8 3d 73 d0 91 3d
       0.12249191 -0.03451432 0.10587405 0.07119837
000070 cc 5c cd bd 63 3c 4b be b7 47 2f 3e 26 a0 07 3f
       -0.10027465 -0.19847254 0.17117201 0.5297874
000080 f6 e1 e6 3c 05 12 66 3e 75 54 11 3e 55 eb 76 3d
       0.028183918 0.22467811 0.14192374 0.060283024
000090 f3 3c a3 3e c3 2e a7 3e 06 00 b9 3c 2e cd ba 3d
       0.31882438 0.32652864 0.022583019 0.09121166
0000a0 76 9c 0f bd 52 b9 10 3d 29 61 19 be ad ba fe 3e
       -0.035061322 0.035332985 -0.1497847 0.49751797
0000b0 6d fa 29 3f db 10 1c 3d c3 95 3c 3e a1 82 dc bc
       0.66397744 0.038102012 0.18416505 -0.026917757
0000c0 90 83 8f 3e c0 e1 b0 3e ba df 2d 3f 78 ac 42 3e
       0.28030062 0.34547234 0.67919505 0.19011104
0000d0 bd a1 31 3e d6 0a 8b bd ae 99 e3 bd f8 45 24 3e
       0.17346855 -0.06789176 -0.111132964 0.16042316
0000e0 1e 3c 49 3f e8 8d e5 3e 37 76 d7 3e 52 ad dd 3e
       0.78607357 0.44834828 0.42082378 0.43296295
0000f0 db 9e 79 3d 2e 44 45 3e 6a 50 bc 3e d5 e1 33 3f
       0.060942512 0.1926429 0.367801 0.7026647
000100 d1 43 91 3e 3c b9 12 3e d5 02 08 be 81 c6 c8 3d
       0.28372052 0.14328474 -0.1328233 0.098034866
000110 5d 8e ed 3e ae 7e 5e 3f 89 99 03 3d 11 33 f7 3e
       0.46397677 0.8691205 0.032128844 0.48281148
000120 0a f1 b3 3d da cc 29 be 3a 6c c6 3c e5 b3 bd 3e
       0.08786209 -0.16582051 0.024221528 0.3705131
000130 c7 1f 1b 3f e2 b5 62 3d 60 50 9c 3d 67 66 5d bd
       0.60595363 0.05534924 0.07632518 -0.054052737
000140 b6 cc ff 3d e2 e4 f9 3e dd ac 4f 3f 9c 2c b6 bd
       0.124902174 0.48807436 0.81123143 -0.08895227
000150 6b 59 38 3e 60 20 3b 3d 0e 7c ca be a3 59 a1 3e
       0.1800286 0.045685172 -0.3954777 0.315137
000160 af 20 c9 3e 7f 0a ee 3e fc 0d 62 3e c2 83 48 3e
       0.39282748 0.46492383 0.22075647 0.19581512
000170 0a e0 1e 3d 3a 61 84 3e ca 2c fa 3e 93 79 2f 3f
       0.03878788 0.25855428 0.48862296 0.6854488
000180 14 93 c1 be ad 1b d7 3d 10 25 83 bd d5 c5 80 be
       -0.37807524 0.105033256 -0.064035535 -0.25150934
000190 93 06 42 3e ee b9 70 3e ca ef c2 3e 7d 9f c7 3e
       0.1894782 0.23508427 0.3807357 0.38988867
0001a0 c8 34 02 3e a3 a7 3d 3d 4b b4 2c 3e e9 72 fc 3e
       0.12715447 0.04630245 0.16865651 0.4930642
0001b0 9e 08 66 3d 08 da 8a bd 0a 09 b5 3d 19 0b 1e 3e
       0.05616056 -0.067798674 0.08839615 0.15433921
0001c0 b4 1b af 3d 19 82 40 3e 54 1c da 3e c0 cc 5f 3e
       0.08550206 0.18799628 0.42599738 0.2185545
0001d0 c3 08 dd 3e a7 17 32 3e 1b 01 28 be 30 88 7a 3d
       0.43170747 0.17391835 -0.16406672 0.061165035
0001e0 33 3e 7b 3e 2d 33 10 3e 46 e8 36 be ee 83 c0 bd
       0.24535446 0.14082022 -0.17862043 -0.094001636
0001f0 9c aa 04 3f 9e 4a 9e bd 6f a3 ad 3d 43 f1 6d 3e
       0.5182283 -0.07729076 0.08478438 0.23236565
000200 17 91 16 3e 4e c7 cf 3e c0 c3 cf 3d aa 03 96 bd
       0.14703785 0.40581745 0.10144758 -0.073249176
000210 c1 11 2a 3e 73 e3 5f bd c8 6f 77 be 3b 28 25 be
       0.16608335 -0.05466027 -0.24163735 -0.16128628
000220 f9 1d ac be 64 e1 32 3f a9 58 ec 3d 44 20 7b 3e
       -0.33616617 0.6987517 0.11540348 0.24524027
000230 82 82 0e be 36 13 ba 3d ca e8 73 3e 99 ea 09 3e
       -0.13916972 0.090856954 0.2381927 0.13468398
000240 25 80 34 3e 07 d6 31 3e 01 e9 36 3c 41 a1 e6 be
       0.17627008 0.17366801 0.011163951 -0.45044902
000250 9e 66 94 be 2f a5 d6 be c4 e2 98 3e 71 39 c1 3e
       -0.2898454 -0.419229 0.29860508 0.37739137
000260 90 4e c4 3e 6c 91 b9 bd cf bb 5e bd 35 fa e1 3d
       0.38341188 -0.0906094 -0.054378327 0.11034051
000270 06 ec b3 3d 82 38 36 3e 95 7c f6 3e 44 56 20 3f
       0.08785252 0.17794994 0.48141924 0.6263163
000280 e0 ef 64 bf d1 56 04 bf 0d fb 24 bf d3 b1 32 3e
       -0.8942852 -0.5169497 -0.64445573 0.17450647
000290 91 70 9f 3e 63 81 f5 3e 05 7d b2 bd f2 ef 80 bd
       0.3114057 0.47950277 -0.08715252 -0.06295766
0002a0 8b ad 32 3b 4c 20 8f 3e a1 77 bd 3e ea 78 aa 3d
       0.0027264084 0.27954328 0.37005332 0.08323844
0002b0 dc b1 93 3f 13 c2 6a 3f 14 8c 96 3f 53 5f 07 3e
       1.1538653 0.91702384 1.1761498 0.13219957
0002c0 c9 f9 1f bf 1b e2 a7 be 0c 6f 0f 3f a4 c6 8a 3f
       -0.62490517 -0.32789692 0.5602882 1.084187
0002d0 ea ff 55 3f 42 4f 1d 3f a7 16 92 3e 6c ce b1 3d
       0.8359362 0.6144906 0.28532907 0.0868195
0002e0 56 62 b8 3e 43 a4 6b 3f 97 53 a1 3e 76 9b 69 be
       0.36012524 0.9204752 0.31509086 -0.2281321
0002f0 cc e1 5e be 8e 50 c1 3e c5 ff f3 3c b2 af 76 3e
       -0.21765822 0.3775677 0.029785046 0.2409046
000300 d9 b3 0e 3f 50 cd be 3e fc 46 70 3f 43 d5 53 3e
       0.55743176 0.37266016 0.93858314 0.20686822
000310 15 5f 1a 3f 98 3e 09 3f 79 43 43 3f 9c 4f cc 3e
       0.60301334 0.53611135 0.7627483 0.39904487
000320 e5 64 1c 3d 46 32 ca 3e 96 e5 8c 3e 34 32 7b 3e
       0.038182158 0.3949148 0.2751891 0.2453087
000330 4b f8 a6 3e 5f e0 95 3e 2f 95 d8 bb 5d 40 e5 3e
       0.32611308 0.29272744 -0.006609581 0.44775668
000340 49 e2 8f 3e 8e d9 00 3f c7 3e 13 bd e1 46 cd 3e
       0.2810233 0.5033196 -0.03594854 0.4009314
000350 b7 f2 2d 3e 6e c0 5c be 0d 1a 8b 3e 09 25 86 3e
       0.1698712 -0.21557781 0.27168313 0.2620013
000360 91 52 99 3e ff 12 13 bd 3a 14 2d 3c d6 c8 13 3c
       0.29945806 -0.035906788 0.010563904 0.009020051
000370 10 dc 14 3d 76 60 b0 3e 78 aa 91 3c 1b 51 30 3e
       0.03634268 0.34448594 0.017781481 0.1721844
000380 91 31 a6 bd eb a8 74 be 87 77 a4 bb 70 29 ae be
       -0.08114923 -0.23892562 -0.0050191316 -0.3401599
000390 24 ca be 3d 3c 95 52 3e 99 b2 42 3b d8 a6 9c bd
       0.09315899 0.20564741 0.0029708503 -0.076490104
0003a0 0f 7e 16 be 21 2c ad bc 6a eb 94 3e f9 f8 18 3f
       -0.14696525 -0.021139206 0.29085857 0.597549
0003b0 ce 7b 56 be e7 b4 e9 be 49 df 00 bf d8 9a 92 3e
       -0.20945665 -0.4564583 -0.50340706 0.2863376
0003c0 ff b5 af be 98 44 d9 3e e6 3d e6 3e 72 1e bb 3d
       -0.3431854 0.42435145 0.449691 0.09136666
0003d0 6c 49 2b be f9 90 50 bd 1b ce 4f 3e 82 54 ad 3e
       -0.16727227 -0.050919507 0.20293467 0.33853537
0003e0 e7 9c a0 3e a5 88 93 be c4 39 03 bf 70 45 01 bf
       0.31369707 -0.2881519 -0.5126002 -0.5049658
0003f0 53 1b b8 3e e4 96 9d 3d 25 24 af 3e d9 47 33 3f
       0.35958347 0.07694796 0.34207264 0.70031506

bias f4 [5]
000000 c1 92 de 3d 73 8c d1 3e 2f ce 24 3e 09 d8 13 3e
       0.10867835 0.40927467 0.16094278 0.1443788
000010 45 8b 44 bd
       -0.04798438

weight f4 [10, 5]
000000 b8 bf 12 bf eb 07 15 be 2b ea 11 bf 83 af 24 be
       -0.5732379 -0.14553802 -0.56997937 -0.16082577
000010 b4 fc ef 3d 61 9c d2 bd 5d 1c 25 be a5 2c 9b bd
       0.11718121 -0.10283733 -0.16124101 -0.07576875
000020 35 ae 1a bf 96 90 a1 be e8 a7 2c 3f 65 08 25 bf
       -0.6042207 -0.31555623 0.67443705 -0.64465934
000030 78 88 cb 3e b1 18 10 bf e8 62 80 be ad 78 3d 3f
       0.39752555 -0.56287676 -0.2507546 0.7401226
000040 b1 68 51 bf c7 09 e0 3e 02 d0 21 be 8d 66 91 3e
       -0.8180037 0.4375746 -0.15802005 0.28398553
000050 9b 24 6f be b5 e8 eb be 7b 74 ee 3e 78 4c c5 be
       -0.23353808 -0.4607598 0.46573243 -0.38534904
000060 2c 4c 43 be 30 b9 09 be d4 ff 62 3d ec a4 e3 be
       -0.19072026 -0.1344955 0.055419758 -0.44461763
000070 6e e3 53 3c f1 80 bd be d3 bb 72 3d 14 0d e4 3e
       0.012932641 -0.37012437 0.059261154 0.44541228
000080 e5 a1 08 3f 93 bb 3c 3f 43 9a 1c be bb 4a 0e be
       0.5337203 0.73723716 -0.15293221 -0.13895695
000090 40 87 00 3f 10 03 79 be 43 c3 c0 3e 28 89 db 3e
       0.50206375 -0.24317575 0.37648973 0.4287808
0000a0 e2 ce 16 3f 81 58 41 bf 45 7d e5 3e 4c a7 d3 be
       0.5890943 -0.7552567 0.44822136 -0.41338575
0000b0 ac 05 c7 3e 37 d5 d3 be a9 45 64 3e 0f e2 22 bf
       0.38871515 -0.41373608 0.22292198 -0.6362619
0000c0 93 dc e6 be fe 87 82 be
       -0.4509016 -0.2549438

bias f4 [10]
000000 10 4b 32 3e 7c d0 7a 3d 1d a1 f7 3c 89 e3 2b 3b
       0.17411447 0.061233982 0.030228192 0.002622815
000010 18 b9 8a 3d 91 d5 d3 bc 18 10 cd 3e 88 3c 9a 3d
       0.06773585 -0.025858672 0.4005134 0.07531077
000020 d2 53 35 3f 41 cd 79 3e
       0.70831025 0.24394704

weight f4 [12, 10]
000000 a7 2b 27 bc 8c 74 07 be 5a 36 36 bb be 8c 37 3e
       -0.010203279 -0.13228053 -0.0027803392 0.17924783
000010 84 54 c8 bd 22 15 b2 3c 1b d4 44 3f bc 42 f9 3e
       -0.09781745 0.021738593 0.7688615 0.48683727
000020 1e 31 8d 3d 61 8e 2e be e3 5a 42 be 02 b2 1e 3e
       0.06894134 -0.170465 -0.18979983 0.15497592
000030 c4 db ed 3e a1 50 07 3f f5 0d 61 3e 5f 06 df bc
       0.4645673 0.52857405 0.2197798 -0.027224718
000040 9e de b6 3e 44 da c8 be 70 07 4d 3f 52 32 22 3e
       0.35716718 -0.39229023 0.80089474 0.15839508
000050 96 19 a9 3d c0 56 8a 3d 77 1b 08 bf 86 be 1f bf
       0.08256833 0.067548275 -0.5316691 -0.6240009
000060 59 a4 08 bf cc ac c1 3d e0 41 33 be 82 5c 8a bf
       -0.53375775 0.094567865 -0.17505598 -1.0809481
000070 26 2b 0b bf f1 1b b8 3d c6 34 00 3d a5 e3 01 3e
       -0.54362714 0.089897044 0.03130033 0.12684496
000080 5c 1b fa be 13 bc fb be 3d f0 07 bf f0 57 4a 3e
       -0.48849 -0.49166927 -0.5310095 0.19760108
000090 35 88 09 bf c9 54 68 bf 86 91 dd be 47 d3 27 3d
       -0.5372346 -0.9075437 -0.43275088 0.040972974
0000a0 ab 4c 73 be e6 24 29 bd da 4d ca be e0 2d 29 bf
       -0.23759715 -0.041294955 -0.3951252 -0.66085625
0000b0 69 e0 8e be 44 f3 8f 3d f0 b4 2f bf 55 f0 e9 be
       -0.27905586 0.07028821 -0.68635464 -0.4569117
0000c0 91 3e 21 be 56 e8 1b 3e 39 0f d0 3c 1e f1 8f be
       -0.15746523 0.15225348 0.025397884 -0.28113645
0000d0 f3 68 fc be 4a df e8 be 71 96 d4 be 4f 87 e5 3c
       -0.4929882 -0.45482856 -0.41521028 0.028018622
0000e0 61 20 8a be 47 7d a2 bf a1 18 03 bf 17 49 04 3c
       -0.26977828 -1.2694482 -0.51209456 0.008074067
0000f0 33 0e 22 be f5 ac 3a 3e 32 79 24 bf a1 75 d7 be
       -0.15825729 0.1823004 -0.6424743 -0.4208193
000100 3d f9 0a bf b9 90 2e 3e 53 52 e9 be b1 5f 55 bf
       -0.5428656 0.17047395 -0.4557062 -0.8334914
000110 13 65 bb be 08 aa 81 bc 80 69 2b bd 98 ee 8f be
       -0.3660055 -0.015828148 -0.04184866 -0.2811172
000120 ff f8 8f be 5f 53 41 be 29 7a 09 bf 04 69 2f 3d
       -0.28119656 -0.1887946 -0.53702027 0.04282476
000130 05 0c 45 bf 9c 43 3d bf 33 21 15 bf 10 1d c2 be
       -0.76971465 -0.7393129 -0.58253783 -0.37912798
000140 4b ea af bc 69 90 e3 bd cd 09 b3 be 55 97 0b bf
       -0.021474024 -0.111115284 -0.34968415 -0.5452779
000150 f7 4e 1a bf 37 a6 ee bd cf f9 8f be 22 8d 88 bf
       -0.6027674 -0.11652797 -0.28120276 -1.066807
000160 07 da e8 be 10 28 18 3e 46 d4 2c 3e fb 67 ba be
       -0.45478842 0.14859033 0.16877851 -0.36407456
000170 f4 54 d1 be 05 d8 86 be e8 f8 0c bf 12 c6 25 3e
       -0.40885127 -0.26336685 -0.550673 0.16188839
000180 f8 d9 15 bf ca cf 52 bf 0c 05 b4 be 6a 35 4b be
       -0.5853572 -0.8234831 -0.351601 -0.19844595
000190 d3 0c f7 3d ce 18 0d 3e ef 93 30 bf 3f 45 73 be
       0.12062993 0.13778993 -0.6897573 -0.23756884
0001a0 47 82 76 be c1 7a 84 bd c5 0b 16 bf 9f 7c 20 bf
       -0.24073134 -0.06468726 -0.5861171 -0.62690157
0001b0 29 76 e5 be 1b b3 bf be cf fc bb be 24 cb d8 be
       -0.44816712 -0.37441334 -0.36716315 -0.42342484
0001c0 96 1a b2 bd 05 d5 18 bf e4 00 1b bf 14 ba 87 3e
       -0.08696477 -0.5970004 -0.60548234 0.26509154
0001d0 7e db 09 bf ec c1 25 bf 1b 5a 1f bf 0d 45 0f be
       -0.53850543 -0.64749026 -0.62246865 -0.13991185

bias f4 [12]
000000 79 20 39 3c 6f a2 85 3e 5e 3d b3 be 63 1f 13 bf
       0.011299246 0.2610049 -0.35007757 -0.5746977
000010 e5 aa 7e be 77 7b 9d bd 14 27 6f bd 2b 4b a2 be
       -0.24869879 -0.07689565 -0.058386877 -0.31697974
000020 29 45 d1 be e0 6b d2 be 6f 46 87 be e8 29 01 bf
       -0.40873078 -0.41097927 -0.26420924 -0.5045457

weight f4 [1, 1, 3, 3]
000000 d7 c6 c5 be 79 3e 3c 3e 91 ad 0b be ca eb ac be
       -0.38628265 0.18383206 -0.13640429 -0.33773643
000010 e6 b1 1f 3f 69 c5 36 3d ff 68 b1 be b8 50 ae 3e
       0.62380826 0.04462186 -0.34650418 0.3404596
000020 21 a3 e1 3e
       0.4406977

weight f4 [5, 169]
000000 d5 2a c8 3d 4d 7f 4d 3e 50 5e 05 3e 22 ff 0a 3e
       0.097737946 0.20068093 0.13024259 0.13573888
000010 e1 65 76 3e e4 83 4a 3e 7d 28 83 3e 16 c0 40 3e
       0.24062301 0.19776875 0.25616828 0.18823275
000020 d4 17 06 3e eb df 53 3e 0e ca 05 3e 6e 60 81 3c
       0.13095027 0.20690887 0.13065359 0.015793052
000030 5a 4a ef 3d 49 51 e1 3d 40 5f a3 3d a5 40 5e 3e
       0.11684103 0.11001832 0.07977152 0.21704347
000040 30 03 13 3e ae 51 84 3e a5 c4 41 3e 56 c7 2e 3e
       0.14356685 0.25843567 0.1892267 0.17068228
000050 09 3f da 3d 3a 20 28 3e 7a 92 f9 3d ec 70 cb 3d
       0.10656554 0.16418543 0.12186141 0.099336475
000060 52 9d ce 3c 7b 6f 86 3d 5b 1c ad 3d 95 0f 20 3e
       0.0252215 0.06564232 0.08452674 0.15630944
000070 49 ed 9b 3e 38 03 80 3e bb a7 f5 3d b8 a8 20 3e
       0.30454472 0.25002456 0.11994883 0.15689361
000080 73 27 ae 3c 8e 8d e8 3d 5f 22 ba 3d 4b d9 3d 3d
       0.021259045 0.113551244 0.09088587 0.046349805
000090 73 bf b1 3d a2 06 ee bc 2e 57 02 3e f7 98 84 3d
       0.08679094 -0.029055897 0.12728569 0.06474488
0000a0 5a 45 54 3e 70 e3 86 3e 0c fa 9e 3e d0 f1 57 3e
       0.2072958 0.26345396 0.31050146 0.21088338
0000b0 ff 6f 1a 3e 7b f7 4f 3d 78 e9 e5 3d 61 a1 82 3d
       0.15081786 0.050773125 0.11226171 0.06378437
0000c0 01 7f 1c 3e 90 44 c6 bb 63 a5 97 ba 6e 9e 49 3d
       0.15282823 -0.0060506538 -0.0011569675 0.049223356
0000d0 a6 8d af 3d 70 6a 4d 3e 70 8f 9f 3e 8f db 9f 3e
       0.08571939 0.20060134 0.31164122 0.31222197
0000e0 fe 49 a2 3d 83 de 81 b9 1c 39 06 3d d6 5d 3c 3d
       0.07924269 -0.00024770582 0.032769307 0.045987926
0000f0 fd b7 06 3d d6 dc 0e 3e b5 7a 96 3d f3 f6 82 3b
       0.03289031 0.1395143 0.07347623 0.003996724
000100 67 76 f2 bd 96 02 3a 3e 79 61 42 3e b2 48 90 3e
       -0.1183899 0.18165049 0.18982495 0.28180462
000110 1f fb 8a 3e 3a ba 0d 3e e9 75 9d 3d 2f d2 8a 3d
       0.27144715 0.13840571 0.07688505 0.067783706
000120 f5 72 bc 3d 9f 53 b5 3d 15 23 0b 3e 1a 1a ea 3d
       0.09201614 0.0885384 0.13587601 0.1143076
000130 ec 30 ef bd e4 e2 16 bd f8 77 fe 3d 2e ae 0b 3e
       -0.11679253 -0.036837474 0.12425226 0.13640663
000140 e8 4c 49 3e b0 8b b6 3d fb 08 ec 3d 9e 0b 21 3e
       0.19658244 0.08913362 0.115251504 0.15727088
000150 d0 b7 60 3d d5 b1 b2 3d 0e cd 07 3b 53 ad 2b 3e
       0.054862797 0.08725325 0.0020721587 0.16765337
000160 6b b9 3f 3d 27 f8 0f be 7f 60 c0 bd af 33 f8 3c
       0.046807688 -0.14059506 -0.09393405 0.030298082
000170 26 db 18 3e ba cf 22 3e bf 15 92 3d e7 87 9b 3d
       0.14927348 0.15899554 0.07133054 0.07594281
000180 69 c6 57 3c 9c df 2e 3d 91 00 c8 3d 48 9c ad 3c
       0.013169863 0.04269372 0.09765733 0.021192685
000190 35 da 1c 3e 40 5f c9 3d 73 44 aa bd 14 9b f5 bd
       0.15317614 0.098326206 -0.08313837 -0.119924694
0001a0 60 4d 92 bd d2 71 d3 3d 2c e6 40 3e a6 56 b2 3c
       -0.07143664 0.10324444 0.18837804 0.021769833
0001b0 f0 83 cd 3d c5 7c 3d 3d 31 32 a4 3c 2c 66 11 3d
       0.10034931 0.046261568 0.020043464 0.03549783
0001c0 bb f9 2e bb 25 24 f8 3d c1 c6 45 3e 2a c6 8e bd
       -0.0026699144 0.12116269 0.193141 -0.069713905
0001d0 6d 60 fc bd df e8 cd bb b3 79 1f 3e 73 19 d9 3d
       -0.12323079 -0.006283864 0.15573768 0.10600557
0001e0 5c 01 fd 3d 84 e1 f0 3d c3 9c 0c 3e fc 70 7a 3d
       0.12353775 0.11761764 0.13731675 0.061142907
0001f0 2e 0a e6 3d 6b 2c cf 3d 36 84 43 3e 60 64 61 3e
       0.1123241 0.10115894 0.19093403 0.22010946
000200 21 e4 12 be 4b 7a c8 bd 86 0a 63 bd 5f 56 13 3e
       -0.14344837 -0.097889505 -0.055429958 0.14388417
000210 f9 7b 0c 3e cd af 2d 3e bf bc f4 3d d8 68 1a 3e
       0.13719167 0.16961594 0.11950063 0.15079057
000220 f5 f2 85 3d 96 5f 52 3e 1e 67 04 3e 7d f9 fa 3d
       0.06540481 0.20544276 0.12929961 0.12254617
000230 4b 0f f4 3d d5 37 2b bd 32 6b ec bd 34 64 de bc
       0.119169794 -0.041801292 -0.115438834 -0.02714739
000240 54 15 17 3e 2a a1 cb 3d e6 75 2e 3e fc 14 a1 3d
       0.1475423 0.09942849 0.17037162 0.078653306
000250 52 4b 3e 3d e6 9e 19 3e 14 7f 72 3e c2 24 db 3d
       0.04645855 0.15002021 0.23681289 0.1070037
000260 d3 f5 cc 3d c6 7c 8e 3e f9 7f f6 bd c5 36 18 3b
       0.10007825 0.2782957 -0.120361276 0.0023226005
000270 15 43 74 3d 86 d0 3e 3e 6a ce 51 3e c9 4c 12 3e
       0.059634287 0.18634233 0.20488897 0.14287104
000280 85 00 0a 3d 7f 21 be 3d a1 28 02 3e f2 50 80 3d
       0.0336919 0.092837326 0.12710811 0.06265439
000290 68 87 69 3d 7b 35 43 3e fa d4 83 3e 30 d5 4b 3c
       0.0570139 0.1906337 0.25748426 0.012440965
0002a0 52 24 96 3d 66 2a 14 be 81 ce ff bd c7 2e 30 bd
       0.07331146 -0.14469299 -0.12490559 -0.04301336
0002b0 d6 cb 18 be 0a 6d fe bc 16 c9 1a be 8a fd 85 bd
       -0.14921507 -0.031057853 -0.1511577 -0.06542499
0002c0 92 3c ba bd 1b 6b 18 be 73 6a a9 bd 94 80 12 be
       -0.09093584 -0.14884607 -0.08272257 -0.14306861
0002d0 1b 99 10 be 00 20 c1 bd 61 76 80 bd b2 f6 2a be
       -0.14120905 -0.09429932 -0.06272579 -0.1669567
0002e0 76 d5 f1 bd 24 5e df bd b3 ee 18 be 63 1c 29 bd
       -0.118082926 -0.10906628 -0.14934807 -0.041286837
0002f0 3b 6c e7 bd e4 4b 1b be 3d 99 05 bd e9 66 b6 bd
       -0.1129994 -0.15165669 -0.032616843 -0.08906347
000300 1c f9 17 be 18 43 19 be 20 6d f7 bc 50 fa eb bc
       -0.14841121 -0.14967 -0.030203402 -0.028805882
000310 56 2d d2 bd ab be 16 be ff 43 73 bd 6c 77 8f bd
       -0.102625534 -0.14721172 -0.059391018 -0.070052
000320 b7 c6 2a be 32 20 15 be c3 08 a8 bd f5 d1 bd bd
       -0.16677366 -0.14563063 -0.08204796 -0.09268562
000330 9f ef 0b be a9 a9 8e bd 75 fe f4 bd 79 bc ae bd
       -0.13665627 -0.06965954 -0.11962596 -0.08532042
000340 72 9d 10 be 5e d3 b1 bd 71 04 15 be 77 90 9b bd
       -0.1412256 -0.08682893 -0.14552476 -0.07595914
000350 cf c8 e6 bc fa e6 44 bd 65 12 03 be 79 f2 84 bd
       -0.028171925 -0.04807184 -0.12799986 -0.064915605
000360 1c 57 3c bd bc 5f 8b bd 94 5f a5 bd db c1 c6 bd
       -0.04598151 -0.06805369 -0.08074871 -0.09704944
000370 b9 61 9f bd 46 ab f1 bd f3 e7 c6 bd 62 f7 f7 bd
       -0.07782311 -0.11800246 -0.097122096 -0.121077314
000380 48 13 dc bc a8 d9 2d bd ca bc b8 bd b2 9f 8d bd
       -0.026864663 -0.0424439 -0.09020384 -0.06915225
000390 7d dd 57 bd ce 2b 17 be eb 1b d7 bd 52 7a 1b be
       -0.052701462 -0.14762804 -0.10503372 -0.1518338
0003a0 fd 70 f6 bd 51 d1 88 bd e6 87 15 be a9 c5 0f be
       -0.120332696 -0.06680549 -0.14602622 -0.14040245
0003b0 7a 8e 29 be c6 d4 ca bd 5a 11 2a be 70 db c8 bc
       -0.16558257 -0.099038646 -0.16608182 -0.024518698
0003c0 ae 58 33 be 26 a8 ef bd a9 2e 0a be 7c 59 08 be
       -0.17514297 -0.11701994 -0.13494362 -0.13315386
0003d0 fa 36 13 be ec 7e c3 bc 64 79 8b bd 04 d7 33 be
       -0.1437644 -0.023864232 -0.06810263 -0.1756249
0003e0 cb 4a 00 bd cf 15 3b bd 26 ca 1e bd 72 d5 74 bd
       -0.031321328 -0.045675095 -0.038767003 -0.05977387
0003f0 4c 83 1b be e3 a4 c8 bd 62 65 2a be 74 90 18 be
       -0.15186805 -0.09797075 -0.16640237 -0.14898854

bias f4 [5]
000000 9c 3f 45 3e 8a 1b 74 bd ca f0 be 3d 00 14 1a be
       0.19262546 -0.059596576 0.093232706 -0.15046692
000010 53 11 c2 3e
       0.37903842

weight f4 [10, 5]
000000 14 37 6e be 2a 58 ab 3c ff 2d 93 3d eb 1e e7 3d
       -0.23263198 0.020916063 0.071865074 0.11285194
000010 c0 e7 0f be 11 59 45 bf 54 d4 82 bd 8b 89 84 3e
       -0.1405325 -0.7708903 -0.063881546 0.25886187
000020 34 75 8a 3e b0 ea 37 bf fe a9 ae bd f1 ea 69 be
       0.27042544 -0.7184248 -0.08528517 -0.2284353
000030 2f 88 1f be 84 1f 9d bd da f9 43 3f 49 56 2a 3d
       -0.15579294 -0.07672027 0.7655312 0.041586194
000040 9c b8 0b 3e cc f7 5b 3f 47 60 59 be e6 ad a2 be
       0.13644642 0.85924983 -0.21228133 -0.317733
000050 71 60 01 3f bb ef a1 bd cf 8e 02 3e 17 1e a7 3e
       0.5053778 -0.07907053 0.1274979 0.32640144
000060 57 65 a2 3f da 42 1e 3f 43 64 47 3d 36 d7 7b 3f
       1.2687176 0.6182076 0.0486796 0.9837526
000070 57 18 86 be 6d ac ba be 92 55 1b 3f ba 84 c0 3e
       -0.26190445 -0.36459675 0.60677445 0.37601262
000080 05 e4 ba bd 09 ce 32 be a5 c0 a2 3f 57 65 e7 be
       -0.091255225 -0.17461409 1.271504 -0.45194504
000090 bf d9 99 3e fa e5 8c be ce 5b 29 be 5e a8 d9 be
       0.3004894 -0.27519208 -0.16538927 -0.42511266
0000a0 97 cb 2f 3f 48 93 a2 be 15 2b 36 3f cc 48 da be
       0.6867003 -0.31752992 0.7115949 -0.42633665
0000b0 e5 79 0c bf f1 81 04 bf da 88 3d 3e c5 1a 2a 3c
       -0.54873496 -0.51760775 0.18509236 0.010382359
0000c0 ed da c4 3d 75 85 a1 bc
       0.09612069 -0.019716958

bias f4 [10]
000000 61 9e d4 be 4f 10 62 3e f8 b9 aa 3e 31 98 88 3c
       -0.41527084 0.22076534 0.33345008 0.016674133
000010 87 e9 4f 3f 09 f8 09 3e f1 1b 71 3f 16 c1 f7 3d
       0.8121571 0.13473524 0.9418326 0.12097375
000020 a7 a7 0d be d3 e4 9e bd
       -0.13833486 -0.077584885

weight f4 [12, 10]
000000 56 d9 27 be 5e c3 86 3e 11 af 6d be b3 83 2b 3f
       -0.16391501 0.26320928 -0.23211314 0.6699783
000010 93 5a 66 3e 2b 8e 3f 3f 74 f9 a4 3e 01 0e 35 be
       0.22495489 0.74826306 0.32221568 -0.17681123
000020 7b a8 23 3f 0d 5e 98 3d df 43 65 b9 1e e3 d6 bd
       0.63928956 0.07439814 -0.00021864426 -0.10492538
000030 06 12 af 3e f6 31 9a bd cb 6b 26 3f 2a f7 da 3e
       0.34193438 -0.075290605 0.6500823 0.42766696
000040 41 1b 21 3f ca bf 56 be ab 80 d0 3e 09 44 99 bb
       0.6293221 -0.20971599 0.40723166 -0.0046773
000050 de 04 a5 bb 60 5d 5c be 4e 8c 37 3d 7f 58 ad be
       -0.0050359806 -0.21519995 0.04481154 -0.3385658
000060 7f 4d 1b bf 5e 5c 0a bf 38 b5 e9 be 69 61 53 3e
       -0.60665125 -0.5404719 -0.4564607 0.20642628
000070 6c 78 21 bf 45 80 91 be 02 35 14 3e 1f db 3e 3e
       -0.63074374 -0.28418174 0.14473346 0.18638276
000080 10 de 0a bf 41 91 50 be 88 c7 a3 be 9b 7b 4c bf
       -0.5424509 -0.2036791 -0.31988168 -0.79876107
000090 ef 77 30 bf 14 f1 20 3c 73 fd 58 be 95 89 d8 be
       -0.68933004 0.0098231025 -0.21190433 -0.42292467
0000a0 91 1e 39 3e 0e 98 50 3e b7 e1 07 bf df 50 1e be
       0.18078066 0.20370504 -0.5307879 -0.15460537
0000b0 33 43 08 bf 46 97 c9 be 65 8d 37 bf 7e f5 2e 3e
       -0.5322754 -0.39373225 -0.71700126 0.17085835
0000c0 cd c6 e1 be 1a 98 55 bd 1b ed 62 3e 91 6b 4c 3e
       -0.44096985 -0.05214701 0.22160761 0.19962908
0000d0 fa 9a 06 bf 84 5f 00 bf 4c b1 07 bf 8b bc 2c bf
       -0.52580225 -0.50145745 -0.5300491 -0.67475194
0000e0 84 38 46 bf 8c ed d5 3d 59 38 a8 be f0 7d 02 3d
       -0.77429986 0.10445699 -0.3285549 0.031858385
0000f0 5e 4d 16 bd b3 c3 d8 be 49 93 d6 be 74 f3 72 be
       -0.036694877 -0.42336807 -0.41909245 -0.23725682
000100 5e 7d 51 bf 21 14 9b be 60 59 c0 be a9 c1 85 3d
       -0.8183192 -0.30288795 -0.37568188 0.06531078
000110 71 c4 23 bf aa 9b 18 bc da b9 83 be 39 e2 ac be
       -0.6397162 -0.009314457 -0.2572773 -0.33766344
000120 61 cc 59 bc d0 fa 7d be 48 b0 43 bf cc 88 9a be
       -0.013293357 -0.24802709 -0.7644086 -0.30182493
000130 ea f5 82 be 07 2b f0 bc a3 b3 15 bf 74 88 52 be
       -0.25578243 -0.029317392 -0.5847723 -0.20559865
000140 72 b3 ec 3d 51 2e fe 3d 13 0b d4 be 0a 3f 0d bf
       0.11557664 0.12411178 -0.414147 -0.55174315
000150 64 16 fa be f0 42 28 bf f2 92 da be 59 e4 77 be
       -0.48845208 -0.6572714 -0.42690235 -0.24208201
000160 33 3b 4a be ed 57 27 bc 85 3e 4f 3e 6c 14 bb be
       -0.19749145 -0.010213834 0.20238693 -0.36539018
000170 f3 e7 b8 be b8 df db be 6f 9e 3d bf 9b 8c ab be
       -0.36114463 -0.4294412 -0.74069875 -0.3350571
000180 59 8c 26 bf ff 9f d8 bd 83 87 3b bf 0c 5a b6 be
       -0.65057904 -0.10577392 -0.7325365 -0.35615575
000190 61 28 06 be 10 9d 03 3e 5c 1e 7c bd 3a 02 1c bf
       -0.13101341 0.12852883 -0.06155239 -0.609409
0001a0 1d a2 be be 36 43 06 bf ea a3 08 bf 36 47 5c be
       -0.37233058 -0.52446306 -0.53375113 -0.2151154
0001b0 3d 13 fa be ad d3 8c bd 0d 3f 9f 3e 7e 31 9c be
       -0.48842803 -0.068763115 0.3110279 -0.3050651
0001c0 87 95 9b be dd ec 25 bf 7b 4d a3 be 8c 91 ee be
       -0.30387518 -0.6481455 -0.3189505 -0.46595418
0001d0 ab 2f f0 be 85 c0 c0 be 7e 4b 55 be ef bd c1 be
       -0.46911368 -0.3764688 -0.20829579 -0.3784022

bias f4 [12]
000000 7b 5a 77 be 13 2a d8 3e b5 32 d0 be ba 27 12 bf
       -0.2415561 0.422196 -0.40663686 -0.5709187
000010 94 c5 9f bd c4 2f 16 bf ee 41 21 bf 5b ac bf be
       -0.07801357 -0.58666635 -0.62991226 -0.37436184
000020 5d d2 e4 be b1 f0 d0 be 39 24 0d bf 83 f2 f6 be
       -0.44691744 -0.40808633 -0.55133396 -0.48231897

weight f4 [1, 1, 3, 3]
000000 c1 2b 9d be 8e 46 64 3e e5 07 b4 be 1d e9 60 3f
       -0.30697444 0.2229254 -0.35162273 0.878557
000010 b8 e2 c5 3e 2b f6 96 3e 72 3d 0b bf 45 93 c8 bd
       0.38649535 0.29484686 -0.54390633 -0.097937144
000020 68 5f 3f 3f
       0.74754953

weight f4 [5, 169]
000000 8f e7 02 bd ea b8 8e 3d 1b bf 9c 3d 08 a3 6e bd
       -0.031959113 0.06968863 0.07653638 -0.058260947
000010 b9 98 49 bd ad 4d 1d 3d a8 6d 05 bd 9c c3 52 bd
       -0.049217913 0.038404156 -0.03257528 -0.05145608
000020 b7 cf 91 bc c5 88 a5 bc f7 bf 1e 3d 8a 7c 5f bc
       -0.017799241 -0.020206818 0.03875729 -0.013640532
000030 3c c5 d5 3b 6d b1 7d bc a6 f5 76 3d 17 d9 6c 3d
       0.0065237563 -0.015484196 0.060292862 0.05782422
000040 ca 00 04 3d cb 9b 88 bd b2 01 64 3c 32 df 0e bc
       0.032227315 -0.0667034 0.01391642 -0.008720206
000050 e1 43 f7 3c 43 59 a6 3d 9e e8 85 3d ef 60 66 bd
       0.030183734 0.08122494 0.06538509 -0.056244787
000060 9e 10 0a 3b e3 1e 9d bd 5b 57 0c 3d 14 78 e5 3c
       0.0021067034 -0.07671907 0.034262996 0.02801136
000070 1f 96 8c 3d 81 e1 f9 bd b6 72 eb bd c0 6a a5 bc
       0.06864571 -0.122012146 -0.11496489 -0.020192504
000080 72 a9 90 bd 64 91 10 bd 70 32 69 bd c2 78 e7 bd
       -0.07063569 -0.035294905 -0.056932867 -0.113023296
000090 33 3d 09 be 59 82 9b bc f7 8d 1e bd 37 18 9a bd
       -0.13402252 -0.018983053 -0.038709607 -0.0752415
0000a0 00 eb 0f bd 84 7b 35 bd e8 19 13 bd eb 4a 31 be
       -0.035136223 -0.044307247 -0.035913378 -0.17313735
0000b0 48 a3 4c bd 34 05 15 be 42 fe 6e bd 0b 64 bc bd
       -0.049960405 -0.14552766 -0.058347948 -0.09198769
0000c0 bc 5c eb bd 8d 9a b1 bd 5e 31 84 bc a9 52 8f 3d
       -0.11492297 -0.08672056 -0.016136821 0.06998188
0000d0 14 ab 89 bc ac 30 c2 bd d2 3b 1d be ed 98 89 bd
       -0.01680521 -0.0948194 -0.15354851 -0.067186214
0000e0 45 c7 de bc d9 1f 1b be 09 38 76 bd 0d b7 d8 bd
       -0.027194628 -0.15148868 -0.060112033 -0.10581789
0000f0 4e ab af bd 46 49 b8 bd 11 06 d2 bd 6d 46 36 bd
       -0.08577596 -0.08998351 -0.10255063 -0.044500757
000100 a3 8a f0 3c 23 db 0f 3d 20 59 e8 bd 87 2f 2b be
       0.029362982 0.035121094 -0.11345124 -0.16717349
000110 16 06 2f be 3f 2c cc bd 8e 26 51 bd a1 4a 90 bd
       -0.17092165 -0.09969377 -0.05106216 -0.07045484
000120 0e e6 33 be 01 8b 1b be 20 43 97 bd 29 90 30 bd
       -0.17568228 -0.15189745 -0.0738585 -0.04310623
000130 32 00 89 3c e3 38 03 bd 85 15 9c bc dd b0 c4 bd
       0.016723726 -0.032036673 -0.01905323 -0.096040465
000140 9e 2f fd bd 3d d4 cd bd 8d 6b 13 be 23 b1 74 bd
       -0.12362598 -0.10050247 -0.14396496 -0.059739243
000150 62 8c 8a bd e8 22 2a be 2b 92 5a bd 49 93 7a bd
       -0.06765057 -0.16614878 -0.053362053 -0.06117562
000160 5d 61 8e bd ca ff 77 bd 80 17 9a 3d 65 b8 39 3d
       -0.06952164 -0.060546674 0.075240135 0.045341868
000170 d8 79 cf bd c1 88 17 be e0 b6 14 be b0 e9 ba 3d
       -0.10130662 -0.14798261 -0.14522886 0.091266036
000180 73 cc f7 bd b3 4a 1f bd 6b 6d 93 bd 73 e8 c9 bd
       -0.120995425 -0.038889598 -0.07198604 -0.09858789
000190 5b 51 ca bd 4e a0 02 be a8 1e 60 bc 25 45 4f 3d
       -0.098787986 -0.12756464 -0.013679184 0.05060305
0001a0 92 8e 28 3d 54 0b 0f bd 59 fe 6b bd ee fc a7 bd
       0.04115159 -0.034922913 -0.05761561 -0.082025394
0001b0 5e f3 29 be 7c d3 a0 bd 59 bb 29 be ae ab d0 bd
       -0.16596743 -0.078528374 -0.16575374 -0.10188995
0001c0 44 b6 05 be 39 1d 08 be a3 e9 43 3d c5 46 0a bc
       -0.1305781 -0.13292398 0.047830235 -0.008439724
0001d0 da 9e 92 bd b2 db d6 3a f7 87 e1 bc fc 73 23 be
       -0.07159205 0.0016392379 -0.027530653 -0.15962213
0001e0 80 9b 89 3d 41 d9 df bd 61 24 18 be 2d d2 de bd
       0.067191124 -0.1093011 -0.14857627 -0.108799316
0001f0 8a 32 1f be 7b 7f 08 be ad 25 93 bd ea 22 82 3d
       -0.15546623 -0.1332988 -0.071849205 0.063543156
000200 be cd 9c 3d 97 1f 7f 3d 56 cf 88 3d a3 b6 34 bd
       0.0765643 0.062285986 0.06680171 -0.04411949
000210 9e 6d db bc 6d e7 fe bd 7d 5a 7a bd ca 16 e3 bd
       -0.026785668 -0.12446485 -0.061121453 -0.11088331
000220 9e d6 25 bd 48 5c 21 be 4a 01 cc bd a1 2d 09 be
       -0.040487878 -0.15757859 -0.09961183 -0.13396312
000230 ef b5 13 3d 00 7b 46 bd 63 7a 6a 3d c5 32 d0 3c
       0.036062177 -0.048457146 0.057245623 0.025414834
000240 7e a6 09 3d 7d 00 c9 bc df 2b a4 bd de f6 bd bd
       0.033606045 -0.024536366 -0.0801618 -0.09275602
000250 ab ca 26 bd 49 de 2c be d7 0b 93 bd 78 f7 75 bd
       -0.040720623 -0.1688167 -0.07179993 -0.060050458
000260 83 3d 56 3d d9 87 7e bb 2f 42 47 bd 97 8c 5d 3d
       0.052304756 -0.0038838296 -0.048647102 0.054089155
000270 74 25 4a 3d 8a 09 84 bc c3 6e 08 be fe 6d 37 bd
       0.049352124 -0.01611783 -0.13323502 -0.04478263
000280 47 96 c3 bd 5e 8e 51 bd 19 ac 29 be 3c e7 dc bd
       -0.095501475 -0.051161163 -0.16569556 -0.10786292
000290 ed 50 ae 3b 37 85 9b 3c 3e 1c 32 3d 8a ff 15 bc
       0.0053197057 0.01898442 0.043483965 -0.009155164
0002a0 d9 b2 77 bc e8 1b 5b 3d 68 07 44 bd 9e 34 52 bd
       -0.015118324 0.05349341 -0.047858626 -0.05131971
0002b0 7c 5f b0 3c 20 c5 18 3d 74 92 7d 3f 0a 16 34 3f
       0.021529905 0.037297368 0.99051595 0.7034613
0002c0 73 80 42 3f 61 00 3b 3f 61 8a a4 3f 6a 38 6f 3f
       0.7597725 0.73047453 1.285473 0.93445456
0002d0 01 a8 f6 3a 01 42 5d bd 69 15 97 bd fa 0a a0 3f
       0.001881838 -0.054018024 -0.073771305 1.250335
0002e0 31 6e 95 bb da 6f 17 bc f1 4f 9b 3f 82 da 92 3e
       -0.004560255 -0.009242976 1.2133771 0.28682333
0002f0 15 07 f1 3e d7 0e ad 3f b3 e2 d9 3f de 1c f7 3f
       0.47075716 1.3520154 1.7022308 1.9305685
000300 1e 94 9b 3f 30 ca 5c 3f fb 4a a0 3f fd b9 26 be
       1.2154577 0.86246014 1.2522882 -0.16281886
000310 86 be 9f 3e 5a ae b2 3c 74 75 a5 be e9 df 7c 3d
       0.31200045 0.021811653 -0.32316172 0.061736975
000320 c3 b0 ac be b9 dd 56 3d bd 79 5b be f7 42 6d 3e
       -0.33728608 0.052457545 -0.21433158 0.23170076
000330 9a 6e 23 be 18 87 b6 3e f2 d9 c1 3f 6e 86 b2 3f
       -0.1596016 0.35649943 1.5144637 1.3947275
000340 70 20 11 be 30 43 32 be 85 98 79 be 1a 29 a7 be
       -0.1417253 -0.17408442 -0.24374588 -0.32648546
000350 4e 31 81 3e 00 ad 2d 3d 15 94 9b be ce 4f 9d be
       0.2523293 0.042401314 -0.30386415 -0.3072495
000360 db 07 08 be b5 f9 e9 3e fa 8d db 3e 98 01 d9 bd
       -0.13284247 0.45698324 0.42881757 -0.10596007
000370 d5 04 87 3f 85 e9 99 bf 4d f6 7b bf 44 7c b2 be
       1.054835 -1.202439 -0.984227 -0.34860432
000380 ce 67 ce bd a5 d1 9e 3e 9a e8 3e 3e 4e e8 98 be
       -0.10078393 0.3101932 0.18643418 -0.29864734
000390 69 6c 80 bd 94 21 de 3d 41 f4 21 3e 5a ab 26 be
       -0.062706776 0.10846248 0.15815832 -0.16276303
0003a0 15 88 f1 be 1d 90 4f 3f 61 3d 83 bf ab 37 0c be
       -0.47174135 0.81079274 -1.0253106 -0.1369311
0003b0 3b 3f 0f 3f e0 05 07 3f c0 e5 84 3e 26 13 ed 3e
       0.5595586 0.5274334 0.25956535 0.46303672
0003c0 05 07 8b bc b2 08 9e 3e 1e 85 8e 3e 27 98 c2 bd
       -0.01697112 0.3086601 0.27835935 -0.09501677
0003d0 93 18 22 bf 27 e0 54 be 2d e9 d0 3e 66 b9 5a 3d
       -0.6331875 -0.20788632 0.408029 0.053399466
0003e0 e2 db 18 3d 65 c3 d7 3e 85 52 03 3f a0 56 3f 3f
       0.03731907 0.42141262 0.5129779 0.74741554
0003f0 09 83 5e 3f 04 be 0d 3f fe 1d 0b 3f 54 57 6c 3e
       0.86918694 0.55368066 0.5434264 0.23080188

bias f4 [5]
000000 81 88 80 bd 57 68 94 3e 7f f0 b2 3e 49 c7 d8 3c
       -0.06276036 0.28985855 0.3494911 0.026462214
000010 86 3f 7c 3e
       0.24633607

weight f4 [10, 5]
000000 33 d9 b4 3d 8d f0 cd bd ca 94 59 3e 7d e6 a8 3e
       0.0883049 -0.10055647 0.21248165 0.3298835
000010 df d9 5f 3f 27 0f 1b 3e 27 ce a1 bd ce 75 44 3f
       0.8744182 0.15142499 -0.079006486 0.76742256
000020 7f b8 08 be 05 59 ab 3e cc e9 5d be 17 74 e3 3e
       -0.1335163 0.33466354 -0.21671218 0.44424507
000030 60 14 fe 3e b1 27 3d be 28 2b 2b 3e f4 aa 5a 3d
       0.4962492 -0.18472172 0.16715682 0.05338569
000040 bf 82 0c 3e 96 1e a5 be 55 5f 49 be ee 8f d1 be
       0.1372175 -0.32249898 -0.19665273 -0.40930122
000050 60 cf 9a 3e 03 9f 22 3e 81 5c 73 be 8f 6a 4d be
       0.3023634 0.1588097 -0.23765756 -0.2006018
000060 3b 41 8d be b9 bb 64 3e 14 b0 c4 3e 1d 23 9e 3e
       -0.2758883 0.22337236 0.38415587 0.30886164
000070 be 51 ce be 07 d2 9b 3d 0d 72 00 be da 6d 0d 3d
       -0.4029674 0.07608419 -0.12543507 0.03452859
000080 0c 9e cd be 81 a8 31 3d aa 9b 91 be 82 f1 a3 be
       -0.40159643 0.04337359 -0.28439075 -0.32020193
000090 80 ad ed 3d bb ff 35 3f 76 80 3a bf 2b 45 be 3e
       0.11605358 0.7109334 -0.72852266 0.37162146
0000a0 49 3f 49 3d dc 74 27 3f b4 35 30 be dc 7b 8a be
       0.04913262 0.6541269 -0.17207986 -0.27047622
0000b0 94 ad 03 3f 4a de 0c 3d bf db 0a bf 85 d7 23 3f
       0.51436734 0.03439168 -0.54241556 0.6400073
0000c0 c0 1e 3f 3f 2d b4 f1 bd
       0.74656296 -0.11801944

bias f4 [10]
000000 7b 32 21 3f f9 a1 8f 3e ce 8f 9d 3e 96 4f 05 be
       0.6296765 0.28053263 0.30773777 -0.13018641
000010 25 b0 fb be 1f c3 0f 3f 69 53 68 be f5 a5 e8 3d
       -0.49157825 0.56157106 -0.22688068 0.11359779
000020 e3 1c 06 bd 5d ea 6b 3b
       -0.032742392 0.0035997846

weight f4 [12, 10]
000000 0c a2 18 3f cc ff c3 3e 13 4c 25 3f 20 40 ac 3e
       0.59622264 0.38281095 0.64569205 0.33642673
000010 c9 59 8c 3e 81 c4 da 3e 87 4f 80 be e7 5a f9 3e
       0.2741225 0.42728046 -0.25060675 0.48702165
000020 74 e3 fe 3e 0d 6c e6 be f8 dc ae 3e 3a 28 50 3f
       0.49782908 -0.4500431 0.3415296 0.8131138
000030 30 5a 2e 3f f2 d2 3c 3e 98 79 1d 3e 69 34 cb 3e
       0.68106365 0.18439844 0.15378416 0.39688423
000040 94 ec bb bd 7e 71 04 3f 43 8a ec 3c 7d 80 81 3f
       -0.09175983 0.51735675 0.028874522 1.0117337
000050 8f ee a3 be cd 2c c9 be ea 0a 21 bf 7b dd 82 3e
       -0.32017943 -0.39291993 -0.6290728 0.255596
000060 fb 88 e4 3b 5a 18 d1 be 2e 27 15 3e 1f e9 c8 be
       0.006974337 -0.4083889 0.14565727 -0.39240357
000070 ac b6 e3 be 75 be c4 be 62 0b 0a bf 19 67 9c be
       -0.44475305 -0.38426557 -0.5392362 -0.30547407
000080 90 20 8e be e3 fe 66 be 4c fd d1 3c 4d 25 c7 be
       -0.27759218 -0.22558169 0.025633477 -0.38895646
000090 9a 3e 73 3e b3 85 0f bf 59 64 04 be 66 2c 00 bf
       0.2375435 -0.56063384 -0.12928905 -0.50067747
0000a0 b5 6c 8f be 2e f4 00 bf 78 42 82 be 2f 3c 85 3e
       -0.28012624 -0.5037259 -0.25441337 0.2602248
0000b0 cc 6b 94 be e9 81 13 bf 1c 27 7c be a0 cf 24 bf
       -0.28988492 -0.576201 -0.24624294 -0.6437931
0000c0 c8 83 1d bf 5a bf 22 be 6c d2 d9 be 4d 6c 34 bf
       -0.6152921 -0.15893307 -0.42543352 -0.70477754
0000d0 56 c2 20 bf b5 20 8b 3e d7 6e e8 3d a7 65 39 be
       -0.62796533 0.2717339 0.11349266 -0.18105184
0000e0 c4 46 8c be 31 5a 18 bf 24 08 c4 be 5b cb 89 bd
       -0.2739774 -0.5951262 -0.3828746 -0.0672824
0000f0 56 69 de bd c6 35 3c be e7 57 1b bf ef 7f e8 bd
       -0.10859935 -0.18379888 -0.60681003 -0.113525264
000100 28 ba aa bb 0c 59 da be 80 76 86 3e ff 03 2a bf
       -0.00521018 -0.42646062 0.26262283 -0.6641235
000110 cf ee 0e be f2 0d b9 be ac e3 11 bf aa a3 a2 be
       -0.13958286 -0.36143452 -0.56988025 -0.3176549
000120 9d b0 dd be 6f 14 8e be c8 b3 1f bd c9 7b 06 bf
       -0.43298808 -0.27749965 -0.038989812 -0.5253263
000130 9b f4 81 3e d1 8b 86 be 37 7f 4b be df 68 f5 be
       0.25381932 -0.26278546 -0.19872747 -0.47931573
000140 28 77 e6 be 03 52 72 be 99 9d 01 bf ca bf aa 3d
       -0.45012784 -0.23664097 -0.506311 0.08337362
000150 51 29 73 3e 19 7b f7 be b9 34 b0 bd 77 07 da be
       0.2374623 -0.48336104 -0.08603806 -0.4258382
000160 e2 ba 19 be 1b e1 d0 be 57 44 23 bf 51 65 e6 be
       -0.15012696 -0.40796742 -0.63776153 -0.44999173
000170 d2 a4 09 bf e5 f0 8f be ee cd d2 bc 76 3c 87 be
       -0.5376712 -0.28113475 -0.02573296 -0.26413316
000180 f1 79 44 3e 5a 20 f5 be d5 f9 3f be 6b f5 b1 be
       0.19187142 -0.47876245 -0.18747647 -0.34757552
000190 45 85 91 be c3 05 8c be d5 d6 18 bf 96 36 5c be
       -0.2842199 -0.27348146 -0.5970281 -0.21505198
0001a0 d8 ac 98 bd c9 55 8b be 67 aa 77 3a 63 10 d1 be
       -0.07454842 -0.27213886 0.0009447694 -0.40832815
0001b0 db 66 ea bc f4 e0 f3 bd 72 6a ac be 4a f1 37 bf
       -0.028613498 -0.11908141 -0.3367496 -0.7185255
0001c0 76 1a 0c bf c8 57 44 be 8c 92 8d 3e e5 65 71 be
       -0.54727876 -0.19174111 0.2765087 -0.23574026
0001d0 1e 7d 61 3e 36 ff 20 bf 47 f9 9d be cc 41 17 bf
       0.22020385 -0.6288942 -0.30854246 -0.59084773
