xai_neurips_2021/models/pre_trained/fmnist_mnist_pre_trained_12_6_01_23_45_67_89_1011_expert_model.pt (torch, 90319 bytes, 84 tensors)

weight f4 [1, 1, 3, 3]
0	0xbf04870c	-0.51768565
1	0xbf0ae45c	-0.542547
2	0x3d0d97cc	0.034568593
3	0x3d5d5a10	0.05404097
4	0xbe98818e	-0.29786342
5	0x3efb3f8d	0.49071923
6	0xbe3b3d7b	-0.18285172
7	0xbed0a0ef	-0.40747783
8	0x3ed10183	0.40821466

weight f4 [5, 169]
0	0x3e1f6a15	0.15567811
1	0x3de3daff	0.111257546
2	0xbc3e5aa4	-0.01161829
3	0x3c766626	0.0150390025
4	0xbce937f1	-0.028469058
5	0xbea0ee12	-0.31431633
6	0xbebf44b6	-0.3735711
7	0xbcbffa87	-0.02343489
8	0xbea75c6b	-0.32687697
9	0x3da8e2c4	0.08246377
10	0x3e064c51	0.1311505
11	0x3d197368	0.037463576
12	0x3e131d33	0.14366607
13	0x3d063579	0.03276584
14	0x3d24499d	0.040109266
15	0x3e8f883d	0.2803363
16	0x3ebe0c1e	0.3711862
17	0x3ea7a682	0.32744223
18	0x3ea3a4f6	0.31961793
19	0x3dc51b9f	0.09624409
20	0x3dd3418a	0.10315235
21	0xbd8cd891	-0.06877244
22	0x3d916243	0.0709882
23	0x3edd750c	0.43253362
24	0x3e8dcb24	0.27694046
25	0x3dc74b2c	0.09731135
26	0x3d05cfd5	0.032668907
27	0x3df32193	0.11871638
28	0x3ec662d6	0.3874728
29	0x3edeac85	0.43490997
30	0x3ec74cf8	0.3892591
31	0x3ed343df	0.4126272
32	0xbf1de18b	-0.61672276
33	0xbe90d0af	-0.28284213
34	0x3cebc4a1	0.028780283
35	0x3ee2f573	0.44327888
36	0x3f0d0b43	0.5509531
37	0x3eed8e81	0.46397784
38	0x3df25326	0.118322656
39	0x3d9aa8d8	0.07551736
40	0x3d9b8e97	0.07595556
41	0x3eaa1cd5	0.33225122
42	0x3efc1269	0.49232796
43	0x3ec45dd8	0.38352847
44	0x3c921776	0.017833453
45	0xbf08bd44	-0.53413796
46	0xbf12531c	-0.57158065
47	0xbde2bea0	-0.11071515
48	0x3f0dd78e	0.55407035
49	0x3efcaa46	0.49348658
50	0x3ef3cafe	0.47615808
51	0x3e313814	0.17306548
52	0x3d9a6df7	0.075405054
53	0x3e34ea15	0.1766742
54	0x3e9331de	0.28748983
55	0x3f0bc628	0.5459924
56	0x3e8ce47a	0.27518064
57	0xbe593b1a	-0.21213952
58	0xbd5f6a21	-0.05454457
59	0xbde4912e	-0.11160503
60	0xbb84d1b0	-0.004053317
61	0x3e3f512e	0.18683311
62	0x3edeb5ec	0.4349817
63	0x3ec8bf8c	0.3920864
64	0x3e6bdcd5	0.2303346
65	0x3df39c76	0.11895077
66	0x3e86bdec	0.26316774
67	0x3e29e0e8	0.16589701
68	0x3e90a2a4	0.28249085
69	0xbdd5afab	-0.10433897
70	0x3d872f36	0.06600802
71	0x3d9bfa0a	0.076160505
72	0x3ebbe57b	0.36698517
73	0xbde96329	-0.113958664
74	0x3db4d20d	0.088291265
75	0x3e7ffa6a	0.24997869
76	0x3e325dff	0.17418669
77	0x3e06327e	0.13105199
78	0x3d46af0f	0.048506793
79	0x3df77ce9	0.120843716
80	0x3cc51908	0.024059787
81	0xb9f5284b	-0.00046760062
82	0x3ddbc7eb	0.10731491
83	0x3df25145	0.11831907
84	0x3e07b4e4	0.13252598
85	0x3da7e493	0.08197894
86	0xbe2fb110	-0.17157388
87	0x3c87ab24	0.016561098
88	0xbd3cbc5b	-0.046078067
89	0xbc70970a	-0.014684448
90	0x3e2090e4	0.15680271
91	0x3ddc6109	0.107606955
92	0x3e892cec	0.26792085
93	0xbd718e5d	-0.05897366
94	0xbd07e0c6	-0.033173345
95	0x3ea80cee	0.32822365
96	0x3e845799	0.25848082
97	0x3effbbe8	0.4994805
98	0x3e2826d4	0.16421062
99	0xbdea0dfd	-0.11428449
100	0x3e0a679b	0.13516085
101	0x3d178abb	0.036997538
102	0xbe00e4fb	-0.12587349
103	0x3d3dc79a	0.046332933
104	0x3e10b245	0.14130504
105	0x3e604e7a	0.21904936
106	0xbc818192	-0.015808854
107	0xbd0f71f2	-0.035020776
108	0x3f344be8	0.70428324
109	0x3eccec9e	0.40024275
110	0x3f2a4f9a	0.6652771
111	0x3eca38fa	0.39496595
112	0x3d45f8f9	0.048333142
113	0xbcd83d8a	-0.026396532
114	0x3e019fc8	0.12658608
115	0xbd205dcd	-0.039151955
116	0x3e03c05f	0.12866352
117	0x3e0bbef8	0.13647068
118	0x3e3a045d	0.18165727
119	0xbda9de01	-0.08294297
120	0x3d5c467a	0.05377815
121	0x3f0e2771	0.5552893
122	0x3ed1854c	0.4092201
123	0x3f1d5308	0.6145482
124	0x3ee34c5c	0.44394195
125	0x3dec9890	0.115525365
126	0x3e1843bf	0.14869593
127	0x3d884a23	0.066547655
128	0xbd97373e	-0.073835835
129	0x3d23e5d8	0.040014118
130	0x3e774cc0	0.24150372
131	0x3e0bb4f8	0.13643253
132	0xbc06c0da	-0.00822469
133	0x3dbf7062	0.09347607
134	0x3ed78f12	0.4210134
135	0x3e2bcbe8	0.16777003
136	0x3ef0864e	0.46977466
137	0x3ec61b32	0.38692623
138	0x3d00f18f	0.03148037
139	0x3e81558f	0.2526059
140	0x3e4e5199	0.20148315
141	0xbdd85e1b	-0.10564824
142	0x3dd64156	0.104616806
143	0x3e4ac691	0.1980231
144	0x3e1ab33a	0.15107432
145	0xbd4ccb9e	-0.049998872
146	0x3eaa9db1	0.33323434
147	0x3ed7c691	0.42143682
148	0x3e46626e	0.19373485
149	0x3f1de643	0.61679476
150	0x3f2402cf	0.64066786
151	0x3d77f08a	0.06053213
152	0x3e89eeb0	0.26939917
153	0x3d1d1688	0.038351566
154	0xbcd3f1c1	-0.025872113
155	0x3d9b4529	0.07581551
156	0x3e2b05db	0.16701452
157	0x3cce46fd	0.025180334
158	0x3e92e1cb	0.2868789
159	0x3e51e03f	0.204957
160	0x3daf8c8a	0.085717276
161	0x3e70c0fb	0.23511116
162	0x3f3ac0f1	0.72950655
163	0x3f6bf4ef	0.92170614
164	0x3e7929fe	0.24332425
165	0x3e836a1a	0.25666887
166	0xbe04d04d	-0.12970085
167	0xbd832335	-0.064031996
168	0x3d82f3d4	0.06394163
169	0x3d135f65	0.035979647
170	0xbbca3713	-0.006171116
171	0x3e40a3cc	0.18812484
172	0x3d69480b	0.05695347
173	0x3e0811cb	0.13288037
174	0x3ee35af2	0.44405323
175	0x3ed6e431	0.4197097
176	0x3d8d540f	0.069007985
177	0x3ef47a8f	0.47749755
178	0x3df60f14	0.12014595
179	0x3d99f741	0.07517863
180	0x3daa1047	0.08303886
181	0x3e3e2a14	0.18570739
182	0x3d75169f	0.059836026
183	0x3daefbbe	0.0854411
184	0xbdef29ac	-0.1167787
185	0xbe22b03c	-0.1588754
186	0xbe4b1906	-0.19833764
187	0xbde524f2	-0.111886874
188	0x3e2e73e9	0.17036404
189	0x3dd6cd17	0.104883365
190	0x3e7ed81e	0.2488713
191	0x3e17895e	0.14798495
192	0xbe6c4fe5	-0.23077352
193	0xbc69c1ae	-0.014267368
194	0x3e1e380a	0.15451065
195	0x3de72d9c	0.11287996
196	0x3d54a2d6	0.051913105
197	0xbe1e1cc6	-0.15440664
198	0xbe467a76	-0.19382653
199	0xbe6f2028	-0.2335211
200	0xbe8328a1	-0.25616935
201	0x3f568ccc	0.8380859
202	0x3eaff412	0.34365898
203	0x3dbea5bf	0.09308957
204	0xbe2a8031	-0.16650464
205	0xbe884286	-0.26613253
206	0xbe8caf0d	-0.27477303
207	0x3dea7cec	0.11449608
208	0x3e0df25b	0.13861983
209	0x3e0705a6	0.13185748
210	0xbe2224e0	-0.15834379
211	0xbe8d25d3	-0.2756792
212	0xbea1d721	-0.31609443
213	0x3e2e7cd7	0.1703981
214	0x3f4e4587	0.8057484
215	0x3f544b1f	0.82927126
216	0x3eaf38ef	0.34223124
217	0xbe6b7daa	-0.22997156
218	0xbe933f0e	-0.28759044
219	0xbe74dab9	-0.23911561
220	0x3d005616	0.031332098
221	0x3e0f7721	0.14010288
222	0x3c8ef8cd	0.017452622
223	0xbdaa6a0c	-0.08321008
224	0xbe686fd4	-0.22698909
225	0xbe259993	-0.16171865
226	0x3ee34c0d	0.4439396
227	0x3e55deb8	0.20885742
228	0x3e9df407	0.3085024
229	0x3e720727	0.23635541
230	0x3d671ad6	0.056422077
231	0xbe4e9614	-0.20174438
232	0xbe1b78ed	-0.15182848
233	0xbd2d7234	-0.04234524
234	0x3d672d6b	0.0564398
235	0x3d45201a	0.048126318
236	0xbc4163a3	-0.01180354
237	0xbd9d45db	-0.076793395
238	0x3e4bb8f4	0.19894773
239	0x3dd55c89	0.1041804
240	0x3d41a0f5	0.04727264
241	0xbe7d61eb	-0.24744384
242	0x3e86b01b	0.26306233
243	0x3c55f0d1	0.013057903
244	0xbde05504	-0.109537154
245	0x3de1c977	0.110247545
246	0x3cdbfc8e	0.026853826
247	0x3d84f9a9	0.064929314
248	0x3dd26572	0.102732554
249	0x3dc8dd49	0.09807832
250	0x3e5236c6	0.20528707
251	0x3e068b2b	0.13139026
252	0x3dc30c0f	0.09523784
253	0x3d83be06	0.064327285
254	0x3e2caa4f	0.16861843
255	0x3e98cf06	0.29845446

bias f4 [5]
0	0x3c8dd6bd	0.01731431
1	0x3e2fab37	0.17155157
2	0x3e8c212b	0.27369055
3	0xbde8be78	-0.11364454
4	0x3ea16336	0.31521004

weight f4 [10, 5]
0	0x3efbd6cf	0.49187323
1	0x3ebb083d	0.36529723
2	0x3e05bda4	0.13060623
3	0xbe5f4d4b	-0.21806829
4	0x3ede3667	0.4340088
5	0xbead2727	-0.33818933
6	0xbed29c8f	-0.4113507
7	0xbe7e7248	-0.24848282
8	0x3ce1c0be	0.027557727
9	0x3e8ccb7a	0.2749899
10	0xbe9bb341	-0.30410197
11	0xbd95b839	-0.07310528
12	0xbeddce98	-0.4332168
13	0x3ea4b5ff	0.32170102
14	0xbedd3a20	-0.43208408
15	0xbeb85014	-0.35998595
16	0x3e466dad	0.19377775
17	0x3f264303	0.64946
18	0x3e100f1f	0.14068268
19	0x3ed8589c	0.42255104
20	0xbc07a686	-0.008279448
21	0x3edff729	0.43743256
22	0x3f477077	0.7790598
23	0xbe299ae8	-0.16562998
24	0xbda39389	-0.079871245
25	0x3f3e57c9	0.743527
26	0x3ed00016	0.40625066
27	0xbf562738	-0.83653593
28	0x3e6c7720	0.23092318
29	0x3ed8e590	0.42362642
30	0x3dce9143	0.100863
31	0x3f0e74fd	0.5564726
32	0x3f475c77	0.77875465
33	0xbe6571fb	-0.22406761
34	0x3eb9e58e	0.3630795
35	0xbdd2c327	-0.102911286
36	0xbdbee610	-0.09321225
37	0x3f16bc25	0.58880836
38	0x3e15023e	0.14551637
39	0xbea82ed0	-0.32848215
40	0xbe72ad43	-0.23698907
41	0xbe6e9df4	-0.23302442
42	0x3eb07785	0.34466186
43	0xbeb620b5	-0.35571828
44	0xbe3e6368	-0.18592608
45	0xbece1586	-0.40250796
46	0xbcb3c379	-0.021943795
47	0xbe1745e1	-0.1477275
48	0x3eccdfba	0.4001444
49	0x3e4290ef	0.190006

bias f4 [10]
0	0x3f08b900	0.5340729
1	0xbed4d194	-0.41566145
2	0x3e3692b1	0.17829396
3	0xbe9c3ef2	-0.30516773
4	0x3e79ded4	0.24401408
5	0x3e04baa2	0.1296182
6	0x3ee026c1	0.43779567
7	0x3eb33f9a	0.35009462
8	0xbecce24d	-0.40016404
9	0xbea37371	-0.31924012

weight f4 [12, 10]
0	0x3f039fe4	0.5141585
1	0xbe7214df	-0.23640774
2	0x3e006241	0.12537481
3	0x3f11e130	0.56984234
4	0x3df9d4a2	0.121987596
5	0x3e3902c1	0.18067457
6	0x3ecc73be	0.39932054
7	0x3e8b055e	0.27152532
8	0xbe68599f	-0.22690438
9	0x3c68088e	0.014162196
10	0x3f039d6a	0.5141207
11	0xbdf63f68	-0.120238125
12	0x3e3bacdc	0.1832766
13	0xbe5036b2	-0.20333365
14	0xbe9c1d67	-0.30491182
15	0x3f1915d4	0.5979893
16	0x3e9dd241	0.30824474
17	0xbe08c289	-0.1335546
18	0x3e9d30fb	0.30701432
19	0xbec5ba1b	-0.3861855
20	0xbe5876ce	-0.2113907
21	0x3e0ce6e5	0.13759954
22	0xbe1e46bd	-0.15456672
23	0xbe76ffdd	-0.24121042
24	0xbeb1361d	-0.34611598
25	0xbef1e744	-0.47246754
26	0xbde691d4	-0.11258283
27	0xbeb1ac2c	-0.3470167
28	0xbe98ef1f	-0.29869935
29	0xbe29cfff	-0.1658325
30	0xbe78e9a3	-0.24307875
31	0x3e51d24f	0.20490383
32	0xbe374926	-0.17898998
33	0xbc37c88f	-0.0112172505
34	0xbcdcc92f	-0.0269514
35	0xbf16b2c5	-0.5886653
36	0xbde73f73	-0.11291399
37	0xbe77d7c8	-0.24203408
38	0x3e78596d	0.24252863
39	0xbeb5d5a1	-0.35514548
40	0xbe7f8122	-0.24951604
41	0x3d01b1e6	0.031663798
42	0x3dbf4c0a	0.09340675
43	0xbcac6af9	-0.021047102
44	0xbe0fa462	-0.14027551
45	0xbdcaf81f	-0.099106066
46	0xbea5371d	-0.3226861
47	0xbd8fd14e	-0.070223436
48	0xbe159338	-0.14606941
49	0x3d5366b4	0.051611617
50	0xbf0d826b	-0.5527713
51	0x3c017aff	0.00790286
52	0x3cc59a0e	0.02412131
53	0x3dfc7d57	0.12328594
54	0xbe7a0fa2	-0.24420026
55	0xbeb6eb84	-0.3572656
56	0xbd6b5504	-0.057454124
57	0xbee1cc39	-0.44101122
58	0xbe5dd2bb	-0.21662419
59	0xbe974683	-0.29545984
60	0xbe14990a	-0.14511505
61	0xbbbc911e	-0.005754604
62	0xbe6c2016	-0.23059115
63	0xbed9dbad	-0.42550412
64	0xbe928394	-0.2861601
65	0xbeda52fe	-0.42641443
66	0xbe8425a1	-0.2580996
67	0x3e3496b7	0.17635618
68	0x3e116974	0.14200383
69	0x3e1826c2	0.14858535
70	0xbd982d7a	-0.07430549
71	0x3e6e4821	0.23269702
72	0x3b9d1f88	0.0047950186
73	0xbe81ec8a	-0.25375777
74	0xbe39b1bf	-0.18134211
75	0xbf018926	-0.50599897
76	0xbe93b47f	-0.28848645
77	0xbe247fa4	-0.16064316
78	0xbe8087fe	-0.25103754
79	0xbec17892	-0.377873
80	0xbe677b0a	-0.2260553
81	0xbd8848ef	-0.06654536
82	0xbe5c6cb4	-0.21525842
83	0xbe25ab18	-0.16178548
84	0xbd9208d2	-0.071305886
85	0xbd7da5a0	-0.06192553
86	0xbf0d34e4	-0.5515883
87	0x3e08d43a	0.13362208
88	0xbdf6b799	-0.12046737
89	0xbe38f7db	-0.180633
90	0xbedbf1d1	-0.4295793
91	0x3e240e4f	0.16021083
92	0xbec327b6	-0.38116235
93	0x3dcf6f32	0.10128631
94	0x3e3085e4	0.17238575
95	0xbeeb6b01	-0.45980075
96	0xbeea71ee	-0.45790046
97	0xbc3faa52	-0.011698322
98	0x3d9f93a6	0.077918336
99	0xbe023897	-0.127169
100	0xbda1cf85	-0.07900909
101	0x3dde9fdf	0.10870337
102	0xbeddee03	-0.4334565
103	0xbee65934	-0.44989932
104	0x3d82d4c2	0.063882366
105	0xbf167524	-0.5877249
106	0xbe38f37b	-0.1806163
107	0x3dd060eb	0.10174736
108	0xbca5e828	-0.020252302
109	0x3d634394	0.05548437
110	0xbea252ee	-0.31703895
111	0xbe4b81f8	-0.19873798
112	0xbea089c6	-0.31355113
113	0xbaa6cf48	-0.001272657
114	0xbeb1c077	-0.34717152
115	0xbe8dd5db	-0.2770222
116	0xbde58edd	-0.1120889
117	0xbeb19af9	-0.34688547
118	0x3e7e1071	0.2481096
119	0xbe7f8f8c	-0.24957103

bias f4 [12]
0	0x3e977f14	0.2958914
1	0x3ea1f6b3	0.3163353
2	0xbeac22c8	-0.33620286
3	0xbb908a91	-0.0044110497
4	0xbed638e9	-0.41840294
5	0xbeb42089	-0.35181072
6	0xbe9c6e44	-0.30552876
7	0xbef450e2	-0.4771796
8	0xbf00858e	-0.5020379
9	0xbcc1818a	-0.02362134
10	0xbe0b2c0b	-0.1359102
11	0xbeeeebde	-0.46664327

weight f4 [1, 1, 3, 3]
0	0xbe06ae91	-0.1315253
1	0x3e6d9565	0.2320152
2	0xbe04eadf	-0.12980221
3	0xbd450eca	-0.048109807
4	0x3ed3099b	0.41218266
5	0x3c87646e	0.01652738
6	0xbf49f47c	-0.7888868
7	0x3f809d05	1.0047919
8	0xbe8be366	-0.2732193

weight f4 [5, 169]
0	0x3c02290a	0.007944355
1	0xbd10d4fe	-0.035359375
2	0xbd9743ab	-0.073859535
3	0xbd54484a	-0.051826753
4	0xbd9e8175	-0.07739536
5	0xbd232bfe	-0.039836876
6	0xbdb7cd5e	-0.089747176
7	0xbe1c58ab	-0.15268199
8	0xbe1babe9	-0.15202297
9	0xbcf5fa21	-0.030026497
10	0xbd0ed0bd	-0.034867037
11	0xbd3a3f94	-0.04547079
12	0xbd74c3fe	-0.059757225
13	0xbcb780d9	-0.022400307
14	0xbdab2277	-0.08356183
15	0xbd201007	-0.039077785
16	0xbcfcac0f	-0.030843763
17	0xbd855e0c	-0.06512079
18	0xbcdfb990	-0.027310163
19	0xbd1e25da	-0.038610317
20	0xbe1625a5	-0.14662798
21	0xbd143f7d	-0.03619336
22	0xbcfa4910	-0.030552417
23	0xbe129b4f	-0.14317058
24	0xbdcf8fa6	-0.10134821
25	0xbd90d06e	-0.07071005
26	0xbcb60668	-0.022219852
27	0xbe1a4e52	-0.1506894
28	0xbe082fbc	-0.13299459
29	0xbd6e3d18	-0.058163732
30	0xbe2c153b	-0.16804974
31	0xbd5ee34c	-0.054415986
32	0xbcc2e0da	-0.023788858
33	0xbe2295c7	-0.15877448
34	0xbda3742a	-0.07981141
35	0xbe187532	-0.14888456
36	0xbd304760	-0.04303682
37	0xbd4c5e28	-0.049894482
38	0xbd822698	-0.063550174
39	0xbc70e68a	-0.014703402
40	0xbdaf05b7	-0.08546012
41	0xbdf163fb	-0.11786648
42	0xbd1336d2	-0.035940953
43	0xbdf93eab	-0.12170156
44	0xbd230d92	-0.039807864
45	0xbe01cb07	-0.12675105
46	0xbe2c6aec	-0.16837662
47	0xbd6397b0	-0.055564582
48	0xbe2f8931	-0.17142178
49	0xbdca91dd	-0.098911025
50	0xbe2cc623	-0.16872458
51	0x3d2cef9e	0.042220704
52	0xbd8ba07e	-0.06817721
53	0xbcd1bbfd	-0.025602335
54	0xbdc01928	-0.09379798
55	0xbd8e5974	-0.069506556
56	0xbe02b3fe	-0.12763974
57	0xbdc2bef0	-0.09509075
58	0xbe1e2bf9	-0.15446462
59	0xbd13b640	-0.03606248
60	0xbdf715cb	-0.120647036
61	0xbe25a42f	-0.16175912
62	0xbdc7fb30	-0.09764707
63	0xbe1894d4	-0.14900523
64	0xbb753ac6	-0.0037419065
65	0x3c395f3c	0.01131421
66	0xbdf4b1a9	-0.119479485
67	0xbd283fc5	-0.04107644
68	0xbe1077cd	-0.141082
69	0xbe1a6540	-0.15077686
70	0xbe279e48	-0.16368973
71	0xbdcb3f25	-0.09924153
72	0xbd7330a7	-0.05937257
73	0xbdc76c83	-0.09737494
74	0xbe113eb2	-0.14184073
75	0xbe291074	-0.16510183
76	0xbcffab37	-0.031209571
77	0xbcdab75e	-0.026698764
78	0xbd85ec93	-0.065392636
79	0xbe26bce4	-0.16282994
80	0xbd9508cd	-0.07277069
81	0xbdc3247e	-0.09528445
82	0xbe112bbb	-0.14176838
83	0xbe112a42	-0.14176276
84	0xbe062b84	-0.13102537
85	0xbd8e5c35	-0.06951181
86	0xbe2c3acb	-0.16819303
87	0xbe11aa8e	-0.14225218
88	0xbdba0509	-0.09082992
89	0xbd092da4	-0.033490792
90	0x3c9e81bb	0.01934897
91	0xbd5d632d	-0.05404966
92	0xbd31e67c	-0.043432698
93	0xbe16a536	-0.1471146
94	0xbcd57ee8	-0.02606149
95	0xbdb820ca	-0.08990629
96	0xbe12f538	-0.14351356
97	0xbd97d80e	-0.07414256
98	0xbe180e59	-0.14849223
99	0xbe122ef3	-0.14275722
100	0xbdccdd6f	-0.100031726
101	0xbe04c2c3	-0.1296492
102	0xbdf10495	-0.11768452
103	0xbd87bc9b	-0.066277705
104	0x3d811ceb	0.06304344
105	0xbd26be25	-0.04070868
106	0xbdc6ac2d	-0.09700809
107	0xbe3351b9	-0.17511643
108	0xbdedc75e	-0.11610292
109	0xbd678404	-0.056522384
110	0xbe343afb	-0.17600624
111	0xbd6808cd	-0.056649018
112	0xbe2cba8f	-0.16868041
113	0xbdcaecd2	-0.09908451
114	0xbd4041fd	-0.04693793
115	0xbe326e63	-0.17424922
116	0xbd91f4ba	-0.07126756
117	0xbd9c28ca	-0.076249674
118	0xbda06005	-0.07830814
119	0xbdf8b9f4	-0.12144843
120	0xbe220453	-0.15821962
121	0xbd4e51b5	-0.05037089
122	0xbe30b55e	-0.17256686
123	0xbe0fa5da	-0.14028111
124	0xbd67e8d7	-0.056618538
125	0xbdb48c50	-0.08815825
126	0xbd19e1dc	-0.037568912
127	0xbd0f63aa	-0.035007156
128	0xbd207f0c	-0.03918366
129	0xbe10e63a	-0.14150324
130	0xbb7525d9	-0.0037406592
131	0xbd3e2fbc	-0.04643224
132	0xbd5759a2	-0.052575715
133	0xbddfb60c	-0.109233946
134	0xbe0e63e2	-0.1390529
135	0xbdec4a83	-0.115376495
136	0xbdff253e	-0.12458275
137	0xbced69d5	-0.028981129
138	0xbe0bc818	-0.13650548
139	0xbe2b5cca	-0.16734615
140	0xbe17fabb	-0.1484174
141	0xbe04f724	-0.12984902
142	0xbd7908ab	-0.060799282
143	0xbd045e12	-0.032316275
144	0xbdf2575c	-0.11833069
145	0xbdfea873	-0.12434473
146	0xbe18e37e	-0.14930531
147	0xbe2e5cc4	-0.17027575
148	0xbe1582d5	-0.1460069
149	0xbe23d780	-0.16000175
150	0xbe02e6b0	-0.12783313
151	0xbd93e4b9	-0.0722136
152	0xbd68b806	-0.056816123
153	0xbd17bb92	-0.037044115
154	0xbdf026b1	-0.1172613
155	0xbd77ae72	-0.0604691
156	0xbdc88a71	-0.097920306
157	0xbd21983d	-0.039451826
158	0xbd8eccf9	-0.06972689
159	0xbdedf929	-0.11619789
160	0xbe07fa71	-0.1327913
161	0xbd3fb4a7	-0.046803143
162	0xbd082e5b	-0.033247333
163	0xbe0bc93b	-0.13650982
164	0xbe2b0909	-0.16702665
165	0xbe2bcec4	-0.16778094
166	0xbdeb2596	-0.11481778
167	0xbddf700f	-0.10910045
168	0xbd66d16b	-0.05635206
169	0xbf413033	-0.7546417
170	0xbf8da484	-1.1065831
171	0xbf500013	-0.81250113
172	0xbf221736	-0.6331667
173	0xbe2e1fb9	-0.17004289
174	0x3f1d2ecd	0.6139954
175	0x3edf3fa6	0.43603247
176	0x3ebd1c3d	0.36935607
177	0x3dba8eb4	0.0910925
178	0xbefe58aa	-0.4967702
179	0xbeaf036a	-0.34182292
180	0xbf4840f4	-0.7822411
181	0xbf8d2da3	-1.1029552
182	0xbf018d4b	-0.5060622
183	0x3e699b48	0.22813141
184	0x3dac669b	0.08418008
185	0xbe7f7ca2	-0.24949887
186	0xbea3b6fc	-0.31975543
187	0xbabba952	-0.0014317429
188	0x3e3f5109	0.18683256
189	0xbe9e0ef9	-0.30870798
190	0xbde5efa3	-0.11227348
191	0xbe1ec370	-0.15504241
192	0x3eab79f8	0.33491492
193	0xbe514763	-0.20437388
194	0xbea01a03	-0.31269845
195	0x3e75fbf8	0.240219
196	0x3f38a8a1	0.7213231
197	0x3e9ac19d	0.3022584
198	0x3e07718c	0.13226908
199	0xbf141977	-0.57851356
200	0x3d147267	0.036241915
201	0xbe8233d5	-0.2543017
202	0x3dcb49ae	0.09926163
203	0xbe816925	-0.2527553
204	0x3da7d201	0.08194352
205	0x3ea923ba	0.3303507
206	0x3ed99911	0.42499593
207	0xbeedbdee	-0.46433967
208	0x3f3bb63e	0.73324955
209	0x3ef9c715	0.487847
210	0x3f0cc47c	0.5498731
211	0x3e75d5e7	0.24007379
212	0xbf4620d2	-0.7739383
213	0xbdecd36e	-0.115637645
214	0x3eb1a87c	0.34698856
215	0xbc873514	-0.016504802
216	0x3d4a3eca	0.049376287
217	0xbe1acc1b	-0.15116923
218	0x3e8c9d96	0.2746398
219	0x3ea644ea	0.32474452
220	0x3f1abc3e	0.60443485
221	0x3f93b660	1.1540031
222	0x3f0f07fe	0.5587157
223	0x3f062a15	0.5240796
224	0x3f162fde	0.5866679
225	0xbed686de	-0.4189977
226	0xbe40abea	-0.1881558
227	0x3cd1fb96	0.02563266
228	0x3e10c70f	0.14138435
229	0x3e1bb090	0.15204072
230	0x3e4c6a3f	0.19962405
231	0x3ef3b88a	0.4760173
232	0x3f39ca5a	0.7257439
233	0x3f332827	0.6998314
234	0xbe8521f4	-0.26002467
235	0x3f05b75d	0.52232915
236	0x3ee40839	0.44537523
237	0x3f2d0b70	0.6759558
238	0x3cef399f	0.02920228
239	0xbd076d1a	-0.03306303
240	0xbddc6edf	-0.107633345
241	0x3e9dafaa	0.30798084
242	0x3da9f1d8	0.08298081
243	0x3e5acc90	0.21367097
244	0x3f10f856	0.5662893
245	0x3ebffecc	0.37499082
246	0x3ee8c40c	0.45462072
247	0xbe74d3a3	-0.23908858
248	0x3f569ee6	0.8383621
249	0x3eb39789	0.3507655
250	0x3e9a1184	0.30091488
251	0xbeadf6a3	-0.3397723
252	0x3e7fdf14	0.24987441
253	0x3e017176	0.12640938
254	0x3e8035e3	0.25041112
255	0xbe5796e9	-0.21053661

bias f4 [5]
0	0xbcd27134	-0.025688745
1	0x3ea80140	0.32813454
2	0x3e6c7b4d	0.2309391
3	0xbe060cb7	-0.13090788
4	0xbe172a68	-0.1476227

weight f4 [10, 5]
0	0x3d31c58a	0.04340128
1	0x3e7e6950	0.24844861
2	0x3f09e3c4	0.5386317
3	0xbeaf6b22	-0.34261423
4	0x3e597f91	0.21240069
5	0x3e8d6e64	0.27623284
6	0xbe83a66f	-0.25712916
7	0xbebf409c	-0.3735398
8	0xbe51e29e	-0.20496604
9	0xbe06627a	-0.13123503
10	0x3deebc7d	0.11657045
11	0xbbd73523	-0.0065676137
12	0xbd4e1b61	-0.05031908
13	0xbecbef4a	-0.39831
14	0xbed3baa1	-0.41353324
15	0x3e10e5b6	0.14150128
16	0xbea922b6	-0.33034295
17	0xbe365555	-0.17805989
18	0xbd43307f	-0.04765367
19	0x3e1336f6	0.14376435
20	0xbd7859f4	-0.06063266
21	0xbec7ee6d	-0.39049092
22	0x3efcc8d7	0.4937198
23	0x3e596caa	0.21232858
24	0x3ec518ba	0.38495427
25	0xbe8713ee	-0.26382393
26	0xbe3ced94	-0.18450004
27	0xbec326fc	-0.3811568
28	0x3dc19e2a	0.094539955
29	0xbd3e4600	-0.046453476
30	0xbe50e789	-0.20400824
31	0x3f624a21	0.8839436
32	0x3e8cdbbe	0.275114
33	0x3b253ab9	0.0025212003
34	0xbe952018	-0.29126048
35	0x3e51d64a	0.20491901
36	0xbcea52c9	-0.028603928
37	0x3eeeeb00	0.46663666
38	0xbda94bd2	-0.08266415
39	0x3dd2b429	0.10288269
40	0x3c808712	0.015689407
41	0x3e992700	0.29912567
42	0xbe9f27ef	-0.31085154
43	0xbe9f6c5d	-0.31137362
44	0x3ef5785b	0.47943386
45	0x3d756ab0	0.0599162
46	0xbd7d30bc	-0.061814055
47	0xbd9be440	-0.076118946
48	0x3ea1c0de	0.31592458
49	0x3e7785b2	0.24172094

bias f4 [10]
0	0x3f15a9d1	0.58462244
1	0xbe7a1781	-0.24423029
2	0xbd751d0b	-0.05984215
3	0x3d3aba8d	0.045588065
4	0xbe994008	-0.29931664
5	0xbe30883c	-0.1723947
6	0xbdc37a6d	-0.09544835
7	0x3f069249	0.52566963
8	0x3f3a8f7b	0.72875184
9	0xbeb7871d	-0.3584527

weight f4 [12, 10]
0	0x3e67ac85	0.22624405
1	0xbd1e1267	-0.03859177
2	0x3d864650	0.0655638
3	0x3e06d7e0	0.13168287
4	0xbe3af947	-0.18259154
5	0xbe7a2142	-0.2442675
6	0x3f209f63	0.62743205
7	0x3efab371	0.48965028
8	0x3f5fd723	0.8743765
9	0xbe9a9fce	-0.30200046
10	0x3f1c8759	0.61144024
11	0xbe4045c8	-0.1877662
12	0x3e5a42a9	0.21314491
13	0x3e6cf706	0.23141107
14	0x3f2ac922	0.66713154
15	0xbe9acf53	-0.302363
16	0x3e0606bf	0.13088511
17	0x3f0dda11	0.5541087
18	0xbdd3a7a5	-0.1033471
19	0xbd4ad1cb	-0.04951648
20	0xbeab61f0	-0.33473158
21	0xbe93cb4c	-0.2886604
22	0x3e8b2348	0.27175355
23	0xbf022e3f	-0.50851816
24	0xbf0e95e5	-0.5569747
25	0x3e0b2d64	0.13591534
26	0xbe303ec1	-0.17211439
27	0xbf384da7	-0.7199349
28	0xbbb70132	-0.0055848593
29	0x3e697c2d	0.22801276
30	0xbe29a374	-0.16566259
31	0xbe743c54	-0.23851138
32	0xbe6bba4a	-0.23020282
33	0xbe873ccc	-0.26413572
34	0xbe7965ce	-0.24355242
35	0xbea00e09	-0.31260708
36	0xbef44bfb	-0.47714218
37	0xbf2b67c3	-0.669552
38	0xbefe81b6	-0.49708337
39	0x3dfb02ce	0.12256394
40	0xbeb49758	-0.35271716
41	0x3e464dcb	0.19365613
42	0x3e2e2b19	0.17008628
43	0xbf00bc65	-0.5028747
44	0xbe9052ce	-0.28188175
45	0xbe09dad5	-0.13462384
46	0xbf1c77b7	-0.6112017
47	0xbf0ce9fe	-0.55044544
48	0xbedfbac9	-0.43697193
49	0xbd8d7204	-0.069065124
50	0xbe84e8ad	-0.25958768
51	0xbe93eb10	-0.28890276
52	0xbd87069a	-0.06593056
53	0xbe86e50c	-0.26346624
54	0xbf2299d0	-0.6351595
55	0xbcece84c	-0.028919362
56	0xbf1317c6	-0.5745815
57	0xbf152555	-0.5826009
58	0xbe9aea0c	-0.3025669
59	0x3e8be62b	0.27324042
60	0xbe5e35e5	-0.21700247
61	0x3dfb57d5	0.12272612
62	0xbdd6e620	-0.104931116
63	0xbf1587e0	-0.58410454
64	0xbec27704	-0.37981427
65	0xbe8eaaa6	-0.2786457
66	0xbf1788e6	-0.59193265
67	0xbf270a75	-0.6525033
68	0xbf02e082	-0.5112382
69	0xbe65415d	-0.22388215
70	0xbf2f0b69	-0.68376786
71	0xbdadcc0a	-0.08486183
72	0x3e28cfbc	0.16485494
73	0xbe24f150	-0.16107678
74	0xbf0ee361	-0.558157
75	0x3e4aca80	0.1980381
76	0xbe32d77a	-0.1746501
77	0xbedae707	-0.42754385
78	0xbe7e15c4	-0.2481299
79	0x3bcc5e9e	0.006236865
80	0xbf377d38	-0.71675444
81	0x3ea06cd2	0.31333023
82	0x3e082ffe	0.13299558
83	0xbeb031fa	-0.3441313
84	0xbe24c563	-0.16090922
85	0xbe854c00	-0.26034546
86	0xbf383c9e	-0.71967494
87	0xbe62a09c	-0.2213158
88	0xbee6a690	-0.45048952
89	0xbdaedf70	-0.08538711
90	0xbf01cd79	-0.5070415
91	0xbc3ad823	-0.01140407
92	0xbe2ab3a5	-0.16670091
93	0xbe86f894	-0.26361525
94	0xbef24ad2	-0.47322708
95	0x3e26f611	0.16304804
96	0xbecb6623	-0.39726362
97	0xbf1b4da6	-0.6066536
98	0xbdb685dd	-0.08912251
99	0x3e029a75	0.12754233
100	0xbf1f2d69	-0.62178665
101	0xbe0d7676	-0.1381472
102	0xbd11071e	-0.035407178
103	0xbf269f82	-0.6508714
104	0xbebe62a8	-0.37184644
105	0xbd535134	-0.051591113
106	0xbf2bfbe8	-0.67181253
107	0xbe913521	-0.28360847
108	0xbd374ff1	-0.044753972
109	0x3e75be0e	0.23998281
110	0xbef2cd42	-0.47422224
111	0x3e16d08e	0.14727995
112	0x3ea1c07b	0.31592163
113	0xbeef8428	-0.46780515
114	0xbecf225a	-0.40455896
115	0xbe04bc32	-0.12962416
116	0xbf048661	-0.51767546
117	0xbec9930e	-0.39370006
118	0xbe12d154	-0.14337665
119	0xbe8fda4b	-0.28096232

bias f4 [12]
0	0x3d9e14bb	0.07718798
1	0x3e703337	0.23457037
2	0xbec8fc70	-0.39255095
3	0xbcb9db02	-0.022687439
4	0xbe3ff6ba	-0.18746462
5	0xbe8c0bd1	-0.27352765
6	0xbe614443	-0.21998696
7	0xbf0c2bce	-0.5475434
8	0xbe82842c	-0.25491464
9	0xbe82d3d4	-0.25552237
10	0xbe22a693	-0.15883856
11	0xbf165bbd	-0.5873373

weight f4 [1, 1, 3, 3]
0	0x3eaaa3a1	0.33327964
1	0xbb6d46b3	-0.003620547
2	0xbe5395b3	-0.20662574
3	0x3e1ca8f2	0.15298823
4	0x3c20d7a4	0.009817038
5	0xbc289762	-0.010289999
6	0xbe06d0bd	-0.13165565
7	0xbdbf74cc	-0.09348449
8	0xbd4e68d1	-0.05039293

weight f4 [5, 169]
0	0xbe267c5f	-0.16258381
1	0xbdd7399d	-0.10509036
2	0xbe0d58b6	-0.13803372
3	0xbdeed5dc	-0.11661884
4	0xbdd2871e	-0.10279678
5	0xbd0c1044	-0.0341952
6	0xbd4ab826	-0.049492024
7	0xbdf7f5cb	-0.12107428
8	0xbd6f7088	-0.058456928
9	0xbd886348	-0.066595614
10	0xbd92e975	-0.07173435
11	0xbcfa2422	-0.030534808
12	0xbd6ee6ff	-0.058325764
13	0xbe21de4a	-0.15807453
14	0xbe1930d0	-0.14960027
15	0xbdd9a7cf	-0.1062771
16	0xbddc2ff4	-0.10751334
17	0xbdad8c8d	-0.084740736
18	0xbe04359c	-0.12911075
19	0xbdc0250a	-0.09382065
20	0xbd6fded0	-0.0585621
21	0xbe1eba94	-0.15500861
22	0xbdc87223	-0.09787395
23	0xbdeabc3f	-0.11461686
24	0xbdd46cec	-0.10372338
25	0xbe2c1d8f	-0.1680815
26	0xbd54ab41	-0.051921133
27	0xbdd7c67f	-0.10535907
28	0xbe27d470	-0.16389632
29	0xbd93990f	-0.07206928
30	0xbe15f51b	-0.14644282
31	0xbd804a69	-0.062641926
32	0xbe155189	-0.14581884
33	0xbe0b9fee	-0.13635227
34	0xbdd69e34	-0.104793936
35	0xbe2c995e	-0.1685538
36	0xbd3f1460	-0.04665029
37	0xbcd0f2ff	-0.025506495
38	0xbd70911d	-0.05873214
39	0xbe1bab96	-0.15202174
40	0xbda35640	-0.07975435
41	0xbd53a9c8	-0.051675588
42	0xbd19fc6e	-0.03759425
43	0xbe0aa062	-0.13537744
44	0xbcd5f6e4	-0.026118703
45	0xbd03637d	-0.0320773
46	0xbd2daf35	-0.04240342
47	0xbdc032aa	-0.093846634
48	0xbdab8436	-0.083748266
49	0xbdbe45f8	-0.09290689
50	0xbd43d3c0	-0.047809362
51	0xbdf17a77	-0.117909364
52	0xbe30e05e	-0.1727309
53	0xbdbf3c47	-0.09337669
54	0xbda9024a	-0.0825239
55	0xbe0a72fe	-0.13520429
56	0xbe115fb2	-0.14196661
57	0xbe09fb61	-0.134748
58	0xbdbd2eae	-0.09237419
59	0xbe1b4bc1	-0.15165617
60	0xbd62de98	-0.055388063
61	0xbd6b593b	-0.057458144
62	0xbd72e315	-0.059298594
63	0xbdd94534	-0.106089026
64	0xbe300b5b	-0.17191832
65	0xbdc7349a	-0.0972683
66	0xbdfc33c5	-0.12314562
67	0xbe20b91a	-0.1569561
68	0xbd3ee97a	-0.04660938
69	0xbd60d765	-0.054892916
70	0xbdcae0b8	-0.09906143
71	0xbe29ca1d	-0.16581006
72	0xbe1fc876	-0.15603814
73	0xbe11a973	-0.14224796
74	0xbe0f9d66	-0.14024886
75	0xbdaf0082	-0.08545019
76	0xbd984b29	-0.07436211
77	0xbe1b64af	-0.15175126
78	0xbdf23326	-0.11826162
79	0xbd0339b1	-0.03203744
80	0xbdfa32e8	-0.12216741
81	0xbdb2e249	-0.08734567
82	0xbe167ffb	-0.14697258
83	0xbd4005ab	-0.046880405
84	0xbd6a8ab7	-0.057261195
85	0xbd31977b	-0.043357354
86	0xbdb8d322	-0.090246454
87	0xbdef8b23	-0.1169646
88	0xbcf7882f	-0.030216305
89	0xbdd8eab7	-0.10591643
90	0xbdfdabe8	-0.12386304
91	0xbd1d04d0	-0.038334668
92	0xbd951cb0	-0.07280862
93	0xbdb5573a	-0.08854528
94	0xbd991bee	-0.0747603
95	0xbd519c6e	-0.051174574
96	0xbdd61d00	-0.1045475
97	0xbd8125a3	-0.06306007
98	0xbd965210	-0.07339871
99	0xbd5f4fb1	-0.05451936
100	0xbd63ba89	-0.055597816
101	0xbdf73772	-0.12071122
102	0xbe17114f	-0.14752696
103	0xbd3573ee	-0.044300012
104	0xbddc369d	-0.10752604
105	0xbe00eeeb	-0.1259114
106	0xbd467f77	-0.048461404
107	0xbe155d67	-0.14586411
108	0xbdd8a2b1	-0.10577906
109	0xbdf36231	-0.11883963
110	0xbe28f3a3	-0.1649919
111	0xbcc947c5	-0.024570355
112	0xbe1086bf	-0.14113902
113	0xbd070bc5	-0.03297021
114	0xbe0ba75c	-0.13638061
115	0xbe174f04	-0.14776236
116	0xbdb2597a	-0.087084725
117	0xbcbfc0f5	-0.023407439
118	0xbda6ddf4	-0.08147803
119	0xbdc754a1	-0.097329386
120	0xbdefbecf	-0.11706316
121	0xbd545887	-0.05184224
122	0xbd12823d	-0.035768736
123	0xbe1724f0	-0.14760184
124	0xbd82be12	-0.06383909
125	0xbdc90961	-0.09816242
126	0xbd66298b	-0.056191962
127	0xbd78c2bd	-0.060732592
128	0xbe01e3a2	-0.12684491
129	0xbddc0d55	-0.107447304
130	0xbe07c8b6	-0.13260159
131	0xbe293544	-0.16524225
132	0xbe0f5627	-0.13997708
133	0xbe2940a5	-0.16528566
134	0xbd857da7	-0.06518107
135	0xbd792a10	-0.06083113
136	0xbe279067	-0.16363679
137	0xbe1b1e56	-0.15148291
138	0xbe22b1ad	-0.1588809
139	0xbd770ae5	-0.060313124
140	0xbd8a49b8	-0.06752342
141	0xbcf020b5	-0.02931247
142	0xbe1a0f70	-0.15044951
143	0xbe085f06	-0.13317499
144	0xbe33a2be	-0.1754255
145	0xbd2fa26b	-0.042879503
146	0xbe2d1f58	-0.16906488
147	0xbe253aef	-0.16135763
148	0xbdb27644	-0.08713964
149	0xbe2d2627	-0.16909085
150	0xbe17cbc4	-0.14823824
151	0xbd9172ec	-0.07101998
152	0xbe2362b9	-0.15955628
153	0xbda89aee	-0.082326755
154	0xbe03d97d	-0.12875934
155	0xbceea5ed	-0.029131854
156	0xbe33eefe	-0.17571637
157	0xbe079fd4	-0.13244563
158	0xbdbbc5e4	-0.09168604
159	0xbdac9061	-0.084259756
160	0xbe148f1b	-0.14507715
161	0xbe01b4e5	-0.12666662
162	0xbe0773dc	-0.1322779
163	0xbd3836b2	-0.044974037
164	0xbdfec879	-0.12440581
165	0xbdcdd42d	-0.10050235
166	0xbdcd3745	-0.100203075
167	0xbda5b16d	-0.08090482
168	0xbdb136ef	-0.08653056
169	0xbde08015	-0.1096193
170	0xbd624813	-0.055244517
171	0xbd35fac1	-0.04442859
172	0xbe14efc1	-0.14544584
173	0xbdcd781b	-0.10032674
174	0xbd4b6439	-0.049656127
175	0xbd6010f8	-0.054703683
176	0xbd79a656	-0.060949646
177	0xbd02cd9b	-0.031934362
178	0xbd1bb672	-0.03801579
179	0xbd475773	-0.048667382
180	0xbcc32d60	-0.023825347
181	0xbcf27cec	-0.029600583
182	0xbd38a140	-0.045075655
183	0xbe125be9	-0.14292873
184	0xbd0085f3	-0.031377744
185	0xbd79e7e9	-0.061012182
186	0xbda3161a	-0.079632
187	0xbddbbc08	-0.107292235
188	0xbdf3cd7e	-0.11904429
189	0xbe1eb76e	-0.1549966
190	0xbe2c0327	-0.16798078
191	0xbdf600f6	-0.12011902
192	0xbe182e43	-0.14861397
193	0xbd6f8041	-0.05847192
194	0xbe0b40a0	-0.13598871
195	0xbdaff862	-0.08592297
196	0xbda4818d	-0.08032522
197	0xbd179fd7	-0.03701767
198	0xbd8b4632	-0.06800498
199	0xbe04ca00	-0.12967682
200	0xbdcd676e	-0.10029493
201	0xbe32102d	-0.17388983
202	0xbe1b0bdc	-0.15141243
203	0xbe25f8b8	-0.1620816
204	0xbdf7c086	-0.12097268
205	0xbe23ba0e	-0.15988943
206	0xbe0e1738	-0.13876045
207	0xbde2c7e0	-0.110732794
208	0xbe2dcfbe	-0.16973779
209	0xbe204698	-0.1565193
210	0xbde91eb8	-0.11382812
211	0xbd86cd36	-0.0658211
212	0xbe33cd5d	-0.17558809
213	0xbdb75a58	-0.089527786
214	0xbdd601e4	-0.10449579
215	0xbe2696e5	-0.16268499
216	0xbd1ebac2	-0.038752325
217	0xbe0303a3	-0.12794356
218	0xbe1d3397	-0.15351711
219	0xbd198bf9	-0.037487004
220	0xbdbf3405	-0.09336094
221	0xbd23a645	-0.03995349
222	0xbdea8927	-0.11451941
223	0xbdaaa72d	-0.083326675
224	0xbd8c3b55	-0.06847254
225	0xbdeffc4a	-0.11718042
226	0xbd307837	-0.043083396
227	0xbde815f4	-0.11332312
228	0xbd02f33a	-0.03197024
229	0xbd04e0bc	-0.032440886
230	0xbdce18e5	-0.10063342
231	0xbde90a85	-0.113789596
232	0xbe15e989	-0.14639868
233	0xbe1e232f	-0.15443109
234	0xbcd83338	-0.02639161
235	0xbe293385	-0.1652356
236	0xbdf184b1	-0.11792887
237	0xbe060fe5	-0.13092001
238	0xbe071ac7	-0.13193808
239	0xbe2bc0e9	-0.16772808
240	0xbdc4b7d9	-0.09605379
241	0xbddf07c6	-0.108901545
242	0xbe118a85	-0.14212997
243	0xbde00717	-0.10938852
244	0xbe11b22f	-0.14228128
245	0xbe283554	-0.16426593
246	0xbdf2569c	-0.11832926
247	0xbe3221c6	-0.17395696
248	0xbcf8e878	-0.030384287
249	0xbd34f0e5	-0.044175047
250	0xbd1c678e	-0.038184695
251	0xbe2b1dcf	-0.1671059
252	0xbd587d4e	-0.052853875
253	0xbe12ae81	-0.1432438
254	0xbd4b83ca	-0.04968623
255	0xbd9be466	-0.07611923

bias f4 [5]
0	0xbe2a4174	-0.16626531
1	0xbda8da78	-0.082447946
2	0xbe0bee4d	-0.13665123
3	0xbdd05c4a	-0.10173853
4	0xbd6747bb	-0.056464892

weight f4 [10, 5]
0	0xbe83ecb3	-0.25766525
1	0xbe080496	-0.13283
2	0xbee9f838	-0.45697188
3	0xbe3925f7	-0.18080889
4	0xbe9ebbdd	-0.31002703
5	0xbea2cd93	-0.31797466
6	0x3f098a16	0.5372633
7	0x3bb858db	0.005625827
8	0x3eb9171b	0.3615044
9	0xbe8618fe	-0.26190943
10	0x3dbadbe9	0.09123976
11	0xbec35281	-0.38148883
12	0x3e409970	0.18808532
13	0x3e899c01	0.26876834
14	0xbe2d23ec	-0.16908234
15	0xbece559e	-0.40299696
16	0x3d811eb2	0.06304683
17	0xbf0a0b80	-0.539238
18	0xbe58cf19	-0.21172751
19	0x3e0e0aa4	0.13871247
20	0xbdb7b67e	-0.089703545
21	0x3ebe7466	0.3719818
22	0xbdf9b014	-0.12191787
23	0xbd98bc93	-0.07457843
24	0x3d750384	0.059817806
25	0x3de6c642	0.112682834
26	0x3e464f16	0.19366106
27	0xbe590d1a	-0.21196404
28	0xbe4551f3	-0.19269542
29	0xbeb2a283	-0.34889612
30	0xbccf33b2	-0.025293205
31	0x3e845016	0.2584235
32	0xbdf78df9	-0.12087626
33	0x3ea89535	0.32926336
34	0x3e8ee83e	0.27911562
35	0xbdbccd39	-0.092188306
36	0x3e18889b	0.14895861
37	0x3e78f664	0.2431274
38	0x3df95434	0.121742636
39	0xbe9eb6f1	-0.30998948
40	0x3ea8d6b3	0.32976303
41	0xbe3e8775	-0.1860636
42	0x3e318bab	0.17338435
43	0xbe8c1570	-0.27360106
44	0x3e8c776b	0.2743486
45	0x3e93b8b7	0.28851864
46	0x3cc27b75	0.02374051
47	0x3e80b497	0.2513778
48	0x3e773ed4	0.24145061
49	0xbd03054b	-0.03198747

bias f4 [10]
0	0x3f640ee2	0.8908521
1	0x3f96e7dc	1.1789508
2	0x3ef108ff	0.47077176
3	0x3e04ead1	0.129802
4	0x3f98f5b0	1.1949978
5	0xbe9bce3f	-0.3043079
6	0xbeec94e1	-0.46207336
7	0xbe8bd3b0	-0.27309942
8	0x3f8b7b4e	1.0897005
9	0x3f26a76e	0.6509923

weight f4 [12, 10]
0	0x3f128897	0.5723967
1	0x3ecc4018	0.3989265
2	0x3ec1ccc7	0.37851545
3	0x3e6e5524	0.23274666
4	0x3f57e62d	0.84335595
5	0x3e50dda6	0.20397052
6	0xbdcb4350	-0.09924948
7	0xbe9823f9	-0.29714945
8	0x3f559409	0.8342901
9	0x3f093a1b	0.53604287
10	0x3f3fe081	0.7495194
11	0x3f65ddb0	0.89791393
12	0x3ec12c6a	0.37729198
13	0x3ec3b24c	0.38221967
14	0x3eebf71e	0.46086973
15	0x3dba471b	0.090955935
16	0xbe5243fa	-0.20533744
17	0xbda29821	-0.079391725
18	0x3f421a9b	0.75821847
19	0x3f089562	0.5335294
20	0xbf65aa1f	-0.8971271
21	0xbf9be338	-1.2178717
22	0xbf5a7cbd	-0.85346586
23	0xbe6fa89e	-0.23404166
24	0xbf6d075a	-0.9258934
25	0x3c23e126	0.01000241
26	0xbddd9cad	-0.10820899
27	0xbdcb3521	-0.09922243
28	0xbf7748e9	-0.9659563
29	0xbeedc997	-0.46442863
30	0xbf36ecdd	-0.71455175
31	0xbfa5719e	-1.2925298
32	0xbef1adbf	-0.4720287
33	0xbe42b5b5	-0.19014628
34	0xbf3cbf8a	-0.73729765
35	0x3d9d66f8	0.07685655
36	0x3da54025	0.08068875
37	0xbe56625d	-0.2093596
38	0xbf932a1d	-1.1497227
39	0xbf1304df	-0.5742931
40	0xbf8c9527	-1.0983018
41	0xbf562048	-0.8364301
42	0xbeee9491	-0.46597722
43	0xbeda8a26	-0.42683524
44	0xbf5783f7	-0.8418574
45	0x3e87c8c7	0.26520368
46	0xbe604608	-0.21901715
47	0x3d0de4ac	0.034641907
48	0xbfaac9a5	-1.3342787
49	0xbf0b4723	-0.5440542
50	0xbf096e66	-0.5368408
51	0xbf9b464d	-1.2130829
52	0xbf1cb7a3	-0.6121771
53	0xbe1e86ed	-0.15481158
54	0xbf636b7e	-0.88835895
55	0x3e9466ee	0.2898478
56	0xbdf222fc	-0.11823079
57	0x3df131c0	0.11777067
58	0xbfa54a5a	-1.2913315
59	0xbefa9809	-0.4894412
60	0xbf37702c	-0.71655536
61	0xbf687bc0	-0.9081383
62	0xbf01ce88	-0.50705767
63	0xbea9d8ad	-0.33173123
64	0xbf8facab	-1.1224569
65	0x3dbc14b9	0.0918364
66	0xbe8664ea	-0.26248866
67	0x3dae0077	0.084961824
68	0xbfa52f02	-1.2904971
69	0xbedcec1d	-0.4314889
70	0xbf0eb0f6	-0.5573877
71	0xbf8b654e	-1.0890291
72	0xbf3d9fe7	-0.74072117
73	0xbe5419ed	-0.20713015
74	0xbf951139	-1.1645881
75	0x3e8a0392	0.2695585
76	0xbe256873	-0.16153125
77	0xbe2abfbc	-0.16674703
78	0xbf77eaa1	-0.9684239
79	0xbedb20b8	-0.427984
80	0xbf80a2e4	-1.004971
81	0xbfa46876	-1.2844379
82	0xbed6b505	-0.41934982
83	0xbecd9814	-0.4015509
84	0xbf2dfe8d	-0.6796654
85	0x3e71211f	0.23547791
86	0x3df29754	0.1184527
87	0xbe498c55	-0.19682439
88	0xbf8fd9c4	-1.1238332
89	0xbf1b9bc0	-0.6078453
90	0xbefc602a	-0.49292117
91	0xbf9082d9	-1.1289932
92	0xbf1517ca	-0.58239424
93	0xbed8e997	-0.42365715
94	0xbf93c881	-1.1545564
95	0xbcb79731	-0.02241096
96	0xbe81e495	-0.25369707
97	0xbe67995a	-0.22617093
98	0xbfa63881	-1.2985994
99	0xbefd78e4	-0.49506295
100	0xbf01c6de	-0.5069407
101	0xbf9fef9c	-1.2494998
102	0xbf68ffbd	-0.91015226
103	0xbecc024f	-0.3984551
104	0xbf8894ba	-1.0670388
105	0x3e69b109	0.2282144
106	0xbe51de44	-0.20494944
107	0xbe81226e	-0.2522158
108	0xbf979dbe	-1.1845014
109	0xbf3952bd	-0.72391874
110	0xbf16e42d	-0.5894192
111	0xbf93b56b	-1.1539739
112	0xbf3bd0be	-0.7336539
113	0xbed5ab98	-0.41732478
114	0xbf831d03	-1.0243229
115	0xbe618d2f	-0.22026514
116	0xbd7acc71	-0.061230127
117	0x3dce666e	0.10078131
118	0xbf8ff8e8	-1.1247835
119	0xbee97b20	-0.4560175

bias f4 [12]
0	0x3f479956	0.7796835
1	0x3f32ed9e	0.69893825
2	0xbeedf4be	-0.46475786
3	0xbec73a3b	-0.38911614
4	0xbf2e3ef5	-0.68064815
5	0xbf25455a	-0.6455895
6	0xbf123036	-0.57104814
7	0xbeaec5ba	-0.34135228
8	0xbeda4fed	-0.42639104
9	0xbefa3277	-0.48866627
10	0xbf302a8c	-0.6881492
11	0xbf0161cc	-0.5053985

weight f4 [1, 1, 3, 3]
0	0xbeabebad	-0.33578244
1	0xbedc1320	-0.4298334
2	0x3d8060c1	0.06268454
3	0x3e3d191c	0.1846661
4	0x3eda2eba	0.42613775
5	0x3f49e8f7	0.788711
6	0x3e867a3e	0.26265138
7	0x3f1526f0	0.5826254
8	0x3eec3f4a	0.46142036

weight f4 [5, 169]
0	0x3d18190b	0.037133258
1	0xbc26c386	-0.010178452
2	0xbd27621f	-0.04086506
3	0xbd078c21	-0.03309262
4	0xbc81cf8f	-0.015846042
5	0x3d6e665f	0.058203097
6	0x3b963641	0.0045841043
7	0x3d83c672	0.06434335
8	0x3a7c74bf	0.00096304336
9	0x3d977788	0.07395846
10	0x3d30f03e	0.043197863
11	0xbd7befec	-0.061508104
12	0xbca2793e	-0.019833203
13	0xbb99b540	-0.004690796
14	0x3cb75adf	0.022382198
15	0x3d94464f	0.07239973
16	0x3d637f5e	0.05554139
17	0x3cfa3f27	0.030547692
18	0x3d210725	0.039313454
19	0xbef9f8c5	-0.4882261
20	0xbdd99c4b	-0.10625514
21	0xbd3a98f0	-0.04555601
22	0x3dc104ae	0.09424721
23	0xbe4f5675	-0.20247824
24	0xbe4695f0	-0.19393134
25	0x3be40449	0.0069585186
26	0x3d04db09	0.03243545
27	0x3d68008b	0.056641143
28	0x3dd7de32	0.10540427
29	0x3bfa6c75	0.0076423236
30	0x3e37edc5	0.17961796
31	0xbe981ae2	-0.2970801
32	0xbe78ac61	-0.24284507
33	0xbeb7a8e7	-0.3587105
34	0xbe08da81	-0.13364603
35	0xbdb05043	-0.08609059
36	0x3d261086	0.0405431
37	0xbe0b875c	-0.13625854
38	0x3c6015ea	0.0136771
39	0xbb9448a0	-0.004525259
40	0x3bf90e8c	0.007600611
41	0x3e318cb2	0.17338827
42	0x3d917fed	0.07104478
43	0xbd9258d5	-0.071458496
44	0x3cac9fbf	0.021072267
45	0xbb05c467	-0.0020411254
46	0x3ea6a3de	0.32546896
47	0x3ee11eb7	0.43968746
48	0x3e401e19	0.18761481
49	0x3e02d8d0	0.1277802
50	0xbe142939	-0.1446885
51	0xbbb13581	-0.0054079895
52	0x3c9bcec8	0.0190195
53	0x3c13c741	0.009019674
54	0x3e12bedb	0.14330618
55	0x3e7246d7	0.23659836
56	0x3d9e5dc2	0.07732727
57	0x3c8ed1b2	0.017433975
58	0xbd153165	-0.03642406
59	0x3edb047e	0.42776865
60	0x3f3a60dd	0.7280405
61	0x3edd0aca	0.43172294
62	0x3e7a84cb	0.24464719
63	0xbd7801ad	-0.060548473
64	0xbda42462	-0.08014752
65	0x3db8b189	0.09018237
66	0x3e051db5	0.12999614
67	0x3e852689	0.26005962
68	0x3e684236	0.22681507
69	0x3e62a58f	0.22133468
70	0x3e5ae623	0.21376853
71	0x3e8df6a6	0.2772724
72	0x3ecbdd4b	0.3981727
73	0x3f0490e7	0.51783603
74	0x3e0960fc	0.13415903
75	0xbdb72c81	-0.08944035
76	0x3d327b5f	0.043574687
77	0x3da1fd3d	0.079096295
78	0x3d523f85	0.05133011
79	0x3df56654	0.11982408
80	0xbdd8dc74	-0.10588923
81	0x3db8b13d	0.090181805
82	0x3def7c82	0.1169367
83	0x3e800080	0.2500038
84	0x3eb47272	0.35243565
85	0x3eaffb7c	0.34371555
86	0x3e23e641	0.16005804
87	0xbddfa210	-0.10919583
88	0x3d7314e3	0.05934609
89	0xbdc1d343	-0.09464123
90	0x3ce13ea4	0.02749569
91	0x3d8a6ee7	0.06759434
92	0x3d89b746	0.0672441
93	0xbda0b6d1	-0.078473695
94	0x3ee04749	0.43804386
95	0x3eef5802	0.46746832
96	0x3f13c8ea	0.57728446
97	0x3f380567	0.71883243
98	0x3f11824e	0.56839454
99	0x3e68ad78	0.22722423
100	0xbdeae664	-0.11469725
101	0xbb52a26b	-0.0032140266
102	0xbbabd324	-0.005243676
103	0x3c76e14f	0.015068366
104	0xbd802342	-0.06256725
105	0xbc86db87	-0.0164621
106	0xbdbd5397	-0.09244459
107	0xbdbe615d	-0.09295914
108	0x3ddc0b6b	0.10744365
109	0x3e6e91ed	0.23297854
110	0x3eb6da61	0.35713485
111	0x3efd95f2	0.49528462
112	0x3e43898b	0.19095437
113	0x3c4ec2e9	0.012619712
114	0xbe3b3f99	-0.1828598
115	0xbe17591e	-0.1478009
116	0xbd167644	-0.03673388
117	0xbbedd301	-0.0072578196
118	0xbdc1c64a	-0.09461649
119	0xbe5f9d01	-0.21837236
120	0xbea00b5f	-0.31258675
121	0xbe869c53	-0.2629114
122	0x3d35b355	0.044360477
123	0x3da918f6	0.08256714
124	0x3d78a16f	0.06070083
125	0xbe8b0e07	-0.2715914
126	0xbec3469c	-0.38139808
127	0xbe8f0a5f	-0.279376
128	0x3d6fb857	0.05852541
129	0x3b77e42d	0.0037825212
130	0xbcb1f176	-0.021721583
131	0xbd459e46	-0.048246644
132	0xbe0f1d0c	-0.13975924
133	0xbe1059b9	-0.14096726
134	0xbe00fac0	-0.12595654
135	0xbdfbf1b5	-0.12301961
136	0xbec3905c	-0.38196075
137	0xbedc9926	-0.43085593
138	0xbde1e69a	-0.11030312
139	0xbe82094c	-0.25397718
140	0xbdca1b18	-0.09868449
141	0xbd0ab71d	-0.033866037
142	0xbd00a330	-0.031405628
143	0xbd95a10b	-0.07306107
144	0x3d704622	0.058660634
145	0xbd89a282	-0.06720449
146	0xbdc1f5b9	-0.09470696
147	0xbdd689e1	-0.10475517
148	0xbe59ee80	-0.21282387
149	0xbeaf9f2d	-0.3430113
150	0xbdb55941	-0.088549145
151	0xbcc7568a	-0.024333257
152	0xbe27516f	-0.16339658
153	0x3d7b7d8e	0.061399035
154	0x3bf8617e	0.0075799813
155	0xbcb0c00d	-0.021575952
156	0xbd7284c7	-0.059208658
157	0xbd78b86f	-0.060722765
158	0xbcf996cd	-0.030467415
159	0x3d1213a6	0.03566327
160	0xbd78728a	-0.060656108
161	0xbd858c23	-0.065208696
162	0xbdf3fed9	-0.11913843
163	0xbd529e7c	-0.051420674
164	0xbb3a6c70	-0.0028445981
165	0x3d1a0b70	0.037608564
166	0xbc7eb54d	-0.015546155
167	0x3da45fa3	0.08026054
168	0xbd4bdfbe	-0.049773924
169	0xbe16b8aa	-0.14718881
170	0xbcc56553	-0.024096167
171	0xbd8a7429	-0.06760437
172	0xbd5cdf56	-0.053923927
173	0xbe314c9f	-0.17314385
174	0xbdc2b5a6	-0.09507303
175	0xbe10872c	-0.14114064
176	0xbd838159	-0.064211555
177	0xbc980c23	-0.018560475
178	0xbd0c0b38	-0.034190387
179	0xbec51c5a	-0.38498193
180	0xbda5f96f	-0.08104216
181	0xbd5bccf4	-0.053662255
182	0xbd70c5a0	-0.05878222
183	0xbd8191c6	-0.06326632
184	0xbdd85c57	-0.105644874
185	0xbe0cdcc4	-0.1375609
186	0xbde6b7e2	-0.112655416
187	0xbe2cfefe	-0.16894147
188	0xbe18ddd9	-0.14928378
189	0xbf4b938a	-0.79522
190	0xbeb2502e	-0.34826797
191	0x3d05cde0	0.03266704
192	0xbe3438a3	-0.1759973
193	0x3e128407	0.14308177
194	0x3d875974	0.06608859
195	0xbd95644c	-0.07294521
196	0xbd89e2a7	-0.06732684
197	0xbe334aeb	-0.17509048
198	0x3d0a281f	0.03372967
199	0xbe8684f6	-0.26273316
200	0xbda36d84	-0.07979873
201	0xbeaee4e4	-0.34159005
202	0xbe469057	-0.19390999
203	0x3e0ab93e	0.13547227
204	0x3e2a3362	0.16621163
205	0x3e5d5e77	0.21618067
206	0x3ecef938	0.40424514
207	0x3eacb784	0.3373376
208	0xbd6ca3ea	-0.057773508
209	0xbe140e3e	-0.14458558
210	0xbea48ca6	-0.32138556
211	0xbe384c6a	-0.179979
212	0xbca607f5	-0.020267466
213	0xbdb34e66	-0.08755188
214	0x3ec3f9be	0.38276476
215	0x3f2d12fb	0.67607087
216	0x3f6572a8	0.89628077
217	0x3f693d31	0.91108996
218	0x3f7f1a68	0.9964967
219	0x3f22d3eb	0.6360461
220	0x3e90b8c5	0.28265968
221	0xbe160162	-0.14648965
222	0xbdbd94df	-0.092569105
223	0xbe0139a7	-0.12619649
224	0xbe91c0fb	-0.28467545
225	0xbda2fb4f	-0.079580896
226	0x3eb28b0f	0.34871718
227	0x3efedf22	0.49779612
228	0x3f58a02a	0.8461939
229	0x3e1e070a	0.15432373
230	0x3e96e63f	0.2947254
231	0x3f63b27d	0.88944227
232	0x3f8b2ff5	1.087401
233	0x3f6ccf30	0.92503643
234	0xbd134e92	-0.035963602
235	0xbe1da4f8	-0.15394962
236	0x3ea46275	0.32106367
237	0xbead936d	-0.3390154
238	0xbe99f170	-0.30067015
239	0xbe1c6f3f	-0.15276812
240	0xbe27f972	-0.1640375
241	0xbf57883d	-0.8419226
242	0xbf6be7e4	-0.9215071
243	0xbf59dcb5	-0.851024
244	0xbeb12dd0	-0.34605265
245	0x3e1f62df	0.1556506
246	0x3d59cd79	0.05317447
247	0x3cbc4b58	0.022985145
248	0xbe196a19	-0.1498188
249	0xbed03c6a	-0.40671092
250	0xbed11201	-0.40834048
251	0xbe9e40fe	-0.3090896
252	0x3e7ef537	0.2489823
253	0x3e19ad82	0.15007594
254	0xbf18b222	-0.5964681
255	0xbf0b4527	-0.54402393

bias f4 [5]
0	0x3e52ada0	0.20574045
1	0x3bf68a9b	0.0075238473
2	0x3e87fcf7	0.26560184
3	0xbdba52e5	-0.09097842
4	0xbd18c52f	-0.037297424

weight f4 [10, 5]
0	0xbe7de7cf	-0.24795459
1	0x3cf0757e	0.0293529
2	0xbe50f38e	-0.20405409
3	0xbecd1538	-0.4005525
4	0x3d310de1	0.043226127
5	0x3e5f8f23	0.21831946
6	0xbf21bb54	-0.63176465
7	0x3e55b63e	0.20870301
8	0xbe809bf8	-0.25118995
9	0x3e649f3e	0.22326371
10	0xbccbe004	-0.024887092
11	0xbe7399de	-0.23789164
12	0xbee6164a	-0.4493888
13	0x3ebbbd90	0.36668062
14	0xbe075c7c	-0.13218874
15	0xbee58ece	-0.44835514
16	0x3fd390e3	1.6528591
17	0x3f186b14	0.5953839
18	0x3ebb3a45	0.36567894
19	0x3bba08ab	0.005677303
20	0x3f288314	0.6582501
21	0xbf8eca1c	-1.1155429
22	0x3e93fcf0	0.28903913
23	0xbedae921	-0.42755988
24	0xbbfd5c3f	-0.007731944
25	0x3ee437eb	0.44573912
26	0xbf40d804	-0.75329614
27	0xbc9466af	-0.01811537
28	0x3e882942	0.26593977
29	0x3e814479	0.25247553
30	0x3b02d8fa	0.0019965754
31	0x3c8ea5a8	0.017412975
32	0xbe153cee	-0.14574024
33	0x3d03001d	0.03198253
34	0xbe5126bc	-0.20424932
35	0xbf363728	-0.7117791
36	0x3fc37993	1.5271477
37	0x3f9fd125	1.2485701
38	0x3e61599c	0.2200684
39	0x3e8b8a57	0.27253982
40	0x3ed56451	0.41678098
41	0xbf74f259	-0.95682293
42	0x3e16ea97	0.14737926
43	0xbedc9229	-0.4308026
44	0xbe4bfca1	-0.19920589
45	0xbeb4ee54	-0.3533808
46	0xbe29995b	-0.16562407
47	0x3a84d671	0.0010134709
48	0x3ea7e1b3	0.32789382
49	0x3e371161	0.17877723

bias f4 [10]
0	0xbf29d566	-0.66341245
1	0x3e7be76d	0.246
2	0xbeb11fc9	-0.34594563
3	0xbec20963	-0.37897786
4	0x3f903d10	1.1268635
5	0xbf3b354b	-0.73128194
6	0xbe7b1684	-0.24520308
7	0x3f020670	0.5079107
8	0xbd4dd68d	-0.05025344
9	0xbe83000d	-0.25585976

weight f4 [12, 10]
0	0x3e96f6c0	0.2948513
1	0x3ec3c844	0.38238728
2	0x3e807ea1	0.2509661
3	0xbe2336b6	-0.1593884
4	0x3f23f0b3	0.6403915
5	0x3ec27ca4	0.37985718
6	0xbd3faed3	-0.046797585
7	0x3ea216a7	0.31657907
8	0x3f18dfdf	0.597166
9	0x3e8988df	0.26862237
10	0x3def272e	0.11677395
11	0x3e43fe7a	0.19140044
12	0x3dbedf07	0.09319883
13	0x3eab5d2f	0.3346953
14	0x3ef0b516	0.47013158
15	0xbe6185d4	-0.22023708
16	0xbdc679ca	-0.09691198
17	0x3f52da47	0.82364315
18	0x3da36985	0.07979111
19	0x3be6023b	0.007019309
20	0xbd95b8cb	-0.07310637
21	0xbeca4c2e	-0.39511245
22	0xbe11c8cc	-0.14236754
23	0xbf2384ad	-0.6387432
24	0xbf4cea40	-0.8004494
25	0xbd8a7a1a	-0.0676157
26	0xbec0301c	-0.37536705
27	0xbf11adbb	-0.56905717
28	0xbe8c26f0	-0.27373457
29	0xbf137197	-0.575952
30	0x3e133223	0.14374594
31	0xbea3924b	-0.3194755
32	0x3dd33fbf	0.10314893
33	0xbec236ff	-0.37932584
34	0xbf6cf89e	-0.9256686
35	0xbe55222c	-0.20813817
36	0x3cefc574	0.029268958
37	0xbf003de7	-0.50094455
38	0xbf049926	-0.51796186
39	0xbe60b894	-0.21945411
40	0xbdc56a04	-0.096393615
41	0xbf1b99b6	-0.6078142
42	0x3d1a71aa	0.037706055
43	0xbf206c4d	-0.62665254
44	0xbf55507a	-0.8332592
45	0xbe933902	-0.2875443
46	0x3d345ede	0.044035785
47	0xbef3023c	-0.47462642
48	0xbed264ff	-0.4109268
49	0xbe755f3e	-0.23962113
50	0x3e44bcb0	0.19212604
51	0xbe921603	-0.2853242
52	0xbe52a5f6	-0.20571122
53	0xbed4fd1e	-0.41599363
54	0xbf303ba6	-0.68841016
55	0xbee412b8	-0.4454553
56	0x3d1e443f	0.038639303
57	0xbf5c54b0	-0.8606672
58	0xbe61fa0d	-0.22068043
59	0xbe0f0459	-0.13966502
60	0xbeca4717	-0.39507362
61	0xbeeef246	-0.46669215
62	0xbea2a159	-0.31763723
63	0xbf14a7de	-0.58068645
64	0xbf349b14	-0.7054913
65	0xbe7e6bab	-0.2484576
66	0xbe29a6cf	-0.16567539
67	0xbf1b911f	-0.6076831
68	0xbe70e881	-0.23526193
69	0xbeb87735	-0.36028448
70	0xbe5ec922	-0.21756414
71	0xbe92209e	-0.2854051
72	0xbe6749d1	-0.22586752
73	0xbf038f9f	-0.51391023
74	0xbf424d9a	-0.7589966
75	0xbe470c69	-0.19438328
76	0xbd6a6a12	-0.057230063
77	0xbf3fffd7	-0.74999756
78	0xbf25a82b	-0.6470973
79	0xbf003984	-0.5008776
80	0xbdf862d2	-0.121282235
81	0xbf1323ee	-0.574767
82	0xbdbbb0b4	-0.09164563
83	0xbeff91cd	-0.49915925
84	0xbef7b4a2	-0.4838
85	0xbedb329a	-0.42812043
86	0x3ce3349b	0.027735045
87	0xbeec3fb9	-0.46142367
88	0xbf0c6ccc	-0.5485351
89	0xbf0f29d2	-0.5592319
90	0x3d9ae2c2	0.07562782
91	0xbee8a67e	-0.45439523
92	0xbc361f61	-0.01111588
93	0xbefae7b1	-0.49004892
94	0xbf05678b	-0.5211112
95	0xbeb5c14d	-0.3549904
96	0xbe9bcb28	-0.30428433
97	0xbf5a83bf	-0.8535728
98	0xbe954802	-0.291565
99	0xbf214057	-0.629888
100	0xbe97a1e4	-0.296157
101	0xbebf97dd	-0.3742055
102	0xbdf83343	-0.121191524
103	0xbf28919d	-0.6584719
104	0xbf71d82f	-0.94470495
105	0xbf156c9f	-0.5836887
106	0xbee1e93d	-0.4412326
107	0xbf577e85	-0.8417743
108	0xbea4e2cd	-0.32204285
109	0xbda05e7c	-0.078305215
110	0xbda17c9c	-0.078850955
111	0xbf1e9314	-0.61943173
112	0xbeb670d5	-0.3563296
113	0xbee4978f	-0.4464688
114	0xbf58570d	-0.8450783
115	0xbe9de0f8	-0.308357
116	0xbe6a61bb	-0.22888844
117	0xbf580bf8	-0.8439326
118	0xbeb847c1	-0.35992244
119	0xbe7c933b	-0.24665539

bias f4 [12]
0	0x3f62bc38	0.8856845
1	0x3d9071c0	0.07052946
2	0xbf35908a	-0.70923674
3	0xbea64299	-0.32472685
4	0xbf4672d7	-0.7751898
5	0xbef2a430	-0.4739089
6	0xbf3cc9e7	-0.7374558
7	0xbec2dddc	-0.3805989
8	0xbef994d3	-0.48746356
9	0xbeeae1fa	-0.4587553
10	0xbed80deb	-0.4219812
11	0xbf30a917	-0.6900801

weight f4 [1, 1, 3, 3]
0	0x3ec4db3b	0.3844851
1	0x3eae079c	0.3399018
2	0xbe858619	-0.2607887
3	0x3e77d76e	0.24203274
4	0x3e037b28	0.12839949
5	0xbe80ccce	-0.25156254
6	0xbd85ec81	-0.0653925
7	0x3d834600	0.06409836
8	0x3ebde081	0.37085345
