xai_neurips_2021/models/pre_trained/fmnist_mnist_pre_trained_12_6_05_12_34_68_710_911_expert_model.pt (torch, 90319 bytes, 84 tensors)

weight f4 [1, 1, 3, 3]
0	0xbe5eb128	-0.21747267
1	0xbea1104a	-0.3145774
2	0xbd6169de	-0.055032603
3	0xbec04069	-0.3754914
4	0xbd2737d5	-0.04082473
5	0xbe415f13	-0.18883924
6	0xbc0c5a0d	-0.008566392
7	0xbea1e762	-0.31621844
8	0xbe082d0a	-0.13298431

weight f4 [5, 169]
0	0x3cabd578	0.020975813
1	0x3c03a0e6	0.008033967
2	0x3d40f507	0.047108676
3	0x3d2e6d6d	0.042584825
4	0xbded32cf	-0.115819566
5	0xbea1e48b	-0.31619677
6	0xbf1d6bbb	-0.6149251
7	0xbf06e8d8	-0.5269904
8	0xbd5c4a2a	-0.053781666
9	0x3dd36c5c	0.10323402
10	0x3e988c20	0.29794407
11	0x3e5ec333	0.2175415
12	0x3d35f086	0.044418834
13	0x3deb383b	0.114853345
14	0x3cb14cdc	0.021643095
15	0xbe11d11a	-0.14239922
16	0xbe9ada59	-0.3024471
17	0xbee2fd7a	-0.44334012
18	0xbe8505f9	-0.2598112
19	0xbe4eaac3	-0.20182328
20	0xbc52b1b7	-0.012859753
21	0x3d46be20	0.04852116
22	0xbd2034bc	-0.03911279
23	0x3e2b270a	0.16714111
24	0x3e265690	0.16243958
25	0x3e1bd5f6	0.15218338
26	0x3e03f8ef	0.1288793
27	0xbab38a81	-0.0013697894
28	0xbeb3be21	-0.35105994
29	0xbef0affc	-0.47009265
30	0xbef7f3dc	-0.48428237
31	0xbea15733	-0.3151184
32	0xbe0e0c91	-0.13871981
33	0x3d54621d	0.05185138
34	0xbe93100a	-0.28723174
35	0xbe16049f	-0.146502
36	0x3dcd0a47	0.10011726
37	0x3e4e96eb	0.20174758
38	0x3de9d646	0.114178225
39	0x3d7215f5	0.05910297
40	0xbd60c383	-0.054873955
41	0xbed98191	-0.42481664
42	0xbedc316a	-0.4300645
43	0xbf0ef124	-0.558367
44	0xbe9d65ad	-0.30741635
45	0xbe988a31	-0.29792932
46	0xbd951a8b	-0.07280453
47	0xbc8808eb	-0.016605815
48	0xbe9a74d3	-0.30167255
49	0xbe1d9a7e	-0.15390965
50	0x3cb04b4f	0.021520285
51	0x3dd826e7	0.10554295
52	0xbc712011	-0.014717118
53	0xbe2aa072	-0.16662768
54	0xbedb07fa	-0.42779523
55	0xbf14620c	-0.5796211
56	0xbf0c49f0	-0.5480032
57	0xbe840e0d	-0.2579197
58	0xbe33c30b	-0.17554872
59	0xbd53e992	-0.051736422
60	0xbc4b0df8	-0.012393467
61	0xbe603d26	-0.21898326
62	0xbe130c6f	-0.14360212
63	0x3d6b9685	0.057516593
64	0x3e3f9515	0.18709214
65	0xbd2d243e	-0.04227089
66	0xbbeae2cf	-0.007168151
67	0xbe02e5b2	-0.12782934
68	0xbe87a470	-0.26492643
69	0xbeb1cc26	-0.34726065
70	0xbe298d17	-0.16557728
71	0x3dabfe0f	0.08398067
72	0x3c3a4a7e	0.011370299
73	0x3d3b066e	0.04566043
74	0xba361926	-0.00069464964
75	0x3d9761e9	0.07391722
76	0x3eae7905	0.34076706
77	0x3eaa9f01	0.33324435
78	0x3d4a6805	0.049415607
79	0x3e1308ac	0.14358777
80	0x3ccde06f	0.025131432
81	0xbdeb3339	-0.11484379
82	0xbe904e88	-0.28184915
83	0x3af32c05	0.0018552548
84	0x3e547f91	0.20751788
85	0x3e5d1050	0.21588254
86	0x3e9f31f5	0.31092802
87	0xbdad5538	-0.0846352
88	0x3eb3b4fd	0.3509902
89	0x3ef6bcab	0.48190817
90	0x3ebd9e1c	0.3703469
91	0x3e7039af	0.23459505
92	0x3e3cfb2d	0.18455191
93	0x3e8ac3d3	0.27102527
94	0x3e1ec08a	0.15503135
95	0xbe8933bd	-0.26797286
96	0x3d02f8db	0.03197561
97	0x3e8187b0	0.25298834
98	0x3e9fe36a	0.3122819
99	0x3ed18ea4	0.4092914
100	0x3ea9f14c	0.33191907
101	0x3ee54f4e	0.44787067
102	0x3f22e032	0.63623345
103	0x3f1e058a	0.617272
104	0x3e80100b	0.2501224
105	0x3e78c7e2	0.24294999
106	0x3edefee8	0.43553853
107	0x3da2c82f	0.07948338
108	0xbe933c71	-0.2875705
109	0x3d4badf9	0.04972646
110	0x3e76dc74	0.24107534
111	0x3e20ecdd	0.15715356
112	0x3e68a647	0.2271968
113	0x3e2b8a7f	0.16752051
114	0x3eaa7365	0.33291164
115	0x3f115b7b	0.56780213
116	0x3f1f8ef7	0.6232752
117	0x3e56c9bf	0.20975398
118	0x3e164672	0.1467531
119	0x3e6ae7a3	0.22939925
120	0x3de091dc	0.109653205
121	0xbe4b4168	-0.19849169
122	0x3e0e6328	0.13905013
123	0x3db0bd68	0.086298764
124	0x3db52f8e	0.08846961
125	0xbd24382e	-0.04009264
126	0xbe4c51e6	-0.19953117
127	0x3e431061	0.19049217
128	0x3ef8c990	0.4859128
129	0x3ece0a98	0.40242457
130	0x3dc76b99	0.097373195
131	0x3e8b5b23	0.2721797
132	0x3e94454e	0.28959125
133	0x3e2392da	0.15973988
134	0xbdac6428	-0.08417541
135	0x3d04dae8	0.032435328
136	0x3da79e81	0.08184529
137	0x3e2141b1	0.15747716
138	0xbe878d65	-0.26475063
139	0xbea22c07	-0.31674215
140	0x3e276132	0.16345671
141	0x3ed98bec	0.42489564
142	0x3ec6402c	0.38720834
143	0x3dcbdd33	0.099543
144	0x3ea283ef	0.31741282
145	0x3e9a7618	0.30168223
146	0x3ea7ae85	0.32750335
147	0xbb6686e4	-0.0035175616
148	0x3ca552da	0.020181108
149	0x3df9109a	0.121613696
150	0xbd334a0d	-0.043771792
151	0xbedf385e	-0.43597692
152	0xbeb851ff	-0.36000058
153	0x3ed4a154	0.41529334
154	0x3eb10402	0.3457337
155	0x3e782146	0.24231443
156	0x3daca28d	0.084294416
157	0x3ea52569	0.32255104
158	0x3eb548bd	0.35407057
159	0x3ed67597	0.4188659
160	0xbc156f04	-0.0091207065
161	0xbab26ade	-0.0013612171
162	0xbde5983e	-0.112106785
163	0xbedf288d	-0.43585625
164	0xbece1d4b	-0.40256724
165	0xbe8960e9	-0.2683175
166	0x3ebb92cd	0.36635438
167	0x3e360389	0.17774786
168	0x3e81989f	0.25311753
169	0xbe1bd381	-0.15217401
170	0xbd58b3ea	-0.052905954
171	0xbdd55492	-0.10416521
172	0xbde83b3d	-0.11339424
173	0xbd2c8226	-0.042116307
174	0xbdf1fc13	-0.118156575
175	0xbe23dd0a	-0.16002288
176	0xbcbd7d46	-0.023131024
177	0xbe2108a8	-0.15725958
178	0xbd5f805c	-0.054565772
179	0xbd88cb1d	-0.06679366
180	0xbe0b1327	-0.13581525
181	0xbd0eedc3	-0.034894716
182	0xbe1995d1	-0.14998557
183	0xbdd666c7	-0.10468822
184	0xbe1046e0	-0.14089537
185	0xbd0ffbaa	-0.035152115
186	0xbd9316e3	-0.071821
187	0xbd2ea867	-0.04264107
188	0xbd4ab7a3	-0.049491536
189	0xbe0c7e6b	-0.137201
190	0xbe34fe8b	-0.17675225
191	0xbe04c2ff	-0.1296501
192	0xbdaf96a8	-0.08573657
193	0xbd98bbd1	-0.07457698
194	0xbdf21f06	-0.118223235
195	0xbd65c9f5	-0.056100804
196	0xbd70de8e	-0.058805995
197	0xbe106d79	-0.1410426
198	0xbde27199	-0.11056823
199	0xbd43f245	-0.047838468
200	0xbe029e78	-0.12755764
201	0xbde09d27	-0.109674744
202	0xbe30178f	-0.17196487
203	0xbd9b3806	-0.07579045
204	0xbd773630	-0.06035441
205	0xbdb12803	-0.0865021
206	0xbddfa11e	-0.109194025
207	0xbdc5c3de	-0.09656499
208	0xbd5d22f8	-0.053988427
209	0xbe1e75d1	-0.15474631
210	0xbdc2f5cc	-0.09519538
211	0xbda22aa7	-0.079182915
212	0xbdf2a9c1	-0.11848784
213	0xbd903429	-0.07041199
214	0xbe035443	-0.12825112
215	0xbda98e6b	-0.08279117
216	0xbe332d32	-0.1749771
217	0xbdf2760f	-0.11838924
218	0xbe2ab2d7	-0.16669784
219	0xbdfd6e94	-0.12374607
220	0xbe2c6878	-0.16836727
221	0xbd72bc41	-0.059261564
222	0xbe1a6d7e	-0.1508083
223	0xbe1aa45a	-0.15101758
224	0xbe02d519	-0.12776603
225	0xbdb79d06	-0.08965497
226	0xbe0d12cc	-0.13776702
227	0xbe2d7adb	-0.16941397
228	0xbdabcfa5	-0.083892144
229	0xbd360518	-0.04443845
230	0xbdaa51c7	-0.08316379
231	0xbddd399c	-0.10802004
232	0xbd28ffe1	-0.04125965
233	0xbccd0a46	-0.025029313
234	0xbceb260f	-0.028704671
235	0xbdd3ef9f	-0.103484385
236	0xbd42603f	-0.04745507
237	0xbd0ff63e	-0.035146944
238	0xbdd6c16c	-0.10486111
239	0xbd442e33	-0.04789562
240	0xbdc3ff30	-0.095701575
241	0xbdb5a796	-0.08869855
242	0xbe105c6c	-0.14097756
243	0xbdd9793c	-0.10618827
244	0xbcc5bcf5	-0.024137953
245	0xbe0f588d	-0.13998623
246	0xbd85bf8e	-0.06530677
247	0xbd479ac2	-0.048731573
248	0xbe0bb100	-0.13641739
249	0xbcec31ac	-0.02883228
250	0xbd1795f9	-0.03700826
251	0xbd85156d	-0.06498227
252	0xbcfd8a03	-0.030949598
253	0xbd9fb76b	-0.07798656
254	0xbd3827f2	-0.04495997
255	0xbdcb750b	-0.099344335

bias f4 [5]
0	0xbaa2f047	-0.0012431227
1	0xbe1f1f0d	-0.15539189
2	0xbe0a1712	-0.13485363
3	0x3dda247a	0.106514886
4	0x3dc9247d	0.09821413

weight f4 [10, 5]
0	0x3eeeee3f	0.46666142
1	0x3e30764a	0.17232624
2	0x3e1017f5	0.14071639
3	0x3ed2f5cf	0.41203162
4	0xbe4479bf	-0.19187067
5	0x3da946a4	0.08265427
6	0x3ea30d58	0.31846118
7	0xbe22812e	-0.1586959
8	0xbf0186a2	-0.5059606
9	0x3db8adcc	0.09017524
10	0xbeefa609	-0.46806362
11	0xbe69c33a	-0.2282838
12	0x3d091a9f	0.033472653
13	0xbd209660	-0.03920591
14	0xbe11a33f	-0.1422243
15	0x3eb65422	0.35611063
16	0xbdf9a61d	-0.12189887
17	0x3b3e41fc	0.002903103
18	0x3f260ebc	0.6486623
19	0x3f1ecbd1	0.6202975
20	0x3d79eee5	0.061018843
21	0xbd165aed	-0.036707807
22	0xbeab814f	-0.33497092
23	0x3ea09c35	0.31369177
24	0x3b91ddb2	0.004451477
25	0x3f082cd0	0.5319338
26	0xbe5f7316	-0.21821246
27	0xbe620540	-0.22072315
28	0x3da17821	0.07884241
29	0xbe175e7a	-0.14782134
30	0x3f2de375	0.67925197
31	0x3ea12569	0.31473854
32	0xbe83c629	-0.25737122
33	0x3f0b0ec0	0.5431938
34	0x3d318c47	0.04334667
35	0x3e42e10f	0.19031166
36	0xbd3cf870	-0.046135366
37	0xbdd1dec2	-0.10247566
38	0xbdb48624	-0.08814648
39	0x3e95d904	0.29267132
40	0x3e70c576	0.23512825
41	0x3ebd3699	0.36955717
42	0x3dfbfe0f	0.12304317
43	0xbedc9357	-0.4308116
44	0xbcb6118d	-0.022225166
45	0x3f57863a	0.8418919
46	0xbe248b74	-0.16068822
47	0x3e932761	0.2874098
48	0x3d116d9e	0.03550493
49	0xbe079e9b	-0.13244097

bias f4 [10]
0	0x3f335e0e	0.7006539
1	0xbee205d0	-0.4414506
2	0xbe222bbf	-0.15837
3	0x3ee363fd	0.44412223
4	0x3b851e64	0.0040624607
5	0x3f200663	0.62509745
6	0x3f300751	0.68761164
7	0xbeb5791b	-0.3544396
8	0xbf08379b	-0.5320985
9	0x3e62195e	0.2207999

weight f4 [12, 10]
0	0x3f1a83d1	0.60357386
1	0x3d496fd0	0.0491789
2	0xbde84746	-0.11341719
3	0x3f07bab8	0.53019285
4	0x3d482082	0.048859127
5	0x3f074b1b	0.52848977
6	0x3ee0f6a9	0.43938187
7	0x3bd95fe8	0.0066337474
8	0x3cc4a332	0.024003599
9	0x3f996a3e	1.1985548
10	0xbdf9e816	-0.1220247
11	0x3e2f708f	0.17132781
12	0x3e0fcf2e	0.14043877
13	0x3f3757b5	0.71618205
14	0x3ee0cf30	0.43908072
15	0x3e62c3dc	0.22145027
16	0x3eb74f19	0.35802534
17	0x3ed0429b	0.40675816
18	0x3d4e11c6	0.05030992
19	0xbf733678	-0.9500499
20	0x3de4adb6	0.11165945
21	0xbeef980c	-0.4679569
22	0xbec6ac60	-0.38803387
23	0xbf09e262	-0.5386106
24	0xbeaa52fd	-0.3326644
25	0xbe7dabd7	-0.24772583
26	0xbdf348b9	-0.11879105
27	0xbee91a8c	-0.45528066
28	0xbec5539e	-0.38540357
29	0xbe91afcf	-0.28454444
30	0xbed74b41	-0.42049602
31	0xbe768750	-0.24075055
32	0xbc083116	-0.008312484
33	0xbedf62c6	-0.43630046
34	0xbf2100ca	-0.6289183
35	0xbe57ffda	-0.21093693
36	0xbd8aacee	-0.06771265
37	0xbecf940b	-0.40542635
38	0x3d2cc29d	0.042177785
39	0xbeaf5177	-0.3424184
40	0xbe9b4481	-0.30325702
41	0xbd06df10	-0.032927573
42	0xbec1bbfa	-0.37838727
43	0xbdbc72c3	-0.092015766
44	0xbe173f11	-0.14770152
45	0xbef46059	-0.47729757
46	0xbefc2b38	-0.49251723
47	0xbe781e5b	-0.2423033
48	0xbea5507f	-0.32287976
49	0xbea04048	-0.31299043
50	0xbeb71a7c	-0.35762393
51	0xbe99952a	-0.29996616
52	0xbefb9026	-0.49133414
53	0xbeea0789	-0.45708874
54	0xbe24878d	-0.16067334
55	0x3c99d70a	0.018779296
56	0xbed9dfff	-0.42553708
57	0xbdc1dda6	-0.09466104
58	0xbd8685e4	-0.06568506
59	0x3e3f99a3	0.18710952
60	0x3d15a858	0.0365375
61	0x3b561365	0.0032665369
62	0xbe64601b	-0.22302286
63	0xbe2ea736	-0.17055973
64	0xbe8a1d3e	-0.26975435
65	0xbd9be2cf	-0.0761162
66	0xbf21a799	-0.6314636
67	0xbe127202	-0.14301303
68	0x3dee04da	0.11622019
69	0xbda3238d	-0.07965765
70	0x3cd306f0	0.025760144
71	0xbeb48968	-0.35261083
72	0x3c53740e	0.012906088
73	0xbef92ac1	-0.4866543
74	0xbe36c0fa	-0.17847052
75	0xbe305388	-0.17219365
76	0xbeecb1f7	-0.46229526
77	0xbeb9287e	-0.36163706
78	0xbe068e44	-0.13140208
79	0xbe034293	-0.12818365
80	0x3d557522	0.05211366
81	0xbf0a5535	-0.54036266
82	0xbecf14c7	-0.4044554
83	0xbf0c6a89	-0.5485006
84	0xbd11e996	-0.035623156
85	0xbc9adc7f	-0.018903969
86	0xbecb18f2	-0.3966747
87	0xbe639456	-0.22224554
88	0xbd3795e9	-0.0448207
89	0xbebd2b19	-0.36946943
90	0x3b845c4b	0.0040393225
91	0xbef7c663	-0.48393545
92	0xbe5ab262	-0.2135711
93	0xbedcc6ac	-0.43120325
94	0xbec97c2b	-0.39352545
95	0xbee406a3	-0.44536313
96	0xbe04bf85	-0.12963684
97	0xbe167e91	-0.14696719
98	0xbed058c7	-0.40692732
99	0xbea02503	-0.31278238
100	0xbd5fa20a	-0.054597892
101	0xbe1202bb	-0.14258854
102	0x3db21c8a	0.0869685
103	0xbf03617c	-0.51320624
104	0xbed079ce	-0.4071793
105	0xbf1e9a14	-0.61953855
106	0xbd4252e6	-0.04744234
107	0xbd8f6989	-0.07002551
108	0xbecadb99	-0.39620665
109	0xbe487be4	-0.1957851
110	0xbeb2974c	-0.34881055
111	0xbe466471	-0.19374253
112	0xbefa3882	-0.48871237
113	0xbf11e66e	-0.5699223
114	0xbe771af1	-0.24131371
115	0x3c5774d3	0.013150412
116	0xbe8b1a94	-0.27168715
117	0xbe26d13a	-0.16290751
118	0xbee55942	-0.4479466
119	0x3e4ae142	0.19812492

bias f4 [12]
0	0x3de5106f	0.11184775
1	0xbd278763	-0.0409006
2	0xbd8a374a	-0.06748827
3	0xbef04387	-0.4692652
4	0xbe8aea65	-0.27131954
5	0xbe19336f	-0.14961027
6	0xbeef7b7b	-0.46773896
7	0x3c0447a5	0.008073722
8	0xbd33fcd1	-0.043942276
9	0xbe5e5f1e	-0.21715972
10	0xbde726ae	-0.112866744
11	0x3c849e63	0.016188806

weight f4 [1, 1, 3, 3]
0	0xbe9d69e6	-0.30744857
1	0xbdf526dc	-0.119703025
2	0x3e13dded	0.14440127
3	0xbe2ebe48	-0.17064774
4	0xbdd60b74	-0.10451403
5	0xbe77940e	-0.24177572
6	0xbedf82b8	-0.43654418
7	0xbf192641	-0.59823996
8	0xbefb10de	-0.49036306

weight f4 [5, 169]
0	0xbdb56eb0	-0.088590026
1	0xbe2d12ae	-0.16901657
2	0xbd9570b2	-0.072968856
3	0xbd80bb11	-0.0628568
4	0xbde900b2	-0.11377086
5	0x3c72f88a	0.014829764
6	0xbe0e2e2e	-0.13884804
7	0xbe1cc013	-0.15307645
8	0xbcbc4c99	-0.022985743
9	0xbd968393	-0.073493145
10	0xbd2ee68a	-0.042700328
11	0xbdf2320c	-0.11825952
12	0xbcc543ca	-0.024080176
13	0xbd677e48	-0.056516916
14	0xbe0fc359	-0.14039363
15	0xbd8800e2	-0.066407934
16	0xbd246cb4	-0.04014273
17	0xbd16065b	-0.036627155
18	0x3d93cab8	0.072164
19	0xbd8481fd	-0.06470106
20	0xbd313020	-0.043258786
21	0xbd0e4165	-0.034730334
22	0xbdb035bb	-0.08603998
23	0xbd7776e1	-0.060416106
24	0xbd7e34d2	-0.062062092
25	0xbd9c5196	-0.07632749
26	0xbe34185f	-0.17587422
27	0xbe23e229	-0.16004242
28	0xbe342439	-0.17591943
29	0x3cfb49f2	0.030674908
30	0xbdd9938e	-0.10623847
31	0x3c0a5fa8	0.008445658
32	0xbd955c22	-0.072929636
33	0xbde9abb4	-0.11409703
34	0xbe29545d	-0.16536088
35	0xbe2b5ea7	-0.16735326
36	0xbe2d09df	-0.16898297
37	0xbd0e76a5	-0.034781117
38	0xbdf6fae5	-0.12059573
39	0xbe1e5f80	-0.15466118
40	0xbe02963f	-0.12752627
41	0xbe0cbe53	-0.13744478
42	0xbd547e28	-0.051878124
43	0xbd68702a	-0.056747593
44	0xbdb4b43a	-0.08823438
45	0x3d328dde	0.043592326
46	0xbcfddd83	-0.030989414
47	0x3d34cdb2	0.04414148
48	0xbde679d2	-0.11253704
49	0xbdfcb4e6	-0.12339191
50	0xbe1f4d63	-0.15556864
51	0xbcfb6b3f	-0.030690787
52	0xbe2dfe76	-0.169916
53	0xbd8a00cf	-0.067384355
54	0xbe22ada4	-0.15886551
55	0xbddca256	-0.107731506
56	0xbd76065e	-0.060064666
57	0xbddeadea	-0.10873015
58	0x3d209dca	0.03921298
59	0xbe1e811a	-0.15478936
60	0xbde84da6	-0.11342935
61	0xbce52ff4	-0.027976967
62	0xbce18350	-0.027528435
63	0xbddc2595	-0.10749356
64	0xbdc41e3b	-0.095760785
65	0xbdf00b5b	-0.11720916
66	0xbe000378	-0.12501323
67	0xbd86e0d0	-0.06585848
68	0xbc2ac96b	-0.010423998
69	0xbce1e13c	-0.02757322
70	0xbd8be1e5	-0.06830195
71	0xbcc33e89	-0.02383353
72	0xbd99c7f4	-0.07508841
73	0xbd108b10	-0.03528887
74	0xbe32921b	-0.17438547
75	0xbd82dfea	-0.063903645
76	0xbceaf285	-0.028680095
77	0xbd8e9071	-0.06961144
78	0xbe140830	-0.14456248
79	0xbd48eaf3	-0.04905219
80	0xbe15c82d	-0.14627142
81	0xbd5557e3	-0.05208577
82	0xbd3c3eb9	-0.045958254
83	0xbdacae32	-0.084316626
84	0xbdccf688	-0.100079596
85	0xbe2c34d0	-0.16817021
86	0xbe2da152	-0.1695607
87	0xbe1098a5	-0.1412073
88	0xbe13daff	-0.14439009
89	0xbda91c2d	-0.08257327
90	0xbdcae195	-0.099063076
91	0xbe1f023f	-0.155282
92	0xbdc7a431	-0.09748114
93	0xbdd2d4ae	-0.10294472
94	0xbd2335a3	-0.039846074
95	0xbe0bbff9	-0.1364745
96	0xbe097ea9	-0.13427223
97	0xbcec3cbc	-0.028837554
98	0xbd40ac3e	-0.047039263
99	0xbdb62599	-0.0889389
100	0xbcd341f9	-0.025788294
101	0xbe024f06	-0.12725458
102	0xbe0de264	-0.13855892
103	0xbdec4021	-0.11535669
104	0xbe34da2d	-0.17661352
105	0xbe2bea19	-0.1678852
106	0xbdffc15a	-0.12488051
107	0xbd1c1180	-0.038102627
108	0xbe2a833d	-0.16651626
109	0x3cbde2bc	0.023179404
110	0xbceefac3	-0.029172307
111	0xbd934bd5	-0.07192198
112	0xbdb91289	-0.090367384
113	0xbe040ac9	-0.12894739
114	0xbdb41d76	-0.08794682
115	0xbe209088	-0.15680134
116	0x3cfaf53c	0.030634515
117	0xbde27d23	-0.11059024
118	0xbd9c9c17	-0.07646959
119	0xbde5465b	-0.1119506
120	0x3cbd3f80	0.023101568
121	0xbd665356	-0.05623182
122	0xbe0967e6	-0.1341854
123	0xbe166b9d	-0.14689489
124	0xbcd832b9	-0.026391374
125	0xbd64cce5	-0.055859465
126	0xbddf09c7	-0.10890537
127	0xbe091855	-0.13388188
128	0xbd52796d	-0.051385332
129	0xbdf39d65	-0.11895255
130	0xbe05f6b0	-0.13082385
131	0xbe26e8f1	-0.16299798
132	0xbe1b1db6	-0.15148053
133	0xbd920aa2	-0.07130934
134	0xbe046907	-0.1293069
135	0xbd3803d9	-0.044925544
136	0x3d95f7ba	0.07322641
137	0xbe0bc6ae	-0.13650009
138	0xbcc7a835	-0.0243722
139	0x3d268c00	0.04066086
140	0xbe1cea78	-0.15323818
141	0xbd76631f	-0.060153123
142	0x3b675b3c	0.0035302183
143	0xbdbc7bcf	-0.09203302
144	0xbe34277d	-0.17593189
145	0xbd079292	-0.033098765
146	0xbdbb6dc4	-0.091517955
147	0x3d1cd1a5	0.03828587
148	0x3af88c9e	0.0018962806
149	0xbd9525b8	-0.07282585
150	0xbd3e6092	-0.046478815
151	0xbe1032f5	-0.14081939
152	0xbd351fa8	-0.044219643
153	0xbddf9980	-0.1091795
154	0xbdb94717	-0.090467624
155	0xbd0dd174	-0.03462358
156	0xbdee0462	-0.1162193
157	0xbde1cc09	-0.11025245
158	0xbcbecb00	-0.023290157
159	0xbd40a12f	-0.047028717
160	0xbe317098	-0.17328107
161	0xbe13cc57	-0.14433418
162	0xbdf5496b	-0.11976894
163	0xbe0154d0	-0.1263001
164	0xbe191b16	-0.14951739
165	0xbe2d8fe6	-0.16949424
166	0xbdb0a8db	-0.086259566
167	0xbdf21497	-0.118203335
168	0xbe22915d	-0.15875764
169	0xbe21c173	-0.15796451
170	0xbd8b0565	-0.06788138
171	0xbd29b286	-0.04143002
172	0xbdf7dfae	-0.121032104
173	0xbe255c07	-0.16148387
174	0xbd4d31ff	-0.050096508
175	0xbd9995ab	-0.0749925
176	0x3da22495	0.07917134
177	0xbdc2606d	-0.09491048
178	0xbd5fa1df	-0.05459773
179	0xbdeed195	-0.11661068
180	0xbdfb638f	-0.12274849
181	0xbe2e710a	-0.17035308
182	0xbd5a8ec1	-0.053358797
183	0xbe35168a	-0.17684379
184	0xbdf2169e	-0.1182072
185	0xbdc0dfb4	-0.09417668
186	0xbdb76533	-0.08954849
187	0xbd04061e	-0.032232396
188	0x3d90d97e	0.07072733
189	0xbdf73fa5	-0.12072686
190	0xbcc408fc	-0.023930065
191	0xbe093526	-0.13399181
192	0xbd15f3a2	-0.0366093
193	0xbe11223c	-0.14173216
194	0xbe0692f8	-0.13142002
195	0xbd55c3de	-0.052188747
196	0xbd5db117	-0.054123964
197	0xbdd05561	-0.10172535
198	0xbd7b4fcd	-0.0613554
199	0xbd467450	-0.048450768
200	0x3e238763	0.15969615
201	0x3e08f9de	0.13376567
202	0x3d1a2a14	0.037637785
203	0x3dc35145	0.09536985
204	0xbde7afb1	-0.11312807
205	0xbd098925	-0.033578057
206	0xbe1e15bb	-0.15437977
207	0xbe0478f0	-0.12936759
208	0xbdc95921	-0.09831453
209	0xbdeab1ca	-0.11459692
210	0xbdb2d6bd	-0.08732364
211	0xbe1e89d3	-0.15482263
212	0xbe119c26	-0.14219722
213	0xbd75037f	-0.059817787
214	0xbe1b6031	-0.15173413
215	0xbcc3e584	-0.023913153
216	0xbd99378a	-0.07481296
217	0xbce09731	-0.027415844
218	0xbd71e5a6	-0.0590569
219	0xbdfe0051	-0.12402404
220	0xbde95e9f	-0.11395001
221	0xbdd09c1b	-0.10186025
222	0xbe2d78f1	-0.16940667
223	0xbce1ac99	-0.027548121
224	0xbe0b6d04	-0.13615805
225	0xbda7a237	-0.08185237
226	0xbd95f4e5	-0.073221005
227	0xbe17c1e3	-0.14820056
228	0xbdea7bd9	-0.11449403
229	0xbd93f094	-0.07223621
230	0xbe2311a5	-0.159247
231	0xbe2ae260	-0.16687918
232	0xbdde403b	-0.10852095
233	0xbd75220e	-0.05984693
234	0xbdd9ef85	-0.10641388
235	0xbd929cd6	-0.0715882
236	0xbd96873d	-0.073500134
237	0xbded5b48	-0.11589676
238	0xbcc5457d	-0.024080986
239	0xbd51f407	-0.051258113
240	0xbd9b70ed	-0.07589898
241	0xbe19debe	-0.15026376
242	0xbd5d1515	-0.053975184
243	0xbe2f24e6	-0.1710392
244	0xbdf9fd69	-0.12206537
245	0xbd9537ed	-0.072860576
246	0xbe12a3a8	-0.14320242
247	0xbdc64586	-0.09681229
248	0xbcd3bae5	-0.025845954
249	0xbe12242c	-0.14271611
250	0xbe21e92a	-0.15811601
251	0xbd5fca42	-0.054636247
252	0xbdc84661	-0.09779049
253	0xbd7bbf64	-0.06146182
254	0xbd237d75	-0.039914567
255	0xbde7a288	-0.11310297

bias f4 [5]
0	0xbe1ee07e	-0.15515324
1	0xbdbe8e5c	-0.09304497
2	0x3e9304a5	0.2871448
3	0xbe2639e7	-0.16233025
4	0xbdedda5f	-0.116139166

weight f4 [10, 5]
0	0xbe58ff1e	-0.2119107
1	0xbd7b6be6	-0.061382197
2	0x3f6ade7d	0.9174574
3	0x3e2c0c58	0.16801584
4	0xbe668f77	-0.22515665
5	0xbe9d1a64	-0.30684197
6	0x3dea7ead	0.11449943
7	0x3f179820	0.592165
8	0xbe944843	-0.2896138
9	0xbd0f6b58	-0.03501448
10	0xbde417d5	-0.11137358
11	0x3e0c0a0e	0.1367571
12	0x3e8090ec	0.25110567
13	0xbead36ae	-0.3383078
14	0x3e07f738	0.132779
15	0xbe4853a7	-0.19563161
16	0x3e7f9e3d	0.24962707
17	0xbe838c17	-0.25692818
18	0xbe3cf10c	-0.18451327
19	0x3e4b6a09	0.19864668
20	0xbcd415be	-0.025889274
21	0xbdc4ea5c	-0.09615013
22	0xbedd5a7c	-0.43233097
23	0xbe98a8b3	-0.29816207
24	0x3e592e70	0.21209121
25	0x3dd8e10b	0.105897985
26	0x3d6a3183	0.057176124
27	0x3ed3f21d	0.41395655
28	0xbebeaa65	-0.37239376
29	0xbdc508ea	-0.09620841
30	0x3e364b1e	0.17802092
31	0xbe898e08	-0.26866174
32	0xbe43d86e	-0.1912553
33	0xbe3bfa60	-0.18357229
34	0x3db3f9a6	0.08787851
35	0x3ebb5f5e	0.36596197
36	0xbe914dcb	-0.28379664
37	0xbf1a3687	-0.6023945
38	0x3d593c95	0.05303629
39	0xbe610a44	-0.21976572
40	0xbd3f4359	-0.046695087
41	0xbed2532e	-0.41079086
42	0xbed50e41	-0.41612437
43	0x3e63fdfc	0.22264856
44	0xbea5e19d	-0.32398692
45	0x3f006d89	0.5016714
46	0x3eafd6c6	0.34343547
47	0x3e42a526	0.19008312
48	0xbd332f09	-0.043746028
49	0x3ea4026d	0.320331

bias f4 [10]
0	0x3e2c9390	0.16853166
1	0x3faa07a7	1.3283585
2	0xbf2c4644	-0.67294717
3	0x3f8b1b27	1.0867661
4	0xbd9b16e9	-0.07572729
5	0x3faa225b	1.3291734
6	0xbec17b09	-0.3778918
7	0x3fd76547	1.6827782
8	0xbeca0133	-0.3945404
9	0x3f3ee199	0.74562985

weight f4 [12, 10]
0	0x3f5e70b7	0.8689074
1	0x3f11c798	0.5694518
2	0x3eebd2d7	0.46059296
3	0x3daea9d3	0.08528485
4	0x3cfc66f1	0.030810805
5	0x3e9dc432	0.30813748
6	0xbde267a1	-0.11054922
7	0xbf5ecd83	-0.87032336
8	0xbe6e138c	-0.23249644
9	0x3e1b9734	0.15194398
10	0x3e889226	0.26674002
11	0x3f0c5130	0.5481138
12	0x3d6d48e9	0.05793086
13	0x3f43b19f	0.76442903
14	0xbe18defc	-0.14928812
15	0x3f4096c1	0.7523003
16	0x3e5723ca	0.21009746
17	0x3fa7d7f4	1.3112779
18	0x3d9cb1d4	0.076511055
19	0x3eb9874a	0.3623603
20	0xbf3234d8	-0.69611883
21	0xbf540bcb	-0.82830495
22	0xbf2d676c	-0.67735934
23	0xbea0181a	-0.31268388
24	0x3d57a872	0.052650876
25	0xbfce5b67	-1.6121644
26	0xbe884689	-0.26616314
27	0xbed5b998	-0.4174316
28	0xbadfce25	-0.0017074986
29	0xbf65eede	-0.8981761
30	0xbf5aba35	-0.8544038
31	0xbf35af16	-0.70970285
32	0xbec3266a	-0.38115245
33	0xbf0e04f5	-0.55476314
34	0x3d1dc5e5	0.038518805
35	0xbfa75350	-1.30723
36	0xbe7c0e41	-0.24614812
37	0xbeb85b38	-0.36007094
38	0x3cdab4ff	0.026697634
39	0xbf6f73a4	-0.9353583
40	0xbf1c8ecc	-0.6115539
41	0xbf5ed4ac	-0.8704326
42	0xbeb21fe4	-0.34789956
43	0xbf472886	-0.7779621
44	0xbd9d2b72	-0.07674302
45	0xbfcb069d	-1.5861393
46	0x3e2e3aeb	0.17014663
47	0xbe77dc4a	-0.24205127
48	0xbe6fc8a7	-0.23416387
49	0xbf0ef772	-0.5584632
50	0xbf5362c1	-0.8257256
51	0xbf4f4bab	-0.80974835
52	0xbec053f6	-0.37564057
53	0xbeefdd0d	-0.46848336
54	0x3e285eb5	0.16442378
55	0xbfb0e2c7	-1.3819207
56	0x3e82ae4f	0.25523612
57	0xbf25591d	-0.645891
58	0xbe9d8cdf	-0.3077154
59	0xbf0b0474	-0.5430367
60	0xbec899da	-0.3917988
61	0xbf4f09f0	-0.8087454
62	0xbf02db22	-0.5111562
63	0xbebb34c8	-0.36563706
64	0x3d70301c	0.05863963
65	0xbf6c6798	-0.9234557
66	0xbe38ddea	-0.18053403
67	0xbf43677d	-0.76329786
68	0x3d637e3f	0.05554032
69	0xbe85c072	-0.26123387
70	0xbed9658d	-0.4246029
71	0xbeda0d17	-0.42588112
72	0xbec5b6df	-0.38616082
73	0xbea24552	-0.31693512
74	0x3e11f0bc	0.14251989
75	0xbf62f97e	-0.88661945
76	0xbea0fedc	-0.31444442
77	0xbf3753d2	-0.71612275
78	0xbe9eb488	-0.3099711
79	0xbf173a5e	-0.59073436
80	0xbf47c710	-0.7803812
81	0xbf1adb08	-0.60490465
82	0xbe8aef5f	-0.2713575
83	0xbf2ab258	-0.6667838
84	0x3d345536	0.044026576
85	0xbf85d5e3	-1.0455898
86	0x3dcb8009	0.0993653
87	0xbf3f34bc	-0.7468984
88	0xbda17a0b	-0.07884606
89	0xbf71c1c5	-0.94436294
90	0xbe998bc2	-0.2998944
91	0xbef6ff3c	-0.48241603
92	0xbf52fa7e	-0.8241347
93	0xbef8c323	-0.48586378
94	0xbe75b06d	-0.23993082
95	0xbfb4b4aa	-1.4117634
96	0x3e0a7e48	0.13524735
97	0xbe9ad409	-0.30239895
98	0xbe464724	-0.19363075
99	0xbf2ac633	-0.6670868
100	0xbf12ce46	-0.57346
101	0xbeffbb1b	-0.49947438
102	0xbebda2d7	-0.370383
103	0xbf42e3a7	-0.7612862
104	0xbe6f5152	-0.23370865
105	0xbf799816	-0.9749769
106	0x3e7c0196	0.2460998
107	0xbf03b2e8	-0.51444864
108	0xbe6247f7	-0.22097765
109	0xbf4ea0fe	-0.80714405
110	0xbf16b59f	-0.5887088
111	0xbf420d12	-0.75801194
112	0xbf4595f5	-0.7718194
113	0xbf0c984d	-0.5491989
114	0xbec190ea	-0.37805873
115	0xbfbd051a	-1.4767182
116	0xbe7218e0	-0.23642302
117	0xbf16511e	-0.58717525
118	0x3e4efcbf	0.20213602
119	0xbf5696dc	-0.83823943

bias f4 [12]
0	0xbe7f1813	-0.24911527
1	0x3fa94f37	1.32273
2	0xbeb915e0	-0.36149502
3	0xbe241031	-0.16021802
4	0xbf18e86f	-0.59729666
5	0xbe40ada2	-0.18816236
6	0xbf1c3c2a	-0.61029303
7	0xbec58d68	-0.38584447
8	0xbf4d8ec6	-0.8029598
9	0xbe5ae782	-0.21377376
10	0xbf4e4502	-0.8057405
11	0xbf18c8d5	-0.59681445

weight f4 [1, 1, 3, 3]
0	0xbe32cdda	-0.17461339
1	0x3e76d71b	0.24105494
2	0xbed02e64	-0.40660393
3	0x3a37b3a7	0.0007007666
4	0xbea70a29	-0.3262494
5	0xbec7e6c5	-0.3904325
6	0x3d970879	0.07374663
7	0x3d3d2147	0.046174314
8	0xbd868c03	-0.06569674

weight f4 [5, 169]
0	0xbdb54e60	-0.088528395
1	0xbe2f64b0	-0.17128253
2	0xbe04795c	-0.1293692
3	0xbcc02a47	-0.02345766
4	0xbd633bd1	-0.055476967
5	0xbcbf1fc3	-0.023330575
6	0xbdff6975	-0.12471286
7	0xbdb56da5	-0.08858804
8	0xbd580f23	-0.05274881
9	0xbe1fdd8f	-0.15611862
10	0xbdf48452	-0.119393006
11	0xbd0bb953	-0.034112286
12	0xbd0fa5e4	-0.035070315
13	0xbd64b51a	-0.055836774
14	0xbe1678ba	-0.14694491
15	0xbcee8ad4	-0.029118933
16	0xbe08b0d6	-0.13348708
17	0xbd211061	-0.03932226
18	0xbdcfa37d	-0.10138605
19	0xbdf09103	-0.11746409
20	0xbd2d5406	-0.04231646
21	0xbdccdee8	-0.100034535
22	0xbe282bb8	-0.16422927
23	0xbe0716bc	-0.13192266
24	0xbe0b4307	-0.13599788
25	0xbdd158fb	-0.1022205
26	0xbdb282db	-0.08716365
27	0xbcff82d8	-0.03119032
28	0xbde67e37	-0.11254542
29	0xbe0c8bea	-0.13725248
30	0xbe186f39	-0.14886178
31	0xbe122faa	-0.14275995
32	0xbd2f27a6	-0.04276242
33	0xbe0f9948	-0.14023316
34	0xbe0f21c0	-0.13977718
35	0xbd4010ea	-0.04689113
36	0xbd3ac657	-0.045599308
37	0xbe33b8e8	-0.17551005
38	0xbd1797f8	-0.037010163
39	0xbde6e71c	-0.11274549
40	0xbe348f87	-0.17632876
41	0xbdb6f167	-0.089327626
42	0xbd08d661	-0.033407573
43	0xbd38f75e	-0.045157783
44	0xbd5ec0db	-0.05438314
45	0xbccd8476	-0.025087576
46	0xbe255331	-0.16145016
47	0xbce6fff3	-0.028198218
48	0xbd99115b	-0.074740134
49	0xbe14c353	-0.14527635
50	0xbd72e6c9	-0.059302125
51	0xbd1c933a	-0.038226344
52	0xbe0205dd	-0.12697549
53	0xbe007fe5	-0.12548788
54	0xbe1d1e68	-0.1534363
55	0xbdb0f8f0	-0.08641231
56	0xbd047b4a	-0.03234414
57	0xbdd8bcfd	-0.10582922
58	0xbe0a68b9	-0.13516511
59	0xbde4ee57	-0.11178272
60	0xbe19b87a	-0.15011778
61	0xbdc51ddd	-0.096248366
62	0xbce8dd7a	-0.02842592
63	0xbd2838d6	-0.041069828
64	0xbd8ecf75	-0.06973163
65	0xbd40f213	-0.04710586
66	0xbdd5a48e	-0.10431777
67	0xbe34a3a5	-0.1764055
68	0xbe08b717	-0.13351093
69	0xbde19f0f	-0.11016666
70	0xbdb96505	-0.09052471
71	0xbde57286	-0.11203484
72	0xbddc9153	-0.10769906
73	0xbe263a80	-0.16233253
74	0xbddd0849	-0.10792596
75	0xbe335b5b	-0.17515318
76	0xbdb63dc9	-0.08898503
77	0xbdb5b6fd	-0.08872793
78	0xbe2c8091	-0.16845919
79	0xbd61de97	-0.05514392
80	0xbe1a1150	-0.15045667
81	0xbd0aa214	-0.033845976
82	0xbe01fd75	-0.12694342
83	0xbdf908bf	-0.12159871
84	0xbe2f56c9	-0.1712295
85	0xbded25f0	-0.11579502
86	0xbe02c651	-0.12770964
87	0xbda9f83c	-0.082993
88	0xbe087636	-0.13326344
89	0xbe1b7153	-0.15179949
90	0xbe30938f	-0.17243789
91	0xbdc85c0c	-0.097831815
92	0xbdff3740	-0.1246171
93	0xbdf79ca9	-0.120904274
94	0xbd36fdd6	-0.04467567
95	0xbe181661	-0.14852287
96	0xbdeabac1	-0.11461402
97	0xbda1087c	-0.078629464
98	0xbd8e49f3	-0.069476984
99	0xbe0f30d0	-0.13983464
100	0xbdf179da	-0.117908195
101	0xbddf1ef5	-0.108945765
102	0xbdcdb4b1	-0.1004423
103	0xbd6df3c3	-0.058093797
104	0xbe0540cf	-0.13013004
105	0xbccc8953	-0.024967825
106	0xbe25bd54	-0.16185504
107	0xbdbd996f	-0.09257781
108	0xbd117bd7	-0.035518494
109	0xbe0e986a	-0.13925329
110	0xbdcf9818	-0.101364315
111	0xbe085cd2	-0.13316658
112	0xbdc18517	-0.09449213
113	0xbd524840	-0.051338434
114	0xbe1d2b74	-0.15348607
115	0xbdf3aa5f	-0.1189773
116	0xbde89c8f	-0.11357986
117	0xbdef47d6	-0.116836235
118	0xbcbf667a	-0.023364294
119	0xbd1b8341	-0.03796697
120	0xbdc7b897	-0.097520046
121	0xbdbe20dc	-0.09283611
122	0xbe0e3484	-0.1388722
123	0xbdbfa274	-0.09357157
124	0xbdb71649	-0.089397974
125	0xbd7fbd61	-0.062436465
126	0xbe04d911	-0.1297343
127	0xbe28e068	-0.16491854
128	0xbdf9a09e	-0.121888384
129	0xbdd814f5	-0.10550872
130	0xbe203bef	-0.15647863
131	0xbd85b1a1	-0.06528021
132	0xbdfbdcd5	-0.1229798
133	0xbd3b46e3	-0.0457219
134	0xbcd3d0d2	-0.02585641
135	0xbd7c97be	-0.06166815
136	0xbd55430f	-0.052065905
137	0xbe0e8573	-0.13918094
138	0xbd47eed9	-0.048811767
139	0xbdb16808	-0.086624205
140	0xbe209836	-0.15683064
141	0xbdadd92d	-0.084886886
142	0xbcca2d34	-0.024679758
143	0xbdac1aec	-0.084035724
144	0xbdd88264	-0.10571745
145	0xbcdebded	-0.027190173
146	0xbddaa8a6	-0.106766984
147	0xbd76455b	-0.060124736
148	0xbe2e0615	-0.16994508
149	0xbde6f7d9	-0.11277742
150	0xbe3261e8	-0.17420161
151	0xbe201305	-0.15632255
152	0xbd99250f	-0.074777715
153	0xbe10f29f	-0.14155053
154	0xbdf66362	-0.120306745
155	0xbe125b6a	-0.14292684
156	0xbdc0336a	-0.093848065
157	0xbd8f4532	-0.0699562
158	0xbd8409ef	-0.06447207
159	0xbe057a9c	-0.13035053
160	0xbe2c096a	-0.16800466
161	0xbd5fe141	-0.05465818
162	0xbd81906a	-0.06326373
163	0xbd99a9e6	-0.07503109
164	0xbddee7a8	-0.10884029
165	0xbe2b0813	-0.16702299
166	0xbda43b90	-0.08019173
167	0xbe3493a3	-0.17634444
168	0xbdfa851d	-0.122324206
169	0xbe76b882	-0.24093822
170	0xbdfeb77c	-0.124373406
171	0xbe243e89	-0.1603948
172	0xbe2df73d	-0.16988845
173	0xbdddd97d	-0.10832498
174	0xbd13bceb	-0.036068838
175	0xbc9aaa45	-0.018880019
176	0xbdf17308	-0.117895186
177	0xbe11eba6	-0.14250049
178	0xbdf1846a	-0.11792834
179	0xbdfc4b1f	-0.12319016
180	0xbe37c521	-0.17946292
181	0xbe3d5863	-0.18490748
182	0xbe139a79	-0.14414395
183	0xbe4b243f	-0.19838046
184	0xbe20f211	-0.15717341
185	0xbe678b24	-0.22611672
186	0xbdec5c34	-0.11541024
187	0xbe4cea34	-0.20011216
188	0xbe42993b	-0.19003765
189	0xbea9fb82	-0.33199698
190	0xbdfaac39	-0.1223988
191	0xbe58e06a	-0.21179357
192	0xbe748d79	-0.23882093
193	0xbe77b9d2	-0.24191979
194	0xbe5752e5	-0.21027716
195	0xbe5c0626	-0.2148672
196	0xbe73bc51	-0.23802306
197	0xbe75c6f3	-0.24001674
198	0xbe190f3a	-0.14947215
199	0xbde6ae5b	-0.112637244
200	0xbe19a2d8	-0.15003526
201	0xbddd59d0	-0.10808146
202	0xbe2737b9	-0.1632985
203	0xbd8c0389	-0.06836612
204	0x3d4b037b	0.049563866
205	0xbe5cba7e	-0.21555516
206	0xbe09df04	-0.1346398
207	0xbe2013a4	-0.15632492
208	0xbdf03a74	-0.11729899
209	0xbdefb87a	-0.11705108
210	0xbd0d706b	-0.03453104
211	0xbe09a355	-0.13441212
212	0xbda12930	-0.07869184
213	0xbe2bbb0b	-0.1677057
214	0xbe8f3edc	-0.27977645
215	0xbe8397b4	-0.25701678
216	0x3d167ffd	0.036743153
217	0xbdd5f702	-0.104475036
218	0xbe69c5fe	-0.22829434
219	0xbe1f7769	-0.15572895
220	0xbe0ed0f0	-0.13946891
221	0xbe12c33c	-0.14332289
222	0xbe6fdf5e	-0.23425052
223	0x3cf4e209	0.029892938
224	0xbd7a6a9b	-0.061136823
225	0xbe2c48fc	-0.16824716
226	0xbddfc831	-0.10926855
227	0xbe9a53b3	-0.30141982
228	0xbdec9bf3	-0.115531825
229	0x3c921c32	0.01783571
230	0x3cd2cb13	0.025731599
231	0xbe45b4f5	-0.19307311
232	0xbe3e7ba5	-0.18601854
233	0xbe7391e6	-0.23786125
234	0xbe3029d8	-0.17203462
235	0xbe5f36ec	-0.21798295
236	0xbc06c19d	-0.008224872
237	0x3c2afa9f	0.010435729
238	0xbe22f08a	-0.15912071
239	0xbe102112	-0.14075115
240	0xbe98d60f	-0.29850814
241	0xbe0c80fb	-0.13721077
242	0xbc870162	-0.016480152
243	0x3cec9fdb	0.028884819
244	0xbe80dd7c	-0.2516898
245	0xbe022428	-0.12709105
246	0xbe24584c	-0.16049308
247	0xbe820c4d	-0.2540001
248	0xbdfcdc5c	-0.12346718
249	0xbd3a66a4	-0.045508042
250	0xbb0206a0	-0.0019840375
251	0xbdea0414	-0.11426559
252	0xbe219ad5	-0.1578172
253	0xbe2ac0a7	-0.16675054
254	0xbda99c67	-0.082817845
255	0x3db4cbd2	0.08827938

bias f4 [5]
0	0xbd9b6d16	-0.07589166
1	0xbe4c42a9	-0.19947304
2	0x3e31e18e	0.17371199
3	0x3e2c70e5	0.16839941
4	0xbe29c511	-0.16579081

weight f4 [10, 5]
0	0xbeaf0eec	-0.34191072
1	0x3e81a7d9	0.2532337
2	0x3f30dd96	0.69088113
3	0x3e6a8718	0.22903097
4	0x3d9ab74c	0.07554492
5	0x3eb19705	0.3468553
6	0xbe140b20	-0.14457369
7	0x3e8135dd	0.25236407
8	0xbe4f5e3c	-0.20250791
9	0x3e831c7a	0.25607663
10	0x3e780b8a	0.24223152
11	0xbe9e6d5c	-0.3094281
12	0xbe2b1436	-0.16706929
13	0xbf161696	-0.58628213
14	0xbe666215	-0.22498353
15	0xbda7759e	-0.081767306
16	0xbeb9660d	-0.3621067
17	0xbead25be	-0.33817858
18	0x3cedc606	0.029025089
19	0xbeac11b3	-0.33607253
20	0x3ee2aba5	0.4427158
21	0xbb0edfde	-0.0021800916
22	0xbd1f7e7b	-0.03893898
23	0xbe3a097e	-0.18167683
24	0xbe5acf60	-0.2136817
25	0xbe67e667	-0.22646485
26	0x3dfa4e22	0.12221934
27	0xbede88e4	-0.43463814
28	0xbeb48640	-0.35258675
29	0xbde70b93	-0.112815045
30	0xbe8d5038	-0.27600265
31	0x3e056404	0.13026434
32	0xbd3cc342	-0.04608465
33	0xbed8289f	-0.4221849
34	0x3ec183cb	0.37795863
35	0xbd87d02c	-0.066315025
36	0xbe8ee7bd	-0.27911177
37	0x3e622cf1	0.22087456
38	0x3e63a306	0.22230157
39	0x3e4c5bc6	0.19956884
40	0xbe87949b	-0.26480564
41	0xbe7de512	-0.24794415
42	0xbe7ebaa6	-0.24875888
43	0x3f412b4d	0.75456697
44	0xbd1404b4	-0.036137298
45	0xbd67109b	-0.05641232
46	0x3e2e6f45	0.17034633
47	0x3d4d8c2d	0.05018251
48	0x3f0c7190	0.5486078
49	0xbdcec91f	-0.100969546

bias f4 [10]
0	0x3f141d61	0.5785733
1	0xbf1ef2db	-0.6208932
2	0x3d58acd6	0.052899204
3	0x3ea3ceb7	0.31993648
4	0x3eb5d4bc	0.35513866
5	0xbe24a08e	-0.16076872
6	0xbebfccb9	-0.37460878
7	0xbe2d9f8a	-0.1695539
8	0x3f3f5d77	0.7475199
9	0xbe5f5f31	-0.21813656

weight f4 [12, 10]
0	0x3f2bc15a	0.67091906
1	0x3e9becb8	0.3045404
2	0xbd1430a2	-0.036179192
3	0x3dc8fb6b	0.09813579
4	0xbd0f96ea	-0.035056032
5	0x3e1151e0	0.14191389
6	0xbe225353	-0.15852098
7	0x3ef4ba86	0.47798556
8	0x3e03a4d5	0.12855847
9	0xbe8fe2a1	-0.28102592
10	0x3efe8efc	0.49718463
11	0xbe8142d2	-0.25246292
12	0x3e34ca15	0.17655213
13	0x3ec74373	0.38918647
14	0x3e95c936	0.29255074
15	0x3e6ef3cf	0.23335193
16	0x3e68fb91	0.22752215
17	0x3e5d79a7	0.21628438
18	0x3f23b512	0.63948166
19	0x3ef3b608	0.47599816
20	0xbe7c2383	-0.24622922
21	0xbeb5ece4	-0.35532296
22	0x3dbf0d62	0.093287244
23	0xbca94445	-0.020662436
24	0xbe5492f8	-0.20759189
25	0x3e7e5e16	0.24840578
26	0x3e159201	0.14606477
27	0xbd59df34	-0.05319138
28	0xbe6b3ec7	-0.22973166
29	0xbdc0f37d	-0.09421442
30	0xbeeb7281	-0.45985797
31	0xbdff7e5a	-0.124752715
32	0xbe8adadb	-0.27120098
33	0x3d5e97c1	0.054343943
34	0xbe936c78	-0.28793693
35	0xbe8e7399	-0.2782257
36	0xbda375b5	-0.07981435
37	0xbeed3e8b	-0.4633678
38	0xbeb3b5d9	-0.35099676
39	0x3e736717	0.23769794
40	0xbee57983	-0.4481927
41	0xbeb1fe1b	-0.3476418
42	0xbe4839bc	-0.19553274
43	0xbd30d0a6	-0.043167733
44	0xbe343cdc	-0.17601341
45	0x3e4d99b8	0.2007817
46	0xbe9ed9c4	-0.31025517
47	0xbeef0c12	-0.46688896
48	0xbef820e0	-0.48462582
49	0x3e5a31cb	0.21308057
50	0xbe9a17f3	-0.30096397
51	0xbf133232	-0.57498467
52	0xbedb0b25	-0.4278194
53	0xbdea05de	-0.114269
54	0xbee83ed3	-0.4536043
55	0x3e2a856f	0.16652463
56	0xbd8afba8	-0.06786281
57	0xbebf07d2	-0.37310654
58	0xbebbfc08	-0.36715722
59	0xbcee54a1	-0.029093089
60	0xbea36ad6	-0.31917447
61	0xbe01f6c9	-0.12691797
62	0xbe381b9c	-0.17979282
63	0xbe39ae55	-0.18132909
64	0xbed22269	-0.41041878
65	0x3e0fac58	0.14030588
66	0x3e22cfd9	0.158996
67	0xbedcf63e	-0.43156618
68	0xbf1ce3af	-0.6128492
69	0x3e903962	0.2816878
70	0xbf16140e	-0.5862435
71	0xbe5616e7	-0.20907174
72	0x3dd217cb	0.102584444
73	0x3e001696	0.12508616
74	0xbeb26fd7	-0.34850952
75	0xbd97cd68	-0.07412225
76	0xbe96ca5a	-0.29451257
77	0x3dd382f6	0.10327713
78	0xbf049099	-0.5178314
79	0x3a98f9bd	0.0011671107
80	0xbe9cfb42	-0.30660444
81	0xbeffa98a	-0.49934036
82	0x3ba0168d	0.0048855008
83	0x3bc31dbf	0.0059544737
84	0xbcdd5f05	-0.027022848
85	0xbe895475	-0.26822248
86	0x3b128978	0.002235977
87	0xbea3ed46	-0.32016963
88	0xbf1b0953	-0.605611
89	0x3e525259	0.20539226
90	0xbf0440ec	-0.5166156
91	0xbe1e355e	-0.15450045
92	0xbde0dbaa	-0.109793976
93	0xbd7c5cdc	-0.061611995
94	0xbeb8f8bc	-0.3612727
95	0xbe13b187	-0.1442319
96	0xbe5efc29	-0.21775879
97	0xbe9f5557	-0.31119797
98	0xbe1c1b10	-0.15244699
99	0x3e16546a	0.14680639
100	0xbec303a6	-0.3808872
101	0xbdd1bfbc	-0.102416486
102	0xbe35c045	-0.17749126
103	0xbdcfe908	-0.10151869
104	0xbd06e30d	-0.032931376
105	0x3d937342	0.07199718
106	0xbd265b9e	-0.040614717
107	0xbcbaa3e5	-0.02278323
108	0xbf2023c7	-0.6255459
109	0x3de32494	0.11090961
110	0xbed947e8	-0.42437673
111	0xbe86c1fa	-0.26319867
112	0xbc9b5fb6	-0.018966537
113	0xbe383a35	-0.17990954
114	0xbecce610	-0.40019274
115	0x3e496388	0.19666874
116	0x3e791798	0.24325407
117	0xbd4450e2	-0.0479287
118	0xbee81317	-0.45327064
119	0x3dd740f1	0.105104335

bias f4 [12]
0	0x3e8d1177	0.27552387
1	0x3e9f4896	0.31110066
2	0xbf2f035c	-0.683645
3	0xbe53cca9	-0.2068354
4	0x3b8b7ceb	0.0042568347
5	0xbe7f6e4d	-0.2494442
6	0xbe96c8a8	-0.29449964
7	0xbef6da65	-0.48213497
8	0xbe975c42	-0.29562575
9	0x3c90361b	0.017603924
10	0xbed62425	-0.4182445
11	0xbd4c89e0	-0.049936175

weight f4 [1, 1, 3, 3]
0	0xbf7f5914	-0.997453
1	0x3f8e25ab	1.1105245
2	0x3f4410aa	0.7658793
3	0x3e74939c	0.23884434
4	0x3ec0a0e6	0.37622756
5	0x3eff80d9	0.4990299
6	0x3e8e77e7	0.27825853
7	0x3e890a3f	0.2676563
8	0xbf03ffe7	-0.5156235

weight f4 [5, 169]
0	0x3c7e7881	0.01553166
1	0x3d5d2505	0.053990383
2	0xbd633072	-0.055466123
3	0xbe1253b3	-0.14289741
4	0xbea13416	-0.3148505
5	0xbeba38bd	-0.36371413
6	0xbe918c4e	-0.28427356
7	0xbf211d54	-0.62935376
8	0xbe371af6	-0.17881379
9	0xbe992a02	-0.29914862
10	0xbf1cc41e	-0.6123675
11	0xbebe8ba0	-0.372159
12	0x3d9bc487	0.07605844
13	0xbd221f43	-0.039580595
14	0xbc12853b	-0.008942897
15	0xbec1484d	-0.37750474
16	0xbee727d0	-0.45147562
17	0xbf2f95e4	-0.6858809
18	0xbf24e7d8	-0.64416265
19	0xbf5db9b8	-0.8661151
20	0xbeda7967	-0.42670748
21	0xbf33d761	-0.7025052
22	0xbf0719f9	-0.52774006
23	0xbf4659fc	-0.77481055
24	0xbf41887b	-0.7559888
25	0x3e04bc9c	0.12962574
26	0xbd2462f4	-0.04013343
27	0x3e261b82	0.16221431
28	0xbd47885b	-0.048714023
29	0x3e31fd23	0.1738172
30	0x3ec99bc9	0.39376667
31	0xbd6bc998	-0.0575653
32	0xbe6dbf0e	-0.23217413
33	0xbe9f8819	-0.31158522
34	0x3cce540f	0.025186567
35	0xbcb11b4a	-0.021619458
36	0xbe4483be	-0.1919088
37	0x3d0f8ab5	0.03504439
38	0xbef2ffb7	-0.4746072
39	0x3d1db2a5	0.038500447
40	0x3e7f3f1d	0.2492642
41	0x3ef74844	0.48297322
42	0x3f0163ee	0.50543106
43	0x3e69a702	0.22817615
44	0x3dcf6920	0.10127473
45	0xbd1bc928	-0.038033634
46	0x3e10b047	0.14129744
47	0x3f452f2a	0.7702509
48	0x3f28a0be	0.65870273
49	0x3f04006d	0.5156315
50	0x3db969cd	0.09053383
51	0xbe33ac6f	-0.17546247
52	0x3e117065	0.14203031
53	0x3eb236cb	0.3480743
54	0x3f2c03c1	0.6719323
55	0x3e5c7a5f	0.21531056
56	0x3ee0c329	0.43898895
57	0x3e646745	0.22305019
58	0xbb153bb3	-0.002277118
59	0x3f23211e	0.6372241
60	0x3f8da38b	1.1065534
61	0x3f2f7e66	0.68552244
62	0x3f3b7fc1	0.7324181
63	0x3f1de0ae	0.6167096
64	0x3e9abaaa	0.30220538
65	0x3e287ca6	0.164538
66	0x3ed86724	0.4226619
67	0x3f35137f	0.70732874
68	0x3e932b7b	0.2874411
69	0x3efc4611	0.49272206
70	0x3ea2038d	0.31643334
71	0x3e01a139	0.12659158
72	0x3eb61970	0.35566282
73	0x3f228c2a	0.63495123
74	0x3e98e1b3	0.29859695
75	0x3e959163	0.29212484
76	0xbe1b99e6	-0.15195426
77	0xbd60cfef	-0.0548858
78	0x3e323edb	0.1740679
79	0x3edaa266	0.42702025
80	0x3f001253	0.5002796
81	0x3f1f7ed6	0.6230291
82	0x3ed86634	0.42265475
83	0x3ea00668	0.31254888
84	0x3e9e5bf5	0.30929533
85	0x3f0a012d	0.53908044
86	0x3f29fa01	0.663971
87	0x3f099792	0.537469
88	0xbe5c2dcf	-0.2150185
89	0x3d0d330e	0.034472518
90	0x3d936586	0.071970984
91	0x3d9a01a0	0.07519841
92	0x3f3899cc	0.72109675
93	0x3f5b9001	0.8576661
94	0x3f29cb97	0.6632628
95	0x3e9894e3	0.29801092
96	0x3ee53c79	0.447727
97	0x3ecc3d56	0.39890546
98	0x3f459ead	0.77195245
99	0x3f11fba0	0.57024574
100	0xbe866c89	-0.2625468
101	0xbd2f6d86	-0.04282906
102	0xbe5c353f	-0.21504687
103	0xbe97fb0c	-0.2968372
104	0x3c8e8739	0.017398464
105	0x3f1e23e9	0.61773545
106	0x3e8900d3	0.2675844
107	0x3e1a22de	0.15052363
108	0x3d0f5cad	0.035000492
109	0x3e69a912	0.22818401
110	0x3ee869c7	0.45393202
111	0x3f2acb38	0.6671634
112	0xbd9b6d32	-0.07589187
113	0xbe9dcfb6	-0.30822533
114	0x3da8ceed	0.08242593
115	0xbe7e223c	-0.24817747
116	0x3e61ac26	0.22038326
117	0xbbe4ccb2	-0.0069824094
118	0x3f21d6b5	0.6321824
119	0x3d12d2e0	0.035845637
120	0xbec65903	-0.38739786
121	0xbf1dedb0	-0.6169081
122	0xbeb1157b	-0.345867
123	0xbedee1d6	-0.43531674
124	0xbd3b20e0	-0.04568565
125	0xbc354362	-0.011063429
126	0x3c0230f5	0.007946243
127	0xbe14b70c	-0.14522952
128	0xbec8340e	-0.39102215
129	0x3e35adb0	0.17742038
130	0x3d2454b2	0.040119834
131	0xbe30b464	-0.17256314
132	0xbf165c87	-0.58734936
133	0xbf2c9b95	-0.674249
134	0xbf39071d	-0.7227648
135	0xbe553d01	-0.20824052
136	0xbdd48ca6	-0.10378389
137	0x3c8dc9f0	0.017308205
138	0x3e23e78b	0.16006295
139	0xbde45606	-0.1114922
140	0x3e54368f	0.20723937
141	0x3f079fef	0.52978414
142	0x3e232ff1	0.15936257
143	0xbd92a18e	-0.0715972
144	0xbd0bba0a	-0.034112968
145	0x3f468bd5	0.77557117
146	0x3e738d7c	0.23784441
147	0x3ef18691	0.4717298
148	0x3f289878	0.6585765
149	0x3f22c58f	0.635827
150	0x3f5bc83a	0.85852396
151	0x3f834464	1.0255246
152	0x3f14c871	0.5811835
153	0x3f3d4da3	0.7394659
154	0x3f066007	0.52490276
155	0xbd8178d4	-0.06321874
156	0xbd82d3ae	-0.06388031
157	0x38130000	3.504753e-05
158	0x3f1d721f	0.6150226
159	0x3f758d9f	0.9591922
160	0x3f467573	0.77522963
161	0x3f6c4a43	0.92300814
162	0x3f464fe1	0.77465636
163	0x3f7ab8de	0.97938335
164	0x3f45cfaf	0.77270025
165	0x3f30750c	0.689286
166	0x3e731790	0.23739457
167	0xbbb7d028	-0.005609531
168	0x3bf76414	0.007549772
169	0x3cc7a159	0.024368929
170	0x3d89a08b	0.06720074
171	0x3d7717a8	0.060325295
172	0xbd07c480	-0.03314638
173	0xbd6288d7	-0.055306282
174	0xbcdfe332	-0.027330015
175	0xbdeface6	-0.117029
176	0xbd28eebe	-0.041243307
177	0xbd8fecab	-0.07027563
178	0xbdcab1fc	-0.09897229
179	0xbe01281e	-0.1261296
180	0xbd23790f	-0.039910372
181	0xbce5a64a	-0.028033394
182	0x3d30178a	0.0429912
183	0xbc4367cf	-0.011926605
184	0x3d63ba88	0.055597812
185	0xbd406af9	-0.046977017
186	0xbe260bf0	-0.16215491
187	0xbd1da928	-0.038491398
188	0xbe1ed4b1	-0.15510823
189	0xbcd46f40	-0.025931954
190	0xbcc2349e	-0.02370673
191	0xbd9c00de	-0.07617353
192	0xbe097b80	-0.13426018
193	0xbc3a6745	-0.01137716
194	0x3c938dca	0.018011946
195	0x3d439adc	0.047755107
196	0xbc6cadc6	-0.014445728
197	0x3d9828ea	0.07429679
198	0xbd80b287	-0.062840514
199	0xbdc823d5	-0.097724594
200	0xbd164eb0	-0.036696136
201	0xbe340969	-0.17581715
202	0xbe10dd55	-0.14146931
203	0xbdb6b0d1	-0.08920444
204	0xbe2a0913	-0.16605024
205	0x3d8728c3	0.065995716
206	0xbd304a6a	-0.043039717
207	0xbde2425d	-0.11047814
208	0xbd87f00a	-0.06637581
209	0xbc16414f	-0.009170844
210	0x3d878c38	0.066185415
211	0xbd25b2d8	-0.04045376
212	0xbdc4b491	-0.09604753
213	0xbdc92570	-0.09821594
214	0xbdeaf4e1	-0.11472488
215	0xbe0120e7	-0.12610207
216	0xbdd2457c	-0.10267159
217	0xbd82922f	-0.063755386
218	0xbcf38199	-0.029724883
219	0xbe2deae1	-0.1698413
220	0xbd114ae8	-0.035471827
221	0x3bbd1114	0.005769858
222	0xbce81c14	-0.028333701
223	0x3c249400	0.010045052
224	0xbdb81d12	-0.0898992
225	0xbe2ba215	-0.16761048
226	0xbd4d5681	-0.050131325
227	0xbd9ef169	-0.07760889
228	0xbe0128d4	-0.12613231
229	0xbe2b4de0	-0.16728926
230	0xbe295588	-0.16536534
231	0x3c2ca232	0.010536717
232	0x3d7384cd	0.05945282
233	0x3d455159	0.048173282
234	0xbd474fa3	-0.048659932
235	0x3c09c6b2	0.008409189
236	0xbd767b24	-0.06017603
237	0xbd5b8bf2	-0.05360026
238	0xbe29e3b1	-0.16590764
239	0xbd86da58	-0.065846145
240	0xbd0849d8	-0.033273548
241	0xbdccc5fa	-0.099986985
242	0xbdefc9af	-0.1170839
243	0xbe00fafe	-0.12595746
244	0xbe02ed1d	-0.12785764
245	0x3cc4a88a	0.024006147
246	0xbcc6e4f0	-0.024279088
247	0x3d8f0f05	0.069852866
248	0x3d51c5c8	0.05121401
249	0xbe135193	-0.14386587
250	0xbe34a89a	-0.17642441
251	0xbdc9d853	-0.09855714
252	0xbdfc46f3	-0.1231822
253	0xbd122ea8	-0.035689026
254	0xbdf2ecc4	-0.11861566
255	0xbde3b452	-0.11118378

bias f4 [5]
0	0x3f034e6d	0.51291543
1	0xbe1b19b0	-0.15146518
2	0xbdb16404	-0.086616546
3	0xbd2ee054	-0.042694405
4	0x3e5bb4da	0.21455708

weight f4 [10, 5]
0	0x3f4c6b13	0.7985088
1	0xbec5843c	-0.3857745
2	0xbed7ba6d	-0.4213442
3	0xbefc7e89	-0.4931529
4	0x3da9edee	0.082973346
5	0xbda05e2e	-0.07830463
6	0xbdfafdba	-0.12255426
7	0xbe632e5c	-0.22185653
8	0x3ea47860	0.3212309
9	0x3e4ff317	0.20307575
10	0xbe70c6e8	-0.23513377
11	0x3efbcfc1	0.4918194
12	0x3f01e60a	0.50741637
13	0x3e90332e	0.28164047
14	0xbe309cab	-0.17247264
15	0xbe83cb7d	-0.25741187
16	0xbe603720	-0.21896029
17	0x3ec07b19	0.37593916
18	0x3f3754ee	0.7161397
19	0x3eea8256	0.45802563
20	0xbe4135d6	-0.18868193
21	0xbe811386	-0.25210208
22	0x3e0893c6	0.13337621
23	0x3e845325	0.25844684
24	0xbf0b2b20	-0.5436268
25	0x3f2260b8	0.6342883
26	0xbd85fbdb	-0.06542178
27	0x3dd060f3	0.101747416
28	0xbed6cf22	-0.41954905
29	0x3e7682e1	0.24073364
30	0xbe36ebca	-0.17863384
31	0x3eb228ab	0.34796652
32	0xbe6a9278	-0.22907436
33	0xbec4f263	-0.38466176
34	0x3ee24fe7	0.44201586
35	0xbe3c2fe3	-0.18377642
36	0xbed08e73	-0.4073368
37	0xbd179de4	-0.03701581
38	0x3df26c27	0.11837035
39	0x3f08fa5f	0.53507036
40	0xbc8cc6f8	-0.01718472
41	0x3e2dc4e1	0.16969635
42	0xbe71de17	-0.23619877
43	0xbef472ff	-0.47743985
44	0xbe1bfccf	-0.15233158
45	0x3e474c78	0.19462764
46	0xbdf0d409	-0.117591925
47	0x3e0717ab	0.13192622
48	0x3db79f0c	0.08965883
49	0x3f25862f	0.6465787

bias f4 [10]
0	0x3e5f7b49	0.21824373
1	0x3f1a1be0	0.60198784
2	0xbe547a45	-0.20749767
3	0xbecb3a7b	-0.39693055
4	0xbc10dd65	-0.008841847
5	0xbe8866ba	-0.26640874
6	0x3f484a42	0.7823831
7	0xbd8830c0	-0.06649923
8	0xbf0890b8	-0.53345823
9	0x3f0861bd	0.53274137

weight f4 [12, 10]
0	0x3f366de1	0.7126141
1	0x3e89983f	0.26873967
2	0xbe300bc0	-0.17191982
3	0xbf2a1a8f	-0.66446775
4	0x3c6c3823	0.014417681
5	0x3f0432ae	0.5163983
6	0x3eda16ed	0.42595616
7	0xbf257632	-0.64633477
8	0x3e38206c	0.17981118
9	0x3f40ec19	0.75360256
10	0xbf326012	-0.6967784
11	0x3ee97bc5	0.4560224
12	0x3dc4ff9f	0.09619068
13	0x3ef98ec3	0.4874173
14	0xbd31df8b	-0.043426078
15	0x3e957c5d	0.29196444
16	0x3ee2ac6f	0.4427218
17	0x3f146694	0.5796902
18	0xbeaaa145	-0.33326164
19	0x3f3d025e	0.7383174
20	0x3cf2962c	0.029612623
21	0xbf11e6d7	-0.5699286
22	0x3d0a8aec	0.033823892
23	0xbf073d43	-0.5282785
24	0x3e204f9a	0.15655366
25	0xbf2e8e93	-0.681863
26	0xbe845ca8	-0.2585194
27	0xbee9d02b	-0.45666632
28	0xbe96854e	-0.29398578
29	0xbf04acf1	-0.5182639
30	0xbee86be8	-0.45394826
31	0xbe24eb88	-0.16105473
32	0xbddebf79	-0.10876364
33	0xbf21bf0e	-0.6318215
34	0x3d9ad445	0.075600185
35	0xbea11293	-0.31459484
36	0xbe911dee	-0.28343147
37	0xbeb4ae10	-0.3528905
38	0xbdecedc6	-0.11568789
39	0xbf15a123	-0.58449
40	0xbddbd26b	-0.107334934
41	0xbcd61298	-0.026131913
42	0xbe832a85	-0.25618377
43	0xbed61de4	-0.4181968
44	0xbe948313	-0.29006252
45	0xbf11bac2	-0.56925595
46	0xbf169324	-0.5881827
47	0xbe7611c4	-0.24030215
48	0xbf14de37	-0.5815157
49	0xbf05d899	-0.52283627
50	0xbe4a737b	-0.19770615
51	0xbe31165d	-0.17293687
52	0xbe8c0eae	-0.2735495
53	0xbe64ecb4	-0.2235592
54	0xbedd2118	-0.4318931
55	0xbe1e3985	-0.1545163
56	0xbf215be0	-0.63030815
57	0xbda694a1	-0.081338175
58	0xbf121b4a	-0.5707289
59	0xbefcfeb9	-0.49413088
60	0xbdfaf9d6	-0.12254684
61	0xbf02bce4	-0.51069474
62	0xbd75c307	-0.060000446
63	0xbd2b6b71	-0.04185051
64	0x3e1ca659	0.15297832
65	0xbe9e2956	-0.30890912
66	0xbf299c62	-0.66254246
67	0xbe9c0d45	-0.30478874
68	0xbef91613	-0.48649654
69	0xbf2da87f	-0.6783523
70	0xbe7d8755	-0.24758656
71	0xbede4bbd	-0.4341716
72	0xbefb07d4	-0.4902941
73	0xbe92b2ac	-0.2865194
74	0x3d0a1512	0.0337115
75	0xbe131e6d	-0.14367075
76	0xbf1b6d08	-0.60713243
77	0xbf16af80	-0.5886154
78	0xbef13521	-0.47110847
79	0xbf232151	-0.6372271
80	0xbe888ad7	-0.26668426
81	0xbe2c4135	-0.1682175
82	0xbe9bc912	-0.30426842
83	0xbeb72d45	-0.35776725
84	0xbeaccc0f	-0.33749434
85	0xbebf8212	-0.37403923
86	0xbe8617aa	-0.2618993
87	0xbe248b19	-0.16068687
88	0xbe8197f7	-0.25311252
89	0xbf429c29	-0.7601953
90	0xbeec0973	-0.4610096
91	0xbecbbca1	-0.3979235
92	0xbe173a0c	-0.14768237
93	0xbe0947cf	-0.13406299
94	0x3e1968b3	0.14981346
95	0xbed25211	-0.41078237
96	0xbf4c821a	-0.7988602
97	0xbe3c099a	-0.18363038
98	0xbe00ce2c	-0.12578648
99	0xbe969b65	-0.29415432
100	0xbe151745	-0.14559658
101	0xbe64fd6b	-0.22362296
102	0xbd624f34	-0.055251315
103	0xbefde69c	-0.49590003
104	0xbd347165	-0.044053454
105	0xbe0bd8a5	-0.13656862
106	0xbf0ef814	-0.5584729
107	0xbf0939bc	-0.5360372
108	0xbe99bcac	-0.30026758
109	0xbf34c42e	-0.70611846
110	0xbeed7fce	-0.4638657
111	0xbec7c7e7	-0.390197
112	0xbec7b906	-0.3900835
113	0xbeff0743	-0.49810228
114	0xbe8208c3	-0.2539731
115	0xbeb59ad0	-0.35469675
116	0xbf1fd785	-0.6243823
117	0xbe9b5a7d	-0.30342475
118	0xbf068670	-0.52548885
119	0xbec9d6dd	-0.3942174

bias f4 [12]
0	0x3f0d29c1	0.55141836
1	0x3cb90379	0.022584664
2	0xbe3e36c5	-0.1857558
3	0xbf06e7eb	-0.5269763
4	0xbe53549d	-0.20637746
5	0xbe0a7f1d	-0.13525052
6	0xbd4ddc2f	-0.05025881
7	0xbd62d68b	-0.055380385
8	0xbf262b8c	-0.649102
9	0xbe87c1ec	-0.26515138
10	0xbe14d393	-0.14533834
11	0xbe58c9b9	-0.21170701

weight f4 [1, 1, 3, 3]
0	0x3f31f7de	0.6951884
1	0x3ef656d9	0.48113135
2	0xbdc405af	-0.095713966
3	0x3f826333	1.0186523
4	0xbe262ddb	-0.1622843
5	0xbf455875	-0.770881
6	0x3e32d31e	0.17463347
7	0xbeea0199	-0.45704344
8	0xbe8229bd	-0.2542247
