xai_neurips_2021/models/pre_trained/fmnist_mnist_pre_trained_12_6_03_14_25_69_711_810_expert_model.pt (torch, 90319 bytes, 84 tensors)

weight f4 [1, 1, 3, 3]
000000 ef 5e 11 3f dd 19 10 3e 4c 4a 8a be 31 84 3b 3d
       0.5678548 0.14072366 -0.2700981 0.045780364
000010 01 a8 90 ba 8d 4e 5b bf 8f db 4c 3e b6 e6 88 3e
       -0.0011036397 -0.85666734 0.2000563 0.26738518
000020 fa 46 3b bf
       -0.73155177

weight f4 [5, 169]
000000 ca 1b 67 be 60 9d a3 be 4f 8a 77 3f 20 ed cf be
       -0.22569194 -0.31956005 0.9669542 -0.406106
000010 ec 34 00 bf e6 1a 7a be 63 0d c8 3d 23 f3 03 3e
       -0.5008075 -0.24424323 0.09768178 0.12885718
000020 a1 5a aa be af e7 55 be 43 31 00 bf fd 53 f0 3c
       -0.3327227 -0.20889162 -0.5007517 0.029336924
000030 45 7d a4 bd 4c e2 19 be a6 2b bd 3e f1 17 ae 3e
       -0.08031706 -0.15027732 0.36947364 0.3400264
000040 62 38 f4 3d 9a 27 fd be fb 54 8b 3d fd ad 53 3d
       0.11924817 -0.49444276 0.06803318 0.0516796
000050 0b e6 ee bc cc 3b 81 bc 0b 19 a6 3e 1e b6 32 bd
       -0.029162427 -0.015775584 0.3244098 -0.04363071
000060 1a 36 37 be 9e b0 c4 be a8 2c 14 3e 98 2b 84 3f
       -0.17891732 -0.38415998 0.1447016 1.0325804
000070 1e 5f bd 3e 6f 42 26 3e 59 18 8e 3e f7 4c 91 3e
       0.3698663 0.1623628 0.2775295 0.28379032
000080 8d 37 36 3e 98 7b 4b 3e 40 05 27 3f 56 89 0a be
       0.17794628 0.19871366 0.65242386 -0.13528952
000090 50 04 3d 3e e1 02 97 3c 89 07 e3 be cc f8 b7 3e
       0.18458676 0.01843399 -0.44341686 0.35932004
0000a0 e3 4d 81 3f 06 74 8b 3e 71 67 49 bd e2 9d 00 3f
       1.0101894 0.27236956 -0.049170915 0.5024091
0000b0 96 0f 5a 3e 49 0c ee 3d 32 83 a1 3e ad 33 0a 3f
       0.21295008 0.11623437 0.31545407 0.539851
0000c0 f7 b6 15 be 88 9a d1 3e 2b 0e fb 3c 7a 5e 08 bf
       -0.14620577 0.4093821 0.030646404 -0.5326916
0000d0 f6 02 b8 3e de 02 81 3f 1c 25 e9 3e e9 53 fc 3e
       0.3593976 1.0079 0.45536125 0.49282768
0000e0 39 a4 88 3e f8 8b b9 bd 4f 63 1e 3d f5 b8 b5 3e
       0.26687792 -0.090599 0.038668927 0.35492674
0000f0 3c 59 71 3e 0a d4 d1 3e 71 0f 68 3c c6 06 50 be
       0.23569196 0.40982085 0.014163838 -0.20315084
000100 59 1d f4 be 1e ca 43 bc c1 33 63 3e d5 a5 a8 bb
       -0.4767864 -0.011950044 0.22187711 -0.005146722
000110 fc 26 23 3f 6b f7 b0 bc ad ba 27 be a9 fb 97 bc
       0.6373136 -0.021602353 -0.16379805 -0.018552618
000120 b9 de 06 be 69 44 dc bc 5b 3c 36 bd 6e 08 05 bf
       -0.131709 -0.02688809 -0.044491153 -0.5196599
000130 58 ea ac 3d c1 26 34 3d b5 25 dd bc b8 15 7f 3e
       0.08443135 0.04398227 -0.02699552 0.24910629
000140 23 ed df bd cd 83 87 3e a6 b7 3b 3e 69 23 15 3c
       -0.10933902 0.26467744 0.18331775 0.009102681
000150 13 44 45 3c 8e 98 26 3e 2d 5e 2e bc 35 39 d5 bd
       0.012040156 0.16269132 -0.01064257 -0.10411302
000160 31 da 9d bc e1 87 1e 3e 1b d9 c8 3e 54 1d 32 be
       -0.01926908 0.15481521 0.39228138 -0.17394
000170 06 07 10 3d e5 26 26 bb e8 61 85 3e 15 b9 b3 3e
       0.035162948 -0.0025352773 0.2605126 0.35102144
000180 be 90 51 be 0a d3 54 3d 4f 84 64 bd 50 12 bf be
       -0.20465371 0.051959075 -0.05579024 -0.3731866
000190 b9 4e e6 3d e6 a4 fc 3d 01 be 63 3e 10 ff 6c 3e
       0.11245484 0.123361394 0.2224045 0.23144174
0001a0 87 04 c6 bd 00 c3 6a be 69 b8 d5 3e bd 85 62 3c
       -0.09668832 -0.22925949 0.41742256 0.013825831
0001b0 26 1a 49 be 58 29 f6 bb d9 20 a9 3e 13 bc 9b 3e
       -0.19638881 -0.007512253 0.33032873 0.30416927
0001c0 63 67 92 bc 9a 7f 68 3e a5 11 79 3e 99 7b 9e 3e
       -0.017871564 0.22704926 0.24323137 0.30953673
0001d0 03 96 83 3e 2b c8 5f be 69 19 aa bd 6f 74 63 3e
       0.25700387 -0.21853702 -0.08305628 0.22212385
0001e0 e9 5c 40 3f 1d 0f a7 bd 7c a3 27 3d 5a 24 f2 3d
       0.7514177 -0.081571795 0.040927395 0.1182334
0001f0 c7 e9 bc 3d 1e ee 75 3e fc e6 0b 3e b3 63 cc bc
       0.09224277 0.24016616 0.13662332 -0.024949884
000200 3e 09 ef 3e 24 c6 8e 3e d4 cd 83 be 5f fb 16 be
       0.4668674 0.27885544 -0.25742972 -0.14744328
000210 96 1e 59 3e 28 23 0c 3f b5 bd 90 3e 93 d5 04 3e
       0.21203074 0.54741144 0.28269735 0.12972097
000220 41 0f 12 3e 14 34 d0 3e 72 18 a1 3e c9 c9 6d 3e
       0.14263631 0.40664732 0.31463963 0.23221506
000230 26 0d 10 be 1c 1c 8c 3e c4 7f c5 3d 45 d3 99 be
       -0.14067516 0.27365196 0.0964351 -0.30043998
000240 3e c1 9c be b3 16 84 3d 1a 79 c2 3e 26 80 50 be
       -0.30616182 0.06449642 0.37983018 -0.20361385
000250 6c c9 f0 3d 35 13 3c 3e cb 47 05 3e 40 a1 42 3e
       0.11757168 0.18366702 0.13015668 0.19006824
000260 95 28 51 3e b0 d4 3d 3d 15 59 5d 3e 71 2b 1e be
       0.20425637 0.046345413 0.21616013 -0.15446259
000270 7c 06 b1 be f6 7c 9e bd b0 0c 89 be 29 c8 e7 bd
       -0.3457526 -0.07738678 -0.26767492 -0.113174744
000280 d2 9e a0 3d b8 dc a5 be 63 55 1c be 06 a5 07 be
       0.078427926 -0.32394958 -0.15266947 -0.13246545
000290 3b ca d9 bc 0f 4b 7e 3e de db d5 3e 44 97 5e 3d
       -0.026585689 0.2483332 0.41769308 0.054343477
0002a0 87 9a 8c be 44 5a 85 bd 28 ff 18 be 80 6b b8 bd
       -0.27461645 -0.065113574 -0.14941084 -0.09004879
0002b0 52 55 00 be c9 5b 3a be c7 27 17 be 38 68 01 be
       -0.12532547 -0.18199076 -0.14761268 -0.12637413
0002c0 d5 d3 c3 bd 15 59 25 be 35 eb 9e bd 43 8d ce bd
       -0.09561888 -0.16147263 -0.07759706 -0.10085537
0002d0 b5 dd 12 3d d2 0f 7c 3c 3e 5f 6b bd a0 3f 43 3d
       0.035855968 0.015384631 -0.057463877 0.0476681
0002e0 5c ae 3d 3d a6 ad 4d bd 3a e0 03 be 60 b6 31 be
       0.04630886 -0.050214432 -0.12878504 -0.17354727
0002f0 f7 f8 70 bd 2b 61 83 bd 59 83 be bd 98 33 eb bd
       -0.05883118 -0.06415018 -0.09302396 -0.1148445
000300 6f 88 80 bd c4 9c 00 3e d3 e0 44 3d 1d d7 cc bd
       -0.06276023 0.12559801 0.04806597 -0.10001967
000310 0c 38 88 3d fe e4 67 bd 7d 0a 51 be 3c 83 14 be
       0.06651315 -0.05661487 -0.20414157 -0.14503187
000320 b4 ae 22 be 9f f8 e1 bd ad 0e 94 bd e3 c9 94 bd
       -0.15886956 -0.11033749 -0.07229362 -0.07265069
000330 cc c2 3c bd 86 8f b1 bd 7e ee 52 3d d2 ab 85 3d
       -0.04608421 -0.08669953 0.051496975 0.06526913
000340 b4 51 2c be 53 f2 80 3d 57 f8 13 be 8e e0 08 be
       -0.16828042 0.0629622 -0.14450203 -0.13366911
000350 db 92 57 bd cd 5e 26 be 54 36 29 be d1 61 28 be
       -0.052630287 -0.16247101 -0.16524631 -0.16443564
000360 cf a8 f8 bd 0c ea e7 bd 90 27 0d be d9 a7 fb 3c
       -0.12141573 -0.11323938 -0.13784623 0.030719684
000370 e4 f2 39 3d 50 13 0a be 83 b1 ee 3d 7f 6b 2c bd
       0.045397654 -0.1348393 0.116549514 -0.042094704
000380 ea a2 23 be 83 90 1b be c3 44 ad bd 77 64 40 be
       -0.15980116 -0.15191846 -0.08460381 -0.18788324
000390 e5 4b 56 bd 90 47 d1 bd 78 ba 01 be 3a e9 ce bd
       -0.052318472 -0.102187276 -0.12668788 -0.10103078
0003a0 c8 a1 09 3e b3 00 4f 3d 9c a1 2e be 07 25 01 3e
       0.13440621 0.050537776 -0.17053837 0.12611781
0003b0 9c 96 66 bc f1 25 a7 bd aa 86 9d bd c3 07 c8 bd
       -0.014073994 -0.081615336 -0.07691701 -0.097671054
0003c0 73 8b 14 be c8 20 00 be 7d 67 a4 bd 2c f4 79 bd
       -0.1450632 -0.12512505 -0.08027551 -0.061023876
0003d0 1e dd 00 be 09 46 f4 bd a9 df f9 3d 1c 1b e8 bd
       -0.1258435 -0.11927421 0.12200863 -0.11333296
0003e0 e1 53 50 3d fd 57 ef bd 98 30 b7 bd 4b 54 8c bd
       0.050861243 -0.11686704 -0.089448154 -0.06852015
0003f0 f7 36 40 be 51 87 3f be 18 ba c7 bd 7a e5 26 bd
       -0.18770967 -0.18703963 -0.097522914 -0.04074619

bias f4 [5]
000000 aa 93 16 3e a6 26 63 bd 67 50 13 3e 0c 51 13 3e
       0.14704767 -0.05545678 0.1438614 0.14386386
000010 49 6e 04 3e
       0.12932695

weight f4 [10, 5]
000000 b8 e1 12 be da ee 3d bb db fd af be bb 32 ca 3e
       -0.14343917 -0.0028981478 -0.34373364 0.3949183
000010 8b 94 95 be 29 f4 f3 bd 86 a7 fb bc 7f 00 15 3f
       -0.29214892 -0.11911804 -0.03071953 0.5820388
000020 b0 bf d7 3d 3e 01 c6 be 17 60 58 3f ff fd 56 bc
       0.10534608 -0.38672823 0.8452162 -0.013122081
000030 30 8d 0f bf fd 62 56 3f e2 c8 37 3f 4f dc d9 3e
       -0.5607481 0.83744794 0.717909 0.42550895
000040 9d 7d bc bd d1 08 cc bd ba 1a 86 3c 2f 90 81 3d
       -0.09203646 -0.09962619 0.016370166 0.06326329
000050 18 2c df be 20 bd dc bd c5 9b a1 be 6c 45 85 be
       -0.43588328 -0.1077826 -0.31564155 -0.26029527
000060 b6 a6 dd 3d d2 7a 42 3e dd 56 95 be da cc 48 3f
       0.10822813 0.18992165 -0.29167834 0.7843758
000070 96 e8 54 3e 59 c4 bd 3d 1f 6e 02 be b6 52 84 be
       0.2079185 0.09265966 -0.1273732 -0.25844353
000080 95 ed f2 3e 9a 81 95 bd e4 d3 9d 3e da b8 1a 3f
       0.47446886 -0.0730011 0.30825722 0.6043831
000090 db 1e 9b 3d 02 17 a9 3d cc 21 58 3e 3e eb 80 3d
       0.075742446 0.082563415 0.21106642 0.06294869
0000a0 70 ca 93 be 7b 50 72 3e 44 e9 bd be 39 54 9c 3d
       -0.28865385 0.23663513 -0.3709203 0.07633252
0000b0 1c 0e 82 be fe c8 fa be 97 3e 16 3e 7a dc ed 3b
       -0.2540139 -0.4898147 0.14672314 0.007258949
0000c0 5f 41 95 bc 90 3f 6d be
       -0.018219648 -0.23168778

bias f4 [10]
000000 f7 57 ba be a9 2e 14 bc 0c ff 95 3e 99 86 84 be
       -0.36395237 -0.009044328 0.29296148 -0.2588394
000010 f6 17 25 be 54 43 a9 3d 6b c7 f0 3c 91 fa 1d 3e
       -0.16122422 0.08264795 0.029391965 0.15427615
000020 7b 5c a4 be 3f 64 1f bf
       -0.32101807 -0.6226234

weight f4 [12, 10]
000000 87 a7 e9 bd 55 94 18 3e e6 5d 47 3e d3 a9 67 3e
       -0.114089064 0.14900334 0.19469413 0.22623377
000010 86 a8 83 be 65 e6 c9 3e 99 fb 29 bd 54 47 16 3f
       -0.2571451 0.3943359 -0.041499708 0.5870259
000020 e6 65 65 3e a1 9d 08 3d 19 44 99 3d 56 9b ff be
       0.22402152 0.03335345 0.07483692 -0.499232
000030 bb c8 56 3f 86 c6 af 3e ea 0f a1 3e 97 43 75 3d
       0.8390004 0.3433115 0.31457454 0.05987891
000040 4e d1 d8 be 2b 7d 2f 3f 90 2c 0e be f7 77 50 be
       -0.42347187 0.68550366 -0.13884187 -0.20358263
000050 f3 63 90 3e de 70 33 c0 12 10 ad be d8 5b e2 be
       0.28201255 -2.8037639 -0.33801323 -0.44210696
000060 3e 2f 5f bc 01 b5 f8 be 61 0d 04 c0 06 0f 04 bf
       -0.013622103 -0.48575595 -2.0633166 -0.51585424
000070 bd 37 88 bd a2 f6 39 3e d3 e9 4d 3d 50 94 23 c0
       -0.06651256 0.18160489 0.05027182 -2.5559273
000080 f6 79 36 bf f0 c5 9f be 94 58 5d 3d 37 d7 dc be
       -0.7127985 -0.31205702 0.054039553 -0.43132946
000090 1d a0 1f c0 c7 ad 65 be 0a 5e c1 3d 00 84 08 bd
       -2.4941475 -0.22429572 0.09441765 -0.03332901
0000a0 73 73 08 be d4 b3 2e c0 bf 39 82 be 4e ab 08 bf
       -0.1332529 -2.7297258 -0.25434682 -0.5338639
0000b0 0f 47 4c 3c 39 98 ef be 59 a8 21 c0 35 13 a7 be
       0.012468114 -0.46795824 -2.5259001 -0.3263184
0000c0 1f 0f 1b 3e d5 f7 2b 3e 13 1d c8 bd 1c d4 23 c0
       0.15142487 0.16793759 -0.097711705 -2.5598211
0000d0 3a eb 2b bf ab 0f 99 bd 0a 70 62 3e c4 0e a3 be
       -0.671558 -0.074736916 0.22113052 -0.31847203
0000e0 fa 66 2a c0 b5 86 74 be 92 e4 9d be cf c6 08 be
       -2.6625352 -0.23879512 -0.30838448 -0.1335709
0000f0 4f 90 17 3e 30 a3 13 c0 c7 0e 04 bf 40 01 f5 be
       0.14801143 -2.3068352 -0.5158505 -0.47852516
000100 c3 55 8b be 68 b6 0d bf 7d 72 f5 bf 7a cf 3d bf
       -0.27213868 -0.55356455 -1.9175564 -0.7414471
000110 d9 9a 80 bd 11 ed 79 3d 84 b1 dd bd 09 7b 2b c0
       -0.06279535 0.0610171 -0.10824874 -2.6793845
000120 e3 b6 95 be 3d 6b e1 be 5a e3 d8 3d 62 72 a5 be
       -0.29241094 -0.4402713 0.10590239 -0.3231383
000130 8e a2 1b c0 30 c8 18 bf a6 06 2c be d8 34 9d 3e
       -2.4317966 -0.5968046 -0.16799411 0.3070438
000140 e5 0e 43 bb a6 71 2d c0 a5 dc 26 bf 01 bb 08 bf
       -0.0029763517 -2.7100616 -0.65180427 -0.53410345
000150 02 6f 43 be 67 6f 73 be c1 a9 07 c0 42 74 07 bf
       -0.19085315 -0.23772965 -2.119736 -0.5291177
000160 33 9d f7 bc 91 8e 9a 3d 5e 77 c6 3d 15 cf 2f c0
       -0.030226326 0.07546724 0.09690736 -2.7470143
000170 5c cc 05 bf ef f2 71 be 0d f1 2f be 0f f1 1b be
       -0.5226495 -0.23627828 -0.17181797 -0.15228675
000180 33 a7 15 c0 01 f7 36 bf 5a 31 ce 3d 8f 76 72 3e
       -2.33833 -0.7147065 0.10068007 0.23678039
000190 ee 92 f2 3d 43 63 0e c0 3a 50 26 bf 14 33 ed be
       0.11844431 -2.2248085 -0.64966166 -0.46328032
0001a0 9e 24 6d 3c f1 f6 fa be 48 54 06 c0 aa 13 37 bf
       0.014474062 -0.49016526 -2.0988941 -0.7151438
0001b0 09 89 78 be b0 89 8b be cf e4 44 bd 84 3b 2f c0
       -0.24271025 -0.27253485 -0.04806977 -2.7380075
0001c0 82 ab 86 be ac 00 e4 be 14 a6 34 3e c3 0e 63 be
       -0.26302725 -0.44531763 0.17641479 -0.221736
0001d0 20 67 19 c0 3c cd 4a bf 0c fc 45 3e 56 07 1f 3e
       -2.3969193 -0.7921941 0.1933443 0.15530142

bias f4 [12]
000000 6c 6e 8c 3e 65 10 a6 3e 9e bd c6 bd f1 86 0a bd
       0.27427995 0.32434383 -0.09704135 -0.033820096
000010 ba ee 2b bd 20 07 92 be 2b 36 be be fd 51 98 be
       -0.041975714 -0.2852106 -0.37150702 -0.29750052
000020 4e 38 01 bf b1 93 19 bf 18 66 83 be e3 ba 90 bd
       -0.5047654 -0.59990984 -0.2566383 -0.07066896

weight f4 [1, 1, 3, 3]
000000 f4 9c 81 3e 22 3f 43 3f c4 8e a0 3e ff d8 28 bf
       0.25315058 0.7626821 0.31358922 -0.6595611
000010 ce ec 06 3f 8a 1a 12 3b f1 a9 7e bf 47 61 bc bb
       0.52705085 0.002229365 -0.9947806 -0.005748901
000020 c0 a7 d5 3d
       0.104323864

weight f4 [5, 169]
000000 6f 2d 9d be ae 01 32 bf 4d 22 b1 bf f2 42 95 bf
       -0.30698726 -0.69533813 -1.3838593 -1.1661055
000010 cf 12 16 bf 05 5c 55 3e df 07 aa 3e 18 a4 af bd
       -0.5862245 0.20835884 0.3320913 -0.0857622
000020 7d d3 6a bf 69 c5 f0 bf a0 ef 57 bf 34 32 fe bd
       -0.91728956 -1.8810245 -0.84350014 -0.12411919
000030 de 95 2e 3c 09 b3 7e be 4f 16 0b bf f7 6a 94 be
       0.010655848 -0.24872984 -0.54330915 -0.28987858
000040 01 4e 08 3e 84 5e 28 3c 0c 5f 3a 3e ef c2 33 3f
       0.13311006 0.0102764405 0.1820032 0.7021932
000050 44 ca 03 bd af 9b a2 bd d4 20 08 be 95 c8 aa bc
       -0.032175317 -0.079398505 -0.13293773 -0.020847598
000060 49 24 03 bf b0 c6 3b 3d b8 f0 ac be 0a 0e f8 3c
       -0.5122724 0.04584378 -0.33777404 0.030280132
000070 b0 0f 10 3e f4 30 1e be db 24 f9 3d 20 4a 7b 3d
       0.14068484 -0.15448362 0.12165233 0.061349988
000080 11 6c c2 3e 87 81 a4 be 78 7e 16 3e da a9 c4 3e
       0.37973073 -0.32130072 0.14696681 0.38410836
000090 4c 4c 53 be 01 24 b4 be f9 22 6b bd af fa aa be
       -0.20634574 -0.3518372 -0.0574064 -0.3339438
0000a0 ec 6b 9d 3d b1 d9 c9 3e 32 6e ad 3d cf 08 00 bc
       0.076866 0.39423898 0.08468284 -0.0078146
0000b0 13 59 b5 3d 6d 37 33 3e 60 01 0f bf cb bb f8 3e
       0.0885488 0.17501612 -0.55861473 0.48580775
0000c0 f0 2a 48 3f ae 32 67 3e 65 08 90 bc 09 4e 5b 3d
       0.7819052 0.22577927 -0.017582128 0.053541217
0000d0 8e 1f e3 bd a8 87 3e 3e c0 55 03 3f 6f f5 a7 3e
       -0.11090003 0.18606436 0.5130272 0.32804438
0000e0 e8 8a fc bc 98 3e fc bd 3a 0b a8 3d 11 57 1e bd
       -0.030827954 -0.12316626 0.08205266 -0.03865725
0000f0 28 f1 09 3e 3a 55 1f 3f a6 be cd 3e b3 91 15 3e
       0.134709 0.6223942 0.40184516 0.14606361
000100 a8 27 1c 3d 92 e2 4d be 2f a0 e6 3e ba 97 39 3f
       0.038123757 -0.20105961 0.45044085 0.7249714
000110 2f 10 cd 3e 3d 56 15 3d d6 65 8d be 98 da 43 be
       0.4005141 0.036459196 -0.27616757 -0.19126356
000120 2f af 70 3e c0 9d 45 3e ba 6c 4f 3f f1 28 26 3f
       0.23504327 0.19298458 0.8102528 0.6490622
000130 9a e9 9c 3e 5d fd 93 3d 66 15 88 be d8 c3 a1 3e
       0.30646974 0.072260596 -0.26578826 0.3159473
000140 76 ca 23 3f 72 11 b2 3e ec b2 ce 3d 4e 54 95 be
       0.63980806 0.34778935 0.100927204 -0.29165882
000150 50 72 6f be a8 0c ea be 13 35 87 3e c0 50 34 3f
       -0.2338345 -0.4571278 0.2640768 0.70435715
000160 13 2b 36 3e 2f 00 96 3e 50 f8 94 be 35 11 3c 3e
       0.17789869 0.29297015 -0.29095697 0.18365939
000170 b6 9c fc 3e 48 36 0f 3f ee a9 d3 3e 3c 2c 99 bc
       0.4933831 0.559422 0.41340584 -0.01869785
000180 3c 45 e7 bb ba 15 e7 3c d1 c9 b7 be 7e e5 0f 3e
       -0.007057814 0.028208602 -0.3589616 0.14052388
000190 ea b9 a0 3f a4 a5 ba 3e 54 a1 1e 3f 69 28 96 3d
       1.2556736 0.364545 0.6196492 0.073319264
0001a0 e6 95 fd 3c aa a5 2a 3f 59 ba 1e 3f 0e 79 f6 3e
       0.030955266 0.66659033 0.62003094 0.48139232
0001b0 e8 d2 71 3d 02 d5 a8 bd 2a f2 ed 3d b3 2c ec be
       0.059039026 -0.08243753 0.11618455 -0.46127853
0001c0 19 d2 ce be e3 a6 8b 3f 0c 89 ed 3e 70 5a 13 3f
       -0.40394667 1.0910305 0.4639362 0.5755987
0001d0 0f b3 74 be 83 c7 20 3e 5c bd 07 3f c2 53 00 3f
       -0.2389643 0.15701108 0.53023314 0.50127804
0001e0 d4 96 ac 3e 09 f7 1c 3e 28 b0 2c 3e 29 9d c9 3e
       0.33708823 0.15328611 0.16864073 0.39377716
0001f0 14 c6 90 be ff a2 ab 3d e6 13 44 3f 9c 61 f5 3e
       -0.28276122 0.083806984 0.7659286 0.47926033
000200 1f dc c7 3e a9 b4 8d 3c f2 d3 1a 3e 38 a3 01 3f
       0.39035127 0.01729806 0.15119913 0.5063968
000210 24 18 95 3e 43 fa 77 3e 7a 15 8e 3e ee 52 5f bd
       0.2911998 0.24216561 0.2775076 -0.054522447
000220 f6 5a 0d 3f d1 3d 25 be f0 96 8b be 8c 20 dc 3e
       0.5521692 -0.16136862 -0.27263594 0.4299358
000230 4e 5d 1e 3f d7 20 a2 3e b7 7a f3 3e 0d c8 67 3e
       0.6186112 0.3166568 0.47554561 0.22634907
000240 20 fc c5 3e c9 3f 95 3d 7f e9 05 3e d8 a5 a5 3e
       0.3866892 0.07287557 0.13077353 0.3235309
000250 21 10 a4 3d 9e 0f 4c 3e 59 56 4b be 8b ba da bd
       0.08010889 0.19927832 -0.19857158 -0.106801115
000260 3f 73 df 3e ff bd 1b 3f 2c b4 d0 3e 03 27 d9 3d
       0.43642613 0.60836786 0.4076246 0.10603144
000270 c5 c1 b3 bc 3b 12 b3 3e fb fe f6 3c 6d a3 63 bd
       -0.021942982 0.34974846 0.030150881 -0.055575777
000280 68 e0 ee bd c8 47 25 3e 14 3d 0c 3e af 7b 13 bf
       -0.11663896 0.16140664 0.13695174 -0.576106
000290 fc 15 4f 3e 30 49 08 3f cf 00 4a 3f 02 a7 0d 3f
       0.2022323 0.53236675 0.78907484 0.5533296
0002a0 d6 d6 10 3f 5a 45 33 3f 2e 00 95 bf 68 6f 4d bf
       0.56577814 0.700277 -1.164068 -0.8024812
0002b0 28 62 dc be 84 b7 4d be f1 db f2 3e 9b 85 a5 3e
       -0.43043637 -0.20089537 0.47433427 0.32328495
0002c0 21 32 18 bb 8e 24 fc be db a6 8f bf ed 00 2a bf
       -0.0023223239 -0.4924664 -1.1222795 -0.6640766
0002d0 30 66 e2 3e 99 6d 5e 3f ab 1b b2 3e d0 53 60 bf
       0.44218588 0.8688598 0.34786734 -0.8762789
0002e0 7b e2 9b be 6b c8 94 bd ee e1 f4 be 16 7a e1 bc
       -0.30446228 -0.07264789 -0.4782862 -0.027524035
0002f0 bd 03 10 3f 79 95 2a be 3b e1 c3 be e4 d2 24 be
       0.56255704 -0.16658582 -0.38257775 -0.16096073
000300 6c df a5 bc 9b a8 40 bf 51 24 4a 3f 19 98 cd 3d
       -0.020248137 -0.7525727 0.78961664 0.10038776
000310 d5 ad c7 3d 5d 01 99 3d 33 5d 2e 3c a0 89 42 be
       0.09749953 0.07470963 0.010642338 -0.18997812
000320 3b 42 8d bb a5 81 88 3e c5 c4 90 3d bd 58 d0 bd
       -0.004310874 0.2666141 0.07068781 -0.101731755
000330 a1 f2 27 3c 20 b6 9f be ea 24 f8 be b1 4b 62 3f
       0.010250718 -0.31193638 -0.48465663 0.88396746
000340 b2 62 9e be da 08 f1 3d 69 7f 56 3e fa 85 9d 3d
       -0.30934674 0.117692664 0.2094704 0.076915696
000350 69 bb 90 be a4 cb 85 bc 15 13 9f 3e 8f a9 75 be
       -0.28267983 -0.016332455 0.31069246 -0.23990463
000360 ca ea b2 3e 2a f8 c4 3e 5d 85 19 3e 0d 67 95 be
       0.34944755 0.38470584 0.1499228 -0.29180184
000370 25 ef 63 3f 77 aa 23 be f1 a6 80 3e 6a 83 85 3e
       0.8903678 -0.15982996 0.25127366 0.26076823
000380 b7 80 ea 3c 2c 83 63 be 82 3f 53 bd 03 b5 33 3e
       0.02862583 -0.22218007 -0.051574238 0.17549519
000390 7b a3 ba 3c be 4c f3 be 7b 7f 88 3e 50 92 53 3d
       0.022783032 -0.47519487 0.2665976 0.051653206
0003a0 cc df 9d 3d e5 ca 58 3f 06 a2 0f be 19 6b c5 3e
       0.077087015 0.8468459 -0.14026651 0.38558272
0003b0 e3 0c 07 3f 80 e1 d9 bb c0 b1 59 3e c8 05 3d be
       0.5275404 -0.006649196 0.21259212 -0.18459237
0003c0 8d a1 32 be e6 ae d2 3e 2d a8 ef be 6f 75 17 3f
       -0.17444439 0.41149062 -0.46807995 0.59163564
0003d0 0e 02 9e 3e f8 a6 95 3e 09 e9 5b 3f 09 d4 93 be
       0.30860943 0.2922895 0.8590246 -0.28872707
0003e0 92 f3 2d 3e aa 90 59 3e 05 29 3d be 97 9f ac bd
       0.16987446 0.21246591 -0.18472679 -0.08428877
0003f0 67 4d 69 bd 17 7c 84 be e0 2e 32 be 50 7e 99 be
       -0.056958582 -0.25875923 -0.17400694 -0.2997918

bias f4 [5]
000000 72 19 e0 3e 51 96 47 3c 32 ea 4f ba 4c 1d 0f be
       0.43769413 0.012181834 -0.0007931321 -0.1397602
000010 22 d1 31 be
       -0.17364934

weight f4 [10, 5]
000000 63 e8 a7 3d a1 ec 81 3f 02 11 94 bd f0 e9 b2 3d
       0.08198621 1.0150338 -0.072298065 0.08736026
000010 6c 3b d4 bd 11 e5 c3 3e 84 17 a5 3e 86 8d 4c bd
       -0.10362896 0.382607 0.32244503 -0.049939655
000020 70 a4 51 be 9b 4f 2c be fb 3f 92 3e 11 e9 20 bd
       -0.20472884 -0.16827242 0.28564438 -0.03928477
000030 be 52 2d 3f b6 5c 96 3c f8 d1 5a be fc 2b 08 3d
       0.6770438 0.018354755 -0.21369159 0.03324507
000040 a1 02 64 be a3 cd cb be 29 87 14 be 3c bc 6d be
       -0.22266628 -0.39805326 -0.14504685 -0.23216337
000050 ac c1 bc be dd 88 9a be 42 3e 0b be 16 96 b2 bc
       -0.3686651 -0.30182543 -0.13597968 -0.021800082
000060 0a 75 9d bc f8 b3 a9 bc f5 ae ff bd a0 7a 23 bf
       -0.019220848 -0.020715699 -0.12484542 -0.63858986
000070 e9 7f 8e 3e f1 0d b5 be 16 fe 6d bd 6e 21 21 be
       0.27831963 -0.353622 -0.058103643 -0.15735409
000080 e2 4e d9 be af a8 c7 be b3 ae ba 3c 25 cf 6e 3f
       -0.42442995 -0.38995883 0.022788381 0.9328483
000090 99 86 1a 3f f9 4f 3f 3e e5 26 c4 3e 38 3a 98 be
       0.6036163 0.18682851 0.38310924 -0.29731917
0000a0 23 dd 35 be ae c9 f4 be 3a 81 5f 3f 89 12 6e bc
       -0.17760138 -0.4781012 0.8730656 -0.014530786
0000b0 a1 21 45 be 1b d0 27 bf df 67 c2 3c 5e 40 d8 bd
       -0.1925111 -0.6555192 0.02373117 -0.10559152
0000c0 37 42 7f bd d4 e1 e7 bb
       -0.062319007 -0.0070764814

bias f4 [10]
000000 98 c8 a9 be 46 e5 e1 be 2a 30 22 3f 5a d8 01 bf
       -0.33160853 -0.44120234 0.6335474 -0.5072075
000010 f4 f7 eb be 59 58 19 bf 22 13 21 be 31 de 70 be
       -0.4608761 -0.5990043 -0.15729955 -0.2352226
000020 da 6b 62 3f fd 7d 20 bf
       0.8844582 -0.6269224

weight f4 [12, 10]
000000 15 eb 67 bf 4b ac 03 3e a8 8f 32 3f e4 8b 90 be
       -0.9059308 0.12858693 0.6975045 -0.28231728
000010 97 95 b3 bd de 4c 18 3d c9 5d 25 3e d2 be 42 be
       -0.087687664 0.03718268 0.16149057 -0.19018105
000020 56 10 79 3f d5 c9 b3 3d d1 3d 38 3e af 77 cd 3e
       0.9729055 0.08778731 0.17992331 0.40130374
000030 3b f8 0e 3f c0 af 2c bd 3e f9 16 be d0 ff 42 bd
       0.5584752 -0.042159796 -0.14743516 -0.047607243
000040 a3 81 52 3d 12 b8 27 3f cd 33 ac bd e6 1b 09 bf
       0.051393162 0.65515244 -0.08408318 -0.53558195
000050 d6 8c c4 be 11 06 00 bf 6c 0b 05 bf a8 1c 12 3e
       -0.383887 -0.50009257 -0.51970553 0.14268744
000060 c9 fd a8 bd 3c a1 2d 3e 66 bf 11 3d eb 39 3d bf
       -0.08251531 0.16956037 0.035582922 -0.739165
000070 70 5a 0c bf b3 4d cf be 1e 45 cf bd 33 a8 27 bf
       -0.54825497 -0.40488967 -0.10120605 -0.65491027
000080 e9 cf cc be 87 0a 3b be 35 86 c7 bd 42 33 ec bd
       -0.40002373 -0.18265735 -0.09742395 -0.11533214
000090 62 9e dd 3d ac 49 93 be 92 fd 3f bf 18 c6 ac be
       0.10821225 -0.28767145 -0.7499629 -0.33744884
0000a0 b9 50 49 bd 32 58 93 be ee 1c a7 be 69 2a 61 3e
       -0.04914925 -0.28778225 -0.3263926 0.21988834
0000b0 1d 38 9d 3d 1f e5 ed 3c e9 e5 13 bd 80 13 28 bf
       0.076767184 0.029039918 -0.03610793 -0.65654755
0000c0 3d 77 21 bf 5e e6 1b bf e6 56 bc be a9 93 82 be
       -0.6307257 -0.6089839 -0.36785048 -0.2550328
0000d0 b2 63 da be 3d a2 77 be 83 c5 8d be c6 b1 56 be
       -0.42654186 -0.24182983 -0.27689752 -0.20966253
0000e0 ba 2b 2c be 28 68 01 bf 4c b4 de be c1 ab 13 bf
       -0.16813555 -0.50549555 -0.4349693 -0.5768395
0000f0 42 95 21 be dc de 0d bf 6b 0c 1f bf 50 60 91 3d
       -0.15779594 -0.5541818 -0.62128323 0.07098448
000100 b3 fc be be 89 14 91 be e2 a2 1d be 36 42 93 be
       -0.3730217 -0.2833598 -0.15394166 -0.28761452
000110 01 20 7b be e3 9c 2d bf b4 fd f5 be b0 29 bd be
       -0.24523927 -0.67817515 -0.48045123 -0.36945868
000120 c0 f2 41 bf 9d 4e 11 be fd 4b 2b 3e 08 9e 18 3e
       -0.7576103 -0.14190145 0.16728206 0.14904034
000130 fa be 98 be 33 b6 15 bf 1d 84 b7 be b6 f4 85 be
       -0.29833204 -0.5848114 -0.35842982 -0.26163262
000140 6b 45 fe be 27 8e c9 be a0 fb aa be ea 84 4f 3e
       -0.49662337 -0.39366266 -0.333951 0.20265546
000150 09 2a ef be 54 83 ad bd 7c e9 9d be e1 77 84 be
       -0.46711758 -0.084723145 -0.30842197 -0.2587271
000160 c4 7e ba be 6a 95 13 bf 12 55 3b bd 36 c2 df be
       -0.3642484 -0.5764986 -0.045735426 -0.4370286
000170 5f 86 09 bf 69 5b 63 3e f6 4d 2a bd 2a d8 5d be
       -0.5372066 0.22202839 -0.041578256 -0.21664491
000180 04 ff 82 3e a8 5e 62 bf 33 96 90 be b4 ae 07 bf
       0.25585186 -0.88425684 -0.28239593 -0.5300095
000190 3a d8 08 bf 7a a1 19 bf 2d 30 0b bf de 47 05 bc
       -0.53454936 -0.6001202 -0.54370385 -0.00813481
0001a0 d4 72 3e 3d 1e ea 07 be c8 9d 5f 3e b5 57 51 bf
       0.046496227 -0.13272902 0.21837533 -0.81774455
0001b0 63 b8 06 bf c1 88 19 bf 01 8c 03 bf 93 81 7c be
       -0.526251 -0.59974295 -0.51385504 -0.24658804
0001c0 02 2e ac be c3 21 a5 bd 75 a4 fa 3d 9f b4 f0 3d
       -0.3362885 -0.0806308 0.12238399 0.11753201
0001d0 41 52 4f 3e 30 2c 17 bf 4a 27 10 bf 5d 84 d8 be
       0.20246221 -0.590518 -0.5630995 -0.42288485

bias f4 [12]
000000 18 b7 0c 3f 34 30 06 3f 4c 10 d4 bd 5d 33 1d bf
       0.5496688 0.524173 -0.10354671 -0.614065
000010 e0 2c 8b be 9c 6c 21 bf e6 4f e3 be 99 e6 ae be
       -0.27182674 -0.6305635 -0.44396895 -0.34160307
000020 78 c0 1e bf fa 0e 6c be f1 1e 26 bf e7 79 ec bd
       -0.62012434 -0.23052588 -0.6489096 -0.115466885

weight f4 [1, 1, 3, 3]
000000 c2 c1 55 bf 61 54 0b 3f 1c ff fe 3e 0e 4e df 3e
       -0.83498776 0.54425627 0.49804008 0.43614239
000010 e6 5f 0b 3f 5f d2 de 3d 52 df 5b bf c5 20 f1 3e
       0.54443204 0.10879969 -0.85887635 0.47095314
000020 e3 3e 3a bf
       -0.7275221

weight f4 [5, 169]
000000 3b 2d 1c bc 0a fd 20 bc fb c4 2b bd a2 1d 0d be
       -0.009532268 -0.009825954 -0.041935902 -0.13780835
000010 d5 8e 3c bd b4 be 19 be 25 e4 86 bd 93 bd 8e 3d
       -0.046034653 -0.15014154 -0.06586484 0.06969752
000020 9d 1d 97 bd 8a e6 3e be d0 a7 55 be 79 b0 45 bd
       -0.07378695 -0.18642631 -0.20864797 -0.048264
000030 e1 78 61 3d 8f ec 8d bc 02 3e 83 bd 5a 42 16 be
       0.05504692 -0.017324714 -0.064083114 -0.14673749
000040 5e 4a 22 bd a7 12 b4 bc 04 32 04 be d0 c3 17 3d
       -0.039621703 -0.02198155 -0.12909704 0.037051976
000050 e7 22 f8 bd 0e 91 c4 bd 91 98 4b be 30 b8 04 bf
       -0.12116032 -0.095979795 -0.19882418 -0.5184355
000060 8e 86 39 be c8 a0 85 bd 71 98 37 bd bb 50 72 bd
       -0.18117735 -0.06524807 -0.044823114 -0.05915902
000070 35 d0 b4 bd 00 b1 06 be 77 d6 9e bd 19 5d 7a be
       -0.08828775 -0.13153458 -0.0775575 -0.24449576
000080 a4 d7 d2 bc 42 d1 80 bd fe b3 38 be 5b d9 0f be
       -0.025737591 -0.06289913 -0.18037412 -0.14047758
000090 aa 42 10 bf 93 31 db be 5f e4 6b be 4a 21 74 bb
       -0.5635172 -0.4281126 -0.23036335 -0.0037251287
0000a0 c3 20 8d bd 49 38 ff ba 73 f0 ec bc d3 54 91 bd
       -0.068910144 -0.001947173 -0.028923249 -0.07096257
0000b0 1c 60 11 3d 25 3e 0b bd 82 fa 58 be 9d ae d5 3c
       0.035492048 -0.033994813 -0.21189311 0.026084239
0000c0 ff 1f 5d be 57 09 73 be 33 b8 e7 be dd 94 05 bd
       -0.21594237 -0.23734032 -0.4525772 -0.03261267
0000d0 a3 91 23 3c 3b ef 45 3d ff 24 ee bc cf 97 06 be
       0.009983453 0.04832385 -0.029070375 -0.13143848
0000e0 e8 b2 a3 3c 45 1a 5f bc 8c 72 bb be b8 5e a9 be
       0.01998277 -0.013617103 -0.3661083 -0.33080077
0000f0 5d 71 69 be 01 9b 14 be df 07 ac be 4d 51 dc be
       -0.22797151 -0.14512254 -0.33599755 -0.43030778
000100 25 ce 2f be d3 a6 14 bd de af 68 bd eb d7 dd bd
       -0.17168482 -0.03629191 -0.056808345 -0.10832199
000110 94 c1 21 be 29 18 95 bd 75 3c ee be 18 bb cd be
       -0.157965 -0.07279999 -0.465305 -0.40181804
000120 70 74 76 be 4c 3e 85 be 21 86 e2 bc 11 24 a1 be
       -0.24067855 -0.2602409 -0.027651848 -0.3147283
000130 c2 5f 03 bf a4 f4 7a bd 41 b9 05 3d 48 74 45 bc
       -0.5131799 -0.061268464 0.032647375 -0.012051649
000140 5c e2 db bd ea 47 ca bd 02 83 64 bd a8 87 ba be
       -0.10736534 -0.09876998 -0.055789 -0.36431623
000150 14 3f 82 be c1 b2 09 bf 4b f1 b4 be 4c 76 ae bd
       -0.2543875 -0.5378838 -0.35340342 -0.08518657
000160 a7 07 bb bd 21 91 da be 10 10 42 be e0 4a 8c be
       -0.09132319 -0.4268885 -0.1895144 -0.27400875
000170 10 62 1b bd 9f cc 0f bd bb d3 63 bd 2e 34 a3 bc
       -0.037935317 -0.03510725 -0.055621844 -0.019922342
000180 c9 1e 9e be 45 91 e8 be c9 a0 d2 be d8 4c 09 bf
       -0.30882862 -0.45423332 -0.41138294 -0.5363288
000190 97 5e b7 bd 7f e0 a7 bc b9 12 9f be 78 fa 07 be
       -0.089535885 -0.02049279 -0.31068972 -0.1327914
0001a0 ce be b4 be 65 42 ba 3b a5 e6 40 bc 13 e8 5a bd
       -0.35301822 0.0056841844 -0.01177374 -0.05344398
0001b0 90 82 a2 bd 6b 38 2f bf d0 7e e0 be 21 10 c2 be
       -0.07935059 -0.6844546 -0.4384675 -0.3790293
0001c0 21 02 07 bf 6f e2 26 be 35 29 62 bc e4 a2 db be
       -0.52737623 -0.16297315 -0.01380377 -0.42897713
0001d0 bf d5 35 be 0e d1 93 3d 13 92 32 bd b2 58 db 3c
       -0.17757319 0.072176084 -0.04359634 0.026775692
0001e0 74 2e 33 bd 2f 7d 23 3c 6e b5 b8 be 62 c7 07 bf
       -0.043745473 0.009978577 -0.3607592 -0.5303861
0001f0 f4 da a8 be 5b 12 09 bf 6c d6 b6 bd ae cc c6 3c
       -0.32979548 -0.53543633 -0.089276165 0.02426752
000200 5c e2 45 be e5 52 18 be 57 b0 30 3e 18 c1 fe bd
       -0.1932463 -0.14875372 0.17254768 -0.124391735
000210 31 4b 6d bd ee 50 ba bc d7 aa c3 bd bf d3 89 bd
       -0.057933036 -0.022743668 -0.095540695 -0.067298405
000220 67 b1 94 be 34 94 7b be 3f 7c 47 be 29 20 73 bd
       -0.29041597 -0.24568254 -0.1948099 -0.059356842
000230 c0 2a c0 bd 5e 74 f4 bd e0 30 35 be c7 54 2b 3d
       -0.09383154 -0.11936258 -0.17694426 0.041828897
000240 09 11 90 bd 1e 58 c8 bd 11 d5 b3 bd 8f 38 95 bb
       -0.07034499 -0.09782432 -0.087808736 -0.0045538615
000250 6e ed 4c be 15 20 ed bd b8 83 da bd 2f 12 46 be
       -0.20012447 -0.11578385 -0.106696546 -0.19342874
000260 3e 98 86 bd ac b8 cb bd 1a 22 78 bd 6e 85 3f be
       -0.06572007 -0.09947333 -0.060579397 -0.18703243
000270 ad 43 ac 3d 0b ee db bd 1e 94 d9 bd 65 c5 5f bc
       0.08411346 -0.107387625 -0.10623954 -0.013657902
000280 34 dd 01 3c 73 40 31 3c 93 f7 49 bd d2 94 d0 bc
       0.007926274 0.010818589 -0.04930837 -0.025461588
000290 1d f3 7b bc 94 7d 99 3c 56 f2 88 bd d5 e5 e6 bd
       -0.015377787 0.018736638 -0.06686847 -0.11274306
0002a0 09 a6 4e bd 6a 41 bd 3b fe b3 79 bd 39 39 15 bf
       -0.050451312 0.00577562 -0.06096267 -0.5829044
0002b0 2f bd 58 bf 5d e5 7c bf f3 e5 4f bf 6f 56 54 bf
       -0.8466367 -0.9878748 -0.8121025 -0.8294439
0002c0 a5 45 3c bf 27 41 ff be 5c aa 59 3e 44 de 6e 3f
       -0.7354377 -0.49854395 0.21256393 0.933079
0002d0 23 96 1b 3f 00 c1 17 3f 1d 54 99 bc f1 55 25 bf
       0.60775965 0.5927887 -0.018716866 -0.6458426
0002e0 5c 70 87 bf e2 87 7e bf 82 be 17 bf 66 9f 26 bf
       -1.0581164 -0.9942609 -0.59275067 -0.6508697
0002f0 81 e5 00 bf 52 62 05 be 8b 7e a8 bd 23 93 e0 3e
       -0.50350195 -0.13025787 -0.08227261 0.43862256
000300 9a 2a 31 3f ac f2 07 3f 5b 1c 37 3f f2 33 25 bd
       0.6920563 0.5310466 0.7152764 -0.040332742
000310 f7 35 43 bf 8f 1e 6d bf d7 31 69 bf 7e be 4c bf
       -0.7625422 -0.92624754 -0.91091675 -0.7997817
000320 fb fa 69 be b4 d6 b4 3d dd 51 01 3f 1b 99 e5 3e
       -0.22849648 0.08830014 0.5051554 0.44843373
000330 97 e4 ff 3e cc 66 04 3f 3f 0a 1b 3f fe 4e 53 3f
       0.49979088 0.51719356 0.6056251 0.8254241
000340 0f 08 4a be c0 fd 6d bf 69 3c 7f bf 73 38 5e bf
       -0.19729637 -0.92965317 -0.99701554 -0.86804885
000350 9d 31 b6 be 79 d6 72 be a8 eb bc 3e c0 88 e3 3e
       -0.35584727 -0.23714627 0.3689854 0.4444027
000360 ee 17 d4 3e 97 16 83 3e 3b 3f 1a 3f 93 2b 06 3f
       0.41424507 0.25603172 0.6025273 0.5241024
000370 82 b5 25 3f d2 01 b1 be 27 e1 89 bf 9b 14 6f bf
       0.64730084 -0.345717 -1.0771836 -0.93390816
000380 5d b4 61 bf 4c 35 25 bf cd b7 4d be 1f 5c ad 3e
       -0.8816584 -0.6453445 -0.20089646 0.33859345
000390 4b 6d bb 3e d6 19 e1 3e f9 3e 5c 3e 63 60 15 3f
       0.3660682 0.43965024 0.21508397 0.583502
0003a0 0a ab 1d 3f 9b c9 6a 3f 06 0b 4e be df 8d 2b bf
       0.6158911 0.91713876 -0.20121393 -0.67013353
0003b0 b9 e1 01 bf 03 dc e6 bd 3d bf 88 3c 5a ec e3 3e
       -0.5073505 -0.11272433 0.016692752 0.4451626
0003c0 99 b0 44 3f d6 46 66 3e df 76 e1 3d ef c8 87 3e
       0.76831967 0.2248796 0.11009001 0.26520488
0003d0 c6 f7 8f 3e 51 98 67 3f 2d 53 8f 3f bf 41 b1 be
       0.28118724 0.9046679 1.1197258 -0.34620473
0003e0 16 75 b1 be 0d 35 6d be fc d1 0f be 12 8b 2b 3d
       -0.34659642 -0.23164769 -0.14044946 0.041880675
0003f0 f6 be 44 3e 16 cd db 3e 63 06 5f 3e 56 02 59 3f
       0.19213471 0.42929906 0.2177978 0.8476919

bias f4 [5]
000000 a5 13 08 3e d5 35 11 3f 3e b6 49 3e 78 c4 14 be
       0.13288744 0.56722766 0.19698426 -0.14528072
000010 16 b1 04 3f
       0.5183271

weight f4 [10, 5]
000000 dd 24 d5 3d 41 5d 14 be 0b b0 2f 3e d7 eb ff bc
       0.10407422 -0.14488699 0.17156999 -0.031240387
000010 88 99 85 3f c9 4e a0 3a 56 03 ba 3e 2c 89 f3 3e
       1.0437479 0.0012230511 0.3633067 0.4756559
000020 14 c8 bf 3e a6 f1 80 be 4e f2 d5 3b 1c 6d 48 3f
       0.37457335 -0.25184363 0.006529129 0.7829149
000030 b0 1a d6 3e c5 38 8a 3e 4a a2 df bd a1 bb 34 3f
       0.41817236 0.26996437 -0.10919626 0.705988
000040 c6 3e 60 3f 79 67 3b 3f 06 8f 98 3d fa 70 03 3e
       0.87595785 0.7320476 0.074491546 0.12836066
000050 59 6b cf 3e ee 15 1a 3e 15 f6 38 be 90 80 84 3e
       0.40511587 0.15047428 -0.18062623 0.25879335
000060 86 8f 9e be d4 8f 8e 3e dd 45 4d bd c9 9d d1 3e
       -0.30968875 0.27844107 -0.050115455 0.40940693
000070 b2 f4 82 be 5c 2c 2d 3f 87 70 2e be 72 f1 86 be
       -0.25577313 0.6764581 -0.17035113 -0.26356083
000080 80 a6 bf 3e c3 56 73 bd b0 98 77 be 32 28 ef 3e
       0.37431717 -0.059408914 -0.2417934 0.46710354
000090 2c 5a 1b 3f 8d b3 c4 3d 09 e3 a2 be f2 e2 a1 3e
       0.60684466 0.09604559 -0.3181384 0.31618458
0000a0 1f 81 3e 3f e3 33 29 3f 95 88 0f 3e 33 33 0e bd
       0.74415773 0.660948 0.14016946 -0.034716796
0000b0 cf a1 69 3f 0e 86 76 be 7b da 8f 3f 1a f1 45 3f
       0.91262525 -0.24074575 1.123855 0.77321017
0000c0 2e 25 e1 be f5 c9 6d be
       -0.43973678 -0.23221572

bias f4 [10]
000000 29 cc 05 3f d3 27 05 bf 73 58 f4 b8 81 ad 81 3e
       0.5226465 -0.5201389 -0.000116513016 0.25327685
000010 f4 5f d9 be aa 82 7d 3f 95 f0 db 3d 56 35 55 3f
       -0.4245602 0.990275 0.10739247 0.8328451
000020 6d a1 01 3f 76 41 0d 3f
       0.5063694 0.5517801

weight f4 [12, 10]
000000 bf 5e 80 3f eb 09 62 3e 1b 41 3d be b7 5c bb be
       1.0028914 0.22074096 -0.18481867 -0.36594173
000010 30 3d 92 3e 6d bc 07 3f 84 c0 9b 3e 06 37 be 3e
       0.28562307 0.5302189 0.30420315 0.37151355
000020 fb 54 42 3f 20 93 3d be 7d 88 2e be e1 03 7f 3e
       0.7591092 -0.18513155 -0.17044254 0.24903823
000030 35 36 0d 3f fe 6d cf 3e 0d c4 c6 bd 37 28 cc 3e
       0.5516084 0.40513605 -0.097053625 0.39874431
000040 c7 b7 ee bc 91 16 e5 3e 66 2e 29 3f 27 12 3a 3f
       -0.029140366 0.4474378 0.66086423 0.7268395
000050 d3 7d d0 be 1d 48 2e be 99 2e 42 bf 79 83 28 bf
       -0.40720996 -0.17019697 -0.7585235 -0.6582561
000060 4b dc 5b 3e 52 be 04 bf b5 6f 18 be 59 cd e6 be
       0.21470754 -0.51852906 -0.14886363 -0.45078543
000070 85 39 57 bf 5e 7a 60 be f0 d6 1c bf fb ea 21 bf
       -0.8407214 -0.2192168 -0.6126547 -0.63249177
000080 5b de 1e bf 2a 77 22 bf f6 cd b1 bd 6f ff b4 be
       -0.6205804 -0.6346308 -0.08681862 -0.3535113
000090 69 d3 04 3e f2 8c f8 be 86 8f fd be e9 21 08 bf
       0.12971272 -0.48545033 -0.49523562 -0.5317674
0000a0 0e 31 d3 be d4 74 24 bf 6e 0a 4d bf b1 6e 88 be
       -0.41248363 -0.64240766 -0.8009404 -0.2664695
0000b0 15 b3 3f be 74 b0 89 be d3 1f ca be c2 bd 2b bf
       -0.18720658 -0.26892436 -0.39477405 -0.6708642
0000c0 64 01 ac be a1 3d 9f be 50 a4 d8 be dd a3 09 bf
       -0.3359481 -0.31101707 -0.4231286 -0.5376566
0000d0 64 05 68 be b9 f8 46 bf 08 f4 cb 3d 15 fb ec be
       -0.22658306 -0.7772327 0.09958655 -0.4628531
0000e0 df 9a 49 be 25 3a 0c bf 79 81 3c bf 68 c3 95 be
       -0.19687985 -0.5477622 -0.7363506 -0.29250646
0000f0 55 5e 2f bf e6 6b 7e be ee aa 00 be d3 7c 0b bf
       -0.68503314 -0.24845847 -0.12565205 -0.5448734
000100 ea 79 8a 3e c7 05 99 be 68 1d c6 be 5e 5f 34 bf
       0.27046138 -0.2988722 -0.3869431 -0.7045802
000110 a8 f9 44 bf a1 c1 0a bf 6d c6 14 bf 30 b9 49 be
       -0.76943445 -0.54201704 -0.58115274 -0.1969955
000120 6b 23 eb be e0 03 f0 be 11 b1 27 3e a2 18 9d be
       -0.4592546 -0.46877956 0.16376139 -0.30682856
000130 5e 6e f5 3c 62 07 0f bf 4a 3d 08 bf f8 c1 77 be
       0.029959854 -0.5587064 -0.5321852 -0.24195087
000140 cb 00 68 bf 3e 22 6c be 15 16 cd be ef ed 26 bf
       -0.9062621 -0.23059937 -0.4005591 -0.6520681
000150 f6 3f 8c 3e 42 61 4c be 3f 80 cf be 83 12 05 bf
       0.27392548 -0.19958976 -0.40527532 -0.5198137
000160 8d 3f 30 bf 13 64 cf be 3d 9d de be 7f f5 bc be
       -0.6884697 -0.40506038 -0.43479338 -0.3690605
000170 34 a8 d8 be 92 7e e7 be 2e 1d 3f bd 13 09 c9 be
       -0.4231583 -0.45213753 -0.046658687 -0.39264736
000180 9e ef ea 3d 5e db d5 be 8c 97 5f bf d2 bb 49 be
       0.114714846 -0.41768926 -0.8734062 -0.19700554
000190 98 49 2b bf 1a 7c 05 be 58 8b 9c be 36 8d a6 be
       -0.6690917 -0.13035622 -0.3057506 -0.3252961
0001a0 8e 62 16 3e 61 4d 80 be a7 42 72 3d 71 a3 25 bf
       0.14686033 -0.25059035 0.059145596 -0.64702517
0001b0 8d 17 01 bf a4 e6 06 bf 39 ca 5b bf 86 c9 f8 be
       -0.5042656 -0.5269568 -0.8585544 -0.4859125
0001c0 b9 9d d6 be 36 67 40 bf fd e3 4c be 8c e2 32 bf
       -0.41917208 -0.7515749 -0.20008846 -0.69876933
0001d0 39 2f af be f3 81 74 be c7 4b 00 bf 25 1a 0a be
       -0.34215716 -0.23877697 -0.5011563 -0.13486536

bias f4 [12]
000000 e3 4a 54 3d 62 94 2c 3f 2e 4e 70 be 91 db 22 bf
       0.05182923 0.67413914 -0.23467323 -0.6361628
000010 6c a5 20 bf da 76 78 bd a7 5e bd bd ba 99 31 bf
       -0.62752414 -0.06066022 -0.09246569 -0.69375193
000020 5b d5 0c bf a8 d1 27 bf 31 6b 06 bf 9f 84 63 be
       -0.55013055 -0.65554285 -0.5250731 -0.2221856

weight f4 [1, 1, 3, 3]
000000 a8 14 b0 3f af 5d da 3e 08 43 49 be bb 62 0f 3f
       1.3756304 0.426496 -0.19654477 0.56010026
000010 82 cc 9a 3d 18 62 a0 3d 86 e4 2a bf d9 1e 9b be
       0.07558538 0.0783121 -0.6675495 -0.30296972
000020 dd bf c4 3e
       0.3842763

weight f4 [5, 169]
000000 73 b8 25 be 9b cf 55 be d1 77 b8 bd db 24 8b bd
       -0.16183643 -0.20879976 -0.09007228 -0.06794139
000010 69 73 b6 bd 48 59 cb bd 8e 94 1d 3d 03 bc bb bd
       -0.089087315 -0.099291384 0.03847175 -0.0916672
000020 31 97 98 bd 9d 88 96 bc 42 eb e6 bd 2f 16 2a be
       -0.074507125 -0.01837569 -0.112753406 -0.16610025
000030 d9 7e 08 be d2 0d a4 bd 46 39 60 3b e0 d4 47 3e
       -0.13329639 -0.080104485 0.0034213825 0.19514799
000040 16 5f 70 3d 7f 59 c1 3e db d2 9b 3e 05 a0 78 3e
       0.05868443 0.37763593 0.30434307 0.24279793
000050 58 35 31 3e 28 54 c0 3e 4e 6d b0 3e f8 8f bb 3e
       0.17305505 0.37564206 0.34458393 0.36633277
000060 c8 5d ec 3d c8 fc 3c be a6 7e 9d bd a9 a5 a9 3e
       0.11541325 -0.18455803 -0.07690172 0.331342
000070 c6 b0 ce 3e e8 03 b3 3e 34 4f b6 3e 83 bc d1 3e
       0.40369242 0.34963918 0.35607302 0.40964136
000080 b8 fc df 3e 05 58 af 3d 0d c1 0f 3f 76 16 4a 3f
       0.43747497 0.0856171 0.5615395 0.7894052
000090 9c 13 3f 3f 3e 3f 02 3f cb 6d 8f 3e d5 66 77 3e
       0.74639297 0.5087775 0.28013453 0.24160321
0000a0 e4 6d cd 3e d6 39 9c 3e 7b c2 e5 bc 28 b4 03 3f
       0.40122902 0.30512875 -0.028046837 0.5144677
0000b0 39 7b bc 3e 9b e6 d3 3c 0e 2c 0c 3e 48 6f 5c 3e
       0.3681276 0.025866797 0.1368868 0.21526825
0000c0 88 5a b1 3e 0a 35 ac 3e 6c 4b fd 3e 87 11 b8 3e
       0.34639382 0.33634216 0.49471605 0.35950872
0000d0 e0 9e 36 3e 87 ed 95 3e ab 8c 4b be ca 56 a7 bd
       0.17834044 0.2928278 -0.1987788 -0.081708506
0000e0 10 87 9b 3e e9 cb 99 3e 29 46 8e 3e 4a 1b 75 3e
       0.30376482 0.30038384 0.27787903 0.23936191
0000f0 7f c0 80 3d c1 51 3f 3e d1 a1 06 3f 34 33 0d 3e
       0.06286716 0.1868353 0.5259066 0.13789064
000100 ce 9a a0 be 76 7b 1c bc 2a ee f8 bd 81 c0 87 bd
       -0.31368107 -0.00955092 -0.12154801 -0.06628514
000110 de 4b 1b 3e c1 22 c8 3e 44 93 09 3f ef f8 0b 3e
       0.1516566 0.39089015 0.53740335 0.1366918
000120 08 f7 14 bd 30 46 92 3e 24 47 39 3d 25 c6 fd 3d
       -0.0363684 0.28569174 0.04523386 0.12391309
000130 70 3f 24 be 5a 0b b8 3c 4c 48 27 3c 25 59 cc 3c
       -0.16039824 0.02246635 0.010210108 0.024944851
000140 93 aa 92 3e b8 93 64 3f 85 5f d2 3e bb 8d ee 3e
       0.28645763 0.892879 0.410885 0.46592507
000150 88 a7 31 3f 78 1a d7 3e 90 6f ad 3e 69 23 03 3f
       0.6939626 0.42012382 0.33874178 0.51225907
000160 3c 10 69 3e 7a c2 1d 3d 82 90 08 bd 05 c4 87 bd
       0.22760099 0.038515545 -0.03334094 -0.06629185
000170 42 46 89 3e 2b 3e 6c 3d 23 da 95 3e 31 98 72 3e
       0.26811415 0.057676475 0.29267988 0.23690869
000180 a3 82 f0 3e b8 1e 23 3f 67 6a 11 3f 92 60 1f 3f
       0.46974668 0.6371875 0.5680298 0.6225673
000190 77 28 8c 3e f8 d8 e3 3c 07 9e 35 3e 41 d7 cf bd
       0.27374622 0.02781342 0.17736064 -0.10148478
0001a0 49 2c f4 bd 94 79 e2 3d 1f 15 ca 3d da 62 01 3e
       -0.11922509 0.110583454 0.0986731 0.12635365
0001b0 a4 0e cb 3e f3 ae fb 3e 4b a0 1c 3f d4 02 20 3f
       0.39659607 0.49156913 0.6118209 0.62504315
0001c0 84 39 cc 3e 74 23 cf 3e 0b af 99 ba a0 7e 2d bc
       0.3988763 0.40456736 -0.001172514 -0.010589272
0001d0 be 06 86 3c a9 a3 41 be ae 49 16 be 35 bf d4 3d
       0.016360637 -0.18910088 -0.14676544 0.10388032
0001e0 29 c5 44 3f c9 f1 fa 3e 4b 11 0d 3f bd 7a 32 3f
       0.7686334 0.49012592 0.5510451 0.69718534
0001f0 d8 93 2a 3f 93 a9 eb 3e 54 b1 ab 3e 9d fb b3 3e
       0.6663184 0.46027812 0.33533728 0.35152903
000200 e3 6f 0c 3e 6b f9 48 be 0a e5 40 be 2a 48 7f bd
       0.13714556 -0.19626395 -0.18837371 -0.06232468
000210 73 c2 78 3e 35 14 99 3e 13 3b d1 3e 72 d9 15 3f
       0.24292926 0.2989823 0.40865383 0.5853492
000220 b3 d8 cf 3e 5b 51 2e 3f cc 7c 12 3f d7 07 3d 3e
       0.40595016 0.6809289 0.57221675 0.18460022
000230 e7 d2 a7 3e 8f 02 59 3e 41 d8 02 be 1c e1 11 be
       0.32778093 0.21192382 -0.12777807 -0.14246029
000240 91 ab 34 3d f6 e5 22 3e c5 8a d0 3d 24 c6 94 3e
       0.04410893 0.15908036 0.10182718 0.2905742
000250 8a e0 c3 3e 6d d1 85 3e 26 46 e2 3e 37 3f d6 3e
       0.38257247 0.26136342 0.44194144 0.41845104
000260 36 c0 02 3f 57 21 e1 3e 46 c0 c0 3e 00 e3 26 bd
       0.5107454 0.4397075 0.37646693 -0.040743828
000270 29 b5 c6 bd 99 4d 80 bd b6 14 f8 bb 7d d1 5e 3d
       -0.09702522 -0.062648006 -0.0075708283 0.054399002
000280 ef ab 9f 3d a2 10 83 3e dd dd 6d 3e 7d 02 dd 3e
       0.077964656 0.25598627 0.23229165 0.4316596
000290 24 31 af 3e 31 bd 9c 3e 11 73 23 3d 07 2c 66 3e
       0.3421718 0.30613092 0.039904658 0.22477733
0002a0 12 79 db bb 1f 83 83 bd 8f 82 a3 bc d9 fd 4f bb
       -0.0066977823 -0.06421494 -0.019959716 -0.0031736998
0002b0 ed e7 90 bd 14 f7 7a 3b 19 84 ae 3c d9 13 85 3b
       -0.07075486 0.0038294243 0.021303223 0.004061204
0002c0 81 83 fd bc cf cc 8b bd 62 1c 0c be a8 a9 31 bd
       -0.030946495 -0.068261735 -0.13682702 -0.043374687
0002d0 f9 1c 9a bd 8a 41 29 bd 92 e4 0e bd 94 ea 42 3d
       -0.07525057 -0.04132227 -0.03488595 0.047586992
0002e0 19 d1 9c 3d 6a a0 5a bd aa 01 2e be f1 1f aa bd
       0.0765707 -0.05337564 -0.16992822 -0.083068736
0002f0 76 cb 65 bd 49 90 b0 bd 5c 39 d1 bd 48 12 bf bd
       -0.05610224 -0.0862127 -0.102160186 -0.09329659
000300 7f 15 35 be fb 7a 0c bd e8 43 71 bd 56 9d 86 3d
       -0.17683981 -0.03429697 -0.05890265 0.06572978
000310 80 09 c7 3c da 1e e1 bd eb c4 a2 bd ad 50 e6 bd
       0.024296522 -0.109922126 -0.07947715 -0.112458564
000320 58 aa ce bd c0 b9 26 be 2e 76 24 be fd c2 e2 bd
       -0.10091084 -0.16281796 -0.16060707 -0.11072347
000330 2c 20 82 bd e0 3b f9 bd d6 04 0d be d9 74 1f 3c
       -0.063537925 -0.121696234 -0.13771376 0.0097324485
000340 86 c1 ba bd 69 ca fb bd ef 10 c7 bd e2 77 05 bd
       -0.09118943 -0.12294466 -0.09720027 -0.032585032
000350 44 8f d4 bd 03 89 7e bd ee ed c9 bd 34 33 28 bd
       -0.10378888 -0.062142383 -0.098598346 -0.041064456
000360 1f 62 ce bd 3d cc 2e be 4f f9 ca bd 49 50 0d be
       -0.10077309 -0.17070098 -0.09910833 -0.13800158
000370 8a 3d 83 bb b7 bf c8 3c 31 c0 d8 bd 00 fc ef bc
       -0.0040051388 0.02450548 -0.105835326 -0.029294968
000380 6e 13 ea bc fa 50 17 be d4 3c 0b be 2a c1 83 bd
       -0.028573718 -0.14776984 -0.13597423 -0.064333275
000390 80 a4 7b bd 22 56 2e be 14 34 20 be fa 6d 2d bd
       -0.061436176 -0.17025045 -0.15644866 -0.04234121
0003a0 a8 fb c6 bd 64 78 88 bd 96 b9 1f be a2 e9 df bd
       -0.09715968 -0.06663588 -0.15598139 -0.10933234
0003b0 01 ee e7 bc 8a 65 e8 bd 55 25 11 be e9 25 1f be
       -0.028311731 -0.11347492 -0.14174397 -0.15541805
0003c0 27 ac ff bd 80 02 4e bd 5b 83 87 bd 42 ce f4 bd
       -0.12484007 -0.050295353 -0.06616851 -0.11953403
0003d0 18 74 13 bd 6e e9 1b be 73 21 91 bd 28 a8 7c bb
       -0.035999388 -0.15225765 -0.07086458 -0.0038552377
0003e0 a4 6b 10 be 8a 8e 24 be de 0b 5d bd de 80 f2 bd
       -0.14103562 -0.1607 -0.053966396 -0.11840986
0003f0 99 c5 98 bd b2 60 0d bd e9 84 f9 bc a6 de db bd
       -0.07459564 -0.034516044 -0.030458884 -0.10735826

bias f4 [5]
000000 eb 93 ca 3e af 23 07 be 29 33 ca 3d 7a e6 05 3e
       0.39565977 -0.13197206 0.09873039 0.13076201
000010 7a 91 dd 3e
       0.43275052

weight f4 [10, 5]
000000 66 af 27 3f 4e ab 54 3e 06 bf 22 3e bd ec 3e 3f
       0.6550201 0.20768473 0.15893182 0.74579984
000010 99 a7 e8 3d 28 02 e4 be 0d 6c bb 3e 6d 94 bc 3e
       0.11360092 -0.44532895 0.36605874 0.3683199
000020 82 db 8e be 49 d5 d1 3d ec 2b 97 be 77 1f 05 bc
       -0.27901846 0.10245759 -0.29525697 -0.008125178
000030 f0 25 6a bd 87 b4 f0 3d 71 73 c8 bd 3d 12 9d be
       -0.057165086 0.11753183 -0.09787644 -0.30677977
000040 b3 d7 6e be b6 d2 2b 3e 6f a5 83 bd 92 ee 1c 3e
       -0.2332447 0.16779599 -0.06428038 0.15325382
000050 a3 4a 94 3d e5 60 02 3d 56 7b cc 3e d0 5d 27 be
       0.07240798 0.031830687 0.39937848 -0.1634438
000060 d1 91 1e bf 84 38 c6 3e e5 fc 81 be e0 5b e6 bc
       -0.6194125 0.38714993 -0.25388256 -0.028119981
000070 95 23 3d be 79 33 1b 3f 0e 9a 27 be a0 c4 a9 3e
       -0.18470605 0.60625416 -0.16367361 0.33157825
000080 46 20 c2 3e 9c 99 c9 3f 03 59 8d 3d 0d ad a7 be
       0.37915248 1.5750003 0.06901743 -0.32749215
000090 32 71 63 3e 53 43 a8 3d 23 cc d5 be 8e 9d ff 3d
       0.2221115 0.08215966 -0.41757306 0.12481223
0000a0 aa 1a d8 3e 0c df 36 bc 19 96 22 bf a0 74 a9 bf
       0.42207843 -0.011161577 -0.6351028 -1.3238716
0000b0 3e 1f 04 3f eb e2 ee bd f9 46 9f 3e 7a 7f d9 bc
       0.5161017 -0.11664375 0.31108835 -0.026550043
0000c0 7f 58 c6 be 75 9f ec be
       -0.38739392 -0.46215406

bias f4 [10]
000000 f9 b9 a4 3e 5c 53 bd be 12 2f 7d be a6 a0 95 be
       0.32173136 -0.3697766 -0.24724987 -0.29224128
000010 d7 dc 9e be 93 33 0f 3f 48 cf 77 be 37 da 07 bf
       -0.31027862 0.5593807 -0.24200165 -0.53067344
000020 9f 6d 4b 3d 55 81 c8 be
       0.04966509 -0.39161173

weight f4 [12, 10]
000000 78 8f 0f 3f ea 49 3a be 82 17 29 3e 80 5b 93 bd
       0.5607829 -0.18192258 0.16512874 -0.071951866
000010 cd 91 69 be 34 88 2e 3f 82 10 a6 bd f7 ec 4c 3e
       -0.22809525 0.6817658 -0.08108617 0.2001227
000020 db 6d 13 3f 98 b8 91 3d ea ad 1d 3f 87 05 a3 bc
       0.575895 0.071152866 0.61593497 -0.019900097
000030 27 64 e9 3d 30 c6 57 be be 0d 2a 3f 93 79 23 3f
       0.11396056 -0.21071696 0.6642722 0.6385738
000040 3e 74 6c 3f c2 a9 b0 3e ba 6f 03 bd 91 ce 73 be
       0.9236487 0.34504515 -0.032088973 -0.23809268
000050 38 cc 0b bf 3d 81 de bd 17 89 dc bd 5a 34 a0 be
       -0.5460849 -0.10864494 -0.10768335 -0.3128994
000060 e8 05 1f bf 0f b1 f9 be 35 05 79 be a8 60 56 be
       -0.6211839 -0.48767897 -0.24318393 -0.20935309
000070 60 b2 27 bf bb b3 02 bf bf 51 1a bf 4f e3 81 3d
       -0.65506554 -0.51055497 -0.60280985 0.06342184
000080 89 8f 9a be ef a5 41 be 11 61 26 bf 3b 25 2f be
       -0.30187634 -0.18910955 -0.6499186 -0.17104046
000090 87 88 f2 be 57 34 25 3e 1c e8 43 bf b2 63 9f be
       -0.47369787 0.16133247 -0.76526046 -0.3113075
0000a0 f4 68 48 bf 2a 69 76 be 8c cd 9d 3e 7f 4d 44 be
       -0.78285146 -0.24063554 0.30820882 -0.19170187
0000b0 8c 3f 01 bf 9f cb 89 be 07 0d 8f be 59 9c 93 3e
       -0.5048759 -0.26913163 -0.27939627 0.2883022
0000c0 06 48 42 be a9 d6 e1 bd e0 ce f0 be e2 86 a6 bd
       -0.18972787 -0.11027271 -0.47032833 -0.081311956
0000d0 f0 71 4a 3b 68 b5 97 be 4b e1 2f bf ed ba d8 be
       0.0030890666 -0.2963059 -0.68703145 -0.42330113
0000e0 97 19 2c bf 2e 83 5f 3e 83 6e 98 be e9 42 11 bf
       -0.67226547 0.21827385 -0.29771814 -0.5674272
0000f0 9e 93 b0 be e7 ee dd 3d 0a cb 2e 3e 87 70 db bd
       -0.34487623 0.10836583 0.17069641 -0.10714822
000100 02 ca fc bd 41 d5 af be dd 63 ca be 4a c2 08 3e
       -0.123432174 -0.34342387 -0.39529315 0.13355365
000110 bf 86 28 bf 82 45 ae be 9d a0 2b bf e5 6a 6b be
       -0.65830606 -0.34037405 -0.6704195 -0.22989996
000120 b4 ff 83 3c 09 2f 0b 3d 96 13 32 bf af f4 34 be
       0.01611314 0.033980403 -0.69561136 -0.17671464
000130 a3 0e cb be da 2e 96 3e 8a 12 25 bf 1a 05 ff be
       -0.39659604 0.2933262 -0.64481413 -0.4980858
000140 01 d4 da be 91 82 8c be a4 9b 32 3e 38 2e 86 be
       -0.4273987 -0.27443364 0.17442185 -0.26207137
000150 b9 d7 61 be 6c 15 26 bf 98 bc da be 4c 77 9e bd
       -0.22054948 -0.6487644 -0.4272201 -0.07737598
000160 df 17 2b be 61 1c dd be 67 a7 99 be a6 2a 4c 3e
       -0.16708325 -0.43185714 -0.3001053 0.19938144
000170 7b 0e 30 3d 56 f5 21 3e 7a 47 e3 be 86 0d c8 be
       0.04298256 0.15816244 -0.4439047 -0.39072818
000180 fb aa 11 bf f3 40 c8 3d 89 35 45 bf 4a a0 a6 be
       -0.5690152 0.09778013 -0.77034813 -0.32544166
000190 93 6b 36 bf a9 9d 96 3e 69 f2 38 3c 42 f0 6b 3e
       -0.71257895 0.2941716 0.011288264 0.2304087
0001a0 c0 5b 7f be 56 9f fd be 58 cc 9c be ab 7a 8a 3e
       -0.24937344 -0.49535626 -0.30624652 0.27046713
0001b0 f0 6e 1b bf 43 cd de be 3a bd 2b bf 6d 3d 1c be
       -0.6071615 -0.43515977 -0.6708561 -0.15257807
0001c0 11 b4 cd 3d 6e 31 a5 be c6 0b c2 be 57 56 10 bf
       0.100441106 -0.32264274 -0.37899607 -0.56381744
0001d0 07 2b 8a be 06 e3 93 3e 20 34 fa be bc 9a fd be
       -0.26985952 0.28884143 -0.48867893 -0.49532115

bias f4 [12]
000000 13 b4 e2 3e e3 21 aa 3e 27 5c 14 bf 38 e6 b0 be
       0.4427801 0.3322898 -0.57953113 -0.34550643
000010 cd b8 ca be 40 e7 80 bd 98 f1 63 be 8a 87 49 be
       -0.39594117 -0.062941074 -0.2226013 -0.1968061
000020 a1 d9 88 be 9d a6 f8 be d3 5b b6 bc bc 7c 54 be
       -0.26728538 -0.48564616 -0.022260582 -0.20750707
