xai_neurips_2021/models/pre_trained/mnist_with_reg_importance_1.0_10_5_models.pt (torch, 695221 bytes, 43 tensors)

weight f4 [1, 1, 3, 3]
000000 69 b0 97 3e 87 9a 22 3f 9f 4a 07 3f 96 de 89 3e
       0.29626778 0.6351704 0.5284824 0.26927632
000010 cb 72 4f bf b6 17 31 3e 23 5b 37 bf 3a 3e ae be
       -0.81034535 0.17294201 -0.7162344 -0.3403185
000020 03 ef 5b 3e
       0.21477894

weight f4 [5, 169]
000000 6b 1b 5c 3e ff ef 8f 3d 67 13 29 3e 50 9b 5d 3e
       0.21494834 0.070281975 0.16511308 0.21641278
000010 08 7b 26 3e 80 7f 18 3e 29 17 36 bc 47 16 12 be
       0.1625787 0.14892387 -0.01111392 -0.1426631
000020 b6 a1 0d 3e f5 7e 5f 3e 20 b8 23 3e fd d7 48 3e
       0.13831219 0.21825774 0.15988207 0.19613643
000030 4d 39 46 3e 2a 27 0f 3e 37 20 bf 3d b4 f3 b8 3c
       0.19357796 0.13979784 0.09332316 0.022577144
000040 00 a4 0d be f6 22 96 3e ad 1b b3 be a3 ff 25 3f
       -0.13832092 0.29323548 -0.34982052 0.64843196
000050 52 09 0f 3e 2f 2d 39 40 b0 e7 b8 3f ee a8 16 bd
       0.13968399 2.8933828 1.4445705 -0.036782198
000060 e1 62 85 be a3 1c 4d 3e 61 47 08 3e fc 26 89 3e
       -0.26052 0.20030455 0.13308479 0.26787555
000070 fb 97 2c bf d3 e5 34 c0 46 09 09 c0 dd da 5a bf
       -0.67419404 -2.8265274 -2.141191 -0.8549021
000080 96 6b 6d 3e 7f 9b 31 3f 6f 83 54 3f 10 d7 bc 3e
       0.23185572 0.69377893 0.8301305 0.3688283
000090 0e 06 80 bf 48 9d 15 bf b6 30 2b 3f e8 76 56 3d
       -1.0001848 -0.5844312 0.668712 0.05235949
0000a0 6e 7c 3b bd c7 7c e7 be 26 91 41 bf 2a 0a 08 3e
       -0.045772962 -0.45212385 -0.75612104 0.13285127
0000b0 4f e9 c3 3d 38 e3 39 3f 54 2d 9a 3f 4f d5 45 3f
       0.095659845 0.72612333 1.2045083 0.7727861
0000c0 7c e7 33 bf 64 f1 a7 bf 72 fe 79 bf be 31 25 3f
       -0.7027509 -1.3120542 -0.9765388 0.64529026
0000d0 bb a7 0c 3e 2e a2 bf 3f 06 c2 87 3e 9a 3b f9 be
       0.13735859 1.4971368 0.26515216 -0.48678285
0000e0 2f 1e 0a 3f 3d 1b c2 3d f7 65 c9 3e 03 17 79 3f
       0.53952307 0.094778515 0.39335606 0.9730074
0000f0 0a 4c 5d be 25 09 8f 3c b2 eb 7f bf a7 77 44 bf
       -0.21611038 0.017460415 -0.9996902 -0.76745075
000100 1a 21 9e bf 9d 4d 85 3e f1 03 17 40 89 32 5d 3f
       -1.2353852 0.26035777 2.3596156 0.86405236
000110 a7 38 af 3f 8c 9e 87 3f bb 2b 9c 3f ab 56 65 bd
       1.3689164 1.059526 1.2200845 -0.055990856
000120 e9 fc 78 bf a2 a2 7d 3f 9d 8a d0 3f 66 19 0d 3f
       -0.9726091 0.9907628 1.6292301 0.5511688
000130 5e f9 9e bf 33 9c 02 c0 4d a5 8a 3d 71 44 98 3f
       -1.2419851 -2.0407836 0.0676981 1.1895887
000140 07 0f e7 3e e1 60 11 3f 1d a8 7e 3d 77 48 4d 3d
       0.45128652 0.5678845 0.062172044 0.050117936
000150 54 95 18 bf 0a b9 74 3d bc ad aa 3f 0e bb 0d 40
       -0.59602857 0.05974678 1.333427 2.214542
000160 64 70 3d 3f 7c a1 a6 3e d7 27 60 bf ea c9 01 be
       0.7399962 0.32545078 -0.8756079 -0.1267468
000170 a6 50 e1 3e 00 ba 86 3f c5 a4 04 bf eb ef ab be
       0.44006842 1.0525513 -0.5181392 -0.3358148
000180 64 97 77 be ba bd a1 3d 3c 2d 99 3f 89 52 9a 3e
       -0.24178845 0.078975156 1.196693 0.30141094
000190 a1 8e 26 3f df 5a 92 3f 67 75 93 3f f5 c2 df 3d
       0.65061384 1.1433982 1.1520203 0.10925857
0001a0 4d e5 fd 3d 3f bf 43 be d4 c3 b2 3e 0e 39 27 3f
       0.12397251 -0.19115923 0.3491503 0.65321434
0001b0 b3 d0 33 3f 4d b3 19 3e 01 0f 43 3f 46 58 9f 3f
       0.70240325 0.15009804 0.7619477 1.2448814
0001c0 d2 06 4e be 31 80 c9 be af a6 a6 3d 0f 16 b1 3d
       -0.20119789 -0.39355615 0.08137261 0.086467855
0001d0 93 2a 2a 3e 5c 36 69 be 95 75 a9 bf 85 24 16 bf
       0.16617803 -0.22774643 -1.3239008 -0.58649474
0001e0 c8 ba 27 bf ff 59 9e 3e 4f 32 ce 3e cb 68 b4 3d
       -0.6551938 0.30928037 0.40272757 0.0880905
0001f0 5d 98 79 3e f1 2a 95 bd 40 dd b1 bf ba ff dd bf
       0.24374528 -0.07283581 -1.3895645 -1.7343667
000200 b2 2e 2d bf 0e 09 45 be 17 78 bc bd 4e 2a 19 3e
       -0.67649376 -0.19241735 -0.09202593 0.14957544
000210 15 62 6f 3e 62 4f c5 bd 0e 4e 90 be 24 bb e5 3d
       0.23377259 -0.09634282 -0.2818455 0.11217335
000220 93 9e 02 bf cd f3 2e 3e 8c c9 8e bf 83 22 06 bf
       -0.51023215 0.1708519 -1.1155257 -0.5239641
000230 19 57 65 bf 18 af c7 bf e7 e3 f8 be e0 c5 ca be
       -0.89586025 -1.5600309 -0.48611376 -0.39604092
000240 5a 16 bb bd 20 cb 94 3e e3 6c be be 2c 5e 0e 3e
       -0.091351226 0.29061222 -0.3719245 0.13903111
000250 9b 5a 5a be 7c ee 70 bf 64 1a 5e bf bb ad 75 bf
       -0.21323626 -0.941139 -0.8675902 -0.95968217
000260 c4 20 fc be ca d7 42 3f 1d 5a d0 3e f7 d1 0b be
       -0.49243748 0.7611052 0.4069375 -0.13654314
000270 09 53 ad be df 91 a5 bf df e9 4f 3e 2b ee a6 3e
       -0.33852413 -1.2935141 0.20304058 0.32603583
000280 71 ea 2f 3f fb 27 88 be b2 b3 fc be aa 07 5d 3f
       0.68717104 -0.26593003 -0.49355847 0.8633982
000290 4a 93 c8 3d 67 92 64 3f d7 c1 62 3f f7 ce 56 3f
       0.09793718 0.8928589 0.88577026 0.83909553
0002a0 a8 66 7c 3e 34 6e 29 3f 8f eb 1b 3f 71 c0 33 3f
       0.24648535 0.6618378 0.6090631 0.7021552
0002b0 4b e9 3a 3f ba ae 28 3f ee 49 32 3f 05 b7 12 3f
       0.73012227 0.6589161 0.6964406 0.57310516
0002c0 bd f0 c2 3e 5e d5 2d 3f d7 f6 2e 3f 3e d9 1f 3f
       0.38074294 0.679037 0.683454 0.6244086
0002d0 1c aa 30 3f 48 f1 41 3f 98 83 3d 3f c8 34 35 3f
       0.69009566 0.7575879 0.7402892 0.7078366
0002e0 3e 7b 21 3f 2a 6f 5e 3f 2b 48 90 3f 24 6a 89 3e
       0.6307868 0.8688837 1.1272024 0.2683879
0002f0 c3 56 e0 3e 8a 63 88 3e 8e 76 09 be 33 3f b2 3e
       0.43816194 0.26638442 -0.13424131 0.34813842
000300 a9 53 10 3f 58 b4 26 3f d9 8a 2a 3f 3a e0 29 3f
       0.56377655 0.6511893 0.66618115 0.6635777
000310 cd 5a 1d 3f 99 74 f4 3e cf 51 f3 3e 36 79 c4 3e
       0.61466676 0.47745207 0.47523353 0.38373727
000320 f4 8c c9 be 48 2e 22 3d 7c 07 09 be c3 96 07 bf
       -0.3936535 0.03959492 -0.13381761 -0.5296442
000330 0a 29 60 3e dc 87 92 3f 85 1b 61 3f 06 de 2d 3f
       0.21890655 1.1447711 0.87932616 0.67916906
000340 f2 d4 17 3f 13 ee e8 3e 51 79 97 3f 7d f2 d6 be
       0.59309304 0.45494136 1.1833898 -0.4198188
000350 e6 19 2b 3e 49 23 df be c4 cd cc 3e 7d 6f 94 3e
       0.16709098 -0.43581608 0.40000737 0.2899131
000360 df ba f9 3b 98 8c c4 3e b5 2c 6e be 4b 20 0d 3f
       0.0076211537 0.38388515 -0.23259242 0.551274
000370 df 7a 9d 3f 61 91 0b 3f f5 98 0a 3e 91 c2 ce be
       1.2303122 0.54518706 0.13534911 -0.40382817
000380 42 be 2c bf b0 0e 89 be f6 4a 89 bf 71 91 0c bd
       -0.6747781 -0.26769018 -1.0726001 -0.03431839
000390 7f 5c 54 3e 84 9d 85 3d 35 ed cf 3e 4b 38 96 bf
       0.2073841 0.06524184 0.40610662 -1.1735929
0003a0 d0 57 45 bf 67 8a 90 3f a4 84 1a 3f 75 ef 5c 3e
       -0.77087116 1.1292237 0.60358644 0.2157572
0003b0 a7 e2 40 bf 70 3f ab 3e 43 cf 08 3d c7 a0 0f bf
       -0.75345844 0.33446836 0.033400785 -0.561047
0003c0 dc 1b 70 bd d8 b9 ee be c2 7e 02 bf 43 b1 df be
       -0.05862032 -0.46626163 -0.5097467 -0.43689927
0003d0 b1 85 b1 be 32 cf 2e bf a8 1e 94 3e f6 f3 1a 3f
       -0.3467231 -0.68284905 0.2892964 0.60528505
0003e0 18 c2 2a 3f f9 c4 8e 3f ca 0e c9 3e 88 c8 ec bd
       0.66702414 1.1153861 0.39269096 -0.11561686
0003f0 a8 33 9c 3e aa 94 65 3f ba e5 31 3f 85 9e 33 be
       0.3050816 0.8967997 0.6949116 -0.17540939

bias f4 [5]
000000 24 1c 32 3e f8 11 2c 3f 0b e8 72 bf 44 96 f9 bd
       0.17393547 0.6721492 -0.9488532 -0.12186864
000010 0b c8 c2 bd
       -0.095108114

weight f4 [10, 5]
000000 0a d3 07 bc 5d 4f 85 bf 31 a0 85 bc 8e ab 0b bf
       -0.008290062 -1.0414845 -0.016311737 -0.54558647
000010 b5 62 b4 3d 16 40 cd be 6a 3b a8 bd 0d 17 f8 be
       0.08807889 -0.40087956 -0.08214457 -0.48455086
000020 a3 4a 0e bf 24 b7 bd 3e 9d 81 17 bd 61 b1 92 be
       -0.55582637 0.37053788 -0.036988843 -0.28650954
000030 03 40 04 be 52 71 c8 3d 12 ba 21 be 34 dd 7f 3e
       -0.12915044 0.09787239 -0.15793636 0.24986726
000040 d1 4c a5 bf 9e 61 c8 3d 84 59 86 be 3e 72 1e 3f
       -1.2914068 0.09784244 -0.2624017 0.6189307
000050 96 3d 00 3f 27 aa 18 3f bd c4 dc bc e5 e8 c2 be
       0.5009397 0.5963463 -0.02694928 -0.3806831
000060 05 ff ab bf c4 17 4e bf 4d 6a a3 3e 8c bb 8f 3e
       -1.3437201 -0.80505013 0.3191704 0.28072774
000070 2c 55 84 3d 5a 78 73 3d b4 c3 69 bf d9 f0 32 3f
       0.06461558 0.059440948 -0.91314244 0.69898754
000080 d0 53 3e 3f 61 f2 b8 3d 97 a2 31 bf 22 23 3a bf
       0.7434664 0.09030605 -0.6938872 -0.7270986
000090 d6 dc 85 3c 24 d9 44 bf ac bf 8f be 6a 4e 36 3f
       0.016340654 -0.7689383 -0.28075922 0.712134
0000a0 5a 55 91 3e ff ba 7a 3f 8f 9e 7f bf b8 d6 ac be
       0.2838543 0.97941583 -0.99851316 -0.33757567
0000b0 b9 24 ae be 0e 05 ec be 59 ed e1 3e 25 0e 57 bf
       -0.34012392 -0.46097606 0.44126394 -0.8400596
0000c0 11 2f bc 3d 07 1e 2e 3f
       0.09188665 0.6801457

bias f4 [10]
000000 86 4e fa bf 6d 58 75 3f 9a b3 17 bf e2 ec f7 bf
       -1.9555213 0.9583805 -0.59258425 -1.9369166
000010 4c 14 35 3e 90 c7 91 bf 34 42 a3 bf db 4d 81 3e
       0.17683524 -1.1389027 -1.2754579 0.25254712
000020 1f b7 6f 3e 09 f0 2f bc
       0.23409699 -0.010738381

weight f4 [10, 10]
000000 2e f1 36 c0 ed f0 54 3f a3 c3 79 3b 5c a4 cd c0
       -2.8584704 0.83180124 0.0038110993 -6.4263134
000010 18 5e dd bf 2d f4 10 c0 be 12 bc bf 09 bd 21 bf
       -1.729434 -2.2649033 -1.469322 -0.6317907
000020 b2 cc ac bf a6 cc 51 c0 cc 97 d0 bf 06 ae 92 be
       -1.3499968 -3.2781157 -1.6296325 -0.28648394
000030 dd 9b c4 3d 9d 9c ae bf 5e cc 0a c0 b2 2b 94 be
       0.09600041 -1.3641545 -2.1687236 -0.28939587
000040 69 08 2a c0 0b 0f ab 3f 2e e1 42 be ca 44 14 3f
       -2.6567633 1.3363966 -0.19031212 0.57917464
000050 84 99 8d bf a0 bc 1a c0 2e 06 4b 3d a0 36 e7 bf
       -1.1062474 -2.4177628 0.04956644 -1.8063545
000060 da 82 b1 bf 7e a2 8f c0 83 8a 66 c0 c0 04 39 c0
       -1.3868058 -4.4885855 -3.602204 -2.890915
000070 35 c8 fd bf 38 f2 ce bf 45 8e 0e c0 d2 4b 0b c0
       -1.9826723 -1.6167669 -2.2274334 -2.1765027
000080 1a bf 22 3e 59 1d 8e c0 e6 5e 8a c0 e9 a3 c2 bf
       0.15893212 -4.4410825 -4.3240843 -1.5206271
000090 72 ce 55 bf 7c e0 37 c0 db 4f 3a c0 00 7d 6c c0
       -0.83518136 -2.8730764 -2.911124 -3.6951294
0000a0 ac 28 05 c0 37 fd 14 c0 36 b5 53 3e 46 61 a6 c0
       -2.0806074 -2.327955 0.20674595 -5.199374
0000b0 9e ef 2e c0 d8 46 de bf f2 f7 5e c0 0f 03 92 c0
       -2.733375 -1.736537 -3.4838834 -4.5628734
0000c0 ab 70 33 c0 26 37 45 c0 e3 f4 32 3d 9f 62 f2 bf
       -2.8037517 -3.081491 0.043690573 -1.8936347
0000d0 70 4d e2 3b 6d d1 f8 be 1d d5 c2 3e d2 07 1d bc
       0.006906204 -0.4859728 0.38053218 -0.009584384
0000e0 33 ff 36 3f be 5d 78 bf 14 b6 ae bf 04 4f 5b c0
       0.71483153 -0.9701804 -1.3649316 -3.4266977
0000f0 88 d2 0f c0 47 f3 18 c0 ba 88 58 bd cf d0 8b c0
       -2.2472248 -2.3898485 -0.052864768 -4.3692393
000100 bc c4 85 c0 24 59 34 c0 2c 85 58 c0 a6 3b 10 c0
       -4.1802654 -2.8179407 -3.3831282 -2.2536407
000110 84 0c 52 c0 90 46 94 c0 3a 00 7c bf d9 5b 08 c0
       -3.282014 -4.6336136 -0.98437846 -2.130606
000120 0b cf 2f 3e d3 15 55 bf f4 82 0d c0 24 fa 1b c0
       0.17168824 -0.83236426 -2.2111177 -2.4371424
000130 1b 0d ea bf 01 06 5a bf 55 89 a7 be 80 93 b0 be
       -1.828525 -0.8516541 -0.32721964 -0.34487534
000140 25 57 b4 3e 01 b2 d8 bf ce 54 bd 3e 2f bb 99 3e
       0.35222736 -1.6929322 0.36978763 0.30025622
000150 7a 78 12 bf 57 dd b1 bf 34 5f 11 bf 30 a0 89 bf
       -0.5721508 -1.3895673 -0.56785893 -1.075201
000160 7c 7c 0c bf 33 83 ab bf e2 5d c5 bd c2 62 4b bf
       -0.5487745 -1.3399414 -0.09637047 -0.7944757
000170 1d 58 89 3c ed 40 3c bf a3 c0 04 3f 36 cd 09 bf
       0.016765648 -0.7353657 0.5185644 -0.5382875
000180 f0 07 35 bf 4a 3c 32 c0 93 77 25 3f e5 26 b3 be
       -0.70715237 -2.7849298 0.6463558 -0.34990612

bias f4 [10]
000000 64 06 2c 3f 51 49 c7 be 7c 17 51 bf aa 10 67 bf
       0.6719725 -0.38923123 -0.8167646 -0.902598
000010 a8 6a 7f c0 32 16 90 bf 20 79 a2 c0 1a 56 1f be
       -3.9908848 -1.1256773 -5.077286 -0.15560189
000020 6b 77 20 bf 71 1c 4c 3f
       -0.6268222 0.797309

weight f4 [1, 1, 3, 3]
000000 a7 1e 06 bf 5e 96 a6 3e 94 06 52 3f 13 8b fb be
       -0.5239052 0.32536596 0.8204129 -0.49129543
000010 91 10 62 3f 4e 22 93 be 2b 1d dc 3e ab 3c 60 3f
       0.8830653 -0.2873711 0.42991003 0.8759257
000020 43 2e de be
       -0.4339467

weight f4 [5, 169]
000000 f2 26 19 be 55 d8 8c bd e6 c3 ec bd 5e 6d de bc
       -0.14956263 -0.068771996 -0.11560802 -0.02715176
000010 e2 a1 df bd 59 10 e3 bc 7e a6 11 be 52 4c 8f bd
       -0.109195486 -0.027717756 -0.14223668 -0.06996979
000020 37 e5 c0 bd 4c 44 d8 bd 53 dd 30 be fc fb 08 be
       -0.09418719 -0.105599016 -0.17271928 -0.13377374
000030 49 f3 c5 bd 44 fc c0 bd 0d 80 0d be 5d 46 19 be
       -0.096655436 -0.09423116 -0.13818379 -0.14968248
000040 85 92 27 be 93 e9 fb bd e4 8e 2d be 56 2c 69 bd
       -0.16364487 -0.1230041 -0.1694904 -0.056927048
000050 60 3f fb bd 1b 05 e6 bc 58 d5 62 bd 17 71 0e be
       -0.12267947 -0.028078606 -0.05537924 -0.13910328
000060 c0 ec 14 bd b3 a2 13 be f3 6c be bd 6f 97 cc bd
       -0.036358595 -0.14417534 -0.09298124 -0.09989821
000070 51 e4 b0 bd 45 c7 0b be 0c d5 95 bd c2 5d 32 be
       -0.08637298 -0.13650234 -0.07316026 -0.17418578
000080 05 d1 6a bd d7 f2 36 bd 8a c5 93 bc cb af 2c be
       -0.057328243 -0.044665184 -0.01803853 -0.16863935
000090 d5 e1 cf bd f0 08 04 be c9 51 01 be 63 00 ff bd
       -0.10150496 -0.12894034 -0.12628855 -0.12451246
0000a0 78 00 17 bd ba e7 1b be 9e d4 f4 ba aa 9f d2 bd
       -0.03686568 -0.15225115 -0.0018679088 -0.1028436
0000b0 72 69 1d bd c3 18 7d 3d f7 28 90 bd 6f 52 8f bd
       -0.03843064 0.061791193 -0.070390634 -0.06998145
0000c0 e8 eb a5 3c 96 00 30 bd 7f 01 02 be d7 df ed bd
       0.02025409 -0.04296931 -0.12695883 -0.1161496
0000d0 d4 7f e0 bc 60 13 1a be 87 27 05 bd 05 a0 57 3d
       -0.027404703 -0.15046453 -0.0325084 0.05264284
0000e0 bb eb 21 3d 4b b2 98 bd bc 09 98 bd 8a 47 5b 3d
       0.03953145 -0.07455882 -0.07423732 0.05353502
0000f0 d7 fe 4f 3d 3e 58 77 bd e5 c1 4e 3d 25 35 04 be
       0.050780144 -0.06038689 0.05047788 -0.12910898
000100 dc 68 16 be 65 dd 84 bd a0 17 07 be 41 fc 5c bd
       -0.14688438 -0.0648754 -0.13192606 -0.053951506
000110 15 f1 2a bd 94 e6 69 bd 49 6b eb bd b1 99 df bd
       -0.04173382 -0.057104662 -0.114950724 -0.10917986
000120 89 23 c9 bd 2d bf 9b 3c 69 b6 98 bd 4f f9 f4 bc
       -0.09821231 0.019012058 -0.07456667 -0.029904036
000130 a8 ae 82 bd 4d ab 2c be ee 0c df bd 0e be a8 bd
       -0.06380969 -0.16862221 -0.10891138 -0.08239375
000140 4b 9a 96 bd c7 fa 95 bd 2d dc 01 bd 66 34 f8 bd
       -0.07353648 -0.073232226 -0.031704117 -0.12119369
000150 d8 9c c4 bd 42 22 0e be b1 37 e5 bd 42 a9 96 bd
       -0.09600228 -0.13880256 -0.11192263 -0.07356502
000160 9e 2c 93 bb ed 0c 73 ba 73 1c 94 bd 54 77 58 bd
       -0.004491403 -0.00092716404 -0.07231989 -0.052848175
000170 36 2f ff bd 28 8a f4 bc 00 c1 1f 3c ba 1f fe bd
       -0.12460177 -0.029851034 0.009750605 -0.12408395
000180 11 67 6b bd fb 26 82 bd 12 18 71 bd 53 a8 21 be
       -0.05747134 -0.06355091 -0.058860846 -0.15786867
000190 53 01 21 be ed bc 72 bc 94 b1 27 bc 93 18 a1 bd
       -0.15723161 -0.014815551 -0.010235209 -0.07866015
0001a0 af 34 0f be 04 81 c3 bd 69 22 18 be d4 5a 14 bd
       -0.13984941 -0.09546092 -0.14856876 -0.036219433
0001b0 7c b2 0e be f8 8b bd bd 45 37 de bd b8 22 80 bd
       -0.13935274 -0.092552125 -0.108503856 -0.06256622
0001c0 59 08 00 3d ea fd 25 be 2f e6 2c 3d a9 6e 98 bd
       0.03125796 -0.16210142 0.042211708 -0.07442982
0001d0 cd 99 23 be 2b 03 ec bd 1a cd ce bc b2 7a b9 bc
       -0.15976639 -0.11524042 -0.025244284 -0.022641513
0001e0 4d 08 88 3d 73 c2 bc bd fb 81 1d be 03 3b d2 bd
       0.06642208 -0.09216776 -0.15381615 -0.10265162
0001f0 4d 37 0e 3d 37 92 3e bd 33 88 95 bd 4b 6d df bd
       0.034720708 -0.04652616 -0.073013686 -0.10909518
000200 65 c5 0d bd 5b a2 1c be aa f5 d2 bd f2 b4 15 be
       -0.03461208 -0.15296309 -0.10300763 -0.14619806
000210 42 ea 33 bd b7 0b f2 bc 9e b6 7c bc 72 31 3c 3d
       -0.043924578 -0.029546602 -0.015424399 0.045945592
000220 d9 dd 02 3b ad f9 64 bd 6e 49 97 3d 93 54 9d bd
       0.0019968657 -0.055902172 0.073870525 -0.07682147
000230 6b ff 95 bd cb c8 d1 bd f5 fd b9 bd fd e4 25 be
       -0.07324108 -0.10243376 -0.090816416 -0.16200633
000240 1e d6 c7 bd 38 a7 33 bd a3 f2 2b be 45 cc b5 bc
       -0.097576365 -0.043860644 -0.16791777 -0.02219213
000250 9e 90 35 ba cf fe 2b be df b6 6f bd 94 3e 35 bd
       -0.00069261517 -0.1679642 -0.05852401 -0.044249132
000260 87 86 fd bd 3e f4 c2 bd 90 8d 1c bd bd 7e fb bc
       -0.12379175 -0.09519242 -0.038220942 -0.030700082
000270 38 a1 31 be 15 3f 0c be a8 4e 25 be e6 8c d1 bd
       -0.17346656 -0.13695939 -0.16143286 -0.10231952
000280 73 f8 6a bd b7 e6 1f be 71 5c a8 bd 5b 1a 6d bd
       -0.057365846 -0.15615354 -0.08220757 -0.057886463
000290 fc e0 8f bd 46 f5 d5 bd 0d d6 04 be e6 db f4 bd
       -0.07025334 -0.10447173 -0.12972279 -0.11956005
0002a0 c4 42 4e bd 70 6b 71 bd a9 66 03 be 14 97 86 bd
       -0.05035664 -0.05894035 -0.1283213 -0.065717846
0002b0 49 1c 06 be cc b3 03 bd a7 0d bc bd 70 18 da bc
       -0.13096727 -0.03215389 -0.091822915 -0.02662298
0002c0 f2 3d 28 be 4a 32 24 be a8 6e 09 be 6e d8 17 be
       -0.1642988 -0.16034809 -0.13421118 -0.14828655
0002d0 56 ff 1b be cb 12 cf bd 5e 2e f9 bd 91 94 86 bd
       -0.15234122 -0.10111006 -0.12167047 -0.065713055
0002e0 20 51 b2 bd 5c a3 32 bd 41 e2 d1 bd be e0 31 be
       -0.087068796 -0.043612823 -0.10248233 -0.17370889
0002f0 4f 2f d9 bd b6 eb 27 be d3 9e 47 bd 97 95 0f bd
       -0.106047265 -0.1639851 -0.04873545 -0.03505477
000300 62 c7 5a bd 92 da aa bd 6d 8c f3 bc 91 9b 98 bd
       -0.053412803 -0.0834247 -0.029730046 -0.07451547
000310 be 80 0a be ad f2 cf bd dd 30 f5 bc 7e 00 2f be
       -0.13525674 -0.101537086 -0.029930526 -0.17090032
000320 1e ec 19 be d0 99 58 bd 02 1e 00 be 2b f3 78 bd
       -0.15031478 -0.052881062 -0.12511447 -0.060778778
000330 ca 1f 43 bd 86 5e 06 be 60 21 da bc f8 f1 ea bd
       -0.04763774 -0.13121995 -0.026627243 -0.11471933
000340 c2 54 e9 bd e3 78 2c bd fb d3 fa bd 69 0f 2f bd
       -0.113931194 -0.042107474 -0.12247463 -0.042739306
000350 97 00 bb bd d0 67 cc bd 00 23 ff bc 2e 8c 8d bd
       -0.09130972 -0.09980738 -0.031144619 -0.06911503
000360 32 79 44 3d 8c e8 34 be db ae 2b bd bd aa ca bd
       0.047967143 -0.17666835 -0.041914802 -0.09895847
000370 4e 8f fd bd eb 61 32 be e7 bd 08 be c4 cf ae bd
       -0.12380849 -0.17420165 -0.13353692 -0.08535722
000380 0e 6f df bd 45 ec 0e bd 8e f5 87 bd 59 49 52 bd
       -0.10909854 -0.034893293 -0.06638633 -0.05133948
000390 37 c8 d7 bc f3 cf 8a bd 28 c5 cb 3b 11 07 01 be
       -0.026340587 -0.067779444 0.006218571 -0.12600352
0003a0 56 76 c1 bd 98 66 9e bd b7 06 9d bd c5 7b e6 bc
       -0.09446399 -0.07734412 -0.076672964 -0.02813519
0003b0 14 94 1a be 70 13 07 be c5 67 f0 bc 94 81 5f 3d
       -0.1509555 -0.13191009 -0.029346356 0.054566935
0003c0 de f2 a8 bc f7 98 39 bd 0a 5f 4a 3c cb 87 33 bd
       -0.02062362 -0.045311894 0.012351761 -0.043830674
0003d0 1f cd 06 be b2 f9 c6 bd 9f 57 10 be 95 0a 56 bd
       -0.13164185 -0.09715594 -0.14095925 -0.052256186
0003e0 d8 a4 2d be 67 db e2 bd a4 c7 2c be e7 06 67 bd
       -0.16957414 -0.11077004 -0.16873032 -0.056403067
0003f0 a8 29 df bd cd 44 af bd 35 bd d7 bc b2 72 26 3c
       -0.10896617 -0.085580446 -0.026335338 0.010159181

bias f4 [5]
000000 71 95 6e bd e7 8a 81 bd 7d d3 b4 bd ad 7e 93 3f
       -0.058247987 -0.06325322 -0.08829401 1.1523033
000010 90 0c df 3f
       1.7425709

weight f4 [10, 5]
000000 5c 07 67 bc 08 46 6e 3e 86 ce 74 be 7c c5 a2 3e
       -0.014100876 0.23268902 -0.23906907 0.31791294
000010 43 dd 13 bf 2b 8e b3 be 2b 24 18 be b3 aa 6e 3e
       -0.57759494 -0.35069403 -0.14857547 0.23307304
000020 d4 af 2b 3d 95 5e da 3e 67 37 08 be ab 87 c6 3e
       0.04191573 0.42650285 -0.13302384 0.3877538
000030 fe 6a 02 c0 ea fc b2 bf 00 77 12 be fe b6 2c 3e
       -2.0377803 -1.3983433 -0.14303207 0.16866681
000040 f0 28 e8 3e d6 51 fa bf 2e 4b 53 bf ed 60 e3 bf
       0.45343733 -1.9556224 -0.8253659 -1.7763954
000050 0a 6c 1a 3d 8d 1a 10 bd 18 76 0f 3e e4 3b 28 be
       0.03770069 -0.03518157 0.14009893 -0.16429096
000060 0d e3 0e 3f 63 bc af 3e 34 03 b6 3e fc 03 ea 3e
       0.558152 0.34323415 0.3554932 0.45706165
000070 66 ef 7b 3f e1 b0 f1 3e 6f 41 d8 be fd 74 fe ba
       0.9841217 0.4720526 -0.42237422 -0.0019413527
000080 96 f3 91 be 27 19 1e 3f 64 11 bd be d9 b2 99 3e
       -0.28506154 0.6175713 -0.3692733 0.30019262
000090 85 d1 9f 3e fa ef 94 3e 5b e5 9d be 14 40 91 3e
       0.31214538 0.29089338 -0.30839047 0.283692
0000a0 60 0e 4b be 6f 3a b1 3e 80 7a 7a 3e 00 42 46 bf
       -0.19829702 0.34614894 0.24460793 -0.7744446
0000b0 09 de 8a bf 94 87 95 3e 70 ca c0 be 26 86 11 3d
       -1.084901 0.29205 -0.37654448 0.035528325
0000c0 52 c9 e2 bc c6 0b 8c 3f
       -0.027683888 1.0941093

bias f4 [10]
000000 a7 b0 ae 3f d1 93 64 bf c5 1b 65 3f a8 b8 61 3f
       1.364766 -0.8928805 0.894955 0.8817239
000010 34 53 71 bf a7 1d 82 bf d7 f0 0e 3f 62 94 c5 3e
       -0.9426758 -1.0165299 0.5583624 0.3858977
000020 57 e2 d8 3e 14 0f f0 be
       0.42360184 -0.46886504

weight f4 [10, 10]
000000 78 e6 b2 c0 8b 49 d6 bf 46 0e 28 c0 d5 22 55 c0
       -5.5906334 -1.6741194 -2.6258712 -3.330251
000010 e0 b2 9c bd ae ec b2 bf f5 68 87 c0 ad 57 a0 c0
       -0.07651305 -1.3978479 -4.231562 -5.0107026
000020 7e 18 b2 bf eb b2 2a c0 a9 66 a4 c0 e0 6d dd bf
       -1.3913724 -2.6671703 -5.1375318 -1.7299156
000030 18 29 46 c0 01 f2 67 c0 6a 49 4e bf d3 ce 09 c0
       -3.0962582 -3.6241457 -0.8058077 -2.1532485
000040 ac 66 3c c0 73 43 9a c0 6d ed 84 bf 43 19 19 c0
       -2.9437666 -4.8207335 -1.0384957 -2.3921669
000050 fe f4 73 c0 cc 85 82 bf 64 68 99 c0 88 53 61 c0
       -3.8118281 -1.0197082 -4.793993 -3.5207233
000060 11 67 9a bf b7 b2 db bf 0a ef 0f c0 46 cd 8f c0
       -1.2062703 -1.7163914 -2.2489648 -4.493808
000070 7a 3a 48 c0 94 bb fd bf 45 2d 9c 3d 4e c8 c0 be
       -3.1285691 -1.9822869 0.07625822 -0.3765282
000080 c1 cc b1 bf d4 38 fd bf f8 f8 1b bf cf 31 05 bf
       -1.3890611 -1.9782968 -0.6092677 -0.52029127
000090 26 78 4e bf aa 87 d5 3e 35 de e1 bd f9 96 09 3e
       -0.8065208 0.41705066 -0.11028711 0.13436498
0000a0 5b 78 c1 c0 cb 37 ca bf 7e 06 53 c0 ae a5 54 c0
       -6.045942 -1.5798277 -3.2972713 -3.3226123
0000b0 66 5a 8c be 24 cb ef bf 7b d2 3e c0 5c 50 74 c0
       -0.2741272 -1.8733869 -2.9815967 -3.8174047
0000c0 3d 7a 8b bf 0a 55 21 c0 5b d0 44 3f 77 9e 49 bf
       -1.0896679 -2.5208154 0.76880425 -0.78757423
0000d0 97 8b 92 c0 51 96 e5 bf fd b1 c7 bf 5c 94 8e 3e
       -4.57954 -1.7936498 -1.5601193 0.27847564
0000e0 fb 0e 99 3f d2 27 15 c0 a3 e0 94 c0 7b c5 aa be
       1.1957697 -2.3305554 -4.6524215 -0.3335379
0000f0 59 76 a4 c0 4e 03 28 c0 26 81 41 c0 ee aa 18 c0
       -5.1394467 -2.6252017 -3.0235076 -2.3854327
000100 68 59 a8 bd b8 a4 eb bf c0 00 6b c0 9c 77 aa c0
       -0.08220178 -1.8409643 -3.6719208 -5.3271008
000110 ad 6c 68 bf 24 60 3a c0 15 c8 dc bf 04 88 a9 3e
       -0.90790826 -2.912118 -1.724856 0.33111584
000120 58 94 ba bd bb 9c 53 c0 6b a1 39 bb a6 88 0c 3f
       -0.091103256 -3.306441 -0.0028324972 0.5489601
000130 e1 87 00 bf 1f 08 d4 3e c5 91 9d bf e7 88 40 3f
       -0.50207335 0.41412446 -1.231011 0.75208896
000140 14 17 ab 3e d1 3e 60 bf c9 86 d4 3f 98 35 18 40
       0.33416045 -0.8759585 1.6603633 2.378271
000150 0b b6 a5 bf 42 5c 43 c0 3b 06 9e 3c 58 f7 e0 be
       -1.294618 -3.052506 0.01929008 -0.43938708
000160 bd 22 00 c0 84 83 0f bf 85 28 b0 bf 20 83 34 be
       -2.0021203 -0.5606005 -1.3762366 -0.17628145
000170 81 a6 c1 c0 9b bb 8f c0 83 df b0 bf 29 cf d8 3e
       -6.051575 -4.491651 -1.381821 0.4234555
000180 34 36 0c c0 d0 8f b5 3d 53 c9 8b be ee 62 a9 bf
       -2.1908083 0.08865321 -0.27302036 -1.3233316

bias f4 [10]
000000 87 c7 50 c0 1f cc 84 c0 f4 44 85 c0 cf f8 91 3f
       -3.2621782 -4.149917 -4.164667 1.1404055
000010 db 69 87 c0 1f e6 a9 be e6 fd 55 c0 3e 36 31 bf
       -4.231672 -0.3318338 -3.3436217 -0.6922339
000020 2f d9 03 3f b6 7a 0d bf
       0.5150327 -0.5526537

weight f4 [1, 1, 3, 3]
000000 ab 36 e8 be d8 14 41 3f 62 25 71 3f c4 5b 7b 3e
       -0.45354208 0.7542243 0.94197667 0.24546725
000010 0a 82 b1 3e 25 3b c0 3d b0 d9 f9 be 75 b3 b4 3d
       0.34669524 0.09386281 -0.48798895 0.08823291
000020 f6 2b 10 3e
       0.1407927

weight f4 [5, 169]
000000 86 16 8b 3d ad 1b 52 3d 69 cc fa bb cb 5e 60 3e
       0.067914054 0.051295925 -0.007653762 0.2191116
000010 77 ab 31 3e 39 10 91 3f 30 ce 8f 3f c0 ae aa 3f
       0.17350565 1.1333076 1.1234798 1.333458
000020 6f 18 46 3f 0c 4f d8 3e 7e 85 87 3e 64 33 9d 3e
       0.7738103 0.42247808 0.26469034 0.3070327
000030 dc 61 65 bd e8 81 bb 3c c6 a2 77 be cf 28 f5 3d
       -0.05600153 0.022889093 -0.24183187 0.11970674
000040 ca 37 63 3f 34 50 a4 3c 9e c0 2e 3f 79 80 43 3f
       0.88757 0.020057775 0.6826266 0.7636791
000050 57 fa 2a 3f f9 94 c9 3e da 57 b7 3f fa b7 5c 3f
       0.6678824 0.3937147 1.4323685 0.86218226
000060 d7 ae c4 3e 1c d9 92 3d ed 7f 1c bd 66 f6 e8 3e
       0.38414642 0.071703166 -0.038207937 0.45500487
000070 6a c1 6d 3f 66 42 53 be 36 a2 4e bf eb 2a 60 3e
       0.9287325 -0.20630798 -0.80716264 0.21891372
000080 aa 96 ab 3e 7b 28 10 3e 73 3c 86 3e 8a 73 37 3e
       0.33513385 0.14077942 0.26217994 0.17915168
000090 c6 9d cd be 70 3b 53 bf 15 8e 38 be 73 76 29 be
       -0.40159434 -0.8251257 -0.1802295 -0.16549091
0000a0 46 26 ed 3d 0d 02 21 3e dc 55 24 bf 68 10 1b bf
       0.11579566 0.15723439 -0.6419351 -0.6057191
0000b0 8e 66 73 bf 6b cd 74 3e 96 79 97 3c 6f 04 3b be
       -0.9507836 0.23906486 0.018490594 -0.1826341
0000c0 d3 89 6f bd b8 60 4f be b6 6a 81 bf b1 76 04 bf
       -0.05848105 -0.20251739 -1.011069 -0.5174361
0000d0 aa ae 8e bd f2 01 c8 be 22 82 d5 be 02 a4 e0 bd
       -0.06966908 -0.39063984 -0.41700846 -0.10968782
0000e0 a0 6f 4b bf c4 93 57 bf f9 5c b0 be 93 ef 10 bf
       -0.794672 -0.8420985 -0.34445933 -0.5661556
0000f0 c9 ee 98 bf b8 50 9e be b5 33 0f be 87 46 7a be
       -1.1947871 -0.3092096 -0.13984568 -0.24440967
000100 88 13 fd bd 1d 30 10 bd a2 de b3 be 0f 2c 40 bf
       -0.12357241 -0.035202134 -0.35130793 -0.7506723
000110 1a 81 a4 be 40 1a 7d be 82 a7 30 bf ac 34 9d bf
       -0.32129747 -0.24717045 -0.69005597 -1.2281699
000120 3f 8d a4 be cb 4a 59 bf 79 ef 1a bf d8 db 56 be
       -0.32139012 -0.8487975 -0.60521656 -0.20982301
000130 24 ea 82 bc b6 f6 19 be c6 39 a9 bd 0b 83 d5 be
       -0.015980788 -0.15035519 -0.082629725 -0.4170154
000140 64 59 56 3d e8 38 81 bd 36 88 2c 3f f8 78 c9 be
       0.052331343 -0.06309682 0.6739534 -0.39350104
000150 b3 8a 97 be b7 62 3e 3e ae 60 27 be 3c 86 7a bf
       -0.29598007 0.18592344 -0.16345474 -0.97861075
000160 af 5c c4 be 26 0d 7e be 3f 27 95 3d cb 78 cf 3d
       -0.38351962 -0.24809703 0.07282876 0.10130461
000170 cf c5 48 3b 9d ec 0b bb 6a 17 46 3f a4 0d 99 3f
       0.0030635481 -0.002135075 0.7737948 1.1957288
000180 89 15 19 3f ab 31 b3 3e 00 73 fc 3e bd af 21 bc
       0.59798485 0.3499883 0.49306488 -0.009868559
000190 0a f8 3f bf ce ee 30 3e cf 84 0f bd 55 ea fc bd
       -0.7498785 0.17278597 -0.035038766 -0.12349383
0001a0 68 87 5f be 33 60 0c 3f b0 fe c0 3e a2 3d 7b 3f
       -0.21828997 0.5483429 0.3769431 0.9814092
0001b0 e2 7e aa 3f 26 aa 35 3f 6c 45 af 3e 46 b8 66 3e
       1.3319972 0.7096275 0.34232652 0.22531232
0001c0 96 d4 ec 3e 1b 3f 43 3e 3b 97 52 3e 1a 66 5b 3f
       0.4625594 0.19067042 0.20565502 0.8570267
0001d0 4c 38 ed 3e e6 db 4c be 70 ec 15 3f b0 18 da 3d
       0.46332014 -0.2000576 0.585639 0.1064924
0001e0 6a f6 06 3f 53 14 64 3f 77 72 8e 3e fc 4c 91 bd
       0.5271975 0.8909351 0.27821705 -0.07094762
0001f0 0c ba 23 bf 6c 18 0b bf 00 a3 b4 3c 98 62 69 3e
       -0.6395576 -0.5433414 0.02205038 0.22791517
000200 4c d0 c2 3f b0 6d da 3e dc 70 22 3d 86 4b f3 3e
       1.5219817 0.4266181 0.039658412 0.47518557
000210 65 52 a2 be 71 a1 43 bd a9 5d 1b 3e 91 e1 ef bd
       -0.31703487 -0.047761384 0.15172447 -0.11712945
000220 43 10 e0 bc 9d ce 7b bb de 46 1b 3f 12 73 9a 3d
       -0.027351504 -0.0038422712 0.6065501 0.07541479
000230 05 1b 54 3f df ab ca 3f 37 1b bf 3e 2e dc 05 3f
       0.8285373 1.5833701 0.3732545 0.5228909
000240 cb 9f 6a be 2f 0d 2b bf e6 35 55 bf 89 cd a3 3c
       -0.22912519 -0.6681699 -0.8328537 0.019995468
000250 2c e1 24 3e e8 19 74 be 3f f4 72 3e bc f4 23 3f
       0.16101521 -0.23838007 0.23725985 0.6404531
000260 74 9f 9a 3f f3 c5 6f 3f 86 cd ce 3e 55 70 a3 3b
       1.2079911 0.9366142 0.40391177 0.0049877563
000270 d5 80 3c bd ee 02 5c be 90 c1 1e bf b0 8d a4 bf
       -0.0460213 -0.21485493 -0.620141 -1.285574
000280 ea 5d c7 bf 80 6c b5 bf 05 ff a6 bf 71 a6 cc be
       -1.5575535 -1.4173737 -1.3046576 -0.39970735
000290 ba 0c 86 be 02 66 b4 bd 37 7e 20 be e3 c4 00 be
       -0.26181585 -0.08808519 -0.15673147 -0.12575106
0002a0 60 9f 3d 3d 8d fb 36 bd 90 56 95 3d 4b 1a a2 3c
       0.04629457 -0.04467349 0.07291901 0.019787928
0002b0 a0 e3 46 bd 33 b1 a1 be 38 cc 7c 3d 3e cf 22 3e
       -0.048556924 -0.31580505 0.061718196 0.15899369
0002c0 e1 d3 85 3e ab ab c3 3e 6f e4 94 3e 66 d1 75 3c
       0.26138213 0.3821691 0.2908053 0.015003538
0002d0 74 a7 0c 3e 57 e9 2e bd 8a 3e 5a bc 87 6f ee 3c
       0.13735753 -0.042703 -0.013320575 0.029105915
0002e0 d4 4d 17 3d cb 29 0f bf de b3 72 bf b5 6e 26 be
       0.036939457 -0.55923146 -0.94805706 -0.16253169
0002f0 3b fc ac bd 43 37 ad bd 6d 10 d7 3e 0b cf 1f 3e
       -0.08446547 -0.08457806 0.4200472 0.15606324
000300 f4 aa 14 3f ea d7 85 3f 34 3d 5a bd 5a 43 1b bd
       0.58073354 1.0456517 -0.053281024 -0.03790603
000310 84 f1 b7 be 19 27 b7 be 02 6e cd bd 36 40 30 3e
       -0.3592645 -0.35772017 -0.10030748 0.17211995
000320 52 7f bc be d5 8d 4b 3b d3 82 49 bf fc 12 3e bf
       -0.36815888 0.003105988 -0.78715247 -0.7424772
000330 d1 d2 80 3e 76 d6 81 3f a1 de fb 3f 3e 99 33 3f
       0.2516084 1.0143573 1.9677316 0.70155704
000340 94 86 fd be e5 e0 95 bd 2e 89 35 3d dc a1 0d be
       -0.49516737 -0.07318286 0.044320278 -0.13831276
000350 00 61 19 bf 6d 46 cc be 45 00 10 bf d9 67 6e be
       -0.59913635 -0.3989748 -0.5625041 -0.23281802
000360 f4 d0 ec 3d 24 6f 24 bc ed 57 ee 3d 3c c7 61 3f
       0.11563292 -0.010036264 0.11637864 0.8819463
000370 da 83 0e 3f d1 f9 01 be 8f f5 5e be 24 b2 4c 3e
       0.5566994 -0.12692954 -0.2177336 0.1998983
000380 66 fa d1 bd 45 83 1b 3e 79 05 18 3f 3c 54 e9 be
       -0.10252838 0.15186794 0.5938335 -0.45572078
000390 ba 6d 1a bf 4c 95 8a 3e 6f 66 9b be 88 cd fd 3e
       -0.6032368 0.2706703 -0.30351588 0.4957087
0003a0 80 d7 93 3f 5f 45 c4 bd d8 b5 86 be 09 60 a9 3e
       1.155014 -0.09583544 -0.2631061 0.33081082
0003b0 2a 48 7a 3f 1a 59 04 3f a8 30 cc 3f 10 75 2e 3f
       0.97766364 0.5169846 1.5952349 0.68147373
0003c0 2e 04 35 bf 5a 2d 2c bf ab 65 20 3f f3 ce a6 3e
       -0.707095 -0.672567 0.62655133 0.32579765
0003d0 94 ac 7c 3f 83 82 af 3f b5 cf 48 3c d1 28 c1 be
       0.98700833 1.3711704 0.012256552 -0.37726453
0003e0 70 d3 a0 3f 14 b0 94 3f b7 4e 4e 3f 2a 20 82 3f
       1.2564526 1.1616235 0.8058886 1.0166066
0003f0 6e 5c a9 be ac a9 a7 bf a1 0d 8e bf 67 b6 0f 3f
       -0.3307833 -1.3098655 -1.1097909 0.561377

bias f4 [5]
000000 32 81 f6 bd f5 e9 49 bf 64 ef 6b 3b 1c fb 9c 3e
       -0.12036361 -0.78872615 0.0036000842 0.3066033
000010 cf ce 54 3e
       0.20782016

weight f4 [10, 5]
000000 df 8c e8 3c 4c 0f 54 3f 7b f4 59 3f 5f c8 e7 3c
       0.028387485 0.8283584 0.8513867 0.028293787
000010 96 4a 09 bf 6b b0 aa be 4d 15 76 3f 97 07 7e bf
       -0.53629434 -0.3333772 0.9612625 -0.9923033
000020 3f 24 00 3f 7a 64 d1 bd 9b f2 2e 3f 0e cf db be
       0.5005531 -0.102242425 0.68338937 -0.42931408
000030 e1 bf 39 3d d6 41 2a 3f 9e 9c 4c 3f c6 f6 92 be
       0.045349006 0.6650671 0.7992648 -0.28703898
000040 d7 fe 3c 3f 60 ef a5 3e 60 14 1a 3e 6e 6b ce bf
       0.73826355 0.3240919 0.15046835 -1.6126535
000050 6d 8b e1 be 42 d4 66 bd ba 8c 06 3d 23 64 a0 bd
       -0.44051686 -0.05635477 0.03284905 -0.078315996
000060 e4 4c 99 be 85 c4 0d bf 30 3f eb bf 6f 98 c8 3f
       -0.29941475 -0.5537799 -1.8378658 1.5671519
000070 b3 e2 83 bf 84 29 ab 3e 45 bc 7f bd 28 d9 a4 be
       -1.0303558 0.3343011 -0.062435407 -0.32196927
000080 a4 a3 af 3c a7 03 aa bc 07 38 7d be f9 00 47 3d
       0.021440335 -0.020753695 -0.24728404 0.048584912
000090 83 82 ad bf 80 cc 7f 3f e0 9a 87 bf ad b0 fa 3e
       -1.3555454 0.9992142 -1.0594139 0.48962918
0000a0 4f 65 2c bf ba 49 06 3e ae 17 8c 3f 80 6e 5a bf
       -0.67342085 0.13114062 1.0944726 -0.8532486
0000b0 72 f5 8c 3e 2e e6 81 3d 3f a1 1b 3f 1d a5 98 bf
       0.2753101 0.063427314 0.60792917 -1.1925389
0000c0 98 d3 dc 3c f9 d2 4d bf
       0.026956365 -0.80400044

bias f4 [10]
000000 a9 4a 87 bf 32 97 3e bf 43 80 7e bd 3d 2d b5 be
       -1.056966 -0.74449456 -0.06213404 -0.35386077
000010 22 21 30 bf b5 2b 09 3e 5c f9 ac be de b7 cd 3b
       -0.68800557 0.13395579 -0.33783996 0.006278022
000020 25 5f 78 3f d7 4c 45 bf
       0.9702018 -0.77070373

weight f4 [10, 10]
000000 70 47 31 3e 8d 7c 45 3f 5c 57 27 bf 4e 83 54 3f
       0.17312407 0.77143174 -0.65367675 0.83012855
000010 25 6a 5a 3e f4 b5 5c c0 5a 20 5e be e8 f9 07 c0
       0.21329553 -3.4486055 -0.21692029 -2.124628
000020 9d 9f 90 c0 f7 b0 30 3d bb 55 b0 3d f0 89 a0 c0
       -4.519484 0.043137517 0.08610102 -5.016838
000030 b4 0d 9c 3e 5c 70 17 c0 f6 ac b6 bd ca 7b b5 3f
       0.30479205 -2.3662329 -0.089197084 1.4178402
000040 31 a7 3f be a2 af 5e 3f 1f 43 4f 3f e8 bf e8 bf
       -0.18716122 0.86986744 0.80961794 -1.8183565
000050 8e b8 11 bf 32 d1 12 3c 78 fb 52 3f 49 a8 8c be
       -0.56922233 0.008961009 0.8241496 -0.2747214
000060 b6 0c fd be d5 14 19 bf a4 25 d6 3d 1e f2 21 be
       -0.4942376 -0.5979741 0.10456398 -0.15815017
000070 56 48 64 bd 49 57 dd be f3 ba 3f c0 cf 83 04 c0
       -0.055733047 -0.43230656 -2.9957855 -2.070545
000080 1b 53 25 bf 31 c4 ba bf 06 bb f6 be 6d a6 34 be
       -0.64579934 -1.4591123 -0.48189563 -0.17641611
000090 7c d5 68 be bb bf 2d bf 9f 40 1b 3f 03 04 ef bf
       -0.22737688 -0.6787068 0.6064548 -1.8673099
0000a0 3a ec 31 bf 69 f8 05 c0 c2 aa 65 c0 1d 7a f8 bf
       -0.6950108 -2.0932868 -3.5885472 -1.9412266
0000b0 e1 c4 b5 3d 7c 0a dc bf 82 7b 75 be 52 ce bc bf
       0.08875442 -1.71907 -0.23972896 -1.4750464
0000c0 8b d6 88 c0 a0 39 85 be 72 e8 fe 3e 13 a3 03 be
       -4.2761893 -0.26020527 0.49786717 -0.12855177
0000d0 31 1e 08 c0 2b 46 ba 3e 2f 06 2a be 5f 86 d2 bd
       -2.1268427 0.3638166 -0.16603921 -0.102795355
0000e0 17 62 16 3e 49 e6 79 be ed a3 86 3e 2f ad 8b bf
       0.14685856 -0.24404253 0.2629694 -1.0912226
0000f0 e5 39 8f 3e 79 3a d5 bf d2 e6 25 c0 53 e5 c0 bf
       0.27973858 -1.665847 -2.5922132 -1.5069984
000100 d0 24 f3 be be c4 b6 bf da ba 29 3e 8d ee b2 bf
       -0.47489023 -1.4278791 0.16575184 -1.397905
000110 fe 75 a5 c0 7d 35 37 be a6 89 c3 bf cc b5 38 c0
       -5.1706533 -0.17891498 -1.5276382 -2.886096
000120 e5 69 4a c0 15 0e 47 bf 12 7c 1d bf f6 ab e3 bf
       -3.1627133 -0.7775586 -0.6151744 -1.7786853
000130 97 71 3d 3e 27 9d 70 bf 73 16 4a c0 de 52 cc be
       0.18500362 -0.93989795 -3.1576202 -0.39906973
000140 92 c5 c0 be 57 35 08 c0 18 c7 5e c0 86 ae d0 bf
       -0.37650734 -2.1282556 -3.4809017 -1.630326
000150 6f 0f cb 3c fd 6d d2 bf ba 63 7e be e2 21 83 bf
       0.024787633 -1.6439816 -0.2484273 -1.0244715
000160 c9 d6 91 c0 74 ff ce be fd fb b6 bd 79 9a 95 bf
       -4.557469 -0.4042927 -0.08934782 -1.1687766
000170 e7 f2 74 c0 36 bc d7 be 06 54 8b bd 9d 2c c8 bf
       -3.8273256 -0.4213578 -0.068031356 -1.5638615
000180 28 70 18 3e 1b 5f bd bf 26 76 26 c0 a7 c8 41 be
       0.14886534 -1.4794649 -2.6009612 -0.18924199

bias f4 [10]
000000 43 47 92 bf ab 7a 64 be 6b 83 c5 3e e6 58 b7 3f
       -1.1427997 -0.22312419 0.38576826 1.4324005
000010 63 73 7d c0 db 95 49 bd 78 46 83 c0 0d c6 76 c0
       -3.9601676 -0.04921518 -4.102352 -3.855838
000020 88 00 93 c0 3f 36 23 c0
       -4.593815 -2.550186

weight f4 [1, 1, 3, 3]
000000 0b d9 28 bf 5b 59 9b 3f 98 ae 59 3f 13 b8 ea be
       -0.6595618 1.2136644 0.85032034 -0.45843562
000010 89 da 4d 3f be 02 1a 3f 5b 93 8c be 4a 95 87 3d
       0.80411583 0.60160434 -0.27456173 0.066202715
000020 0a ed 9d 3e
       0.3084491

weight f4 [5, 169]
000000 82 bb 82 bd 6d 1d 78 3d 8a e3 92 3c 53 1f 90 bd
       -0.063834205 0.060574938 0.017930765 -0.070372246
000010 23 34 a0 3c 0b 5f 91 bd d2 5f 80 3c a9 97 36 3d
       0.01955611 -0.07098206 0.01567069 0.04457823
000020 a9 20 05 bc 0d cc 47 bd 4f f7 a2 bb 05 da 27 3d
       -0.008125463 -0.048778582 -0.004973329 0.040979404
000030 37 ba dd bc 94 14 1e bd 8a 7f bf 3c a9 b8 0f 3d
       -0.027066333 -0.038593844 0.023376245 0.035088215
000040 44 dc 14 3d ad cf 53 be d7 5c 92 be 9b c2 47 be
       0.036342874 -0.20684691 -0.28586456 -0.1950783
000050 4b 34 9b bb 19 11 7b be bb c2 3b 3c 79 d6 b6 bd
       -0.0047364584 -0.24518241 0.011460002 -0.08927626
000060 e8 3b 6e bd 15 51 85 bd 14 ae 4b 3c a2 42 10 bd
       -0.0581626 -0.06509606 0.01243164 -0.035219796
000070 a5 bc 13 be cb 60 8d 3e 17 d3 ba be 94 2b 2e bf
       -0.14427431 0.2761291 -0.36489174 -0.68035245
000080 e2 07 2a bd 5f 44 b7 3d 74 0b fa be d0 23 2b bf
       -0.041511424 0.089485876 -0.48836863 -0.6685152
000090 80 d2 10 bf 89 e3 d8 bd 4a 4a ea 3c 20 e1 af 3b
       -0.565712 -0.10590274 0.028599877 0.005367413
0000a0 43 59 66 be 73 74 cf be 0a cb 80 bd 7e dc 3a bf
       -0.22494988 -0.4051853 -0.06288727 -0.72992694
0000b0 85 e1 82 be ca e6 a7 3e f0 cd e6 bc fb f4 a9 be
       -0.25562683 0.32793266 -0.02817437 -0.33194718
0000c0 47 91 43 bf 53 22 da be 00 93 58 be ae f8 95 bc
       -0.7639355 -0.42604312 -0.21149826 -0.018307056
0000d0 55 55 52 bd d1 8f 08 be 6c 75 78 3e 30 fa 1c bd
       -0.05135091 -0.13336112 0.24263543 -0.038324535
0000e0 b6 d5 c3 be 15 09 aa 3e b8 9a d0 3e d7 17 27 be
       -0.38248986 0.33210054 0.4074304 -0.16317688
0000f0 b6 30 08 bf f7 03 5f bf 47 05 d7 be d8 45 b2 be
       -0.53199327 -0.87115425 -0.41996214 -0.34818912
000100 b3 31 8e 3c 46 98 22 be d0 0c 81 be 39 84 58 3e
       0.017357683 -0.158784 -0.25205088 0.21144189
000110 19 91 02 be b4 62 98 3d 96 4a ea 3e fd a8 6a 3e
       -0.12750663 0.07440701 0.4576003 0.22916026
000120 d8 4c 5a be 68 47 b8 be a5 25 b4 be 8f e2 15 bf
       -0.21318376 -0.3599198 -0.3518497 -0.58548826
000130 67 44 23 bd d8 65 f4 3b 23 c9 1d be 10 77 c1 3d
       -0.039860155 0.00745843 -0.15408759 0.094465375
000140 71 a8 2b be 00 1b 08 bf f6 7a 14 be e6 20 21 3e
       -0.16763474 -0.531662 -0.14500031 0.15735206
000150 fa aa 53 3e da 14 fc bd 93 d5 e6 be 3b 3e 9b be
       0.20670691 -0.123086646 -0.4508482 -0.30320916
000160 82 0c b7 bd 68 80 b6 bd eb 05 8d 3d 5b f7 0c 3d
       -0.089379326 -0.0891121 0.068858944 0.034415584
000170 24 58 72 3e 9f f7 e2 3c 42 1b 92 be b7 17 4b bd
       0.23666435 0.027705966 -0.2853642 -0.049583163
000180 c0 ba b4 be 78 aa 71 be b1 13 d2 be 8b 9d a8 be
       -0.3529873 -0.23600185 -0.41030648 -0.32932696
000190 dc 4c 53 be e4 87 98 3e 04 df e6 3b f1 52 34 3d
       -0.20634788 0.29791176 0.0070456285 0.04402441
0001a0 fe 62 1e 3e 25 17 52 3e 68 4f 0c bd 62 48 7c bd
       0.1546745 0.20516641 -0.034255415 -0.061592467
0001b0 81 e1 4a be d7 c6 b0 be c3 49 24 3c 17 06 96 be
       -0.19812585 -0.34526703 0.010027352 -0.2930152
0001c0 05 6e d1 3d 7b 16 06 3e f9 5c 0b 3e db f0 6a 3e
       0.10226063 0.13094513 0.13609685 0.22943442
0001d0 a3 9b d2 bc f2 a3 c8 3d 78 dd ed bd 96 b6 93 be
       -0.025708979 0.09796895 -0.116145074 -0.2885024
0001e0 1f 01 ee be a6 45 b5 be 83 f3 98 bd be 12 2c bd
       -0.4648523 -0.354047 -0.07468321 -0.04201006
0001f0 db 0f 2d be cf d5 4d be 05 e3 34 be f3 56 2c be
       -0.1690058 -0.20101093 -0.17664726 -0.16830043
000200 81 de 4a bd 0a 3e 88 3d c8 1a 5c bd b0 ff aa be
       -0.049528603 0.06652458 -0.053736478 -0.333982
000210 88 cd 34 bf 60 5d eb be 5a 4e 0d bf 09 9c 9f be
       -0.70626116 -0.45969677 -0.5519768 -0.31173733
000220 1e b9 b7 3d 48 54 01 be 27 3e e5 be 1d e1 92 be
       0.08970855 -0.12629807 -0.4477398 -0.28687373
000230 86 6b 22 be 1f 79 dc bd c2 83 26 bd cd b0 72 bd
       -0.1586133 -0.107652895 -0.040652998 -0.05925064
000240 66 8a b7 bc bd 03 b2 be 83 f1 ec be 1f b2 4a bf
       -0.02240486 -0.34768477 -0.4627801 -0.7917804
000250 21 46 2d bf c0 df b1 ba 05 16 72 be 71 54 ad bd
       -0.67685133 -0.0013570711 -0.23641212 -0.084633715
000260 4d 8e e6 bd c5 8a ba be 4e 1c 0d be 6d 5b 32 bd
       -0.112576105 -0.36433998 -0.13780329 -0.04354422
000270 2d 71 5e 3d 6a 4a cc 3d 26 1c 03 bd 38 b6 9c be
       0.05430715 0.09975131 -0.032009266 -0.30607772
000280 4c c7 c7 be 9f b1 5a bf 8a e2 68 3e df f0 c1 3d
       -0.3901924 -0.8542728 0.22742668 0.09469771
000290 00 86 70 3e f3 7c 5c be 8f a7 15 be 14 b2 b5 bb
       0.23488617 -0.2153204 -0.146147 -0.00554491
0002a0 0d 00 01 3d 32 56 11 bc 32 05 bd 3c bb a3 97 3c
       0.03149419 -0.008870648 0.023073766 0.01851069
0002b0 cf ec 91 bc ea 5c 86 bd a3 37 37 bd 6d dc 07 bd
       -0.017813114 -0.06560691 -0.044730794 -0.0331692
0002c0 f3 b3 68 bb bb 2c 1b 3c c5 61 17 3d 19 36 dd bc
       -0.0035507649 0.009471114 0.036958475 -0.027003335
0002d0 aa 27 43 3d f7 cf 99 bc e8 3b 49 3d 54 3a 84 3d
       0.04764525 -0.018775923 0.049129397 0.06456438
0002e0 37 40 b8 3c 28 d6 0b 3d 89 82 99 bd c6 cd 24 3e
       0.022491558 0.034139782 -0.07495601 0.16094121
0002f0 eb 59 10 3e c4 b3 b8 3d 1e 11 21 3e 38 b5 60 3d
       0.14096801 0.090186626 0.15729186 0.054860324
000300 b2 6d 50 bb 2a 2d 9a 3d 96 a7 81 3d 0d 51 2f bd
       -0.0031803665 0.075281456 0.063307926 -0.042801905
000310 27 6f 94 bd 20 3e 81 3d 23 b9 ac bc d1 a8 67 3d
       -0.07247763 0.063106775 -0.021084374 0.05655748
000320 60 67 28 bd c7 f6 1c be 7a 96 09 be ee ea fd 3d
       -0.04111421 -0.15328513 -0.13436309 0.12398325
000330 17 d5 ee bd e9 68 24 bd 8b 01 89 3d 00 14 2b bd
       -0.116617374 -0.040139113 0.066897474 -0.04176712
000340 23 17 b6 bc 81 c4 6a bd 54 7f 2c bd fd 8f 2b be
       -0.02222783 -0.057316307 -0.042113617 -0.16754146
000350 7e 9b 28 bd c7 2c ce bd 82 1d 14 be 55 0f 9e bd
       -0.041163914 -0.10067134 -0.14464381 -0.07717768
000360 70 29 a9 bd 2a 3a d3 bd 77 0d 42 bd 43 51 34 bd
       -0.08259857 -0.10313828 -0.047376122 -0.04402281
000370 22 cd 84 bd ed bb a8 3c f7 b8 94 3c 4f 83 e4 3b
       -0.064844385 0.020597422 0.018154604 0.006973661
000380 ac e9 9b bd ce 69 02 be c0 f7 23 be 64 f4 22 be
       -0.07612929 -0.12735674 -0.16012478 -0.1591354
000390 28 19 e5 bc 8e 1e 9f bd e4 ae 12 be d9 8d 74 3d
       -0.027966097 -0.077695 -0.14324528 0.05970559
0003a0 a0 af 82 bd 6f 8a 01 3d ed b5 23 bd af 67 48 3d
       -0.06381154 0.03162616 -0.03996842 0.048927005
0003b0 78 27 39 bd 2b ad 25 be e7 1c ec bd 38 50 bb bd
       -0.045203656 -0.1617934 -0.1152895 -0.0914616
0003c0 4a 00 ed bc 2a 9b 1f be c7 d5 30 be d9 f2 07 be
       -0.028930802 -0.15586534 -0.1726905 -0.13276233
0003d0 bf ae 04 3e 77 36 67 bb 01 75 eb bc f7 e0 4d bc
       0.12957285 -0.0035280266 -0.028742315 -0.012565843
0003e0 c0 b8 a7 3c a5 4a 40 39 6d 78 f1 bd 23 ab a2 bd
       0.020473838 0.00018338354 -0.117905475 -0.07942798
0003f0 79 15 d2 bd d4 21 88 bd 72 8f 93 bd b0 d6 87 bd
       -0.10258002 -0.06647077 -0.072050944 -0.06632745

bias f4 [5]
000000 02 02 57 bc f8 9a b1 bd bb 32 12 3f bc 88 9c bf
       -0.013123037 -0.08672136 0.5710866 -1.2229228
000010 62 64 8a 3e
       0.2702971

weight f4 [10, 5]
000000 83 4d 1a bf cc 16 ee 3e f6 58 c0 3f 76 68 09 bf
       -0.60274523 0.46501768 1.5027149 -0.5367502
000010 79 2a 04 bf 8e 7f d3 be 8f a6 3f 3e 6f df 1d be
       -0.5162731 -0.41308254 0.18715881 -0.15417264
000020 d7 ba 0a be 08 97 03 bf 09 ea 12 bf 08 03 6e be
       -0.13547836 -0.5140233 -0.5738836 -0.23243344
000030 d9 6a 51 3d e4 5a 69 3e 80 37 b3 3d 3c 42 70 3d
       0.05112729 0.22788578 0.0875082 0.058656916
000040 fe dd 7a 3e 06 cb 21 bf 64 85 72 bf 96 a4 bc be
       0.24498746 -0.63200414 -0.9473479 -0.3684432
000050 1e 68 7e 3e 42 b2 2d 3e b0 f3 32 bf 03 52 09 bf
       0.24844405 0.16962531 -0.6990309 -0.53640765
000060 53 97 51 3f c1 9d 46 bd e2 87 17 be 45 71 49 bf
       0.8187153 -0.04849029 -0.14797929 -0.7868846
000070 7c 3c aa bf f4 ee 04 bf 9e 54 2e be 0e 63 e2 be
       -1.3299708 -0.51927114 -0.17024466 -0.44216198
000080 6e 34 1f 3f e4 cf cd be c1 9d e2 be 78 a8 bf 3e
       0.62189376 -0.4019767 -0.44260982 0.3743322
000090 75 72 b6 3d 3e 95 d8 3e 7f f1 c1 be 1f cf 5e be
       0.0890855 0.42301363 -0.3787956 -0.21758698
0000a0 44 6a c8 bd 9e 31 39 be e5 09 65 bd bd 69 0e bf
       -0.097858936 -0.18085334 -0.05591764 -0.55630094
0000b0 3b 2f bf be d2 f8 e0 3d 0b 88 e4 3e b6 87 2e bf
       -0.3734072 0.10984959 0.44635043 -0.6817583
0000c0 98 5a 25 3e a6 13 8e 3f
       0.1614784 1.1099746

bias f4 [10]
000000 25 4e d8 3d f9 fd c8 be d5 e1 7e bf ba 8b 49 3f
       0.1056178 -0.39256266 -0.9956334 0.7872883
000010 e6 af c2 bd fc 35 a3 3f a3 5c 9c 3e f8 e0 1b be
       -0.09506206 1.275085 0.30539426 -0.15222538
000020 a5 a7 7b be 8d 92 6f 3e
       -0.2457567 0.23395748

weight f4 [10, 10]
000000 cc 18 63 c0 ad db cc be 57 40 2c c0 1d 86 45 c0
       -3.5483885 -0.4001135 -2.691427 -3.0863106
000010 0c b7 1a bf 83 3a 0e c0 91 8d 22 c0 2f 62 7d bf
       -0.6043556 -2.2223213 -2.5398905 -0.9897794
000020 a8 3e 21 bd 77 e2 48 c0 d1 ca 15 c0 6d 4b 56 be
       -0.039366394 -3.1388223 -2.340504 -0.2092721
000030 15 6d 25 c0 20 5f 99 c0 eb 48 c2 bf 1e d2 6d c0
       -2.5847828 -4.792862 -1.5178503 -3.7159495
000040 15 09 2e c0 2f 0a 13 bf 52 70 65 be 2e 28 37 c0
       -2.7193043 -0.57437414 -0.22406128 -2.8618274
000050 0e 70 11 c0 1c ec 15 bf 3f 73 f6 bf ba 7f 8a c0
       -2.2724643 -0.585634 -1.925392 -4.3280916
000060 40 0c b5 bf 95 cb 39 c0 f1 30 2d c0 1c 0a 53 bf
       -1.4144363 -2.9030507 -2.7061121 -0.824373
000070 77 25 16 3e e8 9f d7 bf b5 29 88 3f 69 66 9a bd
       0.14662729 -1.6845675 1.0637728 -0.075390644
000080 54 79 20 3c e5 32 55 c0 de b6 0a be b4 40 df bf
       0.009794552 -3.3312314 -0.13546321 -1.7441621
000090 47 70 4f 3f 98 f2 eb be 43 72 c6 3c a6 c4 11 bf
       0.81030697 -0.46083522 0.024224406 -0.56940687
0000a0 67 f7 7a bf 08 bb bb be f0 98 d2 bf 5b 1d b2 3f
       -0.98033756 -0.3666613 -1.6452923 1.3915209
0000b0 af 39 31 be db b2 bd 3f b2 ee 23 3f de 23 ab 3e
       -0.17307161 1.4820207 0.64036095 0.33425802
0000c0 30 04 cd bd 04 3e 6b bf 34 f9 16 c0 6b 43 95 be
       -0.10010564 -0.91891503 -2.3589602 -0.29152998
0000d0 b0 f5 30 c0 0d 86 8c c0 c7 d0 30 bf 24 d0 87 c0
       -2.7649956 -4.3913636 -0.6906857 -4.244158
0000e0 80 31 1c c0 7b 17 62 bf bd 2b 43 3e 63 2a 38 c0
       -2.4405212 -0.8831708 0.19059654 -2.877587
0000f0 fa 2c c7 be 51 95 28 bf dd 71 83 bf 55 bd c3 3d
       -0.38901502 -0.6585284 -1.0269123 0.095575966
000100 c3 23 81 3f cb 7a dd be 77 76 67 bc 7c 33 9d bf
       1.0089039 -0.43257746 -0.014127365 -1.2281337
000110 1f 28 91 be 3c 47 62 3f b8 da 6c bf a1 5e 00 3e
       -0.28350922 0.88389945 -0.9252124 0.12536098
000120 4a c2 96 bf 0d 84 84 c0 ca 7f f7 bf b7 87 26 c0
       -1.1778042 -4.1411195 -1.9335873 -2.6020334
000130 4e ac d2 be c2 14 25 bf a7 67 6c bd 7a e1 c0 bf
       -0.41147083 -0.644848 -0.057716038 -1.506881
000140 a6 1a f0 3c e7 de 6c be 34 28 39 3f f6 77 c8 c0
       0.029309582 -0.23131905 0.7232697 -6.2646437
000150 44 2f 12 c0 48 08 45 c0 e6 cd ea bf c9 65 b4 bf
       -2.2841349 -3.0786304 -1.8344085 -1.4093562
000160 67 cc a8 be 60 8d 11 3f b3 82 49 c0 42 b5 7d bd
       -0.32968447 0.56856346 -3.1486022 -0.06194044
000170 7b 13 51 c0 14 b2 37 c0 9e d3 0a bf 45 71 2b c0
       -3.266814 -2.870244 -0.5422915 -2.6787884
000180 12 94 43 c0 f9 a9 c7 be db 01 d4 3d 20 f7 84 c0
       -3.0559125 -0.38996866 0.103519164 -4.1551666

bias f4 [10]
000000 dc 25 0d c0 ef 9b 45 c0 b7 ec 10 c0 3d f2 a1 3d
       -2.2054358 -3.0876424 -2.264448 0.079075314
000010 cf 50 4f 3f 81 52 3a c0 eb ac 25 3e ba 68 1a bf
       0.8098268 -2.9112856 0.16179244 -0.6031605
000020 02 14 ba bf 8b 57 39 c0
       -1.4537356 -2.8959682

weight f4 [1, 1, 3, 3]
000000 f3 13 44 be d3 f2 03 bf 54 84 48 bf 71 d6 74 bd
       -0.19148235 -0.51542395 -0.78326917 -0.05977482
000010 93 aa 00 bf 22 82 a9 3e 85 2a 92 bf 9e fb 2f be
       -0.50260276 0.33107096 -1.1419226 -0.17185828
000020 eb b9 b4 3e
       0.35298094
