xai_neurips_2021/models/pre_trained/mnist_pre_trained_10_5_01_25_34_69_78_expert_model.pt (torch, 74751 bytes, 70 tensors)

weight f4 [1, 1, 3, 3]
-0.16965039 -0.267187 -0.18931067 -0.22850326 0.08840977 -0.17634794 -0.23991142 -0.048931498
-0.20143211
00000000: d5b8 2dbe bccc 88be a8da 41be c2fc 69be
00000010: 2e10 b53d 8e94 34be 57ab 75be 656c 48bd
00000020: 3844 4ebe

weight f4 [5, 169]
-0.046843898 -0.008555586 -0.010379929 0.058325715 0.04210593 -0.07120914 0.05484428 0.0040698694
-0.023510575 -0.0051875208 -0.064243875 -0.014389846 -0.017480263 -0.003643898 -0.06833989 0.03447829
-0.05838012 -0.02958894 0.061287835 -0.025561335 -0.066797726 -0.0516085 -0.04684908 0.045480866
-0.05557804 0.04444845 -0.051463854 0.020176155 -0.075493865 0.012053912 -0.011232964 -0.014214911
-0.038874757 -0.019157061 -0.059219602 -0.070386045 -0.065429054 0.025615362 -0.053003624 0.061491564
-0.065769106 -0.05816125 -0.035826053 0.07670164 0.01722511 -0.06546263 0.048161168 -0.007942979
0.06914988 -0.067909636 0.0039857263 -0.03638586 0.018904924 -0.06768257 0.0038543574 -0.033573877
0.022205913 -0.0056585628 0.04711454 0.056594722 -0.06733865 0.016986948 0.05985074 -0.06022602
-0.063901335 0.00750903 -0.07120427 0.043877374 0.07505097 -0.03293607 -0.06524944 0.06728529
-0.018405402 0.07555085 -0.05912539 0.017572284 0.024343729 0.021724684 -0.011615772 0.01135761
-0.010243251 -0.074627936 -0.04661838 -0.03871166 -0.009793594 0.019698804 -0.061956134 0.03352479
0.025625708 0.06652851 0.029486502 -0.05874546 0.016616803 0.066751406 0.055682294 -0.044041175
-0.066405766 -0.061323196 0.06302261 -0.0039059017 -0.04473304 -0.054658506 0.004228537 -0.0065509086
-0.0065740626 -0.026139196 -0.06583916 -0.0323793 -0.06984593 -0.048665553 -0.03282825 -0.0639417
-0.030127646 -0.06976068 0.038693156 -0.022949375 0.05307648 0.069077834 0.025534667 -0.06245916
0.017020548 -0.009610259 -0.07502922 0.00682365 -0.018867878 -0.06984692 -0.04847325 0.038333464
-0.04029442 -0.040610544 -0.02561672 -0.015516997 -0.0014631291 0.07267685 0.068355486 -0.03513606
-0.0134685775 -0.055702094 -0.07450813 0.07135807 -0.045256056 0.043586016 0.05575473 0.038781304
0.05458999 -0.045959786 0.029261379 0.017632952 -0.051673643 0.066801466 -0.043362822 0.03248391
0.023637433 -0.06362526 0.011568721 0.07073404 -0.03444944 -0.009624509 -0.009840214 -0.07625856
-0.03588518 0.042078614 0.06163455 0.0226104 0.044166684 -0.07643634 0.008292584 0.025702972
0.06380655 0.27810857 0.23122463 0.24175252 0.25762942 0.21043687 0.2572575 0.29811424
0.24110982 0.18344954 0.29151046 0.24028252 0.29602164 0.19388673 0.24148117 0.31057674
0.30287254 0.30079195 0.3051149 0.17661993 -0.109362975 -0.029676422 0.14733177 0.400285
0.31700826 0.2557283 0.21237816 0.16043293 0.23702323 0.301147 0.24137631 -0.06974036
-0.20110331 -0.49805263 -0.34259927 -0.14592354 0.26627368 0.32904565 0.37888747 0.24787596
0.2266961 0.19302355 0.36428398 0.31660604 -0.034887694 -0.15187359 -0.41309363 -0.45050648
-1.1318018 -0.06112268 -0.02259588 -0.0010680009 0.29540494 0.1709189 0.30422923 0.3232548
0.005783237 -0.06935978 0.05641818 -0.12656179 0.6689712 -0.5186332 -0.3931967 -0.5811351
-0.15056984 0.15838353 0.22130956 0.16948743 0.13830876 -0.16242856 -0.16065046 -0.6693509
0.7564532 1.569706 -0.17838916 -0.39439273 -0.72912437 -0.42836925 0.19323695 0.23555653
0.24387021 -0.38091555 -0.41225213 -0.9067641 -0.76028246 1.406292 1.8076267 -0.3608398
00000000: 63df 3fbd bb2c 0cbc 9410 2abc f2e6 6e3d
00000010: 4577 2c3d 19d6 91bd 65a4 603d 8a5c 853b
00000020: 4099 c0bc 14fc a9bb 4b92 83bd 63c3 6bbc
00000030: c532 8fbc 77ce 6ebb c9f5 8bbd 1b39 0d3d
00000040: fe1f 6fbd 8164 f2bc f408 7b3d 0166 d1bc
00000050: 3fcd 88bd 6f63 53bd d2e4 3fbd 254a 3a3d
00000060: cda5 63bd 940f 363d c3cb 52bd 7748 a53c
00000070: 879c 9abd c57d 453c 770a 38bc a8e5 68bc
00000080: 233b 1fbd 45ef 9cbc 4190 72bd 8f26 90bd
00000090: abff 85bd 4fd7 d13c 541a 59bd 94de 7b3d
000000a0: f4b1 86bd 7e3a 6ebd 57be 12bd c015 9d3d
000000b0: ad1b 8d3c 4511 86bd a544 453d 4523 02bc
000000c0: 749e 8d3d 3514 8bbd b29a 823b 5709 15bd
000000d0: 80de 9a3c 299d 8abd 6399 7c3b c384 09bd
000000e0: 2de9 b53c 776b b9bb 2dfb 403d decf 673d
000000f0: d9e8 89bd 3628 8b3c 0d26 753d 8faf 76bd
00000100: b4de 82bd 4f0e f63b 8bd3 91bd c3b8 333d
00000110: 53b4 993d f9e7 06bd 80a1 85bd dfcc 893d
00000120: edc6 96bc 67ba 9a3d 772d 72bd c0f3 8f3c
00000130: 806c c73c f7f7 b13c 1450 3ebc 4515 3a3c
00000140: 4fd3 27bc 88d6 98bd eaf2 3ebd 1e90 1ebd
00000150: 4f75 20bc 635f a13c b7c5 7dbd 4a51 093d
00000160: 01ed d13c 1940 883d ad8d f13c 149f 70bd
00000170: f61f 883c f6b4 883d 1e13 643d 8564 34bd
00000180: bfff 87bd 082e 7bbd 0012 813d 28fa 7fbb
00000190: fe39 37bd 99e1 5fbd 8a8f 8a3b 01a9 d6bb
000001a0: 3c6b d7bb de21 d6bc aed6 86bd 28a0 04bd
000001b0: 620b 8fbd 8855 47bd ea76 06bd def3 82bd
000001c0: 41ce f6bc b0de 8ebd b77c 1e3d 5400 bcbc
000001d0: b966 593d ae78 8d3d 142e d13c 2dd5 7fbd
000001e0: ad6e 8b3c 5974 1dbc eba8 99bd ed98 df3b
000001f0: cf90 9abc e70b 8fbd e38b 46bd 8d03 1d3d
00000200: c30b 25bd 3e57 26bd 28da d1bc 013b 7ebc
00000210: 77c6 bfba 9ad7 943d f6fd 8b3d d4ea 0fbd
00000220: 4fab 5cbc e127 64bd b897 98bd 2e24 923d
00000230: 6a5e 39bd 4087 323d 125f 643d 25d9 1e3d
00000240: c199 5f3d 5440 3cbd 8fb5 ef3c fb72 903c
00000250: bea7 53bd 35cf 883d 379d 31bd d90d 053d
00000260: 4aa3 c13c f64d 82bd bc8a 3d3c 02dd 903d
00000270: db1a 0dbd 1eb0 1dbc d938 21bc 732d 9cbd
00000280: 57fc 12bd a05a 2c3d 8374 7c3d 7239 b93c
00000290: 20e8 343d a88a 9cbd 9edd 073c 0a8f d23c
000002a0: 02ad 823d 3f64 8e3e 26c6 6c3e f98d 773e
000002b0: 01e8 833e c37c 573e 41b7 833e 6ea2 983e
000002c0: 7ee5 763e 32da 3b3e dc40 953e 9f0c 763e
000002d0: 2690 973e 3e8a 463e d746 773e ea03 9f3e
000002e0: 1c12 9b3e 6701 9a3e 0538 9c3e dbdb 343e
000002f0: b2f9 dfbd f81b f3bc 24de 163e 28f2 cc3e
00000300: e84e a23e d2ee 823e a979 593e 8848 243e
00000310: 38b6 723e f12f 9a3e 5a2b 773e 09d4 8ebd
00000320: 07ee 4dbe c100 ffbe 2c69 afbe fb6c 15be
00000330: 0655 883e ac78 a83e 8afd c13e 32d3 7d3e
00000340: 0623 683e f7a7 453e 6e83 ba3e 301a a23e
00000350: 66e6 0ebd c084 1bbe 0281 d3be c9a8 e6be
00000360: e2de 90bf c65b 7abd ff1a b9bc 2afc 8bba
00000370: 513f 973e 5d05 2f3e efc3 9b3e a781 a53e
00000380: 4f81 bd3b 800c 8ebd c016 673d 6a99 01be
00000390: b241 2b3f 25c5 04bf 1451 c9be 45c5 14bf
000003a0: fb2e 1abe 4b2f 223e f99e 623e 1d8e 2d3e
000003b0: d0a0 0d3e ac53 26be 8e81 24be 955a 2bbf
000003c0: eba6 413f 20ec c83f a6ab 36be d8ed c9be
000003d0: e5a7 3abf 3753 dbbe e8df 453e bb35 713e
000003e0: 1db9 793e 5d07 c3be b612 d3be b121 68bf
000003f0: dfa1 42bf 6001 b43f 5060 e73f ffbf b8be

bias f4 [5]
-0.01417338 0.23918611 -0.037634812 -0.19957751 -0.13734739
00000000: 7737 68bc 34ed 743e f626 1abd 0c5e 4cbe
00000010: cba4 0cbe

weight f4 [10, 5]
0.39012665 -0.32405308 0.62090516 0.22138704 0.26520932 0.095098294 -0.22753379 0.0073893764
-0.426961 -0.022199273 0.25326997 -0.4029803 0.58062255 0.01793722 0.31167814 0.0998872
0.4691601 0.43182307 -0.020658743 -0.072952 0.31260183 0.44426897 -0.16939287 0.36427918
0.05239297 -0.29684797 -0.03506027 -0.17632747 -0.015699161 0.0547967 0.19439815 0.22929822
0.6486994 0.7605282 -0.08615543 0.07603898 -0.19695777 -0.36051968 -0.085520945 -0.35011157
-0.2631256 0.1222296 -0.061483406 0.47747043 -0.3242772 -0.38852888 0.027223881 0.043693144
0.29605097 0.4159532
00000000: aebe c73e 49ea a5be a4f3 1e3f 49b3 623e
00000010: 84c9 873e e5c2 c23d 9efe 68be 9522 f23b
00000020: a29a dabe 40db b5bc 9aac 813e 6f53 cebe
00000030: aea3 143f 14f1 923c 4794 9f3e a991 cc3d
00000040: c135 f03e ea17 dd3e 863c a9bc dc67 95bd
00000050: 590d a03e 3977 e33e 5375 2dbe cd82 ba3e
00000060: 039a 563d 75fc 97be 5c9b 0fbd 308f 34be
00000070: 879b 80bc 8172 603d 4f10 473e 27cd 6a3e
00000080: 2a11 263f fab1 423f 4272 b0bd 53ba 9b3d
00000090: 4caf 49be 0996 b8be 9b25 afbd d341 b3be
000000a0: 66b8 86be 8353 fa3d 06d6 7bbd 0177 f43e
000000b0: a907 a6be 42ed c6be 9e04 df3c 95f7 323d
000000c0: fe93 973e d1f7 d43e

bias f4 [10]
-0.26880163 0.27468142 0.45162824 -0.077627555 0.18366647 -0.1990831 -0.17640628 -0.21587127
-0.7038248 -0.624604
00000000: 5ea0 89be 0ba3 8c3e d13b e73e 32fb 9ebd
00000010: 1013 3c3e 71dc 4bbe d9a3 34be 5c0d 5dbe
00000020: dd2d 34bf 0ce6 1fbf

weight f4 [10, 10]
-0.06540999 -0.07094236 -1.0688002 0.48767278 0.64530003 0.29586962 0.2762487 0.15398385
0.23161347 0.15331951 0.33446056 0.28560016 1.2728232 0.027880572 -0.38660914 -0.11562101
0.39485282 -0.29931763 0.2265586 0.15686421 -0.26637957 -0.06908659 -0.18328562 -0.194025
-0.21564057 -0.08999458 -0.60364467 0.22840934 -0.09198492 -0.2257622 -0.07581702 -0.40502712
-0.37788248 -0.4013555 -0.08421201 -0.16596721 -0.42278984 -0.25970381 -0.5526671 -0.3616485
-0.020937616 -0.030959964 -0.08593009 -0.45558217 -0.0062076882 -0.15963511 -0.5089268 -0.07749578
-0.43829978 -0.46699256 -0.60960907 -0.3669081 0.025203412 -0.50362724 -0.37512782 0.21291089
-0.15963499 0.017111402 -0.23433234 -0.4646257 -0.30006382 -0.034391467 0.013810954 -0.42973092
-0.10693183 -0.15006743 -0.28553295 0.016441483 -0.5684243 -0.43074945 -0.13339561 -0.33389568
0.05440021 -0.575175 -0.4640297 -0.06660806 -0.32660308 0.08493915 -0.17406291 -0.40058064
-0.39342427 -0.073366344 -0.38561 -0.07976756 -0.44618034 0.1860761 -0.58167416 -0.21374053
-0.3954895 -0.091311105 -0.32659712 -0.058360048 -0.45003834 -0.24019787 -0.29238963 -0.20371127
-0.36848432 0.063218616 -0.3132289 -0.018843813
00000000: acf5 85bd 3a4a 91bd 72ce 88bf 3fb0 f93e
00000010: 6232 253f 397c 973e 7870 8d3e f1ad 1d3e
00000020: 152c 6d3e caff 1c3e 6a3e ab3e 2f3a 923e
00000030: dfeb a23f cc65 e43c a2f1 c5be b5ca ecbd
00000040: 262a ca3e 2940 99be fafe 673e 03a1 203e
00000050: e762 88be 457d 8dbd 3aaf 3bbe 7dae 46be
00000060: e2d0 5cbe 144f b8bd 7588 1abf 23e4 693e
00000070: 9762 bcbd 352e 67be f445 9bbd b75f cfbe
00000080: d079 c1be 787e cdbe 5977 acbd 4ff3 29be
00000090: e977 d8be e6f7 84be 977b 0dbf fe29 b9be
000000a0: 5d85 abbc c09f fdbc 1dfc afbd 1142 e9be
000000b0: dd69 cbbb 6377 23be 0749 02bf 1cb6 9ebd
000000c0: d468 e0be a619 efbe 570f 1cbf 61db bbbe
000000d0: 6377 ce3c b7ed 00bf c110 c0be 5005 5a3e
000000e0: 5b77 23be 362d 8c3c d1f4 6fbe 6be3 edbe
000000f0: f7a1 99be 11de 0cbd 5747 623c b105 dcbe
00000100: 13ff dabd 47ab 19be 6031 92be 4ab0 863c
00000110: 4184 11bf 318b dcbe dc98 08be 60f4 aabe
00000120: c1d2 5e3d ab3e 13bf 4d95 edbe ce69 88bd
00000130: 8538 a7be 94f4 ad3d 8c3d 32be e818 cdbe
00000140: e86e c9be 1841 96bd ad6e c5be 2d5d a3bd
00000150: c071 e4be bc8a 3e3e 99e8 14bf ccde 5abe
00000160: 9a7d cabe 5101 bbbd bd37 a7be f20a 6fbd
00000170: 6d6b e6be 6ef6 75be 18b4 95be b099 50be
00000180: faa9 bcbe c378 813d 8a5f a0be 575e 9abc

bias f4 [10]
0.53630084 0.19432385 -0.51066524 -0.17748824 -0.17729042 0.0013081443 -0.119667925 -0.20238754
-0.06502609 -0.25571868
00000000: 034b 093f d5fc 463e f5ba 02bf 7abf 35be
00000010: 9f8b 35be 0a76 ab3a 7514 f5bd ae3e 4fbe
00000020: 662c 85bd 8fed 82be

weight f4 [1, 1, 3, 3]
0.6867205 1.0328883 -0.0392447 0.3657334 0.3422693 -0.7734424 -0.14637148 -0.6334106
0.017070156
00000000: eacc 2f3f af35 843f 0dbf 20bd 6941 bb3e
00000010: ec3d af3e 5200 46bf 68e2 15be 3227 22bf
00000020: b6d6 8b3c

weight f4 [5, 169]
-0.31257245 -0.32507896 -0.2985881 -0.2917649 -0.26564264 -0.22089644 -0.24139029 -0.33191308
-0.23154119 -0.19053094 -0.13872586 -0.3281662 -0.37492213 -0.21552451 -0.24882247 -0.24482553
0.15175141 0.8263446 0.35291457 0.4778347 0.15171328 0.12751456 0.3252195 -0.55595154
-0.69407904 -0.22503528 -0.1937336 -0.3124411 0.3195123 0.6840664 0.3931051 0.034737013
0.14173533 -0.2063563 -0.028677601 -0.05666571 -0.139561 -0.38984728 -0.32973984 -0.25114676
-0.28712118 -0.0035551286 0.4735194 -0.037583783 0.6762991 0.4046572 0.085621804 0.17746033
-0.4244111 -0.38731015 -0.7443729 -1.304173 -0.25126338 -0.46346858 0.48129302 0.6299496
0.17306241 0.12817197 -0.117983386 -0.010136496 0.2816786 0.28311288 0.08123387 -1.4227927
-1.5855299 -0.22070763 -0.36452502 0.3148541 -0.12158862 -0.06254889 -0.34771618 -0.6832031
0.020012287 0.05551017 0.6496096 0.7599246 -1.0232852 -1.2133639 -0.3385343 0.18813992
-0.06023649 -0.24623159 0.20722947 -0.708752 -0.5287718 0.11770455 0.037744883 0.63769174
1.0710329 0.4522412 0.40935075 -0.26164094 -0.8232904 -0.30336127 1.0629745 -0.15793714
-0.4774615 -0.1853382 -0.1501639 0.1138111 -0.074591 0.12826072 -0.27762458 0.4718928
-0.24122377 -0.32368314 0.4040884 0.70157766 0.5114744 0.51268005 0.8015182 -0.27526692
0.19670846 0.19760624 -0.010840971 -0.09279306 0.58610386 -0.22972576 -0.8401307 -0.13102317
0.0644619 0.56380385 0.486233 0.65711164 0.12951726 0.17869748 0.0034857802 0.010386862
0.21880297 0.55244255 -0.44859758 -0.02224347 0.042512394 0.38781187 0.15241337 0.00011930976
0.10451957 0.15431836 -0.18019488 0.3856076 0.025300603 -0.13260914 0.1476385 -0.2845873
-0.06663917 0.2453323 0.5321039 0.09102882 -0.060397685 -0.26317528 -0.7034514 -0.4508009
-0.27494043 -0.08864629 -0.2917123 0.24126926 -0.21226498 -0.29339007 -0.48765913 -0.23885803
-0.33636925 -0.9526562 -0.84468997 -1.0821943 -0.61099344 -0.43760553 -0.07445477 -0.14201593
-0.17475754 -0.0024565 0.020594615 0.033823803 0.059639595 0.0014772324 -0.048986703 0.052810047
-0.062925234 -0.08265888 -0.11088363 -0.018993488 -0.0649872 0.044164266 -0.015694784 -0.028034605
0.06853165 0.06951821 -0.016648239 -0.028669102 -0.0688203 -0.12911722 -0.060278866 -0.0071229413
0.036657684 -0.065620616 0.023384755 0.021613829 0.05699422 0.044748656 -0.12199489 0.1329507
-0.029068042 -0.016359009 -0.27261916 -0.19536044 -0.16220585 -0.16578521 -0.17074165 -0.17356579
-0.050681382 0.0035778652 -0.0058290595 -0.20880912 -0.055345777 -0.17633723 -0.21330911 -0.21560879
-0.12633125 0.021189967 -0.13663782 -0.14634193 -0.092642516 0.011130205 -0.05345847 0.06279532
-0.14131644 -0.032522645 -0.1362917 -0.18037799 -0.2094203 -0.21513303 -0.18834403 -0.14052065
-0.060170703 -0.17202036 0.06905822 -0.045321934 -0.17448367 -0.09134564 -0.030013163 -0.14494142
-0.23228666 -0.13239792 -0.23847497 -0.18824165 -0.04378632 -0.076685205 -0.16301192 0.075857215
0.030880434 -0.024042638 -0.08870963 0.0002147967 -0.085658275 -0.15533811 -0.1947515 -0.1456702
00000000: 7f09 a0be c070 a6be 8ae0 98be 3562 95be
00000010: 5002 88be ad32 62be 042f 77be 83f0 a9be
00000020: 2219 6dbe 8b1a 43be 270e 0ebe 6605 a8be
00000030: cbf5 bfbe 75b2 5cbe 51cb 7ebe 8bb3 7abe
00000040: b964 1b3e 528b 533f 38b1 b43e c0a6 f43e
00000050: ba5a 1b3e 2d93 023e 2c83 a63e d752 0ebf
00000060: 2aaf 31bf a66f 66be 1a62 46be 48f8 9fbe
00000070: 1e97 a33e fa1e 2f3f 1245 c93e 6648 0e3d
00000080: 1123 113e 114f 53be 4aed eabc 4e1a 68bd
00000090: 14e9 0ebe 109a c7be a9d3 a8be 4f96 80be
000000a0: 8c01 93be 29fd 68bb 2371 f23e 74f1 19bd
000000b0: f021 2d3f 3b2f cf3e 7c5a af3d 29b8 353e
000000c0: 694c d9be 844d c6be 398f 3ebf 24ef a6bf
000000d0: 98a5 80be c14b edbe 0a6c f63e 6144 213f
000000e0: 4637 313e 833f 033e 46a1 f1bd 8c13 26bc
000000f0: 2d38 903e 2cf4 903e f15d a63d 121e b6bf
00000100: a5f2 cabf 2e01 62be 06a3 babe 8e34 a13e
00000110: 7403 f9bd a219 80bd db07 b2be 66e6 2ebf
00000120: cff0 a33c a25e 633d d14c 263f 6b8a 423f
00000130: 02fb 82bf 824f 9bbf 5e54 adbe c0a7 403e
00000140: 8aba 76bd 2224 7cbe f633 543e c570 35bf
00000150: 975d 07bf 150f f13d 619a 1a3d c43f 233f
00000160: 9b17 893f 298c e73e 6c96 d13e cdf5 85be
00000170: 29c3 52bf 2b52 9bbe 8c0f 883f 46ba 21be
00000180: d575 f4be 4cc9 3dbe 91c4 19be cb15 e93d
00000190: 2bc3 98bd c756 033e cf24 8ebe ef9b f13e
000001a0: 5d03 77be ccb9 a5be ade4 ce3e 989a 333f
000001b0: fcef 023f 003f 033f 4c30 4d3f c9ef 8cbe
000001c0: f16d 493e 4a59 4a3e 549e 31bc 4a0a bebd
000001d0: e70a 163f 3b3d 6bbe ce12 57bf f02a 06be
000001e0: 9a04 843d 7355 103f 88f3 f83e 7838 283f
000001f0: 2ca0 043e 79fc 363e b071 643b a82d 2a3c
00000200: e30d 603e e06c 0d3f 95ae e5be f037 b6bc
00000210: 7a21 2e3d 478f c63e 4012 1c3e f135 fa38
00000220: 5b0e d63d a205 1e3e 0285 38be 5c6e c53e
00000230: 3643 cf3c b1ca 07be 8c2e 173e 6db5 91be
00000240: 1e7a 88bd 6438 7b3e f637 083f 516d ba3d
00000250: 9063 77bd e9be 86be 6415 34bf 60cf e6be
00000260: fec4 8cbe 308c b5bd 515b 95be 4a0f 773e
00000270: fe5b 59be 3937 96be 75ae f9be 3397 74be
00000280: 9738 acbe 47e1 73bf 9a3d 58bf 5885 8abf
00000290: 116a 1cbf d50d e0be be7b 98bd a06c 11be
000002a0: a4f3 32be 3bfd 20bb 0ab6 a83c d48a 0a3d
000002b0: a648 743d b29f c13a 48a6 48bd 594f 583d
000002c0: f2de 80bd 0f49 a9bd f516 e3bd 3b98 9bbc
000002d0: 0218 85bd 97e5 343d 5992 80bc d4a8 e5bc
000002e0: 525a 8c3d 905f 8e3d e361 88bc 77db eabc
000002f0: a8f1 8cbd 4e37 04be f9e6 76bd 9067 e9bb
00000300: 5e26 163d 1a64 86bd 6391 bf3c 7c0f b13c
00000310: c572 693d 5e4a 373d 75d8 f9bd 3a24 083e
00000320: 1a20 eebc 5403 86bc bd94 8bbe 910c 48be
00000330: 4a19 26be 99c3 29be e6d6 2ebe 3bbb 31be
00000340: 4897 4fbd 9e7a 6a3b b201 bfbb 0fd2 55be
00000350: 41b2 62bd bf91 34be b46d 5abe 8dc8 5cbe
00000360: fb5c 01be 9596 ad3c c9ea 0bbe a9da 15be
00000370: 5cbb bdbd 775b 363c 45f7 5abd d59a 803d
00000380: 42b5 10be 7736 05bd 0d90 0bbe 02b5 38be
00000390: 4672 56be d54b 5cbe 42dd 40be a5e4 0fbe
000003a0: 8e75 76bd 1b26 30be 656e 8d3d 7ea3 39bd
000003b0: d9ab 32be 6c13 bbbd 2ade f5bc 866b 14be
000003c0: 8edc 6dbe 5293 07be c832 74be 6bc2 40be
000003d0: 4959 33bd 220d 9dbd 99ec 26be 075b 9b3d
000003e0: f7f8 fc3c 11f5 c4bc 65ad b5bd 0d3b 6139
000003f0: 9b6d afbd f410 1fbe f06c 47be 922a 15be

bias f4 [5]
-0.3643096 -0.09982642 0.42951116 -0.19717193 -0.35374525
00000000: ca86 babe cb71 ccbd e3e8 db3e 70e7 49be
00000010: 191e b5be

weight f4 [10, 5]
0.048167832 -0.3971201 -0.65901494 -0.1565764 -0.3245072 0.49232072 0.3824256 0.3986099
0.34897327 0.71287066 -0.25626132 -0.007623778 -0.32967615 -0.44088486 -0.18937936 -0.090461686
0.023150485 -0.39740413 -0.4425586 0.10771081 0.22173469 0.103791796 0.9066887 0.40566283
-0.28436416 0.44547415 -0.3753024 -0.034786064 0.34417924 0.51618254 0.8464195 -0.024649322
-0.13975838 0.666312 0.8378093 0.2463162 -0.38989207 -0.5303297 -0.5056824 -0.14193201
-0.07664926 -0.26343694 0.030444525 0.096547104 0.6888419 -0.38857818 -0.1070137 0.4410099
-0.5687185 -0.753714
00000000: a24b 453d 5353 cbbe 34b5 28bf 9055 20be
00000010: cf25 a6be 7611 fc3e 4acd c33e 9916 cc3e
00000020: a0ac b23e b17e 363f af34 83be e3d0 f9bb
00000030: 50cb a8be a9bb e1be aaec 41be fa43 b9bd
00000040: 16a6 bd3c 8e78 cbbe 0a97 e2be 7c97 dc3d
00000050: 6b0e 633e cb90 d43d c01c 683f 0ab3 cf3e
00000060: 2e98 91be 3015 e43e a327 c0be d57b 0ebd
00000070: 4338 b03e 8a24 043f f3ae 583f 60ed c9bc
00000080: d21c 0fbe 6c93 2a3f ac7a 563f 503a 7c3e
00000090: ef9f c7be b0c3 07bf 6774 01bf a056 11be
000000a0: 4afa 9cbd 35e1 86be cc66 f93c 7dba c53d
000000b0: f157 303f b8f3 c6be 002a dbbd 0dcc e13e
000000c0: 8997 11bf 67f3 40bf

bias f4 [10]
-0.54893607 0.060331702 -0.2202934 -0.07570744 0.849024 -0.7022567 -0.3015593 -0.28886253
-0.56868756 0.4600875
00000000: 1387 0cbf 601e 773d 9894 61be 810c 9bbd
00000010: a359 593f 18c7 33bf fb65 9abe cae5 93be
00000020: 8295 11bf 9790 eb3e

weight f4 [10, 10]
0.017885987 0.6311637 0.2878878 0.005872437 0.4762936 0.58506626 0.97339916 0.062932
0.32103547 -0.31155127 -0.08282827 0.48167875 0.04678584 -0.04648061 0.7659611 0.014097716
-0.05089812 0.2156658 -0.23374112 0.7483479 -0.3017136 -0.5961812 0.18004383 -0.18722834
-0.6670852 -0.53502 -0.26927745 0.15967953 -0.28187075 -0.23707046 -0.055927973 -0.64481807
0.16418242 0.017239397 -0.3485717 -0.38835406 -0.3163564 0.22580536 -0.39289984 -0.85238665
-0.55627316 -0.5054625 0.06184104 -0.06686039 -0.9114342 -0.32055238 -0.40528536 0.24744888
-0.44325718 -0.19786833 -0.31835413 -0.61251825 -0.20942095 -0.09571051 -0.3841549 -0.29545698
-0.3033548 0.065233365 -0.35166863 -0.41258982 -0.29436615 -0.5993219 -0.16156104 -0.01915157
-0.7651433 -0.3054029 -0.27511236 -0.06842129 -0.562736 -0.26958135 -0.38636938 -0.34615055
0.15894936 0.11287809 -0.74742126 -0.030604074 -0.752663 0.078438856 -0.33696705 -0.34031194
-0.24758184 -0.8177325 -0.15191634 -0.26628152 -0.58321476 -0.5219785 -0.5583574 0.09636708
-0.02782599 -0.7459584 -0.17731363 -0.5638767 0.27778357 -0.21349208 -0.6102112 -0.25846964
-0.4695063 0.0057927007 -0.4126853 -0.5542844
00000000: a285 923c f293 213f 0866 933e 926d c03b
00000010: c1dc f33e e7c6 153f b030 793f 7ee2 803d
00000020: c35e a43e a683 9fbe dea1 a9bd 999e f63e
00000030: 82a2 3f3d 7462 3ebd 0716 443f 1bfa 663c
00000040: 8c7a 50bd 7fd7 5c3e d559 6fbe ba93 3f3f
00000050: 347a 9abe 559f 18bf 695d 383e c9b8 3fbe
00000060: 18c6 2abf 12f7 08bf bcde 89be 0883 233e
00000070: 5d51 90be 99c2 72be bb14 65bd cc12 25bf
00000080: 701f 283e a339 8d3c fd77 b2be 58d6 c6be
00000090: 77f9 a1be 8539 673e 2b2a c9be 0336 5abf
000000a0: eb67 0ebf fe65 01bf 084d 7d3d 1aee 88bd
000000b0: c053 69bf 711f a4be 9081 cfbe 3d63 7d3e
000000c0: 9bf2 e2be ff9d 4abe 50ff a2be ffcd 1cbf
000000d0: 7272 56be df03 c4bd f3af c4be 2346 97be
000000e0: 5251 9bbe 1299 853d e90d b4be f93e d3be
000000f0: 29b7 96be 296d 19bf 4270 25be c1e3 9cbc
00000100: 6ee0 43bf c55d 9cbe 87db 8cbe 7620 8cbd
00000110: 770f 10bf 9106 8abe 35d2 c5be a53a b1be
00000120: 9fc3 223e a12c e73d 0057 3fbf 65b5 fabc
00000130: 86ae 40bf 8da4 a03d f286 acbe 5e3d aebe
00000140: 1886 7dbe eb56 51bf f58f 1bbe 0d56 88be
00000150: 904d 15bf 62a0 05bf 83f0 0ebf 1b5c c53d
00000160: 55f3 e3bc 21f7 3ebf b491 35be 395a 10bf
00000170: a639 8e3e ab9d 5abe cd36 1cbf 2256 84be
00000180: 2163 f0be b2d0 bd3b 7d4b d3be 95e5 0dbf

bias f4 [10]
-0.06253372 0.30163974 -0.7761993 -0.37316412 -0.18334332 -0.442436 -0.77276844 -0.6263411
-0.71227396 -0.46920407
00000000: ae11 80bd 8670 9a3e ffb4 46bf 5e0f bfbe
00000010: 5abe 3bbe f986 e2be 27d4 45bf e457 20bf
00000020: 9657 36bf 843b f0be

weight f4 [1, 1, 3, 3]
0.18739374 0.33486828 -0.06842853 0.50225896 0.8973081 0.891207 -0.54637223 -0.40486184
0.21339425
00000000: 25e4 3f3e db73 ab3e 4224 8cbd 0b94 003f
00000010: fcb5 653f 2426 643f 0ddf 0bbf 0d4a cfbe
00000020: 0684 5a3e

weight f4 [5, 169]
0.06947022 -0.033510633 0.008834693 0.023155635 0.1604756 0.24799001 0.5078206 0.39790618
0.06868887 -0.08594932 0.10644894 0.060678385 -0.025966756 0.07988914 0.36486354 0.3797159
0.5108373 0.18995945 -0.042507317 0.1524832 0.62563044 0.43738365 -0.21923281 -0.1384946
-0.038198363 0.03179927 0.49320745 -0.10711258 0.6875322 0.5180178 0.7932775 0.5294371
0.4190086 0.596614 0.38932213 -0.12674844 -0.23859997 0.022018088 -0.49637792 0.12438525
0.11127325 0.6127711 0.53845304 0.284302 0.36106497 0.81980705 0.6905321 0.3440895
0.4029105 0.4584155 0.09896568 -0.023329673 0.18944716 0.14876486 0.2974256 0.29910353
0.30225354 0.18971889 0.25956422 0.3245697 -0.23887877 -0.04668094 0.21725859 0.5435805
-0.029623177 0.9289393 0.6947854 0.16631226 0.3302316 -0.068430126 -0.20625125 0.1477019
0.32598314 0.28119245 0.13711254 0.17903472 0.4121402 -0.009262259 0.107397124 0.54350483
0.15826006 -0.12439125 -0.48535335 -0.05517145 0.2611303 0.07957732 0.31843135 0.2584832
-0.2620759 0.0061918558 -0.16165054 0.38626367 0.55071265 -0.29335278 0.010131872 -0.18595672
0.39999992 0.20845626 -0.123921886 0.14079095 0.17342468 0.2812173 -0.45909223 0.04168409
0.471006 0.2738929 -0.048443556 -0.25507963 0.0017193604 0.3188078 -0.10049446 -0.14802146
0.19712791 -0.04094045 0.6509178 -1.0118519 0.17145921 0.4242591 0.3332035 0.23964421
0.4730297 0.07226628 -0.02490485 -0.1739422 0.044510175 0.2904279 0.15937664 0.4356958
-0.068195716 -0.06934655 0.37788597 0.44604814 0.58268017 0.875106 0.4804631 0.05666631
0.43220177 0.5134483 0.2241816 0.38534823 -0.26715484 -0.27044758 -0.5065136 0.114396825
0.6593273 0.79196405 0.41387832 0.4229661 0.359491 0.49462476 0.3059621 0.16705377
-0.31231013 -0.6080687 -0.15307532 -0.07298417 0.0048074084 0.2747325 0.75130624 0.8425407
0.041328926 0.7126462 0.36738652 0.19812015 0.20958033 0.5856139 0.5002775 -0.24210314
0.058371767 -0.037514586 -0.06042167 -0.016601829 0.036376406 0.05767871 -0.008631386 0.06627277
0.016775453 0.04196999 -0.0051024696 -0.050636522 -0.03800237 -0.071200825 0.03769075 0.07583493
-0.17615557 -0.15915506 -0.24568099 -0.13700362 0.12875654 -0.15468358 -0.18782614 -0.118725605
-0.02573814 -0.04007734 0.025196828 -0.01763176 -0.025328372 -0.095648624 -0.18772162 -0.17266248
-0.12461188 -0.118556194 -0.11205968 -0.16289118 -0.14603995 -0.10215843 -0.18462028 0.03040004
-0.0039087078 -0.024398359 -0.10282403 -0.069526315 -0.1415186 -0.19510101 -0.08677975 -0.10778297
-0.16886905 -0.10690959 -0.24591222 -0.23502685 -0.06647208 -0.0585244 -0.16862749 -0.18099236
-0.07417444 -0.13775088 -0.22258492 -0.117801726 -0.16465046 -0.15581134 -0.1677142 -0.13185255
-0.1569256 0.050060485 -0.026405437 -0.12566155 -0.2055852 -0.16020773 -0.07805096 -0.07484013
-0.12054068 -0.14171854 -0.19672842 -0.10845795 -0.103817396 -0.2665729 -0.013301373 0.06040179
-0.10636246 -0.10464421 -0.095109455 -0.123243265 -0.09100915 -0.104014896 -0.15409188 -0.12923926
00000000: 6746 8e3d 7242 09bd 63bf 103c e3b0 bd3c
00000010: b753 243e 18f1 7d3e 8800 023f 5cba cb3e
00000020: c0ac 8c3d 3206 b0bd e701 da3d e689 783d
00000030: 3cb8 d4bc eb9c a33d 65cf ba3e 1f6a c23e
00000040: 3cc6 023f bb84 423e 271c 2ebd 8e24 1c3e
00000050: 5129 203f c0f0 df3e 917e 60be 87d1 0dbe
00000060: e375 1cbd f43f 023d b085 fc3e d75d dbbd
00000070: 1c02 303f d19c 043f 3c14 4b3f 3189 073f
00000080: 4c88 d63e b2bb 183f 3b55 c73e 58ca 01be
00000090: 8d53 74be 475f b43c 3f25 febe b2bd fe3d
000000a0: 3be3 e33d 91de 1c3f 0fd8 093f 0890 913e
000000b0: 82dd b83e e0de 513f b6c6 303f 802c b03e
000000c0: 494a ce3e 70b5 ea3e 85ae ca3d df1d bfbc
000000d0: 70fe 413e d155 183e 2b48 983e 1924 993e
000000e0: fac0 9a3e ab45 423e 9ae5 843e 002e a63e
000000f0: a39c 74be 8334 3fbd 0979 5e3e 1728 0b3f
00000100: 4eac f2bc f7ce 6d3f 75dd 313f c34d 2a3e
00000110: 1e14 a93e 1825 8cbd 8733 53be 2b3f 173e
00000120: 43e7 a63e 75f8 8f3e 3b67 0c3e e154 373e
00000130: 0a04 d33e bbc0 17bc 06f3 db3d 2223 0b3f
00000140: ed0e 223e d7c0 febd 3c80 f8be 75fb 61bd
00000150: dfb2 853e 6ff9 a23d 6f09 a33e e957 843e
00000160: d02e 86be 0de5 ca3b b887 25be 5ac4 c53e
00000170: 81fb 0c3f 5632 96be 2700 263c 706b 3ebe
00000180: cacc cc3e 8f75 553e c2ca fdbd 812b 103e
00000190: 3d96 313e b7fb 8f3e 230e ebbe f0bc 2a3d
000001a0: b327 f13e b13b 8c3e c06c 46bd cc99 82be
000001b0: 295c e13a c73a a33e 0ad0 cdbd f092 17be
000001c0: e6db 493e 2cb1 27bd 8da2 263f 5d84 81bf
000001d0: 0193 2f3e 7d38 d93e a699 aa3e 4b65 753e
000001e0: f330 f23e 5800 943d 4205 ccbc e71d 32be
000001f0: 4d50 363d f7b2 943e a133 233e 8513 df3e
00000200: 32aa 8bbd 9005 8ebd 457a c13e 6c60 e43e
00000210: 872a 153f f206 603f 42ff f53e ef1a 683d
00000220: 8d49 dd3e 5971 033f dd8f 653e 5d4c c53e
00000230: 85c8 88be 1b78 8abe e0aa 01bf e248 ea3d
00000240: adc9 283f 28be 4a3f dce7 d33e 038f d83e
00000250: 340f b83e 753f fd3e 10a7 9c3e 2510 2b3e
00000260: 1de7 9fbe 64aa 1bbf c7bf 1cbe b978 95bd
00000270: 7787 9d3b bda9 8c3e 9b55 403f bfb0 573f
00000280: 8548 293d fb6f 363f 161a bc3e 02e0 4a3e
00000290: 3a9c 563e cbea 153f 3012 003f e3e9 77be
000002a0: 3c17 6f3d e5a8 19bd b77c 77bd 8f00 88bc
000002b0: 6dff 143d 8340 6c3d a86a 0dbc 05ba 873d
000002c0: ad6c 893c b9e8 2b3d 9e32 a7bb 3e68 4fbd
000002d0: 60a8 1bbd bdd1 91bd 9e61 1a3d 584f 9b3d
000002e0: 2062 34be 8bf9 22be cc93 7bbe ad4a 0cbe
000002f0: c1d8 033e 5f65 1ebe 7f55 40be 6926 f3bd
00000300: cbd8 d2bc 2328 24bd 9469 ce3c 7b70 90bc
00000310: 727d cfbc 6de3 c3bd 193a 40be 6fce 30be
00000320: 8334 ffbd 97cd f2bd 8c7f e5bd f2cc 26be
00000330: 7f8b 15be 7038 d1bd 190d 3dbe 8109 f93c
00000340: 9e14 80bb 11df c7bc 6895 d2bd d063 8ebd
00000350: 40ea 10be 8fc8 47be 95b9 b1bd 51bd dcbd
00000360: 02ec 2cbe 6af3 dabd 6ad0 7bbe e1aa 70be
00000370: 8422 88bd 48b7 6fbd afac 2cbe 1056 39be
00000380: c5e8 97bd 910e 0dbe 4ded 63be 0842 f1bd
00000390: 219a 28be 028d 1fbe 45bd 2bbe 5b04 07be
000003a0: 1bb1 20be 390c 4d3d 3750 d8bc 6cad 00be
000003b0: ed84 52be 7f0d 24be 2fd9 9fbd c845 99bd
000003c0: 08de f6bd aa1e 11be 2d73 49be 341f debd
000003d0: 379e d4bd 3e7c 88be 01ee 59bc de67 773d
000003e0: 90d4 d9bd b44f d6bd bfc8 c2bd f766 fcbd
000003f0: 0163 babd c305 d5bd 43ca 1dbe 4c57 04be

bias f4 [5]
0.12363827 -0.22155729 0.53719306 0.35346735 -0.17140134
00000000: 1036 fd3d eadf 62be 7c85 093f acf9 b43e
00000010: d583 2fbe

weight f4 [10, 5]
0.9799508 -0.11119505 -0.52178097 0.43414003 0.20446071 0.4931038 0.36911196 -0.39777467
-0.6145615 -0.092836104 -0.18694197 -0.27468824 1.2745241 0.97506076 0.04408188 -0.52912134
-0.16568628 0.122754306 0.013342743 -0.19287726 0.08354051 0.08575048 1.560046 0.5194807
-0.2371231 -0.17750369 -0.0774099 -0.32232657 -0.4532627 0.11623514 -0.108501464 0.21959154
-0.29591313 -0.23212622 -0.22098581 -0.4913098 0.23963654 -0.16426958 -0.13978638 -0.19298531
-0.558526 -0.22257122 -0.3381314 -0.36313546 0.20245521 -0.07297428 0.3138467 0.57570624
0.43363175 -0.14825618
00000000: 0ede 7a3f 3bba e3bd 7093 05bf 9a47 de3e
00000010: 265e 513e 1a78 fc3e 3efc bc3e 1fa9 cbbe
00000020: e753 1dbf db20 bebd b76d 3fbe f0a3 8cbe
00000030: 9b23 a33f 959d 793f 348f 343d 7f74 07bf
00000040: aaa9 29be 9c66 fb3d 859b 5a3c 9e81 45be
00000050: 4917 ab3d f39d af3d 96af c73f b0fc 043f
00000060: 66d0 72be 87c3 35be 1589 9ebd fd07 a5be
00000070: 0c12 e8be b00c ee3d 0436 debd 9bdc 603e
00000080: ed81 97be 7fb2 6dbe 1b4a 62be f58c fbbe
00000090: 4863 753e 4936 28be 2924 0fbe f19d 45be
000000a0: 8ffb 0ebf b6e9 63be 8f1f adbe e4ec b9be
000000b0: 6b50 4f3e 8a73 95bd 84b0 a03e 7c61 133f
000000c0: fb04 de3e 78d0 17be

bias f4 [10]
0.5125031 -0.2318569 0.63527584 -0.58958226 0.23874928 -0.0054800375 -0.17562087 -0.4842296
-0.0067168665 -0.02102317
00000000: 6733 033f e56b 6dbe 70a1 223f ddee 16bf
00000010: b17a 743e e391 b3bb f5d5 33be f1ec f7be
00000020: 2919 dcbb c838 acbc

weight f4 [10, 10]
0.6087174 0.7059327 0.09812405 -0.17729132 0.1858609 0.17535196 -0.09895975 0.29458755
0.00976785 -0.5365701 0.09079274 -0.47290173 0.7444403 0.030406581 0.7844691 -0.07135621
-0.17105058 0.22687554 -0.0067265364 0.26758644 -0.66500074 -1.1277772 -0.506322 0.1963402
-0.519776 -0.4912898 0.117329605 -0.1311327 0.20303425 -1.0620881 -0.701754 -0.77228445
-0.18905626 0.30262756 -0.360283 -0.033996988 -0.119259216 -0.60620356 -0.3171895 -1.1148986
-0.5778567 -1.3085053 -0.59542024 -0.1763626 -0.6198714 -0.35339916 -0.04998536 -0.180822
-0.15428987 -0.8610245 -0.61278945 -0.8853488 -0.39340222 0.3016955 -0.39164317 -0.35860988
0.22750393 -0.41945255 -0.0088613555 -1.3125718 -0.7529679 -1.1581802 -0.44000947 0.2379886
-0.31606448 -0.12631424 0.08050557 -0.50150335 -0.009484687 -1.0769682 -0.3317798 -1.1473358
-0.5282576 -0.22249706 -0.555733 0.028273234 -0.100984626 -0.24849689 -0.035886552 -1.2333934
-0.5920592 -1.101696 -0.38444382 -0.17273445 -0.6727966 -0.16002707 -0.30570352 -0.2137754
-0.25221297 -0.71708405 -0.64498186 -1.3009053 -0.66135895 0.15756945 -0.5420441 -0.5066375
-0.29405138 -0.14392193 -0.006003555 -0.7171462
00000000: e7d4 1b3f 01b8 343f 43f5 c83d db8b 35be
00000010: 5252 3e3e 778f 333e 69ab cabd 2ed4 963e
00000020: 5509 203c a85c 09bf 8bf1 b93d 2d20 f2be
00000030: a493 3e3f 3917 f93c f8d2 483f 3423 92bd
00000040: e227 2fbe 1052 683e 476a dcbb 1701 893e
00000050: 7d3d 2abf 015b 90bf 529e 01bf 680d 493e
00000060: 0a10 05bf 568a fbbe 814a f03d a747 06be
00000070: 36e8 4f3e 81f2 87bf 26a6 33bf 6fb4 45bf
00000080: f797 41be 00f2 9a3e 0377 b8be 6d40 0bbd
00000090: 2d3e f4bd 2830 1bbf aa66 a2be ffb4 8ebf
000000a0: 6bee 13bf 1a7d a7bf 766d 18bf 6698 34be
000000b0: e4af 1ebf bcf0 b4be 73bd 4cbd 6729 39be
000000c0: 2afe 1dbe 1a6c 5cbf c5df 1cbf 38a6 62bf
000000d0: 046c c9be d577 9a3e 7485 c8be b79b b7be
000000e0: caf6 683e 7cc2 d6be 382f 11bc 5a02 a8bf
000000f0: 81c2 40bf 403f 94bf ec48 e1be 49b3 733e
00000100: 34d3 a1be 8558 01be 1be0 a43d 8662 00bf
00000110: a965 1bbc 18da 89bf 0bdf a9be e6db 92bf
00000120: e43b 07bf 45d6 63be 8544 0ebf 459d e73c
00000130: 07d1 cebd f875 7ebe c7fd 12bd d6df 9dbf
00000140: 3191 17bf 6004 8dbf d2d5 c4be 4de1 30be
00000150: 663c 2cbf 23de 23be 2c85 9cbe f0e7 5abe
00000160: 0f22 81be d292 37bf 881d 25bf 1184 a6bf
00000170: d24e 29bf e359 213e 67c3 0abf ffb2 01bf
00000180: e78d 96be 4560 13be 78b9 c4bb e596 37bf

bias f4 [10]
0.5661112 0.3693416 -0.16283809 -0.34711468 -0.29276633 -0.053387307 -0.10582941 -0.62584877
-0.18322462 -0.37736723
00000000: aaec 103f 581a bd3e 07bf 26be 04b9 b1be
00000010: 78e5 95be a6ac 5abd 17bd d8bd a037 20bf
00000020: 3c9f 3bbe 4736 c1be

weight f4 [1, 1, 3, 3]
-0.63885105 -0.84292763 -0.51176006 -0.7156673 -0.25101876 -0.8088392 -0.9841766 -0.23152286
0.20270965
00000000: be8b 23bf 1bca 57bf b502 03bf f935 37bf
00000010: 8885 80be 1610 4fbf fff2 7bbf 5414 6dbe
00000020: 1e93 4f3e

weight f4 [5, 169]
-0.15747748 -0.17534994 -0.11538569 -0.09610863 -0.1278301 -0.104827024 -0.09075856 -0.09754559
-0.27189457 -0.1584236 -0.110891104 -0.2023682 -0.21249814 -0.16272044 -0.17001262 -0.1291664
-0.17667405 -0.23493196 -0.282852 -0.26196215 -0.20751716 -0.33704692 -0.22351296 -0.1607916
-0.17940597 -0.10843011 -0.20896062 -0.12332039 -0.09858581 -0.22028156 -0.2286416 -0.19976929
-0.17087048 -0.30848527 -0.11514352 -0.0015124169 -0.08790119 -0.20594518 -0.11966941 -0.15658146
-0.12763742 -0.17320216 -0.2509633 -0.25826553 -0.08678691 -0.113869876 0.22032107 0.3128967
0.13364123 0.04438243 -0.1128047 -0.21436802 -0.23047507 -0.17358926 -0.19990909 -0.14009954
0.09713504 -0.07517597 -0.3296524 -0.0029442273 0.16547975 0.0386706 0.09877744 -0.176936
-0.13199906 -0.21331702 -0.21863419 -0.17167151 0.05469337 0.09849895 -0.16542403 -0.32101187
0.029193537 0.19120038 0.028423345 -0.21852201 -0.16437863 -0.116673775 -0.23988521 -0.09841859
-0.11867973 -0.18247265 -0.18268853 -0.08856164 -0.0017296053 0.15215373 0.16397932 -0.24692044
-0.29366142 -0.27620438 -0.25727016 -0.18670501 -0.14936958 -0.036507 -0.25857198 -0.26821053
-0.11603381 -0.2473475 0.11452185 0.035017867 -0.18868011 -0.16446476 -0.18651798 -0.23445047
-0.11580781 -0.16044408 -0.11077368 -0.20971161 -0.36107892 -0.23664239 -0.3572833 -0.019437924
-0.22987711 -0.2503868 -0.27872133 -0.19689761 -0.18115854 -0.13033973 -0.09790167 -0.1809425
-0.20979023 -0.2249686 -0.21038769 -0.18542635 -0.15768647 -0.26802832 -0.27656585 -0.18814902
-0.25089657 -0.16334035 -0.08745254 -0.19960193 -0.111417815 -0.117710255 0.0024102642 -0.16648407
-0.28657165 0.03519164 -0.20322752 -0.15284528 -0.16152468 -0.18952385 -0.11506444 -0.2330867
-0.1796623 -0.16284478 -0.17331985 -0.01403843 0.035881225 0.07955175 0.025515582 -0.0048832973
-0.098181315 -0.14412306 -0.12771244 -0.19972137 -0.11550185 -0.16631427 -0.17176081 -0.24895924
-0.096019916 -0.14889961 -0.14333327 -0.13659394 -0.10149034 -0.14472346 -0.124970295 -0.21867032
-0.108799264 -0.11265462 -0.038486198 -0.12477978 -0.14148442 -0.06985238 -0.052634344 -0.17683771
-0.06609812 -0.16762672 -0.14036341 -0.1168052 -0.17556891 -0.14038752 -0.09819237 -0.07665643
-0.17425996 -0.12733145 -0.09823829 -0.07438213 -0.08411651 -0.15919311 -0.11681812 -0.11589996
-0.024169581 -0.03924268 -0.058903 -0.046701714 -0.1130475 -0.11177677 -0.11369602 -0.025535775
-0.08876592 -0.10957845 -0.12894255 -0.14616874 -0.120732784 -0.151088 -0.13715349 -0.12910037
-0.11733766 -0.105730325 -0.08857228 -0.16564672 -0.037250664 0.15957254 -0.0240807 -0.058437664
-0.07984764 0.031442862 -0.030140089 -0.13086064 -0.06275983 -0.04276386 -0.044206854 -0.10845187
-0.04475676 -0.06357541 0.14915639 -0.15437499 -0.06699151 -0.1592429 0.12628962 -0.1260947
-0.16673468 -0.09233585 -0.050334472 -0.1624963 -0.17428891 -0.13800481 -0.09537137 -0.10553324
-0.07104623 -0.06535947 -0.116294205 0.16103475 -0.1437457 -0.043494012 -0.11284974 -0.10449026
-0.06746281 -0.0752111 -0.026496977 -0.091919065 -0.047940664 -0.0941337 -0.15657492 0.117562816
00000000: c741 21be ef8e 33be 554f ecbd 9ad4 c4bd
00000010: e5e5 02be 8daf d6bd a0df b9bd fbc5 c7bd
00000020: c435 8bbe cc39 22be e01a e3bd 9c39 4fbe
00000030: 1d99 59be 30a0 26be ca17 2ebe 3244 04be
00000040: 0bea 34be 0192 70be fad1 90be e71f 86be
00000050: 617f 54be 6a91 acbe 95e0 64be 8ea6 24be
00000060: 33b6 37be 9b10 debd c6f9 55be 678f fcbd
00000070: 5be7 c9bd 7d91 61be 0621 6abe 5290 4cbe
00000080: acf8 2ebe c8f1 9dbe 5ed0 ebbd 4a3c c6ba
00000090: 8a05 b4bd 4be3 52be 3c15 f5bd e456 20be
000000a0: 62b3 02be e85b 31be 437e 80be 613b 84be
000000b0: 56bd b1bd 9c34 e9bd d99b 613e ff33 a03e
000000c0: 3fd9 083e 5aca 353d 2706 e7bd 4a83 5bbe
000000d0: a801 6cbe 62c1 31be f8b4 4cbe 4176 0fbe
000000e0: bcee c63d dcf5 99bd 33c8 a8be f0f3 40bb
000000f0: 8673 293e 1065 1e3d d44b ca3d b62e 35be
00000100: c32a 07be c76f 5abe a4e1 5fbe a8ca 2fbe
00000110: 2806 603d d1b9 c93d eb64 29be ab5b a4be
00000120: 4927 ef3c 08ca 433e 13d8 e83c 3cc4 5fbe
00000130: df52 28be a9f2 eebd 78a4 75be b08f c9bd
00000140: 5c0e f3bd 1cda 3abe b412 3bbe ce5f b5bd
00000150: ecb3 e2ba 30ce 1b3e 32ea 273e b6d8 7cbe
00000160: ca5a 96be a96a 8dbe eab8 83be 992f 3fbe
00000170: 57f4 18be 5d88 15bd 8c63 84be e452 89be
00000180: 22a3 edbd aa48 7dbe 6f8a ea3d e56e 0f3d
00000190: 5c35 41be 7369 28be 92fe 3ebe c913 70be
000001a0: a52c edbd 744b 24be 50dd e2bd a4be 56be
000001b0: 56df b8be 6252 72be d6ed b6be 483c 9fbc
000001c0: e864 6bbe b332 80be 90b4 8ebe 879f 49be
000001d0: a081 39be c777 05be ac80 c8bd fe48 39be
000001e0: 40d3 56be 2b5e 66be df6f 57be 68e0 3dbe
000001f0: 9078 21be 023b 89be 0a9a 8dbe 23aa 40be
00000200: 8475 80be b142 27be 511a b3bd 7364 4cbe
00000210: 062f e4bd 1312 f1bd 86f5 1d3b cd7a 2abe
00000220: 85b9 92be 1c25 103d e01a 50be 7983 1cbe
00000230: ba66 25be 8a12 42be e8a6 ebbd 48ae 6ebe
00000240: 65f9 37be c8c0 26be c27a 31be 7101 66bc
00000250: 31f8 123d 07ec a23d 0e06 d13c 1104 a0bb
00000260: 4913 c9bd ff94 13be 0dc7 02be c283 4cbe
00000270: 3c8c ecbd 4a4e 2abe 11e2 2fbe 2cef 7ebe
00000280: 17a6 c4bd 2479 18be f5c5 12be 48df 0bbe
00000290: 2bda cfbd 6332 14be 6df0 ffbd 1deb 5fbe
000002a0: 26d2 debd 77b7 e6bd b4a3 1dbd 8b8c ffbd
000002b0: 4be1 10be c40e 8fbd 1c97 57bd f214 35be
000002c0: 735e 87bd 57a6 2bbe 6dbb 0fbe 9137 efbd
000002d0: 56c8 33be bfc1 0fbe 1519 c9bd 0cfe 9cbd
000002e0: 3471 32be 2d63 02be 2831 c9bd a855 98bd
000002f0: 4745 acbd 8503 23be 573e efbd f55c edbd
00000300: 49ff c5bc efbc 20bd 4644 71bd 4c4a 3fbd
00000310: 7385 e7bd 38eb e4bd 75d9 e8bd 6730 d1bc
00000320: e8ca b5bd ab6a e0bd 8409 04be 42ad 15be
00000330: c042 f7bd d0b6 1abe f771 0cbe e332 04be
00000340: ba4e f0bd 2489 d8bd 6265 b5bd 4b9f 29be
00000350: 2794 18bd fc66 233e e344 c5bc 555c 6fbd
00000360: 2987 a3bd 3bca 003d 59e8 f6bc 5500 06be
00000370: 3a88 80bd 2829 2fbd 3f12 35bd 041c debd
00000380: dd52 37bd d333 82bd 74bc 183e 7a14 1ebe
00000390: d832 89bd 9210 23be 1152 013e f81e 01be
000003a0: 7fbc 2abe 941a bdbd 852b 4ebd 6e65 26be
000003b0: cb78 32be 2251 0dbe 1152 c3bd d021 d8bd
000003c0: b080 91bd 30db 85bd a82b eebd 4be6 243e
000003d0: 1332 13be c726 32bd c41d e7bd fdfe d5bd
000003e0: f129 8abd 4708 9abd 3010 d9bc 1040 bcbd
000003f0: 6e5d 44bd 2bc9 c0bd 2d55 20be c6c4 f03d

bias f4 [5]
-0.20348519 -0.14901663 -0.031190543 -0.16932903 0.19339968
00000000: 6c5e 50be d197 18be 4f83 ffbc 9764 2dbe
00000010: 910a 463e

weight f4 [10, 5]
0.24782856 0.17671216 -0.17904305 0.21183035 0.033954978 -0.084669076 -0.17292893 0.25185135
-0.30107215 -0.07780009 -0.315337 -0.32667384 0.25846943 0.114332646 -0.28155902 -0.06497903
0.429492 0.31732053 -0.15796393 -0.19428536 0.40071276 -0.19934972 0.030930031 0.30476478
-0.55167866 -0.2556295 0.020438906 -0.26473612 0.47388116 0.5702437 0.42322963 0.30070105
-0.24816872 -0.35006812 -0.3985821 0.16397709 -0.17240936 -0.0375589 0.1635712 -0.22104432
0.17056939 -0.31480777 0.0958517 0.18613096 -0.33077237 0.64599466 0.07635651 -0.2908906
-0.06731974 0.5726478
00000000: c5c6 7d3e 08f4 343e 1057 37be 0eea 583e
00000010: 6014 0b3d fb66 adbd 4814 31be a9f2 803e
00000020: 2126 9abe a755 9fbd da73 a1be cb41 a7be
00000030: 1b56 843e 3c27 ea3d 8128 90be ba13 85bd
00000040: 60e6 db3e d677 a23e 4cc1 21be bef2 46be
00000050: 392a cd3e 5522 4cbe fa60 fd3c 210a 9c3e
00000060: d03a 0dbf dfe1 82be 7e6f a73c 7e8b 87be
00000070: 8da0 f23e 7efb 113f 8eb1 d83e 7df5 993e
00000080: f11f 7ebe 213c b3be f412 ccbe 9ce9 273e
00000090: 148c 30be 5cd7 19bd 357f 273e 7159 62be
000000a0: bea9 2e3e 7c2e a1be e54d c43d 1d99 3e3e
000000b0: ff5a a9be e85f 253f cd60 9c3d 9def 94be
000000c0: efde 89bd 0c99 123f

bias f4 [10]
2.033449 -0.2599179 -0.01114076 -0.1957218 -0.0813359 -0.3076677 1.7316513 -0.16126709
-0.36464933 -0.8136259
00000000: 0724 0240 f613 85be bc87 36bc 4c6b 48be
00000010: 7093 a6bd 9f86 9dbe c0a6 dd3f 3323 25be
00000020: 51b3 babe c949 50bf

weight f4 [10, 10]
0.6546985 0.22628988 -0.10645409 0.4154327 0.04038444 0.03455599 2.1012285 0.14020199
0.19125372 0.1313132 0.4549329 0.08197494 0.055943336 0.029280586 0.33773074 0.8118988
-1.3488076 0.22693153 0.099650666 0.6669026 -1.0334121 -0.055412862 0.1498608 -0.013527601
-0.17794536 -0.38875228 -2.2288895 0.065031335 -0.25232697 -0.31678024 -1.5978966 0.31600526
0.03588652 0.049578525 -0.14779396 -0.2974317 -1.7148812 -0.21202701 -0.038996637 -0.68325925
-1.1636158 0.027573718 0.06243649 -0.004199711 -0.4293128 -0.4001032 -2.0307164 -0.11901958
0.27079967 -0.55228823 -1.4109161 0.07843527 -0.10587202 0.10990437 0.10195888 -0.7000141
-2.0524318 0.0526398 -0.14203513 -0.10789158 -1.3077706 0.18782233 -0.39838538 -0.37910476
-0.2382276 -0.6198171 -2.0854957 -0.47560528 0.13789898 -0.25472257 -1.5620365 0.021121262
0.021096718 0.124776736 -0.48688534 -0.62672085 -1.8067968 -0.32517126 -0.08032221 -0.6206502
-1.6458491 0.08863522 -0.23703545 0.043752734 0.08144933 -0.48503086 -1.8039625 -0.0442387
-0.20861094 -0.47548532 -1.686112 0.04913766 -0.24760915 0.20107181 -0.1562626 -0.61235
-1.7594314 -0.40647617 0.20871823 -0.56998146
00000000: 529a 273f 89b8 673e 9a04 dabd 98b3 d43e
00000010: 286a 253d 958a 0d3d 877a 0640 1c91 0f3e
00000020: 04d8 433e f876 063e f7ec e83e 7ae2 a73d
00000030: d724 653d d7dd ef3c 0beb ac3e 9ad8 4f3f
00000040: baa5 acbf bd60 683e a615 cc3d 21ba 2a3f
00000050: d946 84bf 99f8 62bd 1c75 193e dfa2 5dbc
00000060: 4f37 36be 8a0a c7be 20a6 0ec0 262f 853d
00000070: 0031 81be 0531 a2be e087 ccbf 71cb a13e
00000080: befd 123d da12 4b3d 4d57 17be f848 98be
00000090: 3a81 dbbf 9c1d 59be f0ba 1fbd 14ea 2ebf
000000a0: 5df1 94bf 47e2 e13c 68bd 7f3d bb9d 89bb
000000b0: e3ce dbbe 54da ccbe 42f7 01c0 8ac0 f3bd
000000c0: 41a6 8a3e c362 0dbf e698 b4bf aca2 a03d
000000d0: 6ed3 d8bd 8b15 e13d d1cf d03d 2034 33bf
000000e0: 0b5b 03c0 d59c 573d a871 11be 43f6 dcbd
000000f0: 0765 a7bf 7f54 403e 2bf9 cbbe 051a c2be
00000100: f0f1 73be 55ac 1ebf c378 05c0 8982 f3be
00000110: 6435 0d3e ff6a 82be d0f0 c7bf 7f06 ad3c
00000120: 06d3 ac3c f28a ff3d 0949 f9be c770 20bf
00000130: 1e45 e7bf d97c a6be f97f a4bd eee2 1ebf
00000140: 2fab d2bf 6286 b53d 6cb9 72be 1136 333d
00000150: e8ce a63d f755 f8be 3ee8 e6bf a433 35bd
00000160: 1b9e 55be d072 f3be 85d2 d7bf 9244 493d
00000170: 418d 7dbe c5e5 4d3e 4e03 20be f8c2 1cbf
00000180: 0c35 e1bf a51d d0be 3bba 553e 4eea 11bf

bias f4 [10]
1.6680585 -0.70397496 -0.87198085 -0.8140607 -1.2063717 -1.0892692 -0.7223656 -1.1595227
-0.61580247 -0.9719345
00000000: f182 d53f b437 34bf 233a 5fbf 4866 50bf
00000010: 636a 9abf 2c6d 8bbf f4ec 38bf 3d6b 94bf
00000020: 3ba5 1dbf b3d0 78bf

weight f4 [1, 1, 3, 3]
0.4987954 0.080890976 -0.34490198 0.48050982 0.94327676 -0.27928895 -0.23115191 -0.13470252
0.035420593
00000000: 1c62 ff3e 2baa a53d fe96 b0be 6205 f63e
00000010: 967a 713f f6fe 8ebe 16b3 6cbe 75ef 09be
00000020: 2f15 113d

weight f4 [5, 169]
0.0963239 0.041113555 0.058300976 0.17199698 0.071105376 0.108268805 0.055574514 0.048017558
0.1000286 0.054856077 0.15261836 0.033769757 0.17002727 0.023216214 0.15288277 0.07268581
0.11961957 0.16724144 0.3462295 0.8378407 0.96475047 1.0012827 0.97959805 0.5533085
0.05944424 0.066807844 0.07941145 0.14632392 -0.10057566 -0.36156034 -0.3650789 0.40043265
0.33921131 0.30230996 0.9106617 0.71166825 0.20230073 0.78996027 0.1613057 0.14632419
0.08004173 -0.5879508 0.14322323 -0.19213253 0.039071295 0.5918712 -0.038272716 -0.29989493
0.28683242 -0.38844606 0.5653849 0.20805706 0.08399169 -0.46089035 -0.27331525 0.23001744
0.28843796 0.23126918 0.26808262 -0.70361245 -0.63003176 0.037210938 0.2184317 0.338934
1.1514983 0.036402866 -0.46402797 -0.557553 -0.21675563 -0.016155 0.18688308 0.7492758
-0.4995028 -0.6173316 -0.3897857 0.19703716 0.40413594 0.81621855 0.102387525 -0.08774396
0.024050219 -0.025276793 0.16127287 0.55705166 0.71131104 0.2036142 -0.3666183 -0.5834333
-0.09365138 0.36663118 -0.07500794 0.15877028 0.063356616 -0.54149073 -0.9154702 -0.12158571
0.7254466 0.55488455 -0.120266065 -0.134942 -0.8962069 -0.8140189 0.13489911 0.047515232
0.15082136 0.04168554 -0.46900132 -0.46079835 0.075712115 0.15275107 0.002276847 -0.20488143
-0.2789935 -0.20948945 0.056384526 -0.09696974 -0.47181585 0.15545425 0.06899942 0.6372523
0.9837734 0.79544985 0.24949737 -0.42052454 -0.38497436 0.24838927 0.31257653 0.28484806
0.47436842 -0.2640086 0.08210497 0.10126282 0.41892195 0.9122333 0.163833 0.41698554
0.46369913 0.5721726 0.70040685 1.057862 0.6180451 0.8926344 0.15301971 0.16102502
0.07010665 -0.27879447 -0.2672018 0.32780972 0.73367757 0.55199593 0.19742821 0.6479317
0.8467305 0.4319383 0.33249995 0.05401501 0.14509133 -0.113667116 -0.9118589 -0.62828743
-0.41769153 -0.69415224 -0.004739961 -0.60928136 -0.36550847 -0.5313785 -0.6271407 0.10971751
0.17120183 -0.16154894 -0.13978197 -0.057698138 -0.16624811 -0.1401348 -0.15577193 -0.17203352
-0.05573119 -0.031113744 -0.123846374 -0.043985315 -0.12904863 -0.06379889 -0.1339895 -0.14545138
-0.026373478 -0.12925038 -0.06736272 -0.1231169 -0.115420334 -0.030430444 -0.079614125 -0.16217208
-0.12770492 -0.10511722 -0.10670586 -0.16423231 -0.084730774 -0.10063492 -0.14203253 -0.029461695
-0.040767856 -0.121713966 -0.059479687 -0.06510357 -0.054929122 -0.09816764 -0.15641807 -0.07128059
-0.14510173 -0.054696415 -0.04206433 -0.037212178 -0.032911178 -0.1527021 -0.08470339 -0.13468097
-0.062036775 -0.103381455 -0.15750855 -0.03956283 -0.12127388 -0.035360657 -0.13996017 -0.12965614
-0.1694286 -0.16767527 -0.14821911 -0.07929098 -0.06450363 -0.13145621 -0.075063646 -0.12531781
-0.16317166 -0.12243474 -0.1484364 -0.13225241 -0.09871381 -0.08473893 -0.061507743 -0.0823477
-0.11152135 -0.0898602 -0.15463232 -0.08491614 -0.12586197 -0.097361326 -0.15725029 -0.1701281
-0.11967861 -0.14416346 -0.13396722 -0.11450776 -0.06080625 -0.071057044 -0.051852696 -0.110654645
00000000: 7745 c53d b066 283d 01cd 6e3d fa1f 303e
00000010: b29f 913d 09bc dd3d 1aa2 633d 0fae 443d
00000020: cbdb cc3d c4b0 603d fd47 1c3e 2852 0a3d
00000030: a11b 2e3e ee2f be3c 4d8d 1c3e 4cdc 943d
00000040: 1bfb f43d 5741 2b3e fe44 b13e ba7c 563f
00000050: e3f9 763f 082a 803f f0c6 7a3f a0a5 0d3f
00000060: ce7b 733d 8dd2 883d 78a2 a23d f0d5 153e
00000070: 9dfa cdbd 701e b9be 9feb babe 8205 cd3e
00000080: 1bad ad3e 5fc8 9a3e 2021 693f e42f 363f
00000090: ec27 4f3e d63a 4a3f 522d 253e 02d6 153e
000000a0: ebec a33d f283 16bf 1ca9 123e 64be 44be
000000b0: 3909 203d df84 173f dac3 1cbd d48b 99be
000000c0: b3db 923e 67e2 c6be 11bd 103f e90c 553e
000000d0: d603 ac3d d2f9 ebbe faef 8bbe b189 6b3e
000000e0: 24ae 933e d4d1 6c3e 2042 893e f21f 34bf
000000f0: c349 21bf 7f6a 183d 8fac 5f3e c288 ad3e
00000100: 4c64 933f 2c1b 153d 1395 edbe cbbb 0ebf
00000110: 30f5 5dbe 7e57 84bc 475e 3f3e 8ad0 3f3f
00000120: d5be ffbe 7209 1ebf fe91 c7be 1cc4 493e
00000130: e8ea ce3e b3f3 503f 8db0 d13d 1bb3 b3bd
00000140: f704 c53c 4711 cfbc b724 253e f09a 0e3f
00000150: 7b18 363f 3e80 503e 65b5 bbbe e25b 15bf
00000160: 4bcc bfbd 15b7 bb3e c39d 99bd ad94 223e
00000170: 1dc1 813d 239f 0abf 415c 6abf ee01 f9bd
00000180: deb6 393f ea0c 0e3f 0e4e f6bd 3c2e 0abe
00000190: d16d 65bf 8b63 50bf fe22 0a3e 559f 423d
000001a0: ea70 1a3e 75be 2a3d f120 f0be c3ed ebbe
000001b0: f40e 9b3d c76a 1c3e 2737 153b 70cc 51be
000001c0: 3cd8 8ebe 6784 56be 76f3 663d 1298 c6bd
000001d0: d991 f1be 662f 1f3e 914f 8d3d f722 233f
000001e0: 93d8 7b3f 9aa2 4b3f 3d7c 7f3e fe4e d7be
000001f0: 5c1b c5be c259 7e3e 080a a03e 9bd7 913e
00000200: 6be0 f23e 232c 87be a726 a83d e262 cf3d
00000210: f07c d63e 1f88 693f d7c3 273e 217f d53e
00000220: f969 ed3e e779 123f dd4d 333f 0668 873f
00000230: 3438 1e3f b083 643f 33b1 1c3e bee3 243e
00000240: 1394 8f3d 26be 8ebe adce 88be add6 a73e
00000250: 4bd2 3b3f 9b4f 0d3f 9f2a 4a3e dade 253f
00000260: 54c3 583f 0427 dd3e 6f3d aa3e d83e 5d3d
00000270: d292 143e 4eca e8bd 966f 69bf 72d7 20bf
00000280: aadb d5be f6b3 31bf ad51 9bbb ddf9 1bbf
00000290: ed23 bbbe 6c08 08bf 4b8c 20bf 93b3 e03d
000002a0: 884f 2f3e 166d 25be 0123 0fbe e254 6cbd
000002b0: f23c 2abe 7f7f 0fbe ad82 1fbe 8e29 30be
000002c0: 6346 64bd 40e2 febc 2ba3 fdbd f229 34bd
000002d0: 5325 04be fea8 82bd 8b34 09be 35f1 14be
000002e0: 310d d8bc 365a 04be 77f5 89bd b724 fcbd
000002f0: 7f61 ecbd 4449 f9bc bb0c a3bd 7010 26be
00000300: 14c5 02be b247 d7bd 9a88 dabd 842c 28be
00000310: 5487 adbd ae19 cebd fa70 11be a759 f1bc
00000320: 32fc 26bd 2c45 f9bd f9a0 73bd 0555 85bd
00000330: 5cfd 60bd 1e0c c9bd 0f2c 20be 8ffb 91bd
00000340: 8c95 14be 5909 60bd a64b 2cbd cc6b 18bd
00000350: dfcd 06bd f05d 1cbe f978 adbd cfe9 09be
00000360: 461a 7ebd a8b9 d3bd ec49 21be a20c 22bd
00000370: 715e f8bd 56d6 10bd b851 0fbe 94c4 04be
00000380: b17e 2dbe 11b3 2bbe c0c6 17be 4f63 a2bd
00000390: 7b1a 84bd 759c 06be f8ba 99bd 5053 00be
000003a0: 7916 27be 11bf fabd b6ff 17be 2d6d 07be
000003b0: 772a cabd 9b8b adbd 8bef 7bbd e9a5 a8bd
000003c0: 4e65 e4bd a008 b8bd ef57 1ebe 83e8 adbd
000003d0: f6e1 00be 6065 c7bd 3806 21be 1036 2ebe
000003e0: 0f1a f5bd 969f 13be b42e 09be 0b83 eabd
000003f0: f90f 79bd 5b86 91bd 7e63 54bd e79e e2bd

bias f4 [5]
-0.5410182 -0.08178408 0.04163113 0.59035593 -0.072959684
00000000: 2b80 0abf 697e a7bd 6785 2a3d 9121 173f
00000010: e36b 95bd
