xai_neurips_2021/models/pre_trained/mnist_pre_trained_10_5_09_14_27_36_58_expert_model.pt (torch, 74751 bytes, 70 tensors)

weight f4 [1, 1, 3, 3]
0.03621167 0.03832073 0.4162448 0.24692222 0.67079824 -0.16313438 -0.4535883 0.40527013
0.19849305
00000000: b052 143d 33f6 1c3d 0a1e d53e 2ed9 7c3e
00000010: 6fb9 2b3f b30c 27be ba3c e8be 917f cf3e
00000020: c341 4b3e

weight f4 [5, 169]
0.026033172 -0.024427919 0.021905202 -0.004122193 0.073243774 -0.04599129 -0.07710768 -0.94297725
-0.45222634 0.022892546 -0.02525802 0.06078924 -0.02980646 0.046864256 0.05506415 -0.43644333
-0.43449587 -0.8581611 0.15871288 -0.23317431 0.039417304 -0.4696686 -0.7007661 -0.38994122
-0.30404013 -0.009541778 -0.025393376 -0.006178746 -0.31346834 -0.0064991796 0.19165064 -0.07230824
-0.04358151 0.05712994 0.32025054 0.19073138 -0.24124637 -0.39080557 0.026430333 0.01948375
0.12808706 -0.3483424 0.42503446 0.122242056 0.14591946 -0.0062413486 0.20621671 -0.0395277
0.32646003 0.022357613 -0.44831115 0.045178242 0.062869385 0.21388425 0.40255362 0.093563795
0.29486686 0.22480713 -0.32755736 -0.15617953 -0.41644993 0.40984678 0.5385978 -0.66107965
0.10627933 -0.039980642 0.90263325 0.22093432 0.4514467 0.18555813 0.3907535 0.19466664
0.23731326 -0.0607149 0.1971537 0.18644318 -0.3669356 0.1355573 0.018706158 1.0348257
0.1992338 0.28263155 -0.058646232 -0.19487947 0.4838416 0.3522269 0.24637076 0.06911159
-0.41514474 -0.17097484 0.30132508 0.026927957 -0.04137393 0.11426277 -0.13539273 -0.3240279
-0.42719233 0.743694 0.81093323 0.19843619 0.205279 -0.011452196 -0.17192347 0.08996736
0.00367989 -0.38104358 -0.22858231 -0.32489908 -0.37710968 -0.27341977 0.61040837 0.2014564
0.0031819993 0.37584364 -0.07586417 0.39608315 -0.032002002 0.0022323683 -0.23288384 -0.057755694
-0.25871974 -0.48424342 -0.28192788 0.0022504295 0.29168263 0.4292938 0.60857064 -0.15537353
0.5782395 -0.13966346 0.059716962 -0.3168771 -0.70177567 -0.29125556 -0.3743377 0.0037566517
0.099226736 0.42953733 0.7247498 0.10384994 0.37582666 1.229081 -0.19492418 -0.268002
-0.10301188 0.26700494 0.4764931 -0.1852586 -0.26389015 -0.17860429 0.35351786 0.106868625
0.10729005 1.2360618 0.7838725 -0.037168156 0.0042085373 0.3970567 0.45581254 0.6600053
0.8602 0.72070885 0.29992285 0.23923053 0.81402194 0.5472604 0.43572485 0.29405966
-0.034096453 0.012839382 0.059049424 -0.042116184 -0.07309878 -0.03086346 0.032346595 0.013339146
-0.064109944 -0.047837783 -0.031897802 -0.04588902 0.07652213 -0.019463724 -0.06874515 -0.048088975
-0.047599874 -0.3147494 -0.81515574 0.17191267 0.35200095 0.6132568 0.39932913 -0.109257385
0.09998577 0.079769686 -0.07463363 0.07079408 -0.023252929 -0.16105072 0.031576924 0.6372308
0.5071276 0.14493793 0.14809512 0.21420099 -0.8938681 -0.019821182 0.1685855 0.07599409
0.07115408 -0.12286307 -0.44098908 0.23343606 0.24657406 -0.08756211 -0.28614226 0.029945621
-0.122663155 -0.32397538 -0.31850362 0.30236712 0.011774806 0.06798454 0.101172574 -0.039994486
-0.3044832 -0.008346698 -0.11803757 -0.16697116 0.0372758 -0.08791831 -0.029454537 0.07733703
-0.10607631 -0.045004774 -0.032799043 0.0143897375 -0.11967533 -0.2046678 0.074254334 0.70149446
0.7083589 0.5244119 0.2384262 0.0014997832 -0.152168 -0.31362498 -0.014447141 -0.06774702
-0.013181696 -0.07057071 -0.55777633 0.25361437 0.3231109 0.35672513 0.87941575 -0.08308593
00000000: 8543 d53c 0f1d c8bc 8a72 b33c 7613 87bb
00000010: d500 963d 5d61 3cbd a2ea 9dbd f566 71bf
00000020: 368a e7be 2689 bb3c e8e9 cebc 23fe 783d
00000030: ad2c f4bc bcf4 3f3d f28a 613d 8075 dfbe
00000040: 3e76 debe 72b0 5bbf a185 223e 3fc5 6ebe
00000050: 0a74 213d 6778 f0be 6865 33bf 60a6 c7be
00000060: 26ab 9bbe 1e55 1cbc c505 d0bc 1477 cabb
00000070: ec7e a0be 12f7 d4bb 1140 443e 5816 94bd
00000080: 8782 32bd 1501 6a3d e1f7 a33e 164f 433e
00000090: 4a09 77be ab17 c8be 6d84 d83c 639c 9f3c
000000a0: 4129 033e ef59 b2be 1e9e d93e 0b5a fa3d
000000b0: e96b 153e 3a84 ccbb 792a 533e cce7 21bd
000000c0: c525 a73e 5027 b73c 0a89 e5be d20c 393d
000000d0: aac1 803d 7904 5b3e 821b ce3e 609e bf3d
000000e0: caf8 963e d733 663e 99b5 a7be 87ed 1fbe
000000f0: ed38 d5be 70d7 d13e 8ce1 093f 843c 29bf
00000100: faa8 d93d bec2 23bd f912 673f 9b3c 623e
00000110: 0624 e73e f302 3e3e d810 c83e b156 473e
00000120: 3f02 733e 30b0 78bd a9e2 493e f6ea 3e3e
00000130: fcde bbbe 88cf 0a3e a83d 993c 2b75 843f
00000140: f203 4c3e 15b5 903e 0837 70bd 7c8e 47be
00000150: 16ba f73e 1657 b43e 9e48 7c3e 618a 8d3d
00000160: da8d d4be 0714 2fbe 4847 9a3e 0598 dc3c
00000170: b677 29bd 9902 ea3d 64a4 0abe fce6 a5be
00000180: f4b8 dabe bb62 3e3f 5299 4f3f db32 4b3e
00000190: a834 523e fea1 3bbc b50c 30be cf40 b83d
000001a0: 4f2a 713b 2518 c3be 7b11 6abe 2c59 a6be
000001b0: 8514 c1be adfd 8bbe b943 1c3f 964a 4e3e
000001c0: 1789 503b 946e c03e ad5e 9bbd 69cb ca3e
000001d0: 8814 03bd ed4c 123b 1a79 6ebe 3c91 6cbd
000001e0: ea76 84be c1ee f7be da58 90be f17b 133b
000001f0: 6d57 953e 66cc db3e 49cb 1b3f 3d1a 1fbe
00000200: 8107 143f f003 0fbe c699 743d b73d a2be
00000210: 92a7 33bf 731f 95be 31a9 bfbe 2832 763b
00000220: 6337 cb3d 51ec db3e 3489 393f 47af d43d
00000230: 5a6c c03e 8752 9d3f 349a 47be 8f37 89be
00000240: e4f7 d2bd dfb4 883e e7f6 f33e 6eb4 3dbe
00000250: 9c1c 87be 0be4 36be 4b00 b53e f0dd da3d
00000260: e3ba db3d 4637 9e3f deab 483f a33d 18bd
00000270: c5e7 893b 044b cb3e 4360 e93e 1bf6 283f
00000280: 1136 5c3f 6080 383f 7d8f 993e d9f8 743e
00000290: be63 503f 4219 0c3f 5417 df3e fd8e 963e
000002a0: b9a8 0bbd 455c 523c cfdd 713d 0582 2cbd
000002b0: d0b4 95bd 5ed5 fcbc dd7d 043d 6f8c 5a3c
000002c0: 134c 83bd 8df1 43bd 45a7 02bd 20f6 3bbd
000002d0: a2b7 9c3d 6372 9fbc 42ca 8cbd f2f8 44bd
000002e0: 16f8 42bd d526 a1be 0cae 50bf e009 303e
000002f0: 7839 b43e 66fe 1c3f de74 cc3e 56c2 dfbd
00000300: 57c5 cc3d 4a5e a33d 84d9 98bd 7dfc 903d
00000310: ed7c bebc 7bea 24be ce56 013d 8f21 233f
00000320: 1dd3 013f 9c6a 143e 3fa6 173e 8157 5b3e
00000330: 8ad4 64bf 0860 a2bc ada1 2c3e caa2 9b3d
00000340: 3bb9 913d a29f fbbd 52c9 e1be dd09 6f3e
00000350: e97d 7c3e c353 b3bd 3d81 92be 8550 f53c
00000360: d236 fbbd 1ae0 a5be e812 a3be ddcf 9a3e
00000370: 1eeb 403c 7a3b 8b3d 9133 cf3d 42d1 23bd
00000380: 39e5 9bbe 97c0 08bc aebd f1bd 7dfa 2abe
00000390: 82ae 183d 840e b4bd a44a f1bc e062 9e3d
000003a0: 893e d9bd ed56 38bd 4a58 06bd efc2 6b3c
000003b0: 5718 f5bd 7094 51be a812 983d 2495 333f
000003c0: 0257 353f dc3f 063f ff25 743e 6094 c43a
000003d0: eed1 1bbe 7493 a0be b4b3 6cbc f3be 8abd
000003e0: 0af8 57bc 6087 90bd 6eca 0ebf bed9 813e
000003f0: cb6e a53e ada4 b63e 6421 613f f528 aabd

bias f4 [5]
0.14513117 -0.032174557 -0.049982578 0.102400325 0.07639952
00000000: 449d 143e 78c9 03bd 88ba 4cbd 43b7 d13d
00000010: 5a77 9c3d

weight f4 [10, 5]
-0.386632 -0.1582048 0.08968643 -0.4168688 0.3537155 0.30390775 0.883962 0.057665374
-0.2542915 0.69726294 -0.20482276 -0.5194281 0.02754512 0.46279645 0.08294192 0.014769151
0.028686453 0.614876 0.44499642 -0.32561892 -0.0224171 -0.20416903 0.4017477 0.768201
-0.85997665 -0.3082544 0.120978706 0.11720281 0.5516087 -0.41374326 0.8356224 1.0482326
0.31828433 -0.93613887 0.7462364 0.34584162 0.0060869954 0.41780934 -0.20744288 -0.7085438
0.48613787 0.71433514 0.42093658 -0.04490423 0.0012619243 0.11458392 -0.2713565 -0.0027064166
-0.33053014 -0.059704293
00000000: a1f4 c5be 7000 22be 85ad b73d d46f d5be
00000010: 331a b53e cc99 9b3e 554b 623f 8732 6c3d
00000020: 7f32 82be d37f 323f 0fbd 51be 3df9 04bf
00000030: 4ea6 e13c a8f3 ec3e 74dd a93d 4ffa 713c
00000040: daff ea3c 8368 1d3f 92d6 e33e 86b7 a6be
00000050: 11a4 b7bc b011 51be e0b1 cd3e d2a8 443f
00000060: 6e27 5cbf 85d3 9dbe afc3 f73d 0708 f03d
00000070: 3a36 0d3f 28d6 d3be 59eb 553f 7c2c 863f
00000080: 2af6 a23e cca6 6fbf 5909 3f3f 2712 b13e
00000090: 6b75 c73b 1beb d53e e86b 54be 2063 35bf
000000a0: 10e7 f83e abde 363f 0085 d73e 7fed 37bd
000000b0: 2767 a53a f9aa ea3d 3def 8abe 235e 31bb
000000c0: 3f3b a9be 7d8c 74bd

bias f4 [10]
-0.41712317 0.35551146 0.035240047 -0.17587937 -0.31583354 0.0030938513 0.65807974 0.46476492
0.24472266 0.33759892
00000000: 2b91 d5be 9905 b63e de57 103d b919 34be
00000010: efb4 a1be 36c2 4a3b ea77 283f abf5 ed3e
00000020: 9498 7a3e c4d9 ac3e

weight f4 [10, 10]
-0.13998453 -0.23020804 -0.011335158 0.55338764 0.475003 0.074296765 -0.042391594 0.514929
0.4688377 0.36399156 -0.10811122 0.41142178 -0.37557307 0.47510368 -0.30968064 -0.31262642
0.7220912 0.5291333 0.65231586 0.39290294 -0.30596465 -0.57394916 -1.2731819 -0.40580663
-0.5417345 -0.6743081 -0.19999027 -0.49109483 -0.35938054 -0.5903661 0.14571163 -0.4884707
-1.1121725 -0.5526748 -0.35658213 -0.63656616 -0.44249332 -0.6044459 -0.22254239 -0.19644774
-0.24774499 -0.54330957 -1.1856647 -0.27496013 -0.1097839 -0.5383366 -0.6568987 -0.16486609
-0.68018997 -0.1378586 -0.25579265 -0.27645403 -1.373171 -0.66046524 -0.07479737 -0.4576576
-0.52758145 -0.028500153 -0.35976222 -0.616142 -0.08551584 -0.24428809 -1.213379 -0.6526869
-0.46301433 -0.5317005 -0.31085595 -0.34900704 -0.68384874 -0.2837985 0.0068079415 -0.26856926
-1.3832948 -0.21773568 -0.25991905 -0.6568276 -0.5891276 -0.38208622 -0.14514291 -0.12394521
0.29654276 -0.13182294 -1.5147868 -0.36138222 -0.18695712 -0.67266345 -0.5243063 -0.40041262
-0.6343465 -0.11660087 0.15969989 -0.60419655 -1.4578749 -0.2550807 -0.10311217 -0.5704419
-0.21836892 -0.6183071 -0.3368456 -0.48737103
00000000: 1b58 0fbe a8bb 6bbe 19b7 39bc d0aa 0d3f
00000010: 9833 f33e e728 983d cfa2 2dbd 63d2 033f
00000020: 7f0b f03e 1a5d ba3e 6a69 ddbd e0a5 d23e
00000030: 1d4b c0be ca40 f33e 768e 9ebe 9210 a0be
00000040: f8da 383f 4875 073f 2cfe 263f 932a c93e
00000050: 66a7 9cbe 55ee 12bf a0f7 a2bf e3c5 cfbe
00000060: 1daf 0abf 759f 2cbf 40ca 4cbe c870 fbbe
00000070: ba00 b8be 3c22 17bf 6e35 153e d518 fabe
00000080: ab5b 8ebf 187c 0dbf ef91 b6be 00f6 22bf
00000090: 7c8e e2be f7bc 1abf 27e2 63be 9929 49be
000000a0: ddb0 7dbe 5616 0bbf dcc3 97bf 93c7 8cbe
000000b0: 62d6 e0bd 6dd0 09bf 832a 28bf a8d2 28be
000000c0: ee20 2ebf ce2a 0dbe 41f7 82be 628b 8dbe
000000d0: 11c4 afbf 4014 29bf 5d2f 99bd 1952 eabe
000000e0: 940f 07bf 2779 e9bc c132 b8be 7bbb 1dbf
000000f0: ee22 afbd a826 7abe 0150 9bbf 7d16 27bf
00000100: 3710 edbe 861d 08bf 8328 9fbe 0db1 b2be
00000110: b610 2fbf 094e 91be 2715 df3b e981 89be
00000120: ce0f b1bf 1af6 5ebe 1c14 85be db25 28bf
00000130: 11d1 16bf cea0 c3be 58a0 14be fcd6 fdbd
00000140: 74d4 973e 98fc 06be 89e4 c1bf 1707 b9be
00000150: b071 3fbe ac33 2cbf f038 06bf e202 cdbe
00000160: 8864 22bf 70cc eebd 5e88 233e a0ac 1abf
00000170: a59b babf f099 82be 792c d3bd 7b08 12bf
00000180: 1a9c 5fbe 6049 1ebf 0777 acbe b288 f9be

bias f4 [10]
0.39061657 0.46633354 -0.018357687 -0.20217894 -0.052753434 -0.02482786 -0.29724404 -0.09424142
-0.32811704 -0.0667587
00000000: e5fe c73e 45c3 ee3e dc62 96bc ff07 4fbe
00000010: fc13 58bd cc63 cbbc 5f30 98be a501 c1bd
00000020: f5fe a7be c9b8 88bd

weight f4 [1, 1, 3, 3]
0.42867413 0.18028241 -0.76071393 0.32493544 0.86385065 0.27200475 -0.21614853 -0.09566071
0.38429585
00000000: 2d7b db3e f49b 383e 26be 42bf f05d a63e
00000010: 5125 5d3f 3544 8b3e 0a56 5dbe c3e9 c3bd
00000020: 6dc2 c43e

weight f4 [5, 169]
0.027151035 -0.05735814 0.03520111 0.05291743 -0.012393016 -0.060877565 -0.031386632 0.011470272
-0.02316825 0.21743506 0.051617388 0.06962528 -0.07109346 0.052401938 -0.034298997 -0.059360176
-0.10608002 0.7767716 0.18357423 0.92335194 0.40365678 0.10305524 0.13872695 -0.03203398
0.1964702 0.08936579 -0.021448687 0.04785865 -0.15519953 -0.52312857 0.5242046 0.711952
1.1029236 0.8336208 0.47695917 0.8112469 0.44551325 -0.27842477 -0.048884623 0.037358403
0.04435674 -0.27337587 -0.113047 -0.17189242 -0.16142467 0.15716876 0.6510788 0.031432282
0.5938106 0.24195237 -0.15832457 -0.22722234 0.13786629 -0.037339706 -0.34083334 -0.2703726
-0.91261876 -0.4559406 -0.1189029 0.4458505 0.6822168 0.2850968 -0.32790458 -0.30179843
-0.093087934 -0.039704885 -0.026826538 -0.1539046 -0.400829 -0.55678076 -0.94367665 -0.031889625
0.6856527 0.22393715 -0.54443705 -0.4062939 -0.32105142 -0.18698627 -0.014463645 -0.007247989
-0.03303243 -0.6388938 -0.8171413 -1.2984657 -0.023962779 0.4733688 -0.3659196 -0.94887334
-0.762814 -0.67056346 -0.23960899 -0.07528206 0.003879804 -0.4087496 -0.8270597 -0.91137016
-1.262627 0.6188714 0.36305663 -0.7911394 -0.7647661 -0.81452274 -0.59057236 -0.22312671
0.042760722 -0.19206184 -0.17271174 -0.819422 -0.6876456 -0.17765135 0.3231259 -0.04881777
-0.60166 -1.0654647 -0.5526457 -0.47701597 -0.12706648 -0.02022384 0.166621 0.18073604
0.011437322 0.525542 0.9792249 0.44251856 0.0069302134 -0.035659395 0.040428877 0.08052837
0.05066459 0.23550873 -0.072053105 0.23190096 0.3669835 1.2365551 1.2150341 0.41643077
0.78540677 0.30841368 0.45243594 0.16862203 0.08154415 0.26495823 0.27257186 0.06685018
-0.023134701 0.35961217 0.73999274 0.34120667 0.10646228 0.36232334 0.35835654 0.13823137
0.07948367 -0.39761356 -0.111435845 0.05121599 0.02696871 0.018194392 0.13845496 -0.034180947
0.24427587 -0.09689081 -0.4665836 0.37711504 -0.2955555 -0.16147055 -0.35688967 -0.13549042
-0.032285262 0.045284376 0.025431193 -0.036533862 0.011053847 -0.012952704 0.06861695 -0.030209139
-0.01472088 0.0457557 0.10309232 -0.07363898 0.052438032 -0.059293803 -0.05091761 -0.035039976
-0.3369432 0.16173577 0.8556236 0.24182461 0.7891801 0.60520583 0.369914 0.24832414
0.3473875 0.4259642 -0.038094684 -0.062690616 0.008691058 -0.17745844 0.36031657 0.8172209
0.8548446 0.9482386 0.9486478 0.2843919 0.7473287 0.36131102 0.25220302 -0.35809153
0.0123341 -0.13357356 -0.32642978 0.57279104 0.45574552 0.36580864 0.2000056 0.65128684
-0.15146942 0.36442012 0.46888182 0.040633474 -0.11854899 0.09200943 -0.029194282 -0.43726075
-0.18450104 -0.35076454 -0.16035983 0.0700861 0.48992136 0.40937027 0.46637243 0.008595877
-0.08893058 -0.048837222 0.013250021 0.023777073 -0.15102644 -0.2041997 -0.32085502 -0.7146838
0.15424702 0.6337209 0.045275066 -0.21242376 -0.23780836 -0.25455695 -0.15371773 -0.013656277
0.06929624 -0.14939581 -0.277249 -0.6415022 -1.3186646 -0.012686189 0.37461928 -0.41373596
00000000: d96b de3c 5ef0 6abd 0a2f 103d f2bf 583d
00000010: 140c 4bbc c15a 79bd 458f 00bd cfed 3b3c
00000020: 58cb bdbc 4ca7 5e3e c16c 533d b397 8e3d
00000030: 7399 91bd 6aa3 563d 1b7d 0cbd a823 73bd
00000040: 7b40 d9bd 81da 463f e2fa 3b3e cb60 6c3f
00000050: 1aac ce3e a00e d33d 700e 0e3e 1036 03bd
00000060: 7c2f 493e 6905 b73d 28b5 afbc 6f07 443d
00000070: a0ec 1ebe c1eb 05bf 4632 063f 7c42 363f
00000080: 9a2c 8d3f 2c68 553f fe33 f43e e0ad 4f3f
00000090: 501a e43e b18d 8ebe 3e3b 48bd 2005 193d
000000a0: 6aaf 353d ecf7 8bbe 2f85 e7bd 9104 30be
000000b0: 824c 25be d9f0 203e 1aad 263f 23bf 003d
000000c0: f903 183f 5dc2 773e d61f 22be f9ac 68be
000000d0: d22c 0d3e 85f1 18bd b581 aebe 476e 8abe
000000e0: 62a1 69bf 0c71 e9be 5d83 f3bd 8446 e43e
000000f0: c3a5 2e3f 35f8 913e 1ce3 a7be 5385 9abe
00000100: e3a4 bebd 97a1 22bd 54c3 dbbc 2b99 1dbe
00000110: 7539 cdbe 2f89 0ebf cb94 71bf b29e 02bd
00000120: ef86 2f3f c84f 653e 3a60 0bbf c105 d0be
00000130: da60 a4be 5479 3fbe edf8 6cbc 8a80 edbb
00000140: 034d 07bd 8b8e 23bf 2c30 51bf 2034 a6bf
00000150: 974d c4bc 655d f23e d059 bbbe 5de9 72bf
00000160: c747 43bf 0caa 2bbf 0f5c 75be 7b2d 9abd
00000170: 4f44 7e3b a147 d1be 2fba 53bf 8e4f 69bf
00000180: c39d a1bf 5b6e 1e3f 8fe2 b93e 1d88 4abf
00000190: b6c7 43bf 9084 50bf c02f 17bf 547b 64be
000001a0: de25 2f3d dcab 44be 59db 30be a4c5 51bf
000001b0: 8b09 30bf 3cea 35be c270 a53e 24f5 47bd
000001c0: 6406 1abf 2661 88bf 307a 0dbf 703b f4be
000001d0: b71d 02be 77ac a5bc b29e 2a3e de12 393e
000001e0: 9b63 3b3c ec89 063f 7cae 7a3f cb91 e23e
000001f0: d816 e33b 960f 12bd c098 253d 0fec a43d
00000200: ac85 4f3d 3329 713e 9490 93bd 7277 6d3e
00000210: 43e5 bb3e 7047 9e3f 3d86 9b3f 6a36 d53e
00000220: 6b10 493f 66e8 9d3e afa5 e73e 41ab 2c3e
00000230: 9f00 a73d 9ba8 873e 8a8e 8b3e bfe8 883d
00000240: fc84 bdbc 161f b83e 2a70 3d3f a4b2 ae3e
00000250: e508 da3d 7282 b93e 827a b73e 868c 0d3e
00000260: 56c8 a23d 0194 cbbe 7a38 e4bd dcc7 513d
00000270: 7ced dc3c 680c 953c 23c7 0d3e 5201 0cbd
00000280: 7423 7a3e b06e c6bd 0ce4 eebe 3915 c13e
00000290: 0d53 97be 8958 25be 3eba b6be 00be 0abe
000002a0: 8d3d 04bd 1c7c 393d 1455 d03c 88a4 15bd
000002b0: 321b 353c 9437 54bc 0b87 8c3d 2879 f7bc
000002c0: d92f 71bc 546a 3b3d 1122 d33d 09d0 96bd
000002d0: 43c9 563d 0fde 72bd fc8e 50bd 1486 0fbd
000002e0: d283 acbe 109e 253e 260a 5b3f dfa0 773e
000002f0: b507 4a3f c5ee 1a3f 5e65 bd3e af48 7e3e
00000300: c6dc b13e fb17 da3e 2c09 1cbd f063 80bd
00000310: f064 0e3c aab7 35be 6a7b b83e 6435 513f
00000320: 19d7 5a3f c4bf 723f 95da 723f d19b 913e
00000330: ef50 3f3f c2fd b83e c120 813e c657 b7be
00000340: f714 4a3c 82c7 08be ce21 a7be 6fa2 123f
00000350: 7a57 e93e 454b bb3e 45ce 4c3e bcba 263f
00000360: cd1a 1bbe 4695 ba3e 4711 f03e 496f 263d
00000370: d0c9 f2bd 716f bc3d d928 efbc a4e0 dfbe
00000380: d7ed 3cbe 6997 b3be 5e35 24be 4d89 8f3d
00000390: f9d6 fa3e fb98 d13e 5ec8 ee3e b9d5 0c3c
000003a0: 3c21 b6bd 8a09 48bd 9e16 593c 23c8 c23c
000003b0: ada6 1abe ba19 51be 1c47 a4be 84f5 36bf
000003c0: eef2 1d3e 883b 223f 5972 393d 9d85 59be
000003d0: 0984 73be 4a55 82be 2e68 1dbe 94be 5fbc
000003e0: 30eb 8d3d 37fb 18be 95f3 8dbe 7d39 24bf
000003f0: 00ca a8bf bcd9 4fbc 19ce bf3e 33d5 d3be

bias f4 [5]
0.31055045 0.158018 -0.2909824 0.4924532 0.42403802
00000000: 7800 9f3e 78cf 213e a5fb 94be d322 fc3e
00000010: 831b d93e

weight f4 [10, 5]
-0.22256836 0.36232647 0.39495096 -0.30083072 -0.30581102 0.23074971 -0.21104123 0.03618553
-0.07545277 -0.29430988 1.1129411 0.6738101 -0.40775844 0.112007916 0.6276269 -0.0744956
-0.28508633 0.37155035 0.69150627 0.041112803 -0.3450126 -0.9734755 -0.16540918 1.0226685
0.37787944 0.07821101 -0.1891409 -0.3395571 -0.47847372 0.26646876 1.2491173 1.1672523
-0.44569877 0.1816458 0.45884258 -0.006654246 -0.18788946 0.1743152 -0.11594057 -0.43666953
-0.551237 -0.7046811 -0.4085258 0.6638728 -0.002163143 0.37490776 0.09699575 -0.21055661
0.6486729 0.8129385
00000000: f6e8 63be db82 b93e 0337 ca3e 7c06 9abe
00000010: 4393 9cbe a749 6c3e 311b 58be 4737 143d
00000020: fb86 9abd c9af 96be db74 8e3f d27e 2c3f
00000030: b7c5 d0be 6864 e53d 28ac 203f 2691 98bd
00000040: d6f6 91be d93b be3e 8e06 313f e665 283d
00000050: 7ea5 b0be b135 79bf 0661 29be cde6 823f
00000060: 6a79 c13e 182d a03d 27ae 41be 6eda adbe
00000070: 82fa f4be 986e 883e 13e3 9f3f 8668 953f
00000080: a132 e4be 5b01 3a3e 6aed ea3e dc0b dabb
00000090: 1866 40be af7f 323e 4072 edbd 2693 dfbe
000000a0: de1d 0dbf fb65 34bf 4b2a d1be 91f3 293f
000000b0: 84c3 0dbb e9f3 bf3e b5a5 c63d 279c 57be
000000c0: 6d0f 263f bd1c 503f

bias f4 [10]
-0.18073057 -0.48836705 -0.21747184 0.05330384 0.6634145 -0.46770388 0.2133522 -0.30573916
-0.06758773 0.7194053
00000000: 6f11 39be 3f0b fabe f0b0 5ebe 2155 5a3d
00000010: 88d5 293f e276 efbe 0079 5a3e d889 9cbe
00000020: 706b 8abd f22a 383f

weight f4 [10, 10]
0.015199335 -0.014137812 0.54706275 -0.8150849 0.46894282 0.065831445 0.5230814 0.11634521
-0.1469344 0.71967113 0.28553388 0.1065345 0.00029582166 0.43624222 0.72796786 0.08505906
-0.06590435 0.1545839 0.52881753 0.60487616 0.04968589 0.2319119 -0.20465533 -0.6674146
-0.5856174 -0.08957308 -0.22150783 -0.026215108 -0.40608522 -0.7786321 0.194228 -0.097113304
-0.33376402 -0.20101112 -0.7225596 0.0033388736 -0.68106025 0.0855368 -0.5797456 -0.75891894
-0.09121213 -0.031256065 -0.03409604 -0.8863087 -0.7794591 -0.19427712 -0.69004506 -0.31467208
-0.49098694 -0.5016058 -0.14154279 0.14537875 -0.05615458 -0.619189 -0.33432055 -0.38994437
-0.8240841 -0.1621744 -0.30249453 -0.42960528 0.068715595 0.1039465 -0.15279002 -1.0208806
-0.57361233 -0.06512786 -0.38453692 0.014810736 -0.3602734 -0.5018306 0.16033402 0.06540698
-0.6032442 -0.5752337 -0.3833261 -0.34554142 -0.27635795 -0.28449303 -0.21133974 -0.5217602
-0.002878037 0.1601654 -0.50341254 -0.42888665 -0.3784984 0.13463637 -0.7368595 0.15334982
-0.5344719 -0.41024995 0.022393132 0.15094559 -0.61908346 -0.7354126 -0.8445156 -0.061275765
-0.35723713 -0.26764053 -0.12721847 -0.4003676
00000000: a206 793c 48a2 67bc 4e0c 0c3f 67a9 50bf
00000010: 4619 f03e a3d2 863d aae8 053f 6646 ee3d
00000020: f975 16be 5e3c 383f 7f31 923e c32e da3d
00000030: 8318 9b39 245b df3e 1a5c 3a3f 7233 ae3d
00000040: dcf8 86bd 3e4b 1e3e 9660 073f 2ad9 1a3f
00000050: 6f83 4b3d 507a 6d3e 2b91 51be afdb 2abf
00000060: 06eb 15bf 1772 b7bd f3d2 62be 11c1 d6bc
00000070: 67ea cfbe 6f54 47bf b4e3 463e 57e3 c6bd
00000080: 1ee3 aabe dcd5 4dbe aaf9 38bf 01d1 5a3b
00000090: f759 2ebf eb2d af3d 356a 14bf 8348 42bf
000000a0: 6dcd babd 5c06 00bd 4aa8 0bbd 21e5 62bf
000000b0: a28a 47bf 95f0 46be cba6 30bf b31c a1be
000000c0: a462 fbbe 3d69 00bf 98f0 10be 2bde 143e
000000d0: 5802 66bd 2c83 1ebf 102c abbe caa6 c7be
000000e0: 2df7 52bf 0c11 26be 90e0 9abe 39f5 dbbe
000000f0: c3ba 8c3d e7e1 d43d fd74 1cbe 37ac 82bf
00000100: 42d8 12bf c161 85bd 06e2 c4be bba8 723c
00000110: c175 b8be f877 00bf 9a2e 243e 18f4 853d
00000120: 366e 1abf 8442 13bf 5243 c4be ceea b0be
00000130: ca7e 8dbe 12a9 91be 7269 58be 1492 05bf
00000140: 739d 3cbb 6602 243e a5df 00bf 0897 dbbe
00000150: 8bca c1be 1ede 093e d3a2 3cbf bc07 1d3e
00000160: 27d3 08bf 480c d2be cd71 b73c 7b91 1a3e
00000170: 417c 1ebf 0044 3cbf 2d32 58bf 4cfc 7abd
00000180: c9e7 b6be 2e08 89be 8f45 02be fbfc ccbe

bias f4 [10]
0.19598278 0.23916404 -0.12781711 -0.2838393 -0.16347854 -0.2884424 -0.6748567 -0.25064477
-0.33948404 -0.65995824
00000000: b6af 483e 6be7 743e 7de2 02be 6253 91be
00000010: eb66 27be b9ae 93be 69c3 2cbf 8354 80be
00000020: dad0 adbe 06f3 28bf

weight f4 [1, 1, 3, 3]
-0.6807594 0.6019069 0.15448208 0.24457721 0.5367557 0.25768417 -0.30690727 -0.15322897
0.29499584
00000000: 3f46 2ebf 9216 1a3f 8d30 1e3e 7372 7a3e
00000010: d268 093f 2eef 833e f322 9dbe 0ee8 1cbe
00000020: b209 973e

weight f4 [5, 169]
0.029088123 0.06556557 -0.0043454906 0.03736433 0.027036255 -0.06614915 -0.07278171 0.045660112
-0.027261212 -0.030663474 0.02478906 -0.050691735 0.059289046 0.061603356 -0.018847337 0.04506874
-0.031627174 -0.1616907 -0.12265844 -0.1429144 -0.08392797 -0.06105195 0.05495344 -0.006594429
0.039860085 0.016167734 -0.07577092 -0.061831422 0.028619997 -0.12374213 -0.12703204 -0.0406942
-0.17657201 -0.05953434 -0.11443913 -0.15976965 -0.03451673 -0.062186383 0.057390656 -0.035552897
-0.07523971 -0.03702993 -0.052082613 -0.10018451 -0.073430985 -0.16206418 -0.08243726 -0.15075158
-0.12751786 -0.11348061 0.036701966 -0.009632863 -0.0064790435 -0.012540332 -0.12120317 -0.059181612
-0.03686904 -0.020341286 -0.06705098 -0.17511368 -0.0712134 -0.1146969 -0.14448734 -0.016746182
-0.023217734 0.017525563 -0.028884815 -0.006446839 -0.00490383 -0.039917957 0.02850109 -0.058941614
-0.097156905 -0.08557102 -0.05441743 -0.030953418 -0.048210494 0.018257627 0.041254476 -0.05427459
-0.012217623 -0.03311491 -0.067657456 0.046714775 -0.03462737 -0.119182795 -0.091459416 -0.02654782
-0.07150443 0.07036318 0.007688752 -0.06819826 -0.06998725 -0.17337419 -0.13879693 -0.11719546
-0.094325036 -0.10421211 -0.11261276 -0.04492737 -0.044016466 0.027350115 0.058959164 -0.06206484
0.071060024 -0.043139085 -0.058593463 -0.1084451 -0.15186258 -0.12079494 -0.07650177 -0.059753392
-0.10509382 -0.06676827 -0.04610719 0.046215884 0.0087419385 -0.05850652 -0.14003594 -0.12337044
-0.05484116 -0.06430152 -0.06763405 -0.1646733 -0.15766282 -0.058451366 -0.055842467 -0.1579528
-0.06784299 0.0017599602 -0.05953845 -0.010851328 -0.06843841 -0.116053715 -0.10347789 -0.032275453
-0.052673746 -0.055597913 -0.07920851 -0.14021073 -0.12658875 -0.14633036 0.04663485 0.0020818345
-0.06477122 -0.1687106 -0.096006595 -0.045650445 -0.054504324 -0.045933533 -0.07697242 0.008645682
0.033993796 -0.040751707 0.033878457 0.0046902345 -0.07138783 -0.017758178 0.027883906 -0.10109241
-0.13794866 0.05029135 0.03562557 0.054795388 0.0029827724 0.03396668 -0.043223374 -0.013946937
-0.032281924 0.05951112 -0.0055342 0.040184822 -0.027627964 -0.03265194 -0.01661065 0.048476595
0.067016624 0.06819634 -0.040896244 0.014227198 0.05232315 0.052213717 -0.027341971 -0.045029834
-0.039965916 -0.033607207 -0.116445675 -0.14183575 -0.14312941 -0.030690668 -0.13131233 0.041114192
0.025424995 -0.0105147455 0.049095366 -0.0064214105 0.033281527 -0.046419628 -0.15588398 -0.061067984
-0.024143372 -0.046611775 -0.12652193 -0.17417286 -0.12325602 0.0062520965 0.025481004 0.052528743
0.06061632 0.07631937 -0.044417266 -0.119894296 -0.15671235 -0.12963842 -0.12746216 -0.1622399
-0.08230225 -0.14390293 -0.039692238 -0.043669574 0.0365838 0.03801036 -0.05435112 -0.07602342
-0.024213266 -0.14063299 -0.047370277 -0.14974646 -0.15615769 -0.056995608 -0.1238507 -0.10214239
-0.049947575 0.06913134 -0.038326483 -0.04713663 -0.024550172 -0.025551366 -0.17067368 -0.0715484
-0.040352233 -0.039687064 -0.10765245 -0.17565623 -0.012582073 -0.024694279 -0.0173199 0.04284592
-0.032697678 -0.16971475 -0.14027055 -0.15820116 -0.1707045 -0.14233673 -0.1564553 -0.16101305
00000000: 374a ee3c 3e47 863d 9e64 8ebb 570b 193d
00000010: 237b dd3c 3579 87bd 940e 95bd 1906 3b3d
00000020: e852 dfbc f731 fbbc 6d12 cb3c 23a2 4fbd
00000030: 12d9 723d cd53 7c3d bb65 9abc 009a 383d
00000040: 7f8b 01bd 3f92 25be 5934 fbbd 2758 12be
00000050: 6de2 abbd 9c11 7abd dc16 613d 1416 d8bb
00000060: 5444 233d 3272 843c c92d 9bbd f242 7dbd
00000070: 7c74 ea3c 846c fdbd b014 02be f6ae 26bd
00000080: 4bcf 34be 48da 73bd 105f eabd a89a 23be
00000090: 6a61 0dbd 26b7 7ebd 7712 6b3d ea9f 11bd
000000a0: 4717 9abd b2ac 17bd 9454 55bd 892d cdbd
000000b0: fc62 96bd 27f4 25be ded4 a8bd 9f5e 1abe
000000c0: 0b94 02be 8668 e8bd cd54 163d 28d3 1dbc
000000d0: 284e d4bb f775 4dbc 5e39 f8bd 6b68 72bd
000000e0: fe03 17bd c5a2 a6bc 0652 89bd 0051 33be
000000f0: 55d8 91bd 35e6 eabd 7df4 13be 4a2f 89bc
00000100: 1e33 bebc c591 8f3c d99f ecbc 0140 d3bb
00000110: 4fb0 a0bb 0381 23bd 1e7b e93c c36c 71bd
00000120: 33fa c6bd dc3f afbd d0e4 5ebd 0692 fdbc
00000130: 5e78 45bd 0591 953c 74fa 283d 084f 5ebd
00000140: 6d2c 48bc 80a3 07bd fe8f 8abd fe57 3f3d
00000150: 6ed5 0dbd 1c16 f4bd 134f bbbd d07a d9bc
00000160: ea70 92bd 921a 903d edf1 fb3b 88ab 8bbd
00000170: 7a55 8fbd 0189 31be c820 0ebe 2c04 f0bd
00000180: 7c2d c1bd 296d d5bd 85a1 e6bd c305 38bd
00000190: 9c4a 34bd 590d e03c 2a7f 713d b437 7ebd
000001a0: eb87 913d 9cb2 30bd b3ff 6fbd 7718 debd
000001b0: dd81 1bbe 5663 f7bd f6ac 9cbd f9bf 74bd
000001c0: 6e3b d7bd cebd 88bd e5da 3cbd de4c 3d3d
000001d0: 593a 0f3c 88a4 6fbd 9565 0fbe a4a9 fcbd
000001e0: 20a1 60bd 84b0 83bd b983 8abd 1ea0 28be
000001f0: 5d72 21be b36a 6fbd 12bb 64bd 61be 21be
00000200: 44f1 8abd 77ae e63a 97de 73bd c5c9 31bc
00000210: 7029 8cbd 92ad edbd 37ec d3bd 4433 04bd
00000220: 6dc0 57bd a3ba 63bd 1238 a2bd 6793 0fbe
00000230: 7ba0 01be a0d7 15be 2f04 3f3d 636f 083b
00000240: c6a6 84bd 79c2 2cbe 1b9f c4bd f6fb 3abd
00000250: ed3f 5fbd cd24 3cbd b7a3 9dbd 9ea6 0d3c
00000260: 143d 0b3d 43eb 26bd 23c4 0a3d 8ab0 993b
00000270: c833 92bd 9979 91bc ca6c e43c 8a09 cfbd
00000280: 6a42 0dbe 4dfe 4d3d 1eec 113d 2171 603d
00000290: 9e7a 433b a520 0b3d fe0a 31bd b281 64bc
000002a0: 0d3a 04bd efc1 733d 3c58 b5bb d798 243d
000002b0: 0a54 e2bc 0abe 05bd 0f13 88bc 658f 463d
000002c0: 0340 893d 86aa 8b3d d282 27bd 3219 693c
000002d0: cd50 563d 0dde 553d 45fc dfbc 3471 38bd
000002e0: 4db3 23bd b6a7 09bd 127b eebd 643d 11be
000002f0: 8490 12be ff6a fbbc bd76 06be 5b67 283d
00000300: 1448 d03c 0a46 2cbc 3918 493d b26a d2bb
00000310: 3652 083d 8222 3ebd 0da0 1fbe 6c22 7abd
00000320: 52c8 c5bc fdeb 3ebd f78e 01be 5f5a 32be
00000330: a76d fcbd 63de cc3b 8abd d03c 6128 573d
00000340: d248 783d 544d 9c3d e1ee 35bd 248b f5bd
00000350: 3479 20be efbf 04be 7185 02be 3722 26be
00000360: 158e a8bd 4a5b 13be 5494 22bd dede 32bd
00000370: e5d8 153d c0b0 1b3d 489f 5ebd 2bb2 9bbd
00000380: e65a c6bc 1802 10be 5607 42bd 2357 19be
00000390: cde7 1fbe 3a74 69bd 70a5 fdbd 0830 d1bd
000003a0: d495 4cbd bb94 8d3d 3bfc 1cbd 5712 41bd
000003b0: 711d c9bc 1951 d1bc 15c5 2ebe f887 92bd
000003c0: 6248 25bd e78e 22bd e378 dcbd 3adf 33be
000003d0: 0a25 4ebc a84b cabc 77e2 8dbc 347f 2f3d
000003e0: 00ee 05bd b4c9 2dbe 15a3 0fbe 7cff 21be
000003f0: 29cd 2ebe b8c0 11be d135 20be 9be0 24be

bias f4 [5]
-0.1293338 -0.07089143 0.010593032 0.23318563 0.08283394
00000000: 1470 04be 872f 91bd 668e 2d3c 37c8 6e3e
00000010: d7a4 a93d

weight f4 [10, 5]
-0.4166999 0.17719191 0.31420666 0.5165993 -0.36678347 -0.22880045 0.48298195 0.6328406
0.11022456 -0.29518092 -0.21357684 0.12557831 -0.0423351 0.4693795 -0.41245645 0.2698117
0.3547159 0.3019301 0.08538669 0.2567608 -0.43773472 0.21514395 -0.25286037 -0.34556097
-0.33051944 -0.2825321 0.444879 -0.40692827 -0.23242785 -0.012897402 0.3800196 -0.31626695
-0.13442321 -0.2163852 -0.3371945 -0.23947318 -0.02043285 -0.037897635 0.5541583 0.9050224
0.30259135 -0.2789966 -0.1973897 -0.051361553 0.01775654 -0.33572203 -0.10937168 -0.1026366
0.09279115 -0.10302431
00000000: b059 d5be cc71 353e b2df a03e da3f 043f
00000010: 0bcb bbbe aa4a 6abe 6949 f73e d701 223f
00000020: 6abd e13d f421 97be e3b3 5abe 9a97 003e
00000030: 9267 2dbd 8352 f03e 7e2d d3be c224 8a3e
00000040: 539d b53e 9596 9a3e 38df ae3d 2776 833e
00000050: c41e e0be b24e 5c3e ea76 81be 5eed b0be
00000060: d839 a9be 0ca8 90be 2ec7 e33e e758 d0be
00000070: 9101 6ebe a04f 53bc ee91 c23e beed a1be
00000080: 3da6 09be 1594 5dbe c2a4 acbe 7538 75be
00000090: cb62 a7bc 8d3a 1bbd 51dd 0d3f 8caf 673f
000000a0: 41ed 9a3e a4d8 8ebe 8720 4abe 7e60 52bd
000000b0: 2a76 913c c2e3 abbe 42fe dfbd 2333 d2bd
000000c0: 4909 be3d 69fe d2bd

bias f4 [10]
-0.16721842 -0.1200711 -0.19483407 -0.3559717 0.15757649 -0.11409149 -0.4095454 0.26223168
-0.611932 -0.46741423
00000000: 4e3b 2bbe d6e7 f5bd 9582 47be ec41 b6be
00000010: bb5b 213e cda8 e9bd efaf d1be 3b43 863e
00000020: 93a7 1cbf eb50 efbe

weight f4 [10, 10]
-0.5954095 0.45459497 -0.36881354 0.34947762 0.04783909 0.13677959 0.29674813 0.70561564
-0.017466238 0.030531306 0.94644403 0.40509388 0.42541894 0.026638443 0.20151749 0.25171688
0.15394117 0.39257973 0.01739766 0.077165805 -1.0848677 -0.5016561 -0.6369475 -0.79513896
-0.16751824 0.19648772 -0.06607596 -0.6478285 -0.27597162 -0.2441622 -1.1489958 -0.5456184
-0.1090949 -0.74899036 0.12974635 0.19752221 0.047368903 -0.7278932 -0.30860397 -0.26158607
-1.608625 -0.7241161 -0.06752704 -0.9324809 -0.08528787 0.07066292 -0.15435916 -0.53532827
-0.4033785 -0.17157233 -1.5267749 -0.26067096 -0.5775355 -0.49502298 -0.30444673 -0.16493084
-0.066425145 -0.5925209 -0.34975263 -0.55533415 -1.6180818 -0.56622666 -0.086905114 -0.8870303
-0.32120886 -0.23591283 0.05420523 -0.5503496 -0.1440212 -0.5664149 -1.194994 -0.68516815
-0.588553 -1.2747351 0.011791992 -0.066501334 0.30288598 -0.5541041 -0.046906218 -0.5793299
-1.3666568 -0.8143437 -0.2188035 -1.0077152 -0.0014209972 0.05055866 0.14241149 -0.6116249
-0.19375488 -0.5874633 -1.1337111 -0.2727714 -0.5361536 -0.7110619 -0.37217703 0.14518228
-0.018284429 -0.67075574 -0.3488625 -0.44507065
00000000: c26c 18bf acc0 e83e 21d5 bcbe bbee b23e
00000010: ecf2 433d f30f 0c3e 5fef 973e 3aa3 343f
00000020: 5b15 8fbc ca1c fa3c 284a 723f 7768 cf3e
00000030: 83d0 d93e dd38 da3c 9a5a 4e3e 09e1 803e
00000040: c1a2 1d3e 3600 c93e 8a85 8e3c 1b09 9e3d
00000050: f2dc 8abf 896c 00bf fe0e 23bf 3a8e 4bbf
00000060: e789 2bbe 1434 493e d552 87bd 17d8 25bf
00000070: 274c 8dbe a805 7abe 4b12 93bf a6ad 0bbf
00000080: 266d dfbd d5bd 3fbf 3adc 043e 4343 4a3e
00000090: e505 423d 3557 3abf 5701 9ebe 9cee 85be
000000a0: 6de7 cdbf ac5f 39bf 9e4b 8abd 11b7 6ebf
000000b0: 68ab aebd b9b7 903d 5410 1ebe 460b 09bf
000000c0: a087 cebe a8b0 2fbe 5c6d c3bf aa76 85be
000000d0: 5ed9 13bf a773 fdbe 71e0 9bbe a1e3 28be
000000e0: e809 88bd 73af 17bf c712 b3be 612a 0ebf
000000f0: 4e1d cfbf 3bf4 10bf 4ffb b1bd 6b14 63bf
00000100: 7d75 a4be 2293 71be 4e06 5e3d b6e3 0cbf
00000110: 4b7a 13be 9100 11bf 90f5 98bf 2e67 2fbf
00000120: 69ab 16bf 852a a3bf 3333 413c da31 88bd
00000130: df13 9b3e c4d9 0dbf bc20 40bd f74e 14bf
00000140: 9cee aebf d478 50bf 060e 60be d0fc 80bf
00000150: c140 baba 9916 4f3d 51d4 113e 7393 1cbf
00000160: ae67 46be ff63 16bf 721d 91bf b1a8 8bbe
00000170: 5d41 09bf 2708 36bf fd8d bebe aaaa 143e
00000180: 3ac9 95bc a6b6 2bbf 1b9e b2be 4de0 e3be

bias f4 [10]
0.31742048 0.30871046 -0.4357963 -0.5074019 -0.42488244 -0.52384096 -0.3806811 -0.25214007
-0.15821543 -0.44463897
00000000: f084 a23e 4c0f 9e3e b120 dfbe 17e5 01bf
00000010: 318a d9be 711a 06bf a2e8 c2be 8118 81be
00000020: 3a03 22be b8a7 e3be

weight f4 [1, 1, 3, 3]
1.0202093 0.39616078 -0.15603745 0.7913315 -0.5195 -0.42208013 0.6062396 -0.12500246
0.11302368
00000000: 3896 823f 96d5 ca3e 48c8 1fbe b494 4a3f
00000010: f4fd 04bf e31a d8be 8532 1b3f a500 00be
00000020: f678 e73d

weight f4 [5, 169]
0.015298234 -0.03542431 0.0949452 -0.015149024 -0.03886224 -0.18496643 0.27014267 0.42040065
0.44205242 0.45445487 0.21821104 0.006259316 0.09676154 0.005494277 0.14327541 0.20446074
0.338179 0.21679384 -0.008000642 -0.040670127 0.2542284 0.08050843 0.3115446 -0.14527541
-0.28206316 0.033706214 0.18954395 0.18961586 -0.17385694 0.010278327 0.21101278 0.13588089
0.18577617 0.3006667 0.2504158 -0.12028203 -0.29533976 -0.5235718 -0.11765656 0.10915267
0.2025089 -5.1465508e-05 0.06786732 0.009151003 -0.04985721 0.08436776 0.08485832 0.16464128
-0.31112844 -0.051045157 -0.33228758 -0.35393316 0.11944455 0.22423708 0.19732158 0.554961
0.042257033 0.0049253907 0.19838272 0.36952093 0.33986962 -0.104067124 -0.1528641 0.058293648
-0.10562785 -0.1041455 0.12807924 -0.11685561 0.37953794 -0.019970493 0.104968846 0.218977
0.016502442 -0.04671178 0.16826198 0.17861444 0.052543607 -0.008928744 0.05245434 0.13479361
0.21281527 0.0662554 0.2596611 -0.044168957 -0.13744248 -0.53007835 0.10266597 0.2983483
0.029018523 -0.2901594 0.03409768 0.08450931 0.02581539 -0.12717916 -0.23278512 -0.059420183
-0.33617944 -0.27721402 0.071395606 0.09305767 0.18568124 0.14586134 0.38179472 0.3089413
-0.17093635 0.053324316 0.2562369 0.22577552 -0.20018758 -0.17380066 -0.26591718 -0.04080659
-0.043783445 -0.014301687 0.21308216 0.5780244 0.25372136 0.07780795 0.0051479456 0.14508274
0.10194371 0.0476556 -0.28466484 0.06018113 0.089290604 -0.13226216 0.19724692 0.4109898
0.23780248 0.18272218 -0.13302705 -0.011576356 0.008290878 0.4506664 0.3923181 0.24835654
0.06541562 0.027647372 0.17611533 0.21148556 0.14152105 -0.044132754 -0.043654647 0.11719105
0.15766624 0.2422149 0.1063537 -0.24104875 0.7430762 0.19542484 -0.1841698 0.12878728
0.23830391 0.21858187 0.0401541 0.0013663219 0.19127922 0.1697371 0.2538458 0.1768176
0.114131056 0.14896844 0.27088937 0.22794537 0.55602145 0.26928684 -0.07716302 -0.0154841095
0.08562214 -0.058567572 -0.047812976 -0.021043887 0.0028880653 0.23069444 0.114041604 0.011434722
-0.10198653 -0.10496726 -0.19672127 0.5428285 -0.053898133 -0.0073369835 0.054888774 0.023249013
0.054166783 0.035951294 0.25155157 0.3231566 -0.1399796 -0.54779047 -0.48907223 -0.42108423
0.0918358 0.15712261 0.122007474 -0.021007795 0.054305088 0.3377906 0.44376042 0.45451263
-0.10498524 -0.43290997 -0.7888078 -0.81431025 -0.27142572 -0.11243229 0.16660763 0.25500673
-0.04117955 -0.32130912 0.38271406 0.6851627 0.22003268 -0.52717423 -0.6369002 -0.754826
-0.40393224 -0.20192298 0.22834767 0.06512452 0.22127496 -0.16053562 0.009809929 0.28166798
0.5652781 -0.366775 -0.6136275 -0.7284406 -0.26522952 0.41262916 0.5446802 0.29160643
-0.29420042 0.2560417 -0.1546156 -0.18058193 0.37894458 0.63310885 -0.26259327 -0.44025165
0.0023459692 -0.056646068 0.48316994 -0.11360497 -0.28784865 0.2276668 0.29411334 -0.07098913
-0.07181119 0.39202315 0.44629034 -0.08669995 -0.06965063 0.034060612 -0.13912532 -0.044983715
00000000: 72a5 7a3c 1519 11bd a172 c23d 9d33 78bc
00000010: 032e 1fbd d767 3dbe 2450 8a3e c13e d73e
00000020: b254 e23e 4fae e83e b772 5f3e f31a cd3b
00000030: ea2a c63d 5609 b43b cab6 123e 285e 513e
00000040: cc25 ad3e 34ff 5d3e 2015 03bc b895 26bd
00000050: 3a2a 823e 9be1 a43d c682 9f3e 14c3 14be
00000060: 956a 90be 870f 0a3d cf17 423e a92a 423e
00000070: 8e07 32be 6e66 283c bc13 583e 5c24 0b3e
00000080: 1c3c 3e3e fcf0 993e 8036 803e 6d56 f6bd
00000090: c636 97be cd08 06bf ecf5 f0bd 6f8b df3d
000000a0: 7e5e 4f3e abdc 57b8 05fe 8a3d 17ee 153c
000000b0: 1337 4cbd 01c9 ac3d 33ca ad3d b997 283e
000000c0: 3a4c 9fbe ba14 51bd 9921 aabe ba36 b5be
000000d0: 589f f43d 689e 653e ab0e 4a3e ed11 0e3f
000000e0: b615 2d3d 2c65 a13b d724 4b3e d931 bd3e
000000f0: 6403 ae3e 2521 d5bd 6888 1cbe 52c5 6e3d
00000100: 6a53 d8bd 3c4a d5bd 3427 033e fe51 efbd
00000110: cc52 c23e 2999 a3bc e8f9 d63d 823b 603e
00000120: 2130 873c da54 3fbd de4c 2c3e b4e6 363e
00000130: f737 573d de49 12bc 5dda 563d 5607 0a3e
00000140: 3fec 593e e9b0 873d 4df2 843e 82ea 34bd
00000150: b9bd 0cbe 37b3 07bf 8942 d23d 1cc1 983e
00000160: 41b8 ed3c c68f 94be 02aa 0b3d 3813 ad3d
00000170: cc7a d33c 413b 02be 395f 6ebe 9462 73bd
00000180: b61f acbe ffee 8dbe dc37 923d 0595 be3d
00000190: 3923 3e3e ad5c 153e 997a c33e 8e2d 9e3e
000001a0: f009 2fbe 996a 5a3d 7c31 833e b331 673e
000001b0: f9fd 4cbe cdf8 31be 4c26 88be d024 27bd
000001c0: 4556 33bd 9f51 6abc 3632 5a3e 68f9 133f
000001d0: c4e7 813e c659 9f3d 19b0 a83b 9290 143e
000001e0: ddc7 d03d 8532 433d 97bf 91be 7d80 763d
000001f0: fedd b63d bb6f 07be 19fb 493e 416d d23e
00000200: 7e82 733e 861b 3b3e 3e38 08be c2aa 3dbc
00000210: 76d6 073c bfbd e63e ebdd c83e 2d51 7e3e
00000220: a0f8 853d be7c e23c 9457 343e ac8f 583e
00000230: e5ea 103e 8cc4 34bd 37cf 32bd dc01 f03d
00000240: 4273 213e 2f07 783e f8cf d93d 7cd5 76be
00000250: 3e3a 3e3f 731d 483e 0297 3cbe d0e0 033e
00000260: f105 743e edd3 5f3e a078 243d 2816 b33a
00000270: b3de 433e 90cf 2d3e 14f8 813e ac0f 353e
00000280: 8bbd e93d 2f8b 183e 03b2 8a3e 836a 693e
00000290: 6c57 0e3f f7df 893e a507 9ebd 10b1 7dbc
000002a0: a95a af3d 8de4 6fbd 8ad7 43bd 3b64 acbc
000002b0: b245 3d3b 2a3b 6c3e a58e e93d b358 3b3c
000002c0: 50de d0bd 13f9 d6bd 4d71 49be cff6 0a3f
000002d0: 4ac4 5cbd 146b f0bb 0dd3 603d b774 be3c
000002e0: fddd 5d3d aa41 133d 5ecb 803e c874 a53e
000002f0: d056 0fbe ff3b 0cbf ad67 fabe 5a98 d7be
00000300: 6814 bc3d c0e4 203e 0edf f93d 8a18 acbc
00000310: 036f 5e3d e4f2 ac3e 9134 e33e e1b5 e83e
00000320: 8002 d7bd 60a6 ddbe 4fef 49bf a376 50bf
00000330: 50f8 8abe e742 e6bd 319b 2a3e 3e90 823e
00000340: e3ab 28bd a182 a4be 19f3 c33e d366 2f3f
00000350: 3f50 613e e4f4 06bf e40b 23bf 473c 41bf
00000360: 35d0 cebe e6c4 4ebe f9d3 693e 0160 853d
00000370: e795 623e 7363 24be d3b9 203c c936 903e
00000380: 11b6 103f efc9 bbbe b116 1dbf 157b 3abf
00000390: 2acc 87be 2144 d33e 2970 0b3f 704d 953e
000003a0: 70a1 96be e617 833e 8d53 1ebe 78ea 38be
000003b0: 0605 c23e 6c13 223f a072 86be aa68 e1be
000003c0: d5be 193b b505 68bd 0d62 f73e b9a9 e8bd
000003d0: e660 93be 7c21 693e 0696 963e c062 91bd
000003e0: bf11 93bd 42b7 c83e 2b80 e43e be8f b1bd
000003f0: fda4 8ebd 2483 0b3d de76 0ebe d840 38bd

bias f4 [5]
0.20181057 0.038746696 -0.2612422 0.40118423 -0.10451048
00000000: 6ea7 4e3e dbb4 1e3d 8ac1 85be 0568 cd3e
00000010: 9709 d6bd

weight f4 [10, 5]
-0.041425534 -0.6791692 -0.047542747 0.37041816 -0.33951208 0.09178621 -0.5563272 -0.7879984
0.6727994 -0.66158897 0.53735894 0.63800013 0.22976038 0.776573 0.51756793 -0.3197526
0.22561298 -0.41679254 -0.13522518 0.012542505 -0.4439117 0.06800393 -0.21746902 -0.18162794
0.08430146 -0.23557532 0.27862546 -0.66089237 -0.07914415 -0.31524158 0.78425926 0.28031287
0.5233717 0.105183125 0.5858015 -0.13757202 0.10441819 -0.20774215 -0.34219757 -0.048371162
0.4613109 -0.58564436 -0.72219193 0.53823996 -0.3732794 0.5595287 -0.7437684 -0.69370955
0.37049878 -0.33962706
00000000: d2ad 29bd 08de 2dbf 2fbc 42bd 73a7 bd3e
00000010: 87d4 adbe 69fa bb3d 766b 0ebf 43ba 49bf
00000020: 953c 2c3f e55d 29bf 5b90 093f fa53 233f
00000030: 4e46 6b3e 7dcd 463f 557f 043f 9db6 a3be
00000040: 1707 673e d565 d5be 7878 0abe 147f 4d3c
00000050: 6548 e3be a545 8b3d 33b0 5ebe adfc 39be
00000060: 3ea6 ac3d a83a 71be ffa7 8e3e 3e30 29bf
00000070: 5416 a2bd 5867 a1be 37c5 483f 2b85 8f3e
00000080: b0fb 053f 406a d73d 16f7 153f aedf 0cbe
00000090: 34d9 d53d 5cba 54be 8534 afbe d720 46bd
000000a0: f130 ec3e caec 15bf 92e1 38bf 18ca 093f
000000b0: 7a1e bfbe 463d 0f3f 9b67 3ebf f396 31bf
000000c0: 04b2 bd3e 99e3 adbe

bias f4 [10]
0.13283572 0.8287224 0.09769579 -0.08168819 -0.08358806 0.49556473 -0.05378461 -0.018599762
0.3235499 0.4319121
00000000: 1606 083e 2727 543f bb14 c83d 234c a7bd
00000010: 3830 abbd a9ba fd3e 404d 5cbd 875e 98bc
00000020: 55a8 a53e 9523 dd3e

weight f4 [10, 10]
0.40743688 0.72135466 0.35497534 0.2239323 -0.052347492 0.4105494 0.26493984 0.08428258
0.5742041 0.60759765 -0.1666634 0.058877736 0.6969041 0.28519642 -0.17057797 0.08999709
0.66259634 0.0090590725 -0.026813753 -0.275967 0.04158633 -0.54540265 -0.7045572 -0.015276637
-0.11206733 -0.3424477 -0.13526756 -0.15831639 -0.47450924 -0.60380924 -0.41305748 -0.5665581
-0.60939384 -0.18668345 -0.31445238 0.065309055 -0.19678634 0.11991194 -0.6507636 -0.3880688
-0.26416886 -0.24980667 -0.5807597 -0.05698005 -0.22512348 -0.20322193 -0.5878185 0.08984025
-0.6100425 -0.29693118 -0.14305416 -0.16625206 -0.43147895 -0.08814414 -0.1148493 0.12139641
-0.57533544 0.040074516 -0.4362483 -0.41285667 0.08970907 -0.09097075 -0.7193293 -0.029452099
-0.19931401 -0.47376752 -0.45171595 0.050042998 -0.42699245 -0.40410137 0.0016095142 -0.30826226
-0.55999917 -0.25933084 -0.01956645 0.02930163 -0.1632616 0.28217643 -0.33325362 -0.5641345
-0.16512111 -0.34863994 -0.67725945 0.08416485 0.10988334 -0.12093949 -0.2338064 0.002221275
-0.12520759 -0.4567488 -0.3288285 -0.31601813 -0.58827657 0.06965588 -0.32455736 0.09834612
-0.66489714 0.072157964 -0.1924321 -0.092485465
00000000: 919b d03e b3aa 383f 54bf b53e 824e 653e
00000010: 536a 56bd 8833 d23e 32a6 873e 589c ac3d
00000020: 0aff 123f 858b 1b3f cfa9 2abe c829 713d
00000030: 4f68 323f 4405 923e feab 2ebe 6550 b83d
00000040: ea9f 293f 816c 143c 84a8 dbbc 8c4b 8dbe
00000050: 6d56 2a3d 829f 0bbf dc5d 34bf dc4a 7abc
00000060: 8e83 e5bd 4e55 afbe 9483 0abe b11d 22be
00000070: e0f2 f2be 3e93 1abf 457c d3be f409 11bf
00000080: 3c01 1cbf f229 3fbe e7ff a0be c1c0 853d
00000090: 5c82 49be 6494 f53d 7198 26bf f4b0 c6be
000000a0: 2441 87be 52cd 7fbe abac 14bf ea63 69bd
000000b0: c586 66be 6919 50be 467b 16bf 2afe b73d
000000c0: bf2b 1cbf 5d07 98be ca7c 12be fb3d 2abe
000000d0: cfea dcbe ea84 b4bd 1c36 ebbd ae9e f83d
000000e0: 2f49 13bf 2d25 243d f05b dfbe f361 d3be
000000f0: 64b9 b73d df4e babd f725 38bf 8745 f1bc
00000100: f918 4cbe a891 f2be 5047 e7be e3f9 4c3d
00000110: c19e dabe 60e6 cebe 56f6 d23a 8dd4 9dbe
00000120: 1b5c 0fbf 03c7 84be d249 a0bc f909 f03c
00000130: 0d2e 27be 6e79 903e 38a0 aabe 1e6b 10bf
00000140: 8215 29be ef80 b2be e060 2dbf 9f5e ac3d
00000150: 840a e13d 20af f7bd f26a 6fbe cf92 113b
00000160: 6b36 00be fbda e9be 365c a8be 21cd a1be
00000170: 4b99 16bf bea7 8e3d 622c a6be b169 c93d
00000180: b336 2abf 8ec7 933d ec0c 45be 0569 bdbd

bias f4 [10]
0.27997816 0.13797404 -0.28529412 -0.16735202 -0.35170016 -0.59591657 -0.13634919 -0.110987045
-0.3534369 -0.111472294
00000000: 4c59 8f3e 1149 0d3e 1212 92be 545e 2bbe
00000010: 0b12 b4be fd8d 18bf 1f9f 0bbe 2d4d e3bd
00000020: aef5 b4be 964b e4bd

weight f4 [1, 1, 3, 3]
-0.6649615 0.8049569 -0.06747397 0.10173041 0.7377152 -0.52624565 0.5555902 -0.21229059
-0.20965955
00000000: eb3a 2abf a811 4e3f cb2f 8abd 0858 d03d
00000010: e7da 3c3f 09b8 06bf 293b 0e3f b462 59be
00000020: feb0 56be

weight f4 [5, 169]
-0.06910428 -0.13510042 -0.12334776 -0.16756219 -0.059865672 -0.043106284 -0.09693404 -0.030774733
-0.1544742 -0.08706968 -0.15190412 -0.10266292 -0.13967586 -0.17372468 -0.12916912 -0.048124928
-0.025173873 -0.0552943 -0.12295834 -0.15170738 -0.04090055 -0.08932554 -0.029827716 -0.16266888
-0.15665647 -0.12673512 -0.08167788 -0.16624862 -0.025169082 -0.09874148 -0.068136185 -0.041156553
-0.075110234 -0.1391306 -0.09075943 -0.17027636 -0.1491211 -0.06768709 -0.08375788 -0.055474598
-0.16837704 -0.02950216 -0.14342365 -0.09982717 -0.07065785 -0.03731407 -0.16109827 -0.124511346
-0.13954695 -0.10318698 -0.15295546 -0.086540624 -0.039914098 -0.114704855 -0.10293912 -0.17492883
-0.14174497 -0.026874028 -0.07055982 -0.13089462 -0.051199574 -0.17323779 -0.12867552 -0.026791936
-0.11885394 -0.095649056 -0.037871882 -0.051851433 -0.10188936 -0.13277707 -0.031748947 -0.05336313
-0.1346605 -0.0797861 -0.040963914 -0.09316695 -0.051355347 -0.07415219 -0.13835111 -0.07769241
-0.090084024 -0.16265535 -0.10928931 -0.044572975 -0.14187422 -0.09924229 -0.03200371 -0.05631365
-0.16220188 -0.121627085 -0.17346278 -0.11549632 -0.06838548 -0.055461936 -0.055104878 -0.056471076
-0.1358739 -0.09310802 -0.041345246 -0.08899648 -0.12980682 -0.038884107 -0.09160641 -0.15013078
-0.038193114 -0.12677443 -0.040063098 -0.1713638 -0.057848778 -0.118741535 -0.1111127 -0.08217176
-0.08934445 -0.16006748 -0.0288102 -0.061445635 -0.08274452 -0.16679054 -0.0989329 -0.0270627
-0.034428306 -0.034536477 -0.07883004 -0.1385424 -0.0469618 -0.13634796 -0.14291243 -0.058007084
-0.15253465 -0.046609633 -0.14057404 -0.16238864 -0.023428328 -0.0852379 -0.056221556 -0.12733836
-0.14919208 -0.06437756 -0.1340146 -0.10306371 -0.040338118 -0.08648509 -0.06678689 -0.1549701
-0.14085506 -0.10795553 -0.104179874 -0.091536306 -0.14430411 -0.14572524 -0.16979899 -0.1303545
-0.07250088 -0.114332676 -0.17014387 -0.026920563 -0.091843404 -0.08045207 -0.0872886 -0.13340357
-0.04783169 -0.1185253 -0.112301074 -0.026720947 -0.15739451 -0.092061274 -0.04064489 -0.12034302
-0.16836709 -0.049657837 -0.04289015 -0.13113472 -0.023962958 -0.1496516 -0.115272574 -0.11569877
-0.079668626 -0.058189105 -0.056948878 -0.13649708 -0.16994229 -0.1758069 -0.030113356 -0.0685068
-0.10317391 -0.15746103 -0.046109747 -0.1530932 -0.051140886 -0.14719822 -0.16406834 -0.13494109
-0.15061945 -0.17099965 -0.14654301 -0.16739306 -0.073795505 -0.15458854 -0.12796704 -0.11953863
-0.03949967 -0.0684893 -0.17622411 -0.08166516 -0.05912386 -0.037903786 -0.07930666 -0.086604476
-0.12638256 -0.05612426 -0.0288578 -0.13922621 -0.1506255 -0.053944718 -0.0435883 -0.089225195
-0.15731107 -0.1266546 -0.08388191 -0.028016638 -0.15030211 -0.12304253 -0.058362618 -0.06712443
-0.11648519 -0.060638398 -0.09139343 -0.066842675 -0.036454506 -0.07206502 -0.09389665 -0.15007846
-0.026502524 -0.16963732 -0.07400703 -0.07485145 -0.0601883 -0.13034022 -0.08871502 -0.13125187
-0.09220279 -0.107604384 -0.08559744 -0.05342427 -0.139065 -0.06813396 -0.09508467 -0.033791043
-0.13116805 -0.083421595 -0.17627177 -0.028174583 -0.17303364 -0.10287738 -0.06402784 -0.08679137
00000000: 8b86 8dbd c457 0abe c09d fcbd 6c95 2bbe
00000010: b535 75bd 3790 30bd 5b85 c6bd 4b1b fcbc
00000020: 7c2e 1ebe 9751 b2bd c18c 1bbe f040 d2bd
00000030: 3007 0fbe e2e4 31be e944 04be a51e 45bd
00000040: 7039 cebc 477c 62bd 95d1 fbbd 2e59 1bbe
00000050: 5687 27bd 4ff0 b6bd 4159 f4bc ac92 26be
00000060: 8e6a 20be dac6 01be bb46 a7bd 143d 2abe
00000070: 642f cebc f938 cabd fc8a 8bbd c693 28bd
00000080: 65d3 99bd 4178 0ebe 14e0 b9bd ed5c 2ebe
00000090: 34b3 18be 879f 8abd 4089 abbd 5539 63bd
000000a0: 086b 2cbe 84ae f1bc a6dd 12be 3072 ccbd
000000b0: 10b5 90bd a3d6 18bd f2f6 24be ceff febd
000000c0: 65e5 0ebe b253 d3bd 5ba0 1cbe 363c b1bd
000000d0: f77c 23bd 61ea eabd bfd1 d2bd 8b20 33be
000000e0: 9825 11be ec26 dcbc ab81 90bd 3d09 06be
000000f0: a5b6 51bd 3f65 31be 84c3 03be c37a dbbc
00000100: b269 f3bd a7e3 c3bd 8c1f 1bbd 2b62 54bd
00000110: 5eab d0bd b6f6 07be 2f0b 02bd 4c93 5abd
00000120: 71e4 09be e566 a3bd c7c9 27bd 50ce bebd
00000130: fc59 52bd 1add 97bd eaab 0dbe 331d 9fbd
00000140: f97d b8bd 208f 26be 13d3 dfbd 2792 36bd
00000150: 7a47 11be 8b3f cbbd 5216 03bd 24a9 66bd
00000160: 4018 26be 9f17 f9bd 3aa0 31be 5689 ecbd
00000170: b00d 8cbd 0e2c 63bd a7b5 61bd 374e 67bd
00000180: 8722 0bbe 6baf bebd a259 29bd c943 b6bd
00000190: 14ec 04be f144 1fbd 249c bbbd e2bb 19be
000001a0: 6270 1cbd 28d1 01be 3419 24bd fe79 2fbe
000001b0: d7f2 6cbd c32e f3bd 0e8f e3bd ab49 a8bd
000001c0: 39fa b6bd bbe8 23be 5e03 ecbc 6bae 7bbd
000001d0: f575 a9bd 24cb 2abe 559d cabd 98b2 ddbc
000001e0: b204 0dbd 1f76 0dbd a571 a1bd 0fde 0dbe
000001f0: 045b 40bd cd9e 0bbe a357 12be d698 6dbd
00000200: 0b32 1cbe bee9 3ebd a4f2 0fbe 3549 26be
00000210: c4ec bfbc 3591 aebd 9348 66bd fd64 02be
00000220: cfc5 18be 62d8 83bd 203b 09be 1113 d3bd
00000230: 9539 25bd 181f b1bd 91c7 88bd 7bb0 1ebe
00000240: 4f3c 10be ca17 ddbd 425c d5bd 6377 bbbd
00000250: 75c4 13be ff38 15be c9df 2dbe a67b 05be
00000260: 577b 94bd 4027 eabd 323a 2ebe 8388 dcbc
00000270: 6518 bcbd 0ec4 a4bd 5ec4 b2bd f29a 08be
00000280: 2aeb 43bd 64bd f2bd 1bfe e5bd e3e5 dabc
00000290: 072c 21be 9f8a bcbd 427b 26bd 6776 f6bd
000002a0: 6c68 2cbe 0466 4bbd 95ad 2fbd 2e48 06be
000002b0: f74d c4bc 453e 19be 0714 ecbd 7af3 ecbd
000002c0: 4e29 a3bd b357 6ebd 3a43 69bd e4c5 0bbe
000002d0: 5a05 2ebe b906 34be 49b0 f6bc 4b4d 8cbd
000002e0: d84c d3bd 773d 21be 93dd 3cbd 77c4 1cbe
000002f0: 1b79 51bd 21bb 16be 8801 28be ff2d 0abe
00000300: fc3b 1abe 881a 2fbe 5f0f 16be 1669 2bbe
00000310: 1922 97bd 754c 1ebe cb09 03be abd0 f4bd
00000320: 68ca 21bd 1e44 8cbd 1874 34be 1040 a7bd
00000330: dc2b 72bd 0041 1bbd 886b a2bd b05d b1bd
00000340: 6e6a 01be 8de2 65bd 3167 ecbc 5191 0ebe
00000350: 923d 1abe 23f5 5cbd a589 32bd b3bb b6bd
00000360: 2716 21be beb1 01be 47ca abbd 2683 e5bc
00000370: cce8 19be b9fd fbbd a40d 6fbd 8878 89bd
00000380: ca8f eebd f85f 78bd 7b2c bbbd d0e4 88bd
00000390: 5251 15bd d396 93bd e34c c0bd 2bae 19be
000003a0: d21b d9bc 68b5 2dbe ff90 97bd b84b 99bd
000003b0: 0288 76bd e877 05be 38b0 b5bd e466 06be
000003c0: d1d4 bcbd b05f dcbd b64d afbd 68d3 5abd
000003d0: 0e67 0ebe d189 8bbd c0bb c2bd 7a68 0abd
000003e0: eb50 06be f1d8 aabd 9680 34be 62ce e6bc
000003f0: bb2f 31be 60b1 d2bd 0721 83bd acbf b1bd

bias f4 [5]
-0.053571276 -0.105251685 -0.062986 0.84573144 -0.34078923
00000000: 8e6d 5bbd 328e d7bd cefe 80bd db81 583f
00000010: ed7b aebe
