xai_neurips_2021/models/pre_trained/mnist_pre_trained_10_5_03_12_47_59_68_expert_model.pt (torch, 74751 bytes, 70 tensors)

weight f4 [1, 1, 3, 3]
00000000: 5a71 5e3f 6f7e 893e 124d 38bf 9e2c 723f
00000010: 4459 f1be add5 aa3e a813 c63e 6e29 e1be
00000020: f42c 0b3d
0.8689171 0.26854274 -0.719926 0.9459933 -0.47138417 0.33366147 0.38686872 -0.4397692
0.033978418

weight f4 [5, 169]
00000000: 7abd 0e3d b5d3 84bd ad5c bfbd 4a21 d3bd
00000010: c200 113d 91c1 e5bd ceea cbbd 876a aabd
00000020: fe77 bd3e fbb9 84bb a492 093d 9fe7 ecbc
00000030: 3a19 faba a775 8abd 77e8 d6bd 2209 eb3c
00000040: ee29 303d 880f 683d d400 993d c6a0 5f3e
00000050: fea9 d5be 7ca9 65be be7a e03c 7cf0 70be
00000060: 4084 6bbe cff6 e33d 89fa cdbd 7148 aa3b
00000070: 4914 41bd d85e 74be adaa 0ebf f7b9 6abe
00000080: 3c27 9bbe 42df ef3d 6ff4 e63c a226 95be
00000090: bd9d 90be e3ae b13d ed5b 913e 3f19 54bd
000000a0: d329 eebd 18d4 04bf 5ce8 27bf 897d a0be
000000b0: e267 403d dc74 6ebe 36bc bcbc ac40 60be
000000c0: 09c8 49bd a293 07be 7f12 c63d e47e cc3e
000000d0: ca58 94bb b447 a3be 2ba0 1cbe f66b a73e
000000e0: 874b c03e de9f 2f3f 234f 463e 64f9 21be
000000f0: 8157 65be b7e8 2abc b1a8 11bd 3d20 86bd
00000100: 7c28 eb3e 180b e33c b32a 0cbd 5834 353d
00000110: b350 103f ab3c 2e3f b644 a03e c0ab b53e
00000120: 66d5 073e 0ade 08bf 8f61 19be 4ef9 0c3f
00000130: a11c cb3e 49aa bf3e 4986 e9bd 06c6 9a3a
00000140: 5be5 ae3e e041 633f f6aa e03e 3ed3 9a3e
00000150: 481c 153f f0da e5be 01c4 1abf cf71 8abe
00000160: 835e c73e 6f5b 193f c34e bc3e cc56 32be
00000170: 91ca 78bd edf2 b1bd f280 4f3f 6c40 0f3f
00000180: e0a1 193f b3e7 2c3f 34b8 9bbf 30e6 65be
00000190: 5e29 ddbe a43e d03d c8fd af3e c021 113e
000001a0: 8d35 113d 3bdd e2be 56bc 03be e844 203f
000001b0: 9c9f 713f 03c5 683f 707c 6e3f 5c0c 0dbf
000001c0: cfc5 1439 8eb6 383a b235 65be 4de4 08be
000001d0: 87b4 4abc 1213 e1bd 8881 873d 34d5 00be
000001e0: d5c4 b63e 058d ae3e c5bb 083f c15a 0b3e
000001f0: 12ef 07be 4bc6 623d 425b aebd 1f56 27be
00000200: d992 cbbd 4ba5 f8bd 93f4 e53c 2744 d5bd
00000210: cc5c 0bbe f5a3 33bd 120f d53e a0e0 553e
00000220: f976 85bd 48ee 193e 2f7e 75be 37b9 3b3e
00000230: 304c 0f3a bbdb a0bd 0426 13bd 449b 7abd
00000240: 4056 3e3e 0216 623e ad70 15be a98d a23d
00000250: 7582 873e 1d61 2d3f f15f 013f a41b 883e
00000260: e86e 893e 3217 afbe fc0d efbd b63e f0bc
00000270: e493 3abd 3652 c33c 5446 923d e229 1cbf
00000280: 6520 40bf 5793 4cbf 9941 1abf 562c f3be
00000290: ba1a 4abf 6c21 0a3d dc8a 02bc c4a6 35be
000002a0: b424 363c 7204 9b3d d9d1 debb ca55 88bd
000002b0: e34b 07bc 1c29 6a3d b746 23bd 6f7f 90bd
000002c0: db68 973d 3e20 97bd 00fa 94bd 5c8e 3dbd
000002d0: 7b09 133d beb2 793d 00fa c6bb d2a2 4a3d
000002e0: 3bd5 94bc 6dd7 2f3d ae5f 25bd bb48 273c
000002f0: bb8a 2a3d 3522 12be 0a50 f13c 63c7 ecbb
00000300: e8f5 913d 3ce9 c5bb 5eb1 fbbc 7964 1d3d
00000310: 9920 873c 7921 69bd f25a 2ebd c980 293d
00000320: 1265 cf3c da91 e8bd 899f 5ebc 9317 a7bd
00000330: f421 38bd 5f72 0abe cd15 0cbd e3af 763d
00000340: 8a97 97bd 9436 a53c 14fb 39bc f3f4 95bd
00000350: 3935 0dbe b604 a3bc 5847 09be 8f05 09be
00000360: 6fdf 74bc 4c4c 89bd 8141 01be f7ac 6dbd
00000370: 85df b6bd 77a2 713a dce5 7f3d 7e06 903d
00000380: b24d 913b 842b c3bd e596 43be 55d6 14be
00000390: 46ca 1abe c733 46be c397 cdbd a724 0dbe
000003a0: 822a 9ebd 52ee 35bd 4dda 7dbd 017b f83c
000003b0: 544f 88bc d725 9cbd c885 eebd 6f25 04be
000003c0: 517a 44be 96b8 26be c061 a3bd 1217 08be
000003d0: fa0e 13be 7e6c fcbd 4818 1bbd 0a4c 1ebd
000003e0: 0822 353d 9cf7 54bd 411a 23be 4a1a c7bd
000003f0: 62b5 19be 6c74 f4bd 8e29 62bd 6398 45bc
0.034848668 -0.064856924 -0.093438484 -0.10309084 0.035401113 -0.112185605 -0.09956895 -0.083211
0.3700561 -0.004050491 0.033587113 -0.02891904 -0.0019081004 -0.06760722 -0.10493558 0.028690878
0.043008737 0.056655437 0.07470861 0.21838674 -0.41731256 -0.22427934 0.027402278 -0.23529238
-0.22999668 0.111310594 -0.100575514 0.005196624 -0.047138486 -0.23864305 -0.5572918 -0.22922502
-0.3030337 0.11712505 0.028192727 -0.29131037 -0.28245345 0.08675935 0.28390446 -0.05178189
-0.11629071 -0.5188613 -0.6558893 -0.31345776 0.04697407 -0.23286766 -0.023038965 -0.2189967
-0.049263034 -0.13239911 0.096714966 0.3994056 -0.004527186 -0.31890643 -0.15295474 0.32699555
0.37557623 0.6860331 0.19366126 -0.15817791 -0.22396661 -0.01043146 -0.035561267 -0.06549118
0.45929325 0.02771525 -0.03422041 0.044239372 0.5637314 0.6806132 0.31302422 0.35482597
0.13264999 -0.53463805 -0.14978622 0.5506791 0.3967028 0.37434605 -0.11402566 0.0011808283
0.3415936 0.8877239 0.43880433 0.3023929 0.5824628 -0.448936 -0.6045533 -0.27039954
0.38939294 0.5990514 0.3677884 -0.17415923 -0.060740057 -0.086889125 0.8105613 0.55957675
0.60012627 0.67541045 -1.2165589 -0.22451091 -0.43195623 0.10168198 0.34373307 0.14173031
0.03545146 -0.4430941 -0.12864813 0.6260514 0.9438417 0.90925616 0.93158627 -0.55096984
0.0001418807 0.0007046246 -0.22383764 -0.1336834 -0.012372143 -0.109899655 0.06616503 -0.1258133
0.35697046 0.34091964 0.53411514 0.13608839 -0.13274792 0.05536489 -0.085135 -0.16341446
-0.09940118 -0.12140902 0.028070724 -0.1041339 -0.13609618 -0.043857533 0.4161306 0.20886469
-0.06516833 0.15032303 -0.23973916 0.18332373 0.000546637 -0.0785441 -0.035924926 -0.06118323
0.1858759 0.22078708 -0.14593764 0.07937176 0.26466718 0.6772631 0.5053702 0.26583588
0.26842427 -0.34197384 -0.11672589 -0.029326778 -0.045551196 0.023842912 0.0714232 -0.6100141
-0.7504943 -0.7991232 -0.60256344 -0.47494763 -0.7894703 0.03372328 -0.007967677 -0.17739397
0.011117149 0.07569207 -0.006799918 -0.06656988 -0.008257839 0.05716811 -0.03986236 -0.07055556
0.073930465 -0.073791966 -0.07274246 -0.046278343 0.035897713 0.060961477 -0.006072283 0.049471684
-0.018168082 0.042930055 -0.04037445 0.010210211 0.04163621 -0.14270861 0.02945711 -0.007225917
0.07126981 -0.0060397666 -0.030724224 0.038425896 0.016495036 -0.056916688 -0.0425672 0.041382585
0.025316749 -0.11355944 -0.013587841 -0.08158793 -0.044954255 -0.13520192 -0.03420048 0.060226332
-0.07401951 0.020167626 -0.011351366 -0.07322111 -0.13789834 -0.019899707 -0.13406122 -0.13381027
-0.014945849 -0.067040056 -0.12622644 -0.05802628 -0.08929352 0.00092176296 0.06247507 0.07032488
0.004434311 -0.09529784 -0.1910053 -0.14534886 -0.15116224 -0.19355689 -0.10038712 -0.13783513
-0.077229515 -0.044416733 -0.061975766 0.03033209 -0.01663939 -0.07624405 -0.116466105 -0.12904905
-0.19187285 -0.16281351 -0.07977629 -0.1329005 -0.14361182 -0.12325381 -0.037864953 -0.038646735
0.044221908 -0.05199395 -0.15927984 -0.09721811 -0.15010598 -0.11936268 -0.05521541 -0.012060258

bias f4 [5]
00000000: 230f 42be a8ee 09be c073 0abe d7fc f33e
00000010: 32ba b1bd
-0.18951087 -0.13469946 -0.13520718 0.4765384 -0.08678092

weight f4 [10, 5]
00000000: 9201 3c3f 16fb 96be f422 b83d bc9a d4be
00000010: 1c0f bdbe 6ee4 97be 15a4 01be db27 893d
00000020: 2621 70be 4f1e e63e fb10 0fbf 7a8f afbe
00000030: d277 db3e 5c39 303f c460 373f 3701 88be
00000040: c7db 98bd 8f51 46be 76a3 f6bd 51ac 21bf
00000050: 6634 a53e b4cc 78be 1f46 a43e 4994 7dbe
00000060: a3c0 82be eefe 23bf 81a8 693e c374 9d3c
00000070: 12b0 8fbe 11d1 e7bd d087 24be 3731 243e
00000080: e17e d4be 98ba 05bf 1329 c9be 4419 bebe
00000090: dc3f 84bc 3289 983e cc1a 19be fd69 563e
000000a0: 4e79 413c 3648 dc3e 06e1 9fbe e500 283f
000000b0: f316 943d 01ed 5dbe c56b 703e b3db d1be
000000c0: aa0f f33e cdf7 e33d
0.73439896 -0.29488438 0.08991042 -0.41524303 -0.3692559 -0.29666466 -0.12660249 0.06697055
-0.23450145 0.44945 -0.55885285 -0.3428915 0.42864853 0.68837523 0.7163203 -0.26563427
-0.07463794 -0.1936705 -0.120428964 -0.6315356 0.3226654 -0.24296838 0.32084748 -0.24763598
-0.25537595 -0.64060867 0.22818185 0.019220715 -0.28064018 -0.11319173 -0.16067433 0.16034399
-0.4150305 -0.52237844 -0.3928915 -0.3712865 -0.016143732 0.29792172 -0.14951628 0.20938869
0.011808706 0.43023843 -0.31226367 0.65626365 0.0723094 -0.21672441 0.23478611 -0.4098793
0.47472888 0.111312486

bias f4 [10]
00000000: 4e0b bbbc 1f92 32bf 5d2b 5d3f 5fa9 1ebf
00000010: e2c2 00be eb21 b33d ca46 13be 8d2d 38be
00000020: 7f1d 203f cec8 113e
-0.022832539 -0.69754213 0.8639429 -0.6197719 -0.12574342 0.08746704 -0.14382473 -0.17986126
0.6254501 0.14236757

weight f4 [10, 10]
00000000: d6c5 6c3f 6078 c33e 750f 55be 7103 b03e
00000010: 3a93 d03e 959b 14bd e319 68bd 5f69 ee3d
00000020: c541 103f f074 2fbf 87e7 bbbe dd88 fb3d
00000030: e331 673f d43a 5dbe 06c0 25bf 3033 de3d
00000040: ba7d b0bd 0e39 c5bd 836c 4a3f 2ad9 c53e
00000050: 76a9 dfbe 9687 f4be 9e39 98be cae1 5abe
00000060: 58e3 08c0 482d 67be 8c69 2d3d ac17 2bbd
00000070: 1544 e4be d4d3 37c0 8455 32bf f320 9dbe
00000080: d6db 8ebe 0370 99be c859 c6bf 3aef c0bd
00000090: d7e7 f4bd 145b 193e c39a 3abf d9d9 0cc0
000000a0: 368c 64be 8a3e 37bf f245 80be 45a0 733d
000000b0: b931 1cc0 8210 13be 957e b8be 64c0 0d3e
000000c0: 8780 3fbf a2ae 3fc0 a1e8 21bf 0b8f 8bbe
000000d0: 551b f8be 5c47 3fbd 1ec7 d2bf 9ea1 b7be
000000e0: 41b7 c9be 2549 123c c6b5 f5be 6685 19c0
000000f0: 2a8d 18bf 74d1 2dbf b7f4 0dbf 10d6 9ebe
00000100: 819d e4bf a988 45bd 078b 2abb 3991 1a3e
00000110: f205 11bf 0c55 45c0 6cc6 efbe ba84 f7be
00000120: b3e3 d1be f8b8 00bf a3d9 0ac0 fe90 913c
00000130: 7eb0 f23c e5e5 873e b49f bdbe 0066 35c0
00000140: c411 45bf 8564 23bf 7dd1 42bd a0d9 7cbe
00000150: c8b4 94bf c472 adbe 923c 0a3e aa44 5bbe
00000160: 3006 51bf 0d5d 2ec0 d37a 21bf e129 08bf
00000170: 9208 74be d297 39bc f5d0 ccbf 5aed cbbe
00000180: 751b 923d e931 71be 365f 27bf 7ad9 3bc0
0.92489374 0.38177776 -0.20806678 0.34377626 0.40737325 -0.036281187 -0.056665312 0.11641192
0.56350356 -0.6853781 -0.3670008 0.12281964 0.90310496 -0.21604472 -0.6474613 0.10849607
-0.086177304 -0.09630023 0.79071826 0.38642246 -0.43683976 -0.47759694 -0.29731458 -0.21375194
-2.138876 -0.22575867 0.042336985 -0.041770622 -0.44583192 -2.872304 -0.69661736 -0.306892
-0.27902097 -0.2996827 -1.5496149 -0.09420629 -0.119582824 0.1497615 -0.728924 -2.2007964
-0.22319111 -0.715798 -0.25053364 0.059479017 -2.4405348 -0.14361766 -0.36034074 0.13842922
-0.7480549 -2.9950337 -0.6324559 -0.2725757 -0.48458353 -0.046698913 -1.6467016 -0.35865492
-0.39397624 0.008928572 -0.47990245 -2.398767 -0.595904 -0.67897725 -0.5545153 -0.31022692
-1.7860566 -0.048226032 -0.0026022808 0.1509446 -0.56649697 -3.0833158 -0.4683107 -0.4834345
-0.40994033 -0.5028224 -2.1695335 0.017769333 0.029625174 0.26542583 -0.37035906 -2.8343506
-0.76980233 -0.63825256 -0.047563065 -0.24692392 -1.161767 -0.33876622 0.13499668 -0.21412912
-0.81650066 -2.7244294 -0.6307804 -0.531889 -0.23831394 -0.011327701 -1.6001269 -0.39829522
0.07134143 -0.23554195 -0.65379655 -2.9351487

bias f4 [10]
00000000: 3d48 80bc 5a8c ee3e 0871 b0be d240 23bf
00000010: 1a91 18be 8328 7dbe fc35 aabe 3a59 00bf
00000020: 2be3 1fbf 8163 2ebf
-0.015659446 0.46591455 -0.34461236 -0.6377078 -0.14899102 -0.24722485 -0.33244312 -0.5013615
-0.62456006 -0.6812058

weight f4 [1, 1, 3, 3]
00000000: 60fe 5abb f59d 863e 3baa 80be 6109 fa3e
00000010: 5350 8c3f 2f1d 3b3f 1bb1 a0be cf6d 63bc
00000020: 42da f1be
-0.003341578 0.26292387 -0.25129876 0.4883528 1.0962013 0.73091406 -0.3138512 -0.013881161
-0.4723683

weight f4 [5, 169]
00000000: a8bf 69bc 9c4c 553d 43de 73bd b22a 0c3c
00000010: f9c4 89bd e42c 813d 4061 99bc 8d05 423d
00000020: ae0c 88bd 5ef2 9f3c f6ea 08bd cf19 713c
00000030: fabc 83bd c5b1 dabb 2311 1fbd 4f94 2dbb
00000040: 987e 08be 6d73 42bd 3e6b 14be 2679 24be
00000050: fecf adbd c134 b8bd 723a 29be 282a 82ba
00000060: f992 70bd 6367 9c39 2a98 693d b289 bd3b
00000070: 4962 28be 3605 ffbc 8a5f 4abe d643 afbd
00000080: 8d9b dbbd 6178 26be c72a 07be 8828 ecbd
00000090: 3ed2 013d 6d22 2a3c a8c5 efbc 7458 8fbd
000000a0: 146b 88ba 53c2 08be 72e8 40be 8d53 98bd
000000b0: 6654 19be 219c dabd 4f4f 3abe eebe a9bd
000000c0: 1112 16bd f0ba 2cbe fb95 ab3c e312 3ebc
000000d0: 1e3c 73bd a337 8a3d 0360 4e3d 07a5 ffbd
000000e0: 117d e8bd c7c4 eebd 1542 36be 1083 b2bd
000000f0: e33c 28be 74ff 25be 125c 9bbd dee4 afbc
00000100: 3cf1 b6bc 1926 163d aa13 6bbd e052 0f3d
00000110: a8c6 d03c 86ac a0bd b5ee 45be 59f9 b1bd
00000120: 58d1 58bd 425a ffbd 1070 1fbe 2a2c 473d
00000130: 14c2 a43b c1c9 62bd 59d2 6d3d 3bcf 8abc
00000140: 28d8 d73c 0e2e 973d dd61 e0bd 2c6f cfbd
00000150: 4e1a 53be ed20 35be c887 7fbd ac15 18be
00000160: eeb3 9cbd 458f 3dbd c8c7 0a3d 08b3 66bd
00000170: 5759 42bd 6fe5 8fbd 66e4 abbd b5f7 ccbd
00000180: a0ca cdbd 5035 2cbe 16e8 dfbd f442 fabd
00000190: b2fa ebbd 23a1 b53c 6344 6bbd 00ec 04bd
000001a0: 4557 a1bc cc4e debd 5943 2abd e91d adbd
000001b0: 3b3e abbd 0e2e b9bd 594d 04be f766 07be
000001c0: b30b 19be 6305 c0bd 3888 23be 7406 c4bd
000001d0: ae81 87bd aaec 0cbd 13a8 05be e92f c3bc
000001e0: 25b4 06be 1fbf dabd 6b47 14be 9d1c bbbd
000001f0: 440e 50be e677 e5bd 9f53 ccbd 2d16 7cbd
00000200: 8032 37bd 9e58 85bd 7cda 36bd 1999 0fbe
00000210: 50b6 35bd acf9 2dbe b280 66bd de26 0ebe
00000220: db7b 78bd 69c8 2abe 13b7 1fbe b8a0 34be
00000230: ae50 e0bd 9791 12be ca08 ec3c b426 6c3d
00000240: b212 c13c 4f48 eb3c 6a3a aebd 466e d2bd
00000250: 3938 1bbd 3cec fcbd 1cb7 ffbd 5a13 1bbe
00000260: 7df3 42bd 1b56 13be 7f6f 98bd d280 6abd
00000270: c53c 82bc 3489 61bd 2f22 78bd 3c75 da3c
00000280: 6511 563d 601c 403d 994b 943d 7e1a 2d3d
00000290: e3c2 2dbd d999 16bb 81bf d4bc 9e75 523c
000002a0: 1488 62bc 148b 513d 807e 0f3d 4fa1 363d
000002b0: d461 853d c55e b3b9 a291 edbd 4a1a b0be
000002c0: 7cb0 58be 72d3 a2bd 2bda 90bd 1e6d 61bc
000002d0: 7c06 60bd 5e5f 3abd 997a 893c b72b 523d
000002e0: 7490 b1bd 0cf1 2ebd ab01 36bf f646 963d
000002f0: eb4e bfbe b205 3bbe 13eb 06bf 1a9a 223f
00000300: d015 793f baba dc3e 7737 5ebd d9f6 31bd
00000310: d9cd 973d f389 15be da51 14bf e0d8 2fbf
00000320: 3975 54bf 4a3b 5cbe 2e1b 81be 758e 90bd
00000330: 35e8 1a3e fe96 c53e f90e 0d3f 9aa6 0abe
00000340: 1ec9 86bd 3ca5 bfbd d38f 27be dd0a 10bf
00000350: a16b e7be 2838 bcbe b513 89b9 5647 acbd
00000360: c7f5 49be dfe8 933e f8bb c4bd 6003 cf3e
00000370: 0d67 01bd 8359 1a3e 33c1 01be d9de 71be
00000380: 24e0 babc 36b2 4fbe 80ee 8abe d5a1 e03e
00000390: ff70 073e 0085 a13e 7c95 303e 44fe c8be
000003a0: bde9 b2be 34fe 9c3d 8fc9 e13c 779d 573c
000003b0: 184e 89be 2752 45be be1b 21bf 698a afbe
000003c0: eb63 3c3f 3a39 8c3d 4e5a 3b3e 1dd3 40be
000003d0: f000 133c a78d e1be 0bc4 adbe dcd7 42bd
000003e0: 66e7 26be a17e 4ebd a7a5 b43d 8154 19bf
000003f0: 3e57 883e 6af1 7a3f b6e1 873c 63b2 0a3e
-0.014266886 0.052075014 -0.059538137 0.008555101 -0.06727023 0.0630739 -0.01872313 0.047368575
-0.066430435 0.01952475 -0.0334272 0.014715626 -0.06432529 -0.006674024 -0.038834702 -0.0026486104
-0.13329542 -0.04747336 -0.14494035 -0.1606184 -0.08486937 -0.08994437 -0.16526201 -0.0009930776
-0.058733914 0.00029831668 0.05702988 0.005784237 -0.16443743 -0.031130414 -0.19763008 -0.085578606
-0.10723028 -0.16256858 -0.13199912 -0.11531168 0.031694643 0.010384184 -0.029269055 -0.06999293
-0.0010407888 -0.13355379 -0.18838671 -0.07437811 -0.14973602 -0.106743105 -0.18194316 -0.0828837
-0.036638323 -0.16868186 0.02094554 -0.011601183 -0.059383504 0.06748893 0.050384533 -0.12482648
-0.113519795 -0.11658626 -0.17798646 -0.087164044 -0.16429476 -0.16210729 -0.075859204 -0.021471437
-0.022331826 0.036657427 -0.0573918 0.034991145 0.025485352 -0.07845406 -0.19329341 -0.086901374
-0.05293402 -0.12468387 -0.15570092 0.048626103 0.0050280187 -0.05536819 0.05806193 -0.016944518
0.026348189 0.07381831 -0.10956166 -0.10128626 -0.20615503 -0.17688341 -0.06238535 -0.14852017
-0.07651506 -0.04627921 0.033881932 -0.05632308 -0.047448482 -0.07026183 -0.08393173 -0.10008184
-0.10048413 -0.16817212 -0.10932939 -0.122198015 -0.11522426 0.022171563 -0.057438266 -0.03245163
-0.019694934 -0.10854873 -0.041568134 -0.084529705 -0.08361479 -0.09041987 -0.12920131 -0.13222872
-0.14945869 -0.093760274 -0.15969932 -0.09571543 -0.06616531 -0.034405388 -0.13052396 -0.023826556
-0.13154657 -0.10680985 -0.14480369 -0.09136317 -0.20317942 -0.112045094 -0.09976887 -0.061544586
-0.044725895 -0.06511043 -0.044641957 -0.14023246 -0.04436332 -0.16989774 -0.056275077 -0.13882014
-0.060664993 -0.16678013 -0.15597181 -0.17639434 -0.109528884 -0.1431335 0.028812785 0.057654098
0.023568485 0.028721003 -0.08507235 -0.10274939 -0.037895415 -0.12349746 -0.12486097 -0.15144101
-0.04759549 -0.14388315 -0.07443141 -0.05725176 -0.015898118 -0.055062488 -0.060579475 0.02666723
0.052262682 0.04690206 0.072409816 0.042261593 -0.042422187 -0.0022979884 -0.025970222 0.012845425
-0.013826389 0.051158026 0.03503275 0.04458743 0.065128 -0.0003421215 -0.11600043 -0.34395057
-0.21161073 -0.07950486 -0.07072862 -0.013758926 -0.054693684 -0.045501105 0.016782092 0.05131122
-0.0867013 -0.04271035 -0.71096295 0.073377535 -0.37364897 -0.18263891 -0.52702445 0.6351639
0.9729891 0.4311121 -0.054252114 -0.043448303 0.07412309 -0.14603405 -0.57937396 -0.686903
-0.8299137 -0.21506992 -0.2521605 -0.070584215 0.15127642 0.3859176 0.5510097 -0.13540116
-0.06581329 -0.09357688 -0.16363458 -0.56266576 -0.45199302 -0.36761594 -0.0002614536 -0.08412044
-0.19722663 0.28888604 -0.09606165 0.40432262 -0.031592418 0.15073209 -0.12671356 -0.23620166
-0.022811957 -0.20282826 -0.27135086 0.43873468 0.13226698 0.31546783 0.17244524 -0.3925649
-0.34943953 0.07665673 0.027561931 0.013160101 -0.26817393 -0.1926962 -0.62932956 -0.34285286
0.7358996 0.068468526 0.18296167 -0.18830533 0.0089723915 -0.44053385 -0.3393863 -0.04756914
-0.16299209 -0.05041373 0.08820658 -0.5989457 0.2662906 0.9802462 0.01658712 0.13544612

bias f4 [5]
00000000: 1c13 96bd 70fd 003e 60b3 5e3d 9890 ad3e
00000010: 71e0 b1bd
-0.073278636 0.12596679 0.054370284 0.3389938 -0.08685387

weight f4 [10, 5]
00000000: 5296 b23d 3169 893f b273 a8be 689a 4b3f
00000010: 6e89 343e 2954 8e3e 7f3d 81be bdc6 2dbd
00000020: e8fd 29bd 62ca c63e 0d30 c9be 4502 0dbf
00000030: b04e 0e3f aefe 1abf 57c3 833e cc0d bcbe
00000040: 4cc2 39be 9032 28be 6732 96be 6f34 e0bd
00000050: 1e73 72bd 3531 133f e837 843c def0 033f
00000060: 4ccc 75be 37f8 5d3e 98f2 b4be 11e3 91bb
00000070: 77c9 b5be 116c 8d3e d6a3 5e3e 6e1b 6a3d
00000080: ef4e 73be aadc ccbe 2dd9 3ebe 6622 8bbd
00000090: 0741 07bf 6931 0c3f bc46 f6be 467c 90be
000000a0: 3edc 493e 36bf 3cbf 177d 2d3f e948 e1be
000000b0: e22f cdbe 18bb fbbd aa97 23bd c9b0 5d3e
000000c0: 75a8 ba3e bd80 99bd
0.087200776 1.0735227 -0.3290077 0.7953248 0.1763055 0.27798584 -0.2524223 -0.04242586
-0.04150191 0.3882628 -0.39294472 -0.5508159 0.5558882 -0.6054486 0.2573497 -0.36729276
-0.18140525 -0.16425538 -0.2933533 -0.10947501 -0.059191816 0.5749696 0.01613994 0.5153941
-0.24003714 0.21676718 -0.35341334 -0.0044521173 -0.35505268 0.2762151 0.21742186 0.057155065
-0.2376058 -0.40012103 -0.18637533 -0.0679367 -0.528336 0.54762894 -0.4810084 -0.28219813
0.19712922 -0.73729265 0.67768997 -0.4400094 -0.40075594 -0.12291545 -0.03993956 0.2164947
0.36456648 -0.07495258

bias f4 [10]
00000000: 3a99 023f 22a2 8bbe 4144 e33e 702f f63e
00000010: 7ddc a43e 754b 80bd 10ff 4bbf 11df 0e3f
00000020: 25be 333e 8da4 1e3f
0.51015055 -0.27272135 0.4438801 0.48083067 0.3219947 -0.06264392 -0.7968607 0.5580912
0.17553003 0.61969835

weight f4 [10, 10]
00000000: 9dbe 803f 2448 2bbc 96b2 703e 0a57 f53e
00000010: 7f0b 3d3f e5df e13d 1935 eabe 249f 9d3b
00000020: 831a e73d 2415 533f 9cc4 d4be c8f2 17bd
00000030: f4df 4b3f 7c8e 82be 7124 1a3f 715c 853e
00000040: 48b9 0a3e 2e51 3f3f 06e6 2b3f 16c1 503f
00000050: 5fef 9ebe 6f71 afbc 1c17 51bf 662c 57bf
00000060: e3f5 62bf b56a fcbe 52a9 0fbf 272c 30bf
00000070: 1e32 5cbf d0a6 8abf aaf3 1ebf 496b 00be
00000080: 6ab9 1dbf aba1 37bf 8f0c 64bf 2601 bebe
00000090: 4468 60be d753 65bf c1c7 31bf 14e7 a0bf
000000a0: 8c10 afbe acad b8bd b80b 29bf 1ae9 2ebf
000000b0: ab81 aebf 327a 96be a07d 1abf b590 f8be
000000c0: c8b6 14bf c5ab 7bbf b0b2 e2be 7fea e73d
000000d0: 1185 29bf 2814 aebe 2e87 8cbf ca99 20bf
000000e0: fe2e 36bf 145e f0be ce7f 4abf 6ddb 52bf
000000f0: 651a 7dbe b2ed e63d 0b53 45bf 652f 1bbf
00000100: 6834 8ebf 93d8 bfbd 0bce a1be d3d3 fabe
00000110: 5dc3 a0be 75b5 99bf 8e1f 45bf 0530 3bbe
00000120: ab91 09bf f95e 1abf c66f 3ebf 6809 8cbe
00000130: 8e4b c4be 4b9f 6dbf fb82 afbe 1246 75bf
00000140: 7bf1 29bf 2283 8f3e 73a0 1abf b08b 4dbf
00000150: e64b 6bbf fe8f 10bf 3930 22bf 3407 70bf
00000160: bde7 3fbf 80fd 46bf a8f2 cdbe 8dec 863d
00000170: a3ce 7ebf 465d 04bf 0b14 82bf 6f9f bbbd
00000180: b456 e5be 2130 c8be 0d60 23bf 3ee7 82bf
1.005817 -0.010454211 0.23505625 0.47917968 0.73845667 0.110290326 -0.45743635 0.004810231
0.112843536 0.82454133 -0.4155625 -0.03709677 0.796386 -0.25499332 0.60211855 0.2604709
0.13547242 0.74733245 0.6714786 0.81544626 -0.31042 -0.021416394 -0.8167589 -0.8405212
-0.88656443 -0.4930016 -0.5611774 -0.6881737 -0.8601397 -1.0832157 -0.6209055 -0.12540926
-0.61611044 -0.7173106 -0.8908166 -0.3711025 -0.21914774 -0.89581054 -0.69445425 -1.257052
-0.34192312 -0.090175 -0.66033506 -0.68324435 -1.3633322 -0.29390103 -0.6034794 -0.48547903
-0.580914 -0.98308975 -0.44276953 0.113240235 -0.6621867 -0.33999753 -1.0978754 -0.62734663
-0.71165454 -0.46946776 -0.79101264 -0.8236607 -0.247171 0.112758055 -0.7707984 -0.60619193
-1.1109743 -0.0936748 -0.3160251 -0.48989734 -0.3139905 -1.2008501 -0.77001274 -0.18280037
-0.53737897 -0.60301167 -0.743893 -0.27350926 -0.38338894 -0.92821187 -0.34279618 -0.95810044
-0.66384095 0.28029734 -0.60401076 -0.8029127 -0.91912687 -0.56469715 -0.6335483 -0.9376099
-0.7496298 -0.7773056 -0.40224195 0.06588087 -0.9953405 -0.51704824 -1.0162367 -0.09161269
-0.44792712 -0.3909922 -0.63818437 -1.022682

bias f4 [10]
00000000: 429a 323f 6664 3f3e cdcd c3be 7c8f dabe
00000010: 71e4 a2be b65f 52bf adad c0be 11fb 35bf
00000020: 16e7 3dbf 1942 5dbf
0.6976663 0.18690643 -0.3824295 -0.42687595 -0.31814912 -0.82177293 -0.37632504 -0.7108622
-0.74180734 -0.8642898

weight f4 [1, 1, 3, 3]
00000000: fba5 413f 274e 573f 6ad1 a93d d7db e6be
00000010: e27c 863e 7c78 063f a9b0 d3be 66f7 c2be
00000020: 6005 903e
0.7564389 0.84103626 0.08291896 -0.450896 0.26267153 0.52527595 -0.41345719 -0.38079375
0.281291

weight f4 [5, 169]
00000000: 61c2 21be 7bcf e2bd 6bb5 04be d799 11be
00000010: a2cd 25be 5bd5 84bd 0a79 29be 311e d2bc
00000020: ec90 eabd 89f2 c5bd 7963 2fbe f316 18be
00000030: 853f d7bc 86c5 b3bd b9ea babd 026a 05be
00000040: a4a4 2dbe 5175 f1bd d880 d2bd cef3 10be
00000050: 7951 6fbd e01f 2fbe 8e72 e0bd ef1a c1bd
00000060: 9c30 71bd 68ee b4bd a017 29be fdfc 2fbe
00000070: 7d4c 18be 04dd 0a3e ed85 8ebd f98b 46bd
00000080: fecd a1bd d864 49bd dc39 ddbd 18f6 84bd
00000090: 5826 d33d de23 fdbd 654f 16be d3ba f0bc
000000a0: 0f1f dfbd f733 8fbd f7ca 243e aa86 00be
000000b0: ca67 18be 46a1 18be 3267 d1bd 1eba 85bd
000000c0: 2320 03be ba40 6cbd b22b 01be ebb1 dabd
000000d0: 8cf2 54bd a0aa 2fbe 01d2 393d f682 2e3e
000000e0: a628 0fbe 0750 21be 4dd0 2bbe f31c 9bbd
000000f0: c126 59bd 9a53 b6bd 66d5 1bbe 92f6 24be
00000100: ee44 abbd 9118 04be 113a ebbd b869 0b3e
00000110: 31a4 fdbd 525b cdbc cd1f 8dbd c3cc 13be
00000120: 06f1 0cbe 777f dcbc 897d 26be 21c1 01be
00000130: f754 f4bd 3001 a4bd fc1b 01be 9c99 18bd
00000140: 69bb 343e 9b3b 03be aeee a3bd a2d0 05be
00000150: 16b6 82bd 703e fabd 3bc5 2cbe e409 a43d
00000160: b926 87bd 04be 22bd 914a 8ebd 6961 86bd
00000170: 38da a2bd 861e 433d fb76 09be aaa8 1abe
00000180: 05e8 ffbd b4d6 23be 8a3e 14bd bee7 febd
00000190: 078b debd efe2 30be c62e 9bbd 3e4e 1bbe
000001a0: 6fec ccbd 83dc 6bbd 8265 3e3d 5af8 5e3d
000001b0: d74c 65bd 7315 06be 34b9 0bbe 7050 08bd
000001c0: 4967 acbd 965e 04be 88d7 f3bd 2acd c1bd
000001d0: cc14 09bd 2938 c8bc a2b1 59bd 080e 5c3d
000001e0: 46f7 333e a333 8bbd 42d5 b1bd ce84 02be
000001f0: 7c2f 15be 1895 7f3d 5761 933d e20e 1bbe
00000200: 05c5 26be 0258 75bd 893b 26be f580 2fbe
00000210: 257b 84bd a8fb a5bd 5ce6 a1bd 8015 d3bd
00000220: 1614 18bd 961f 19be 7500 193e 6340 d03d
00000230: 3bdb 25be f2e8 1ebe 06ab 24be 39c2 92bd
00000240: 81c9 0dbe fa89 19bd 8074 09be 70b2 02bd
00000250: b8a5 ccbd 9e09 06be 6818 99bd 3b32 d33c
00000260: 85d5 0b3e 9413 c1bd f306 8fbd 6e05 8ebd
00000270: de1f 09be 109e 08be 039f 04be bcf2 38bd
00000280: 1658 24bd e41a f3bd b08b 96bd 56cc e3bd
00000290: bacc 253e 776c 383d 59a9 e6bd 8c39 17be
000002a0: d4d1 f3bd 74cc 8b3e 73d6 873e 958d 5b3e
000002b0: 03c9 693e e5f4 4d3e 9a5c 5a3e eb03 6a3e
000002c0: 30b0 993e 4b67 af3e a095 7d3e 7099 5d3e
000002d0: 3f8a 923e f25d 753e 2060 a73e a6a3 593e
000002e0: 76be b13e 5c08 a83e 33ee 873e 976f b63e
000002f0: b310 e13e 9c64 8c3e 0879 b53e da62 973e
00000300: e5bb 763e b9d7 923e ec95 5e3e 4d51 943e
00000310: 7a9f 073f bd52 2e3f c085 2c3f 4102 0f3f
00000320: c3fb e6bd 58c2 853b be3b 71bd 94c5 c43f
00000330: f2f6 9b3f ab12 5d3f 6f35 b13e 28b0 753e
00000340: acec 873e b10a 033f 0ef6 9f3e 361c 42be
00000350: 982d a63e bbc4 62be bbc3 03bf ac81 93be
00000360: 6e2d e9bd 50b0 033e 4b39 a3be c583 453f
00000370: e6d2 f73e 0518 b43d cad1 d1be 8b72 43bf
00000380: 2b50 74bf f431 1d3e 895b e6be 0a44 7cbe
00000390: c2d9 9bbe becb 29be 7d74 b63e 9fac 1e3e
000003a0: 3bf2 15bf b38a e13e fba3 45be 833c 96bf
000003b0: f524 50bf 9404 24bf eae8 65be ae61 943e
000003c0: ac4f 20bf b9e5 503d 4dac 33be 5885 4fbf
000003d0: be37 56bf c7e0 9abe 1a15 803e a74d 65bd
000003e0: ae78 82be 205e 42bb 5e90 633f b39b ad3e
000003f0: f0ff 8a3e 01d6 823e 9959 893e ca98 98be
-0.15796806 -0.1107473 -0.1295983 -0.14218841 -0.16191724 -0.06486007 -0.16550079 -0.025649162
-0.11453423 -0.096654005 -0.1712779 -0.14852504 -0.026275406 -0.08777909 -0.09126801 -0.1302872
-0.16957337 -0.117899545 -0.10278481 -0.14155504 -0.058427308 -0.17102003 -0.109593496 -0.09428965
-0.05888425 -0.08834535 -0.16512918 -0.17186351 -0.14872928 0.13560873 -0.06959138 -0.048473332
-0.07900618 -0.049168438 -0.108020514 -0.06492251 0.10310048 -0.12360357 -0.14678724 -0.02938596
-0.10894596 -0.069923334 0.1609305 -0.1255137 -0.14883342 -0.14905271 -0.10224761 -0.0652964
-0.12805228 -0.057678916 -0.12614325 -0.106784664 -0.051989123 -0.17154932 0.04536629 0.17042145
-0.1398035 -0.15753184 -0.16778679 -0.07573881 -0.053015474 -0.089026645 -0.15218124 -0.16109684
-0.08362757 -0.12899996 -0.11485685 0.13614547 -0.12384833 -0.025067959 -0.06890831 -0.14433579
-0.13763818 -0.026916249 -0.16258825 -0.12671329 -0.11930268 -0.08008039 -0.12608331 -0.03725587
0.17649616 -0.12815706 -0.08004509 -0.13067868 -0.063823864 -0.1221894 -0.16872112 0.08009699
-0.06599183 -0.039731994 -0.06947816 -0.06561548 -0.07951778 0.04763653 -0.13424294 -0.15103403
-0.12495426 -0.15999871 -0.036192454 -0.12446545 -0.10866361 -0.17274068 -0.07577281 -0.15166566
-0.10006034 -0.057583343 0.046483524 0.054436065 -0.055981483 -0.1309412 -0.13644868 -0.033279836
-0.084181376 -0.12926707 -0.11906344 -0.0946296 -0.0334671 -0.024440842 -0.05314792 0.05372432
0.17574796 -0.06796958 -0.08683254 -0.12745973 -0.14568895 0.062398046 0.071963005 -0.15142396
-0.16286094 -0.059898384 -0.16233648 -0.17139037 -0.064688005 -0.0810464 -0.07905266 -0.10306835
-0.03712853 -0.14953455 0.1494158 0.10168531 -0.16196911 -0.15518549 -0.16080865 -0.07165951
-0.13846399 -0.0374851 -0.13423347 -0.031908453 -0.09992546 -0.13089606 -0.07475358 0.025780788
0.1365567 -0.09427562 -0.06983747 -0.069346294 -0.13391063 -0.13341546 -0.12951283 -0.045153365
-0.040123068 -0.11870363 -0.07350862 -0.11122958 0.16191378 0.045025315 -0.11262769 -0.14768046
-0.11905256 0.27304423 0.265308 0.21440728 0.22830586 0.20112951 0.21324387 0.22853057
0.30017233 0.34258494 0.24764109 0.21640563 0.28621098 0.23961619 0.32690525 0.21253833
0.34715623 0.32818878 0.2654892 0.3563201 0.43958053 0.2742051 0.35443902 0.29567605
0.24095114 0.28680208 0.21736878 0.28968278 0.52977717 0.68095 0.67391586 0.55862814
-0.112784885 0.0040820055 -0.058894865 1.5372796 1.2184737 0.8635661 0.3461108 0.2399298
0.26547754 0.5118819 0.31242412 -0.18956074 0.3245666 -0.22145359 -0.51470536 -0.2880987
-0.11385618 0.12860227 -0.3187965 0.7715419 0.4840309 0.08793644 -0.4098037 -0.76346654
-0.95434827 0.15351087 -0.4499171 -0.2463533 -0.30439574 -0.16581628 0.35635749 0.15495537
-0.5857274 0.44051132 -0.19300835 -1.1737217 -0.8130639 -0.64069486 -0.22452131 0.28980774
-0.6262157 0.05100033 -0.17546196 -0.8106284 -0.83678806 -0.30249617 0.250161 -0.05598226
-0.25482696 -0.0029658154 0.8889216 0.33907852 0.2714839 0.25553897 0.2682617 -0.2980407

bias f4 [5]
00000000: 19a4 6bbd 34bb 813e fb26 3ebd 0e9e c63e
00000010: fe00 99bd
-0.057529543 0.25338137 -0.046423893 0.3879246 -0.07470892

weight f4 [10, 5]
00000000: dc7d 643d f3bc a2be 5a7d d9be 9761 ecbe
00000010: 35ad 0d3d 7a31 d8be 14da 4fbe 006d a53f
00000020: 7d39 973e e9e1 753d 5b78 743e d15e d43e
00000030: 7630 4f3f 82ef ac3e f735 06bd 5cb7 4fbe
00000040: 7408 9fbe c8a1 48be 560b afbc 626c 67be
00000050: ecbf dd3d ace1 4cbe 8ae9 aebe 8ef3 d2bd
00000060: f391 903e d988 21be 08df 243f fbfe e1be
00000070: 7a12 73bc 5fd4 05bf 8e30 103e 0f2b 173f
00000080: 3886 ecbe 751f 7b3c d4ae 453e 04b4 073f
00000090: 6128 033f ca23 13bf 819a 973e 531e 35bd
000000a0: cba1 22bd b9c3 d13e 9c9a 33be edd6 393f
000000b0: 3166 1c3b 41b2 733e 391b 6cbc 8f34 d63e
000000c0: 166f 3bbf eaca e83e
0.05578409 -0.31784782 -0.42478448 -0.46168205 0.03458901 -0.42225248 -0.20298034 1.2923889
0.29536048 0.060029898 0.23874037 0.4147859 0.8093332 0.3377648 -0.03276631 -0.2028479
-0.31061137 -0.19592965 -0.02136771 -0.22599939 0.10827622 -0.20007962 -0.3416255 -0.103003606
0.2823635 -0.1577486 0.6440282 -0.44139847 -0.014835948 -0.5227718 0.14081022 0.5905008
-0.4619615 0.015327324 0.19304973 0.5300906 0.5123349 -0.57476485 0.29610065 -0.044218373
-0.03970508 0.40969637 -0.17539448 0.72593576 0.0023864622 0.23798467 -0.014410787 0.41836974
-0.7321638 0.4546731

bias f4 [10]
00000000: abb8 c33c 6340 803e 37b6 053f 29f7 b5be
00000010: 9618 d0be 84df 783e 1215 8ebd c560 3e3e
00000020: 0f81 3f3f 580e b7bd
0.023891767 0.25049123 0.5223116 -0.3554013 -0.40643758 0.24304014 -0.069376126 0.18591602
0.748063 -0.08938283

weight f4 [10, 10]
00000000: b15d bc3d 0006 92bf 2454 db3e 7854 0d3f
00000010: 501a 5cbe 8c90 5a3f 407d 493f c9c0 4b3f
00000020: aadd 4c3f 5630 063e 8bdc eb3c 2b5b 7b3f
00000030: 14d8 263f 7bc2 743d 8e0f 7bbe 4e99 5b3b
00000040: b042 fbbc 24d8 093f 3a4e f13e 78d8 3b3f
00000050: f508 afbe e6dd bbbf d163 05bf 10aa 9fbe
00000060: 995f a03e 017c a5be 23b4 73bf 72e3 e0be
00000070: 9ab8 03bf c8ec a7bf f443 083e 34ab a5bf
00000080: f3e1 4fbf b683 f2bd f1a1 a03d 31dd 20bf
00000090: 3acf 04bf f1b3 2abf 630a 20bf 17bd 92bf
000000a0: 27df 933d 3717 99bf dc5e 42bf 40b0 f3be
000000b0: cf2f 73be f1ed a5be 36c0 edbe 455d debe
000000c0: bd15 57bf af2a a5bf 7f53 0b3e ab5b aebf
000000d0: a776 49bf 04ea 22bf b0d3 a03d 922e d6be
000000e0: 41e9 f3be b04b 14bf fd3a 28bf 06c9 8dbf
000000f0: 2228 4bbe cc78 b5bf c687 f0be 0caa 06be
00000100: e6ab 41be 2470 51bf 4be8 f8be 808c e4be
00000110: 7556 65bf c815 9abf 7ce0 53be 9254 cabf
00000120: a3da ccbe 0c5a 53be 7547 463e 38f9 b0be
00000130: 19fc 19bf 9edc 2ebf 43c1 54bf 8f80 a8bf
00000140: ae6e 4b3d 5ff6 abbf ad5c 09bf 92a6 c1be
00000150: 5ab9 bb3d 185c f0be b939 edbe cd57 edbe
00000160: 2b2d 52bf d11a d3bf 12be 18bd 1b3c a0bf
00000170: 7de8 30bf 1d4c 70bd 36c4 703e 16e3 c5be
00000180: f06d e4be 2b85 3dbf 8c30 39bf 2d38 b6bf
0.09197558 -1.1408081 0.42837632 0.55207014 -0.21494412 0.8537681 0.7870674 0.7959104
0.8002573 0.13104376 0.028791687 0.98185986 0.6517346 0.059755784 -0.24517652 0.0033508125
-0.030671448 0.5384543 0.47129995 0.7337718 -0.3418652 -1.4677093 -0.5210543 -0.31184435
0.31322935 -0.3232117 -0.9519674 -0.43923527 -0.51453555 -1.3119135 0.13307172 -1.2942872
-0.81204146 -0.11841528 0.07843388 -0.6283751 -0.518787 -0.6668082 -0.6251585 -1.1463956
0.07220297 -1.196021 -0.75925994 -0.47595406 -0.23748706 -0.32408097 -0.46435708 -0.43430534
-0.84017545 -1.2903651 0.1360607 -1.3621725 -0.78696674 -0.6363833 0.07852876 -0.41832405
-0.47638896 -0.5792799 -0.6571501 -1.1076972 -0.19839528 -1.4177489 -0.46978587 -0.13150805
-0.1891323 -0.8181174 -0.48614725 -0.44638443 -0.8958505 -1.2037897 -0.20691103 -1.5807059
-0.40010557 -0.20639819 0.19363196 -0.3456514 -0.60150295 -0.68305385 -0.83107394 -1.3164233
0.0496661 -1.3434561 -0.53657037 -0.37822396 0.091662124 -0.46945262 -0.463331 -0.4635605
-0.8210017 -1.6492559 -0.03729064 -1.2518343 -0.6910475 -0.058666337 0.23512349 -0.38649815
-0.44615126 -0.74031323 -0.723397 -1.4235893

bias f4 [10]
00000000: 97f4 5a3e f84e ec3e 5d55 c6be 71ff a5be
00000010: 737e f6be 9f26 07bf 6ead 48bf ec67 a1be
00000020: 5bd4 0dbf 2390 d0be
0.21382366 0.46153998 -0.38737002 -0.3242145 -0.48143348 -0.52793306 -0.7838963 -0.315246
-0.55402154 -0.40734968

weight f4 [1, 1, 3, 3]
00000000: ee77 35be 7b87 06be 9bfd fd3d f675 59be
00000010: 06f8 813f 1d71 39bc 1c8c 6f3f a888 903e
00000020: 421d 54bf
-0.17721531 -0.13137619 0.12401887 -0.21236405 1.0153816 -0.011318472 0.93573165 0.2822926
-0.82857144

weight f4 [5, 169]
00000000: 8a06 b5bd 5537 90bd 5521 02bd 8684 80bd
00000010: 13a1 5dbb 22c7 68bd d176 0f3f 99c2 8f3f
00000020: 3ca6 223f 3b31 513f c40a 3b3f e7d1 313f
00000030: b7a5 c53d bb16 773d 6941 0cbd b532 a6bc
00000040: 05a2 173f ad3a 8e3f 7524 4fbd 4fd7 63be
00000050: f54f b03e 66a5 5cbe fbf7 12bf 01d3 483f
00000060: 3b60 593f f20b d73e 8c0c fbbc 3678 1abd
00000070: 4ad1 3c3f 4534 a73e 5d03 a5be c966 a5be
00000080: e660 e33e 78d3 e33e 7bea a23e 743e 723e
00000090: 091e a1be 1478 af3e 87a0 1f3f cb69 e1bc
000000a0: 7b4f f03e b1ad b1be ed3e 00bf 8673 953e
000000b0: fb12 d63e 9e41 163f b4cc e93d bda0 953e
000000c0: 5fde 193f fac1 353e 6c94 6fbe c32c c43e
000000d0: 84c2 2b3d 142c 863d c541 11be 3aeb d33e
000000e0: aacf e33e 6a0a 2e3e 7277 2f3e 89b0 54be
000000f0: b8d9 033f f84f 613f d1eb 76be 3ed8 7dbe
00000100: 96f8 ee3e 0a3a 5bbd 4b3c c73e f813 973d
00000110: c206 32be 3e0a 5b3c 185b dc3c bbf1 c8bd
00000120: 30a6 9cbe 41b6 e53e 1f41 f03e 8130 d9bd
00000130: fee4 b9bd c843 84bd ebf9 463d ed76 323f
00000140: 6c5d fbbe 8b27 1abf 7470 d0be 9548 aa3e
00000150: 2be0 793f a5ab de3d 3eea 773d 8825 b5bd
00000160: 08f8 59bf a848 0ebe 1d64 fc3e 6b1f 493d
00000170: 1ce9 cb3d 74f6 dbbd 362d b8be 14d4 31be
00000180: 5b48 7d3f 420d cd3e 4647 3dbe 1997 7a3e
00000190: 9583 b3be 1903 83bf 6fb4 aabe 1430 493f
000001a0: 159e 883d 7788 823f c7cb ad3d c77a dcbc
000001b0: abf1 acbd 30b7 163f d412 243f 8410 b03e
000001c0: 6a72 e93b b4e4 9cbe a085 76be 5fb5 1dbe
000001d0: 2fcc 143e 1d01 1b3f c4c4 0b3f e4f7 1c3f
000001e0: 49ae f4be 705a 2dbe 9196 853d 2d00 d63e
000001f0: da69 98bc f5c6 543e 19c2 c13e 7f82 5e3e
00000200: 4016 a2be b4d5 32be a3bb 3fbd 6c10 793e
00000210: 3598 0c3f 29b2 b0be 79e7 80be 5612 713e
00000220: 2876 593e 4e2b d2bc 6aa2 56bd e469 4f3f
00000230: d242 1dbf 5378 083e f4e4 053e b254 5abb
00000240: 0ee8 db3e 95f2 123f bef1 553d 7d59 c13e
00000250: b817 28be bf26 fc3a 9e13 1abf dc89 e0be
00000260: 4701 953d 8831 143e e15b 353f 1151 bc3d
00000270: 4b40 dfbc 3194 fc3d 0d74 443e ec1d 23be
00000280: 89da 333f 07f5 17bf 8aea 41be f99e c9bd
00000290: ad41 b43e 8f0e 153e 0a18 413e 6d5e a73d
000002a0: 1f73 85bd be8f f53d 1c57 e03d 8713 813d
000002b0: ef18 083e 63ba d43d 916b 403c 2586 8b3d
000002c0: 0aeb dd3d afa9 a53c cbe0 163e 3848 863d
000002d0: 0a84 b63d b14e 093e adf0 d73d 2007 ab3d
000002e0: 8b3b fa3d a642 963d 75af 0d3d cf4a ea3d
000002f0: a089 143d cef1 c8bd cec6 7fbe 2ad5 82be
00000300: f1cc 27be 85fb 5dbc 2dff dd3d f4cf ec3c
00000310: 9915 943c f8ab 823d e55c 893d 6a7e 3bbe
00000320: 9f99 73be 8a95 153d 57ae ab3d bc76 263d
00000330: 391d 90be a93e b2be 1570 9dbe 8064 7fbe
00000340: 2842 c43d 1e72 d93d b435 033e b6d2 1a3d
00000350: bd8f a5bd e4c6 a7bd 60cd 493c 5b95 fbbc
00000360: df2c f23d ba21 403d 4d9b a43c f117 76be
00000370: d413 a4be 50fa 083e 0653 873d 6264 29be
00000380: 1588 56be 491b 54bd 499f 98bd ca44 82be
00000390: c57f bcbe b274 16be 0f97 2e3e 697b 123e
000003a0: 8805 66be b536 4dbd 38b8 d93d 846d 0e3e
000003b0: 7baa bebe adf6 1bbe 4431 f8bd 1ce4 5cbe
000003c0: d209 87be a900 bfbe 8aca b7bd be19 6c3c
000003d0: 0d97 053d 9c6b 273e 8c64 473d 044f ac3d
000003e0: c6bb 143e de28 ed3c 2c0b 88be 175c d7be
000003f0: d33a 1abe 6012 32bd ea49 e0be dd6d a7be
-0.08839138 -0.07041804 -0.03177007 -0.06275277 -0.0033817932 -0.056830533 0.56040674 1.1231261
0.63534904 0.81715745 0.730633 0.6946091 0.09650748 0.06032441 -0.034242067 -0.02028785
0.592316 1.1111656 -0.050571878 -0.22250102 0.34436002 -0.2154747 -0.5740964 0.78446966
0.8491246 0.420013 -0.030645631 -0.0377123 0.7375685 0.32657066 -0.32229128 -0.3230498
0.44409865 0.44497275 0.3181952 0.23656636 -0.31468228 0.342713 0.6235432 -0.027516266
0.4693564 -0.3470283 -0.5009602 0.291897 0.41811356 0.58693874 0.11415997 0.29224196
0.60104936 0.17749777 -0.23396462 0.383154 0.04193355 0.06551376 -0.14185245 0.413904
0.44494373 0.1699616 0.17135409 -0.20770468 0.5150409 0.8801265 -0.24113394 -0.24789521
0.4667403 -0.053522147 0.38913187 0.073768556 -0.1738539 0.013369141 0.026898906 -0.098117314
-0.3059554 0.4486561 0.46924683 -0.106049545 -0.0907688 -0.06458241 0.048578184 0.69712716
-0.49094713 -0.6021659 -0.40710795 0.332585 0.9760768 0.10872582 0.060526125 -0.08845049
-0.8514409 -0.13894904 0.4929513 0.049102228 0.099565715 -0.107403666 -0.35971993 -0.17366058
0.9893853 0.40049177 -0.1848422 0.24471702 -0.35061327 -1.023532 -0.33340785 0.78588986
0.06670777 1.0197896 0.08486133 -0.026914014 -0.08444532 0.5887327 0.6409123 0.343876
0.007124235 -0.30643237 -0.24074411 -0.15401219 0.14531015 0.60548574 0.54597116 0.6131575
-0.4778922 -0.1692903 0.06522859 0.4179701 -0.018605161 0.20779021 0.37843397 0.21729468
-0.316576 -0.17464334 -0.046809804 0.2432267 0.5491975 -0.34510925 -0.251766 0.23542151
0.2123648 -0.025655415 -0.052400984 0.8102095 -0.61430085 0.1332715 0.1307562 -0.0033314642
0.4295048 0.574014 0.052232496 0.37763587 -0.16415298 0.0019237621 -0.60186183 -0.43855178
0.07275634 0.1447202 0.7084332 0.0919515 -0.027252337 0.12332953 0.19184895 -0.15929383
0.70255333 -0.5935826 -0.18937126 -0.09844775 0.35206357 0.14556335 0.18856826 0.08172307
-0.06516098 0.11990307 0.10954115 0.06302553 0.13290761 0.10387113 0.011744396 0.068126954
0.10835846 0.020222513 0.14734189 0.065567434 0.08911903 0.13408925 0.10543952 0.08350968
0.12218388 0.07336931 0.034591157 0.1144005 0.036264062 -0.098117456 -0.24978182 -0.25553256
-0.16386773 -0.013548736 0.108396865 0.028907754 0.018076705 0.06380457 0.06707171 -0.18309942
-0.2378907 0.036519565 0.08382862 0.040640578 -0.28147295 -0.3481343 -0.30749574 -0.24940681
0.09582931 0.10617469 0.12813455 0.037798606 -0.080840565 -0.08192232 0.012317032 -0.030710867
0.11824965 0.046907164 0.020093584 -0.2403257 -0.32046378 0.13376737 0.06607632 -0.16542199
-0.20950349 -0.051783834 -0.07452256 -0.25443107 -0.3681623 -0.14692953 0.17049812 0.1430489
-0.22463048 -0.050101 0.1063084 0.13908964 -0.3723944 -0.15230818 -0.12118772 -0.21571392
-0.2637468 -0.3730519 -0.08974178 0.014410434 0.032614756 0.16349643 0.048679873 0.084135085
0.14524755 0.028950151 -0.26571023 -0.42062446 -0.15061502 -0.043474555 -0.43806392 -0.32701007

bias f4 [5]
00000000: aef9 fe3e 2f05 e5bd c5c9 10be 76c3 19be
00000010: de2a 80be
0.49799865 -0.11182629 -0.14139469 -0.15015969 -0.25032705

weight f4 [10, 5]
00000000: 114a 483e eef2 bdbd 22da 1fbf ccee 6cbe
00000010: 67ea 893e e57c 2ebe c5da 12be 70f6 cebe
00000020: 01fa 6e3e 8abf 06bf 447f ee3e 2e03 623e
00000030: 17e3 4a3d f548 c4be 2b69 c7bc 539a e93e
00000040: a35d b7be 5e3d a6bf 378d 9bbd 8462 28bf
00000050: cc8e 083f 4720 b0be 7a22 853f d9ce bd3d
00000060: 2d08 92be 8c3e 05bc 977b 49be f670 aeb9
00000070: aeaf 343e fb54 d0be 0d6e 51be ab2a 1abe
00000080: 397a 3abe 3139 d73d 3b03 123d a974 ac3e
00000090: 84e5 a03d 8b0a b33f 3d0a debe 0534 0e3f
000000a0: ca1b 46bc 6bd0 6fbe c2f2 4f3f 3c46 bb3e
000000b0: 9585 80be 3f23 40be 277b b13e c399 80be
000000c0: 61c1 bfbd 5061 b5be
0.19559504 -0.09274851 -0.6244222 -0.23137969 0.26936647 -0.17039831 -0.14341266 -0.40422392
0.23337556 -0.52636015 0.4658147 0.22071525 0.049532976 -0.38336912 -0.02434214 0.45625553
-0.35813627 -1.2987478 -0.07595294 -0.6577532 0.5334289 -0.34399626 1.0401146 0.09267969
-0.28521863 -0.008132588 -0.19676052 -0.0003327203 0.17645141 -0.40689835 -0.20452137 -0.15055339
-0.18210687 0.10508955 0.035647612 0.33682755 0.07856277 1.3987592 -0.43367186 0.55548126
-0.012091586 -0.23419349 0.81229794 0.36577022 -0.25101915 -0.18763445 0.3466427 -0.2511731
-0.09363056 -0.35425806

bias f4 [10]
00000000: 7162 1a3f 6c30 88be 798f 4f3f 30aa 0140
00000010: 115e 04bf 5772 85bd 35cc 3cbf 4ed8 25be
00000020: 15c3 52bf 12de 9abe
0.6030646 -0.26599443 0.81078297 2.0260124 -0.51706034 -0.06515949 -0.73749095 -0.16195795
-0.8232892 -0.3024755

weight f4 [10, 10]
00000000: 70b5 f33e 5f0e 093e 2445 3d3f 200e d53f
00000010: 3b89 6c3e bbbd 1d3e 457b bcbe 0fc6 213e
00000020: 6d39 f4be ab9d 92be 5a25 04be e318 2ebe
00000030: 143e 483f c452 d6be 6325 313f ad2e 9a3e
00000040: 9937 b8bd a8c8 293f b24a 6e3e 39c8 233e
00000050: 2c47 28c0 651b 35be c8c5 61bf 6444 6fbf
00000060: 1137 06bf 49aa 8dbe 6e4b dbbe 0c03 1fbf
00000070: 385d ddbe 9090 61be 2b89 01c0 8cf8 223c
00000080: 6431 3ebf c07d 63bf da39 70be 3b29 75be
00000090: ece9 68be 902e 4ebf 90ad 3dbe 6848 8c3e
000000a0: b400 17c0 e68d a83c c956 35bf 7cf2 8dbf
000000b0: 41d9 0bbf 2fde 48be d6e1 41be c1b0 0fbf
000000c0: c500 b3be afbe 0c3e a9b8 e3bf dc1b a1be
000000d0: 053e 43bf cb8a 9cbf f996 d4be fa1c 8abe
000000e0: e2eb efbe 9411 07bf 8acf c1be 0645 89be
000000f0: c46d 0fc0 4f3f cebd 300c 3fbf f6a0 9fbf
00000100: 0b80 26bf 4eb9 80be db52 fabe 1b22 31bf
00000110: eaa8 92be f02b 99be 0005 04c0 14a3 09bd
00000120: 309c 12bf 999d 9abf df3a 31bf 23dd cabd
00000130: 00fe 0ebd 71f4 82bf 91b6 51bd 6484 143e
00000140: c6a2 30c0 aa57 21be 2674 1abf 03eb 8fbf
00000150: 3fba 2ebf f4c6 5fbe a37d 9cbe f7de 8bbf
00000160: fb7f 1cbf e388 0fbe 7010 29c0 1551 773d
00000170: 4743 79bf 3911 7ebf 600a 9bbe caad 09be
00000180: 5a61 8a3d 8f4b 59bf f38f b6be 0f7d 88be
0.47599363 0.13384388 0.73933625 1.6644936 0.23099224 0.15404408 -0.36812797 0.1579821
-0.47700062 -0.28635916 -0.12904873 -0.17001681 0.78219724 -0.4186002 0.6919767 0.30113736
-0.089949794 0.663218 0.23270682 0.15994348 -2.629344 -0.17686231 -0.88192415 -0.9346373
-0.52427775 -0.2766898 -0.42830986 -0.62114024 -0.43235183 -0.22027802 -2.023997 0.0099469535
-0.74294114 -0.88863754 -0.23459569 -0.2394151 -0.22745484 -0.805398 -0.1852324 0.27398992
-2.359418 0.020575475 -0.7083555 -1.1089625 -0.5462838 -0.19616006 -0.18933806 -0.5612908
-0.34961525 0.13744615 -1.7790729 -0.31466568 -0.7626651 -1.2229856 -0.41521433 -0.26975232
-0.46859652 -0.527612 -0.37853652 -0.26810473 -2.2410746 -0.10070669 -0.7462797 -1.2470996
-0.6503913 -0.25141376 -0.4889134 -0.69192666 -0.28644496 -0.29916334 -2.0628052 -0.03360279
-0.57269573 -1.2079345 -0.69230455 -0.0990546 -0.034910202 -1.0230848 -0.0511995 0.14503628
-2.759935 -0.15756097 -0.6033348 -1.1243595 -0.6825294 -0.21853238 -0.30564603 -1.0927418
-0.6113278 -0.14017062 -2.6416283 0.06038006 -0.9736828 -0.9924503 -0.30281353 -0.13445202
0.067568496 -0.8488092 -0.356567 -0.26657912

bias f4 [10]
00000000: 0151 b23f 32f2 86be dc9d d5be 4ced 3ebf
00000010: 00ab 5cbf 23bd 21bf 9128 60bf ab8f f1be
00000020: 7549 ddbe 4c50 32bf
1.393097 -0.26356655 -0.41722 -0.74580836 -0.86198425 -0.63179225 -0.875619 -0.47179922
-0.43220106 -0.69653773

weight f4 [1, 1, 3, 3]
00000000: d1ac 06bd 50fd 2a3f 3064 f8bd 3a8e 02bf
00000010: 312f 973e da0f 663d 83f9 4bbf 7cd0 f73e
00000020: b7e9 493f
-0.032879654 0.66792774 -0.12128484 -0.5099827 0.29528192 0.05616746 -0.796776 0.48401248
0.78872246

weight f4 [5, 169]
00000000: bdfb b0be b7f3 0abf d5d0 5dbf a377 adbf
00000010: e75e e9bf 97b2 a1bf 6106 edbe a92d 08be
00000020: 9b84 3bbf 8c8a 86bf b852 07be 347d 5abf
00000030: ebca adbe 0870 c6be 6f13 10bf 365f 903e
00000040: 8c3f 45bf 3fe3 27be cdc4 f8bd a1a6 94bf
00000050: 33fb 32bf 6606 22be 3620 7ebf b068 06bf
00000060: 7592 65bf 50c1 163f 22c3 25bf 6e7a 0ebe
00000070: 316d af3c c5ec d13e 8a85 553e 6db1 a13e
00000080: 82d0 413e 933d b23e bb07 f33e 11cc 5b3f
00000090: f5cd d8be 3823 85bf 525f a5be 4f6c ddbe
000000a0: b06c f03e 9fd1 3e3f d19d 343f e79d 593f
000000b0: e50e 7c3e 3619 813d 36df 323e cd4f 2a3f
000000c0: 6365 673f 8feb 1d3e a959 443e d6f5 93bf
000000d0: 4555 abbe b49c 413f 4cb8 393f 02f6 af3e
000000e0: 1a87 213f e4e0 4f3e c1be 9c3e 3215 d83e
000000f0: 6ba8 0e3f 9717 e03e e298 f83e 933c b43f
00000100: c5c8 a5be 5b29 cdbe 3894 283f 0f8e 703e
00000110: 03c4 ac3d d301 343e a9d8 013f 93e5 533f
00000120: daf6 463f a20b 293f 6f43 6cbc b1a7 61be
00000130: 460e 8a3d c41b a93e 3cd0 d4be cf25 da3d
00000140: 7369 2ebf 8323 57be 7587 fabc 81e6 133f
00000150: 0329 133f 25e7 cc3e 6196 a2be 8222 92be
00000160: 8dc4 36bf 1a4b acbe 1054 81bd 1959 e2be
00000170: b008 1fbd e50a 5abf e5cd 20bf daa5 a4be
00000180: 6206 b5bd ade6 523e f9b0 15be e3a9 44bf
00000190: a258 f1be d535 5dbf d0d4 8b3e fe68 bdbe
000001a0: 7a37 cebe fcc7 88be 7ab2 0fbf e7fc 18bf
000001b0: 3269 3cbf a273 20be e412 24be 0a63 ecbe
000001c0: 2fbf 6ebe e16b e1be e146 df3d 208d 1c3f
000001d0: 4c63 bcbe 74c1 b9be 3e69 243c 3057 3e3f
000001e0: 02d1 e03b d499 adbe 8628 04bf 6b8d 89be
000001f0: 23fd 44be 9434 aa3e fc3f 58be 174c 1fbc
00000200: ccd5 803e 849f cebe 35a3 c1be 9d29 2e3f
00000210: 412e 2d3f 2a57 673e 0239 693e 2a64 da3d
00000220: ec95 0c3d 2458 0d3e ae47 933e 976d 7a3e
00000230: 4a02 ad3e f386 0c3f 0399 e0be 0de9 e6be
00000240: af28 ad3e 8674 b53f 5014 a3be d52a 923e
00000250: 4499 033f 334c 153f 773d 153f f802 343f
00000260: 1be1 1f3e 3bd1 683e 22d3 473f cd1a aabe
00000270: 4244 c6be 36e1 a3be 8e2b b03e 4119 783f
00000280: 4096 a63f f805 a73f 4b12 b23e aeb1 e7be
00000290: 8054 5a3f bc67 723f 3867 ac3d 84b2 cbbe
000002a0: 5b36 c6be 8d40 64bd c531 603d eb3a 883d
000002b0: 39d4 813d 6317 ac3a 929b 72bd 77aa 24bc
000002c0: 190d f7bc b605 84bc ffd4 9abd b267 31bb
000002d0: 4afa 90bc 2319 793d 190f f73c a8d2 323d
000002e0: cf12 1a3c 7446 26be 1413 babb a7cd 18be
000002f0: ec65 a8bd c95e 60bd e3fc 1dbd c1fb 81bd
00000300: e30c 993d 41ef 713d 9954 9b3d 9950 afbc
00000310: b220 69bc cf74 2abd 33a9 c3bc 7219 a8bd
00000320: dedd 57bd d8e7 d9bd 2dd8 11be a0f2 0bbe
00000330: 3f30 03bd 4933 90bd 1ef6 1b3c 52e1 873d
00000340: 595e 903c 9402 3fbd 6831 14be e075 1dbe
00000350: 3d50 0bbe 6eae 0abd c50e c6bc 9f25 26be
00000360: 57d2 c0bd 5e3c c3bd ad93 ddbd 3e55 573d
00000370: bf9c 85bd 14d0 c33c f7b0 313c 096a b7bd
00000380: 4932 22be b581 39be 2aa0 65bd 246d 29be
00000390: c5f2 d7bc b84e 3cbd 5ba9 0abe c8f9 1abd
000003a0: 0192 613b 6d9c 733d 2862 d23c 5b52 2abd
000003b0: 18b6 0dbe 26a7 1cbe bd7d 02be 0cf6 03be
000003c0: 2d2e 23be c25e abbd fbf9 d6bd cbed 08bd
000003d0: f24c 0ebe 5503 00be adc1 f63c 00ad 88bb
000003e0: 7407 1b3d a93d 29bd 6b2a dbbc 2766 82bd
000003f0: 504f 2abe d0ad 11be 1612 d4bd 30c7 06bd
-0.3456706 -0.5427813 -0.8664678 -1.3552135 -1.8232087 -1.2632626 -0.4629393 -0.13298668
-0.73249215 -1.0511031 -0.13215148 -0.85347295 -0.33943877 -0.38757348 -0.56279653 0.2819764
-0.7705009 -0.16395281 -0.12146912 -1.1613351 -0.6991455 -0.15822753 -0.992679 -0.5250349
-0.896766 0.5888872 -0.64750874 -0.1391389 0.021414371 0.41000953 0.20851722 0.31580678
0.18927196 0.34812602 0.47466835 0.85858256 -0.42344633 -1.0401373 -0.32299286 -0.43246695
0.46957922 0.74538606 0.7055331 0.85006565 0.24615057 0.06303637 0.1746796 0.66528016
0.9038908 0.1542189 0.19174828 -1.1559398 -0.33463493 0.75629735 0.7254684 0.34367377
0.63096774 0.20300633 0.30614284 0.4220367 0.55725735 0.43767998 0.4855414 1.4080986
-0.32379737 -0.40070614 0.65851164 0.23491691 0.08435824 0.17578821 0.5072122 0.8277218
0.77720416 0.66033375 -0.014420374 -0.22036625 0.06741004 0.33028996 -0.4156512 0.10651743
-0.6812965 -0.2100964 -0.03058217 0.57773596 0.57484454 0.400201 -0.31755355 -0.28541952
-0.7139366 -0.33651048 -0.06314862 -0.442086 -0.038826644 -0.85172874 -0.6281417 -0.32157785
-0.08839108 0.20595808 -0.14618291 -0.76821727 -0.47137934 -0.86410266 0.273108 -0.36994165
-0.402767 -0.26715076 -0.5613171 -0.597609 -0.73598015 -0.1566911 -0.16022831 -0.4616931
-0.23315118 -0.44027618 0.10902191 0.6115284 -0.36794508 -0.36280406 0.010034857 0.7435179
0.006860853 -0.33906424 -0.51624334 -0.26865706 -0.19237189 0.3324324 -0.21118158 -0.009722731
0.25163114 -0.40356076 -0.3781983 0.68032247 0.676487 0.22591844 0.22775653 0.10663636
0.034322664 0.13803154 0.28765625 0.24455868 0.3379081 0.54893416 -0.4386674 -0.4509968
0.33820102 1.4176185 -0.31851435 0.28548303 0.5140574 0.58319396 0.5829691 0.7031703
0.15613215 0.22736065 0.7805654 -0.33223572 -0.38723952 -0.3200776 0.3440823 0.96913534
1.3014603 1.3048697 0.3477958 -0.45252746 0.85285187 0.94689536 0.08418125 -0.39784634
-0.38713345 -0.055725623 0.054734964 0.06651863 0.063393064 0.0013129528 -0.059230395 -0.010050408
-0.030157613 -0.016116004 -0.07560157 -0.0027069864 -0.017697472 0.060814988 0.030158566 0.04365793
0.009403898 -0.16237813 -0.005678544 -0.149222 -0.08222565 -0.054777894 -0.03857125 -0.06346846
0.07473161 0.05906606 0.07584495 -0.021400737 -0.014228987 -0.041615304 -0.023884391 -0.08207978
-0.052701823 -0.10639924 -0.14242621 -0.13666773 -0.032028433 -0.07041032 0.009519128 0.06634773
0.017623113 -0.046633318 -0.14471972 -0.15376997 -0.13604827 -0.033857755 -0.024176965 -0.16225289
-0.09415119 -0.095329985 -0.108191825 0.052571528 -0.065240376 0.02390293 0.010845414 -0.089557715
-0.15839495 -0.18115886 -0.056060947 -0.1654554 -0.026360879 -0.04597351 -0.13541166 -0.037835866
0.00344193 0.05947535 0.02568157 -0.041582447 -0.13838995 -0.15298137 -0.12743278 -0.12886828
-0.15935583 -0.08367683 -0.10496899 -0.033429902 -0.1389654 -0.12501271 0.030121649 -0.004171014
0.037848905 -0.04131857 -0.026753625 -0.0636714 -0.16631818 -0.1422646 -0.10355012 -0.032904804

bias f4 [5]
00000000: 81ab b53e c378 d6bd 84b4 2cbc 2c98 78bd
00000010: a0bd cdbd
0.3548241 -0.10472252 -0.010541085 -0.060691997 -0.10045934
