xai_neurips_2021/models/pre_trained/mnist_pre_trained_10_5_05_19_26_37_48_expert_model.pt (torch, 74751 bytes, 70 tensors)

weight f4 [1, 1, 3, 3]
0.66567504 0.92944586 -0.59948885 0.103676505 0.22312155 -0.32309192 -0.24634378 0.27087983
0.117994025
00000000: ae69 2a3f 2af0 6d3f 1a78 19bf 5954 d43d
00000010: fa79 643e 4e6c a5be 8b41 7cbe c3b0 8a3e
00000020: daa6 f13d

weight f4 [5, 169]
-0.07352666 -0.054326057 -0.07103744 -0.040380646 -0.006654639 0.1734432 -0.073838286 0.8210468
0.67784965 0.03498687 0.04505992 -0.04597709 0.010127425 0.04440679 -0.027559051 0.4913244
-0.14792435 0.22971426 -0.120313965 0.18878464 -0.44637516 0.25996673 0.30095354 -0.9636377
-0.21955396 0.17905068 0.060587235 -0.1684872 0.0112138335 0.38484487 0.27810216 -0.15853924
0.25991607 0.3147937 0.050859462 0.1902453 -0.21492507 0.44748056 0.46342003 0.005200964
0.16407602 -0.87253284 0.037124198 0.07980954 -0.105998576 -0.095599845 -0.035943564 0.1709519
0.12180939 0.20580849 0.29070157 -0.58896977 -0.060414407 0.31136963 -1.1998817 -0.16336998
0.11457092 -0.46218842 -0.30975702 0.0991455 0.5850795 0.15284908 -0.014810515 0.6151365
-0.13625534 0.0502335 0.4905541 0.16765349 -0.02803229 0.45821315 -0.07354501 -0.20931582
-0.029013589 0.29564044 -0.24368505 0.91098475 0.6120294 -0.43127584 0.05583702 -0.47344914
0.20311595 0.103038535 0.27763945 0.0018428218 0.21290739 0.08381129 -0.049137436 0.10259931
0.17235929 0.5199963 0.88105553 0.006704349 -0.7378058 0.22315444 0.67877287 0.029835155
0.2875258 0.14180896 0.0844955 -0.12528132 0.077321135 -0.19077204 0.44841096 -0.2686153
-0.07512702 -0.36741316 -0.04310761 0.21185437 0.16821286 0.50168884 -0.35094556 0.090501346
-0.0036391285 -0.120005645 -0.068346865 0.20876783 -0.655213 -0.023728585 -0.24680018 -0.08707071
-0.03706354 0.36017734 0.68457943 -0.09388891 0.25797194 0.0072833234 -0.14277194 -0.20083936
-0.43972105 -0.68331665 -0.052026648 0.027948784 -0.062092554 0.05416174 0.00036046407 0.06097962
-0.10621317 0.034843147 -0.20439237 -0.107006796 0.19647332 -0.20074551 0.19056076 0.00017675987
0.790208 0.5096888 0.37461627 0.42102113 -0.08343538 0.2922349 -0.11311761 -0.17637514
0.2450281 0.15410766 -0.30865797 0.14492358 -0.022629976 0.059813127 0.39737225 0.494253
-0.13679689 0.093824506 0.15698084 0.11671548 -0.09357751 0.3387343 0.94301635 0.50007755
0.04985685 0.049754485 -0.04713146 0.051088188 0.023405828 0.070404395 -0.15302505 0.09474228
-0.8567484 -0.8203547 0.0065847845 0.06397608 -0.058275566 0.062789075 0.073652245 -0.031160181
0.03347119 0.46763918 0.22368352 0.09371802 -0.009947812 1.0904961 0.027951358 -0.10367847
0.960894 0.54655176 0.25894278 -0.04394381 0.09490592 0.41505805 -0.05780231 0.059188157
0.03732465 -0.40863612 -0.42297658 -0.34552822 -0.30329356 0.468827 0.05592038 0.3957965
-0.038622584 0.11370864 1.0566443 0.1268362 0.29389456 0.20308344 0.10217931 -0.10104196
-0.045364834 -0.2038551 0.045893442 0.40557852 1.8909575 0.0712561 0.22071517 1.0506952
0.070460774 0.1695781 0.5056409 0.22486155 -0.14859644 -0.6126888 -0.26564857 0.15892398
-0.13067225 1.9535054 0.047644533 0.47093478 -0.112985365 0.075382285 -0.116682865 0.29730853
0.4352424 0.18715538 -0.25774965 -0.17071976 -0.97876346 -0.16210891 1.1204946 0.023100955
0.6044344 -0.20821428 -0.045827135 -0.020340748 0.17633463 0.2716731 0.5260396 0.4449528
00000000: 2595 96bd 0085 5ebd 147c 91bd 2d66 25bd
00000010: 280f dabb 189b 313e 8738 97bd 2030 523f
00000020: 8e87 2d3f 644e 0f3d c090 383d 7952 3cbd
00000030: 80ed 253c e5e3 353d 85c3 e1bc df8e fb3e
00000040: 7b79 17be 373a 6b3e 2b67 f6bd c350 413e
00000050: 498b e4be 5c1a 853e 9516 9a3e f6b0 76bf
00000060: c1d2 60be 1059 373e 522a 783d e987 2cbe
00000070: 3aba 373c 630a c53e 6863 8e3e 1c58 22be
00000080: b813 853e a42c a13e 0352 503d aacf 423e
00000090: 5115 5cbe 2c1c e53e 6445 ed3e d96c aa3b
000000a0: 8b03 283e 505e 5fbf 8b0f 183d 2f73 a33d
000000b0: c815 d9bd dac9 c3bd 8f39 13bd 040e 2f3e
000000c0: 3477 f93d 76bf 523e d6d6 943e b9c6 16bf
000000d0: 1975 77bd d76b 9f3e b995 99bf 764a 27be
000000e0: 29a4 ea3d f6a3 ecbe 7998 9ebe cc0c cb3d
000000f0: c5c7 153f 7884 1c3e cda7 72bc 9679 1d3f
00000100: 8586 0bbe a4c1 4d3d e829 fb3e 5bad 2b3e
00000110: f9a3 e5bc ea9a ea3e c49e 96bd e356 56be
00000120: e8ad edbc 2f5e 973e 9388 79be 4c36 693f
00000130: f5ad 1c3f 30d0 dcbe 5cb5 643d ed67 f2be
00000140: a1fd 4f3e de05 d33d c226 8e3e d78a f13a
00000150: 6504 5a3e 41a5 ab3d 5644 49bd 961f d23d
00000160: f47e 303e 7a1e 053f db8c 613f 28b0 db3b
00000170: d7e0 3cbf 9982 643e 0fc4 2d3f db68 f43c
00000180: 9536 933e 5e36 113e fa0b ad3d bf49 00be
00000190: 8b5a 9e3d bf59 43be 1f96 e53e f287 89be
000001a0: 32dc 99bd 941d bcbe 9b91 30bd 5af0 583e
000001b0: fe3f 2c3e ae6e 003f 23af b3be c558 b93d
000001c0: 727e 6ebb 85c5 f5bd 71f9 8bbd 3cc7 553e
000001d0: 0abc 27bf 7362 c2bc 30b9 7cbe 2152 b2bd
000001e0: f0cf 17bd 2a69 b83e 9940 2f3f d448 c0bd
000001f0: e614 843e f2a8 ee3b cf32 12be d5a8 4dbe
00000200: 1e23 e1be d7ed 2ebf e519 55bd d9f4 e43c
00000210: c354 7ebd b3d8 5d3d abfc bc39 c4c5 793d
00000220: 4a86 d9bd b0b7 0e3d 3c4c 51be 6126 dbbd
00000230: 4d30 493e 3b90 4dbe 5c22 433e 9e58 3939
00000240: 124b 4a3f f77a 023f b4cd bf3e 1590 d73e
00000250: 2be0 aabd d09f 953e 35aa e7bd af9b 34be
00000260: a5e8 7a3e 66ce 1d3e 6b08 9ebe d966 143e
00000270: 8062 b9bc 9cfe 743d 6074 cb3e bb0e fd3e
00000280: 7c14 0cbe 1027 c03d 96bf 203e 8708 ef3d
00000290: 91a5 bfbd 956e ad3e 8569 713f 1505 003f
000002a0: b236 4c3d 5ccb 4b3d eb0c 41bd d941 513d
000002b0: 94bd bf3c 2e30 903d 99b2 1cbe 3e08 c23d
000002c0: dd53 5bbf c402 52bf 2dc5 d73b e405 833d
000002d0: 5cb2 6ebd 8f97 803d fdd6 963d a343 ffbc
000002e0: 1619 093d 676e ef3e 4b0d 653e 3cef bf3d
000002f0: 26fc 22bc 6095 8b3f 3ffa e43c 6155 d4bd
00000300: 26fd 753f d1ea 0b3f 2694 843e 6dfe 33bd
00000310: 095e c23d 7d82 d43e 1dc2 6cbd 486f 723d
00000320: bbe1 183d c138 d1be 6390 d8be 13e9 b0be
00000330: 4b49 9bbe 180a f03e c50c 653d d7a5 ca3e
00000340: b732 1ebd 13e0 e83d 1f40 873f 59e1 013e
00000350: 5979 963e 1bf5 4f3e 6343 d13d 16ef cebd
00000360: 7ad0 39bd 64bf 50be c3fa 3b3d fda7 cf3e
00000370: e50a f23f b8ee 913d 2803 623e 2e7d 863f
00000380: bd4d 903d e2a5 2d3e af71 013f 1b42 663e
00000390: aa29 18be 2cd9 1cbf 1703 88be f8bc 223e
000003a0: f2ce 05be 770c fa3f ea26 433d 5d1e f13e
000003b0: df64 e7bd 0762 9a3d 6df7 eebd d338 983e
000003c0: 18d8 de3e a9a5 3f3e c3f7 83be 29d1 2ebe
000003d0: 3e90 7abf e1ff 25be 5e6c 8f3f 373e bd3c
000003e0: 36bc 1a3f 2036 55be 3cb5 3bbd a4a1 a6bc
000003f0: 1191 343e bd18 8b3e 88aa 063f dad0 e33e

bias f4 [5]
-0.3560827 0.71954256 1.0556631 -0.479969 0.26520488
00000000: 7950 b6be f133 383f f81f 873f 7fbe f5be
00000010: efc8 873e

weight f4 [10, 5]
0.39462775 -0.2376228 -1.0067204 0.5962148 -0.41035804 0.2995585 0.18891606 0.67225033
0.43672246 0.5907944 0.022622252 0.16518545 0.62340945 -0.12675837 0.5653141 -0.22621273
-0.36558056 -0.07666429 -0.15373832 -0.19362693 0.090325475 -0.45519704 -0.05530668 -0.0818858
-0.25770497 -0.036151115 0.35293937 -1.081666 0.59065866 -0.3091544 -0.30396232 0.047257442
-0.24955967 0.5482434 -0.505256 0.50390744 0.489459 0.34391907 -0.37862495 0.4423781
0.38529763 0.7054916 0.32738003 0.2996434 1.0079271 0.51590616 -0.04487607 -1.2208599
0.49617735 0.019023472
00000000: a60c ca3e 6453 73be 37dc 80bf 88a1 183f
00000010: 731a d2be bb5f 993e 3673 413e 9918 2c3f
00000020: 169a df3e 4d3e 173f 4d52 b93c 6026 293e
00000030: c397 1f3f f2cc 01be 6db8 103f 4fa4 67be
00000040: 602d bbbe 2b02 9dbd 946d 1dbe 2346 46be
00000050: 90fc b83d 960f e9be 4289 62bd beb3 a7bd
00000060: e8f1 83be 3113 14bd 78b4 b43e 0874 8abf
00000070: 6835 173f 7c49 9ebe f3a0 9bbe 0591 413d
00000080: 928c 7fbe ae59 0c3f 7558 01bf 1400 013f
00000090: 5f9a fa3e 2916 b03e 21db c1be 627f e23e
000000a0: bb45 c53e 199b 343f 5b9e a73e dc6a 993e
000000b0: c103 813f 6d12 043f f8cf 37bd 2345 9cbf
000000c0: f50a fe3e 1dd7 9b3c

bias f4 [10]
-0.026667453 0.45408785 0.41352236 -0.08458349 -0.5165215 -0.39283234 -0.02986702 0.5337831
1.0080917 -0.26818687
00000000: b475 dabc 347e e83e 34b9 d33e 1c3a adbd
00000010: c13a 04bf 5221 c9be aeab f4bc 02a6 083f
00000020: 2609 813f ca4f 89be

weight f4 [10, 10]
0.8227391 0.044972558 -0.19361512 0.39206433 0.1209107 0.5013561 0.5373326 0.4053465
0.42805836 0.7537064 -0.080005415 0.34967697 0.55248207 -0.12172692 -0.4769957 -0.19017
-0.0818008 0.766132 0.7536736 0.13445935 -0.5411573 -0.4732074 -0.12936674 -0.021328356
-0.37602535 -0.23883346 -0.3470431 -0.1823137 -0.5906753 -0.41139004 -0.093023404 -0.37274674
-0.15930368 -0.3538123 -0.27843323 -0.35386086 -0.52486354 -0.62003756 -0.665242 -0.26700935
-0.3702088 -0.54352385 -0.4177341 0.022385187 -0.18660657 -0.55290735 -0.18072967 -0.5747848
-0.39112592 -0.12996718 -0.52925014 -0.40375674 -0.33731616 -0.30110347 -0.23086563 -0.51527727
-0.40296578 -0.43488544 -0.18702748 -0.2878777 -0.20307201 -0.46736324 -0.14391741 0.2043414
-0.39709872 -0.19721083 -0.54407746 -0.5782524 -0.6445543 -0.33666414 0.029456077 -0.3622518
-0.1898802 -0.27407593 -0.35647193 -0.5651866 -0.66866386 -0.49953687 -0.60431534 -0.2879759
-0.15764877 -0.41411486 -0.015198467 0.09233919 -0.383779 -0.32064083 -0.73026216 -0.31767517
-0.42274925 -0.6893815 -0.5745383 -0.26817092 -0.11767886 -0.09103215 -0.3701903 -0.13211979
-0.64453465 -0.44647828 -0.42710793 -0.723758
00000000: 089f 523f 2535 383d 0b43 46be a8bc c83e
00000010: 07a0 f73d e058 003f a18e 093f 9489 cf3e
00000020: 772a db3e e7f2 403f e1d9 a3bd dc08 b33e
00000030: 776f 0d3f f74b f9bd c838 f4be edbb 42be
00000040: 2e87 a7bd 3a21 443f c1f0 403f b6af 093e
00000050: 4989 0abf 3e48 f2be b778 04be ceb8 aebc
00000060: 6586 c0be c290 74be a2af b1be 71b0 3abe
00000070: 7f36 17bf b7a1 d2be 0e83 bebd a9d8 bebe
00000080: 8120 23be e326 b5be cd8e 8ebe 402d b5be
00000090: 755d 06bf c8ba 1ebf 4d4d 2abf 73b5 88be
000000a0: 028c bdbe 6124 0bbf 3ee1 d5be 2461 b73c
000000b0: cb15 3fbe 568b 0dbf 3311 39be 1925 13bf
000000c0: a841 c8be 1e16 05be f07c 07bf 34b9 cebe
000000d0: b4b4 acbe 3c2a 9abe 0a68 6cbe 36e9 03bf
000000e0: 8851 cebe 4ea9 debe 2284 3fbe b564 93be
000000f0: 1cf2 4fbe 3c4a efbe 165f 13be df3e 513e
00000100: 8650 cbbe a3f1 49be a948 0bbf 5908 14bf
00000110: 8301 25bf 3e5f acbe df4d f13c 1179 b9be
00000120: f56f 42be ae53 8cbe 7d83 b6be 12b0 10bf
00000130: 8e2d 2bbf 4cc3 ffbe 69b4 1abf 9471 93be
00000140: ae6e 21be dd06 d4be fe02 79bc 541c bd3d
00000150: ae7e c4be 092b a4be 76f2 3abf 52a6 a2be
00000160: 9772 d8be 4e7b 30bf f114 13bf b34d 89be
00000170: 9d01 f1bd 106f babd 9589 bdbe 694a 07be
00000180: 3900 25bf cd98 e4be e4ad dabe 3448 39bf

bias f4 [10]
-0.41111258 1.104017 -0.57397056 -0.37950075 -0.21389428 -0.28504506 -0.5521535 -0.13224287
-0.13379961 -0.015176918
00000000: 597d d2be 6e50 8d3f bcef 12bf ec4d c2be
00000010: 1a07 5bbe 6df1 91be ef59 0dbf ad6a 07be
00000020: c402 09be 9ca8 78bc

weight f4 [1, 1, 3, 3]
-0.0106894905 -0.3765506 0.08805151 -0.16595858 -0.56229943 0.7083873 -0.527247 -0.534813
0.9778828
00000000: f922 2fbc 3ecb c0be 5a54 b43d 0cf1 29be
00000010: dbf2 0fbf df58 353f a9f9 06bf 81e9 08bf
00000020: 8756 7a3f

weight f4 [5, 169]
-0.14700282 -0.0644426 -0.13902564 -0.09574458 -0.10067378 -0.09333072 -0.1719474 -0.09691611
-0.11135059 -0.033355482 -0.062292412 -0.13793275 -0.12224261 -0.10273782 -0.039620943 -0.1258743
-0.17038304 -0.04737098 -0.14135942 -0.07849896 -0.100016005 -0.1542103 -0.039414756 -0.04148951
-0.13377367 -0.13017121 -0.12627131 -0.17403856 -0.059073377 -0.12877761 -0.03716677 -0.15303732
-0.009124046 -0.070271164 -0.098159805 -0.12090456 -0.024091093 -0.08273051 -0.07839931 -0.10887126
-0.1345845 -0.15206109 -0.10577437 -0.10444876 -0.15269542 0.052629422 -0.11802827 -0.16905053
-0.14327234 -0.13239661 -0.1108872 -0.05275668 -0.1416968 -0.15734892 -0.17013618 -0.132679
-0.16839705 -0.12165209 -0.005620584 -0.119954675 -0.098206766 -0.07550295 -0.10380919 -0.03836065
-0.12955382 -0.03080912 -0.06138422 -0.16818348 -0.0553226 -0.07440801 -0.10958453 -0.043526754
-0.037375942 0.048942104 -0.026268603 -0.09106655 -0.1549435 -0.10755909 -0.028402366 -0.0879599
-0.120402865 -0.07191789 -0.13114752 0.034022316 -0.0722371 -0.16368651 0.078808606 -0.12712526
-0.17576055 -0.1552308 -0.1602754 -0.03101638 -0.14701974 -0.031234045 -0.108477816 -0.142086
-0.010491537 -0.06421735 -0.09658918 -0.17383865 -0.10206574 -0.14670704 -0.12223235 -0.06531246
-0.17180407 -0.15251751 -0.17345724 -0.16190676 -0.044321153 -0.073733345 -0.10544949 -0.080618344
-0.13109471 -0.1688599 -0.09360791 -0.058021396 -0.15598552 -0.04189234 -0.12567149 -0.12015503
-0.08971739 -0.113692455 -0.112660944 -0.095453955 -0.051121593 -0.118527 -0.04465951 -0.10932789
-0.084332034 -0.12315951 -0.17087722 -0.028625643 -0.078163885 -0.10303475 -0.1691281 -0.07203868
-0.08076661 -0.055227324 -0.02739875 -0.034447297 -0.14768657 -0.056824427 -0.14833522 -0.047633547
-0.06371055 -0.059225988 -0.05157001 -0.11574816 -0.101778574 -0.09349486 -0.06010764 -0.039469723
-0.12481194 -0.066318914 -0.026593298 -0.051931467 -0.026753895 -0.14634235 -0.06623785 -0.10831164
-0.1575145 -0.16199665 -0.14231822 -0.08905645 -0.12206663 -0.0837017 -0.075347096 -0.102147214
-0.0461904 -0.09747518 -0.10399086 -0.09148662 0.0001466865 -0.013957807 -0.15175408 -0.02133093
-0.0050983015 0.035949986 -0.07635376 -0.07386612 -0.06933554 0.045468263 0.049421534 -0.00045446467
-0.4509751 -0.49205533 -0.44902256 -0.37423888 -0.28138125 -0.35425404 -0.2598098 -0.112188615
-0.08777372 -0.04981998 -0.023165984 -0.06956533 0.024630126 -0.4609332 -0.31710666 -0.19871494
-0.08035141 -0.07671896 -0.2836607 -0.34579203 -0.108672105 -0.00072094036 0.028485436 0.015897727
-0.0296257 0.027395803 -0.4133368 0.16745362 0.5365087 -0.09070003 0.10264258 -0.25095442
0.09918194 0.069921754 -0.009089935 0.006136799 -0.04523135 -0.09370455 0.061423864 -0.08631282
0.5272019 0.0052912813 -0.48498064 0.14996281 0.13522442 -0.10025216 -0.12325013 -0.11956828
-0.052278765 -0.10019198 -0.04761671 -0.051036946 0.058496267 0.5301106 -0.2712616 -0.3316924
0.034313224 0.074906886 -0.15853505 -0.088798545 -0.08625959 -0.06464459 -0.06333355 -0.09351036
-0.10394455 0.1389396 0.44827485 0.011983707 -0.25860968 -0.35894302 0.25251076 -0.20682307
00000000: e887 16be 7bfa 83bd bd5c 0ebe bc15 c4bd
00000010: 0e2e cebd 2d24 bfbd fb12 30be f47b c6bd
00000020: c70b e4bd c29f 08bd 5426 7fbd 3e3e 0dbe
00000030: 555a fabd 3568 d2bd 9249 22bd 31e5 00be
00000040: e478 2ebe 1308 42bd 86c0 10be 10c4 a0bd
00000050: 31d5 ccbd 4ee9 1dbe 5e71 21bd e8f0 29bd
00000060: f7fb 08be 9a4b 05be 444d 01be 2a37 32be
00000070: edf6 71bd 47de 03be 2f3c 18bd d1b5 1cbe
00000080: 067d 15bc 54ea 8fbd 0208 c9bd cf9c f7bd
00000090: af5a c5bc 9d6e a9bd d18f a0bd e5f7 debd
000000a0: 85d0 09be e7b5 1bbe 3ca0 d8bd 3be9 d5bd
000000b0: 305c 1cbe f391 573d ceb8 f1bd 951b 2dbe
000000c0: fcb5 12be fa92 07be d418 e3bd 6317 58bd
000000d0: f718 11be 1320 21be 2e38 2ebe 01dd 07be
000000e0: 4770 2cbe bb24 f9bd e02c b8bb ccaa f5bd
000000f0: a120 c9bd 4aa1 9abd ea99 d4bd 0f20 1dbd
00000100: c2a9 04be 6863 fcbc 056e 7bbd 4a38 2cbe
00000110: f399 62bd 3a63 98bd db6d e0bd 1c49 32bd
00000120: 8417 19bd 8477 483d 4131 d7bc 1981 babd
00000130: 82a9 1ebe f147 dcbd 14ac e8bc 5224 b4bd
00000140: c795 f6bd b049 93bd 894b 06be fc5a 0b3d
00000150: 0bf1 93bd 709d 27be 6866 a13d 202d 02be
00000160: 93fa 33be d3f4 1ebe 3c1f 24be 1016 febc
00000170: 588c 16be 8ade ffbc 9e29 debd fe7e 11be
00000180: b2e4 2bbc 6384 83bd 8cd0 c5bd c202 32be
00000190: d807 d1bd 5f3a 16be f454 fabd 8ac2 85bd
000001a0: 68ed 2fbe 8d2d 1cbe c69e 31be e3ca 25be
000001b0: 198a 35bd 8201 97bd e7f5 d7bd 3b1b a5bd
000001c0: b13d 06be 9ce9 2cbe 81b5 bfbd d8a7 6dbd
000001d0: abba 1fbe 4d97 2bbd 07b0 00be d713 f6bd
000001e0: c0bd b7bd 97d7 e8bd c8ba e6bd 5d7d c3bd
000001f0: e064 51bd 49be f2bd e4ec 36bd 4de7 dfbd
00000200: 46b6 acbd 0e3b fcbd 70fa 2ebe 5380 eabc
00000210: 6314 a0bd e203 d3bd eb2f 2dbe 0489 93bd
00000220: f768 a5bd 0c36 62bd 5873 e0bc 9c18 0dbd
00000230: 263b 17be bbc0 68bd 30e5 17be 651b 43bd
00000240: ad7a 82bd f396 72bd 133b 53bd 5f0d edbd
00000250: 4971 d0bd 3c7a bfbd 6e33 76bd 01ab 21bd
00000260: 679d ffbd 36d2 87bd 30da d9bc 17b6 54bd
00000270: fc2a dbbc c5da 15be b6a7 87bd 7ed2 ddbd
00000280: 7b4b 21be 73e2 25be debb 11be 3a63 b6bd
00000290: 12fe f9bd cc6b abbd 944f 9abd 8f32 d1bd
000002a0: 2532 3dbd 11a1 c7bd 29f9 d4bd 565d bbbd
000002b0: dccf 1939 49af 64bc 6c65 1bbe 34be aebc
000002c0: a70f a7bb 4b40 133d 5c5f 9cbd 1f47 97bd
000002d0: cbff 8dbd ee3c 3a3d 3c6e 4a3d 3745 eeb9
000002e0: 35e6 e6be adee fbbe 49e6 e5be 3d9c bfbe
000002f0: 3411 90be c960 b5be ca05 85be 25c3 e5bd
00000300: b5c2 b3bd 0910 4cbd 97c6 bdbc 4578 8ebd
00000310: 1ec5 c93c 70ff ebbe ce5b a2be ee7b 4bbe
00000320: 488f a4bd d51e 9dbd fa3b 91be a70b b1be
00000330: 7b8f debd 7dfd 3cba 4a5a e93c f33b 823c
00000340: 99b1 f2bc 2a6d e03c e2a0 d3be f678 2b3e
00000350: a258 093f f0c0 b9bd 4636 d23d 197d 80be
00000360: e71f cb3d 2333 8f3d f3ed 14bc 3417 c93b
00000370: 8244 39bd 2ce8 bfbd 9797 7b3d c7c4 b0bd
00000380: b4f6 063f 7c62 ad3b 624f f8be da8f 193e
00000390: 4578 0a3e 0151 cdbd 906a fcbd 37e0 f4bd
000003a0: 4222 56bd 7431 cdbd bd09 43bd 1e0c 51bd
000003b0: c899 6f3d 54b5 073f cde2 8abe 96d3 a9be
000003c0: 068c 0c3d c868 993d 0357 22be 03dc b5bd
000003d0: dea8 b0bd 6264 84bd 05b5 81bd 5c82 bfbd
000003e0: e1e0 d4bd 2f46 0e3e 4884 e53e 4f57 443c
000003f0: 7d68 84be 61c7 b7be 1749 813e 6dc9 53be

bias f4 [5]
-0.022023926 -0.19323212 -0.06934335 -0.08467431 0.21120806
00000000: 856b b4bc a4de 45be e303 8ebd ba69 adbd
00000010: ed46 583e

weight f4 [10, 5]
0.07962668 -0.34561875 0.3207033 0.032587517 -0.4255507 0.5365414 0.46308637 -0.0063935495
0.96677727 0.08013688 -0.34946436 0.08649398 0.28585902 0.85558915 0.7682304 0.40484175
-0.27377734 0.0031593428 0.025291746 0.17076091 -0.082247056 0.7751914 0.16461802 0.5221023
0.028062684 -0.21920522 0.5025301 0.53452575 0.297395 0.9360985 0.04867472 0.13342102
-0.20051731 -0.2943199 0.055321984 -0.015885225 -0.30538297 0.018849902 -0.14307009 -0.41168532
-0.22833781 0.05896971 -0.110131904 0.57231075 0.3689704 0.18116942 -0.24014573 0.17605062
-0.10806536 -0.4555618
00000000: 5013 a33d f1f4 b0be 3933 a43e 7d7a 053d
00000010: c8e1 d9be c75a 093f a819 ed3e fb80 d1bb
00000020: b77e 773f ce1e a43d feec b2be c123 b13d
00000030: 1d5c 923e e407 5b3f bfaa 443f 6b47 cf3e
00000040: 8b2c 8cbe fa0c 4f3b a330 cf3c f3db 2e3e
00000050: 2571 a8bd f272 463f a091 283e 7fa8 053f
00000060: b7e3 e53c 5577 60be d0a5 003f aed6 083f
00000070: 2844 983e 27a4 6f3f 255f 473d 859f 083e
00000080: 6954 4dbe 19b1 96be 4e99 623d bb21 82bc
00000090: 285b 9cbe 1c6b 9a3c f780 12be 6bc8 d2be
000000a0: 63d1 69be 398a 713d d68c e1bd f582 123f
000000b0: b0e9 bc3e 7a84 393e c3e8 75be 9d46 343e
000000c0: 5f51 ddbd 653f e9be

bias f4 [10]
1.076412 0.9078266 -0.22121538 1.346007 -0.3618253 -0.08145121 -0.43628553 1.2039342
0.98909813 -0.38015538
00000000: dec7 893f 5367 683f 4986 62be f549 ac3f
00000010: 2a41 b9be e4cf a6bd d160 dfbe 841a 9a3f
00000020: 8935 7d3f baa3 c2be

weight f4 [10, 10]
1.0951203 0.42005926 -0.84635025 1.0484303 -0.58687097 -0.24389647 0.09508662 1.6882524
0.87233174 0.034616996 -0.71739376 0.50832164 0.77714086 0.4831125 0.4924944 0.6872073
0.08629983 -1.8602815 0.9532382 -0.17984588 -1.1840528 -0.91766244 -0.38093498 -0.7996197
-0.88352877 -0.24061677 -0.7242308 -2.5194438 -1.0215712 0.03377502 -1.242269 -0.9216647
-0.7122787 -0.7744023 -0.7108173 -0.25686315 -0.77038765 -2.5136986 -0.586514 0.11551736
-1.2505137 -0.56984735 -0.63363135 -1.1080424 -0.99312294 -0.13044266 -0.56166226 -2.5288742
-0.7724446 -0.003334523 -1.271306 -0.7829593 -0.34550896 -0.76573557 -0.9478492 0.057411894
-0.5873878 -2.4210126 -0.852205 -0.43834665 -1.0946594 -0.83852375 -0.16686678 -0.76775205
-0.9354268 -0.33580837 -0.731343 -2.5935836 -0.6781099 0.04672709 -1.1453595 -0.9351598
-0.28215852 -0.7339193 -0.8506768 -0.47329634 -0.43348888 -2.4392314 -1.079827 -0.50059044
-1.0317513 -0.8881437 -0.6483483 -0.98435086 -0.5006213 0.11672694 -0.40682235 -2.6614814
-0.9228563 0.12435556 -1.3365542 -0.87002915 -0.3313308 -0.5795362 -0.63203365 -0.14301203
-0.51840395 -2.4661922 -1.0078537 0.06325303
00000000: e72c 8c3f 0212 d73e 69aa 58bf f732 863f
00000010: 2d3d 16bf ffbf 79be c6bc c23d a818 d83f
00000020: 2251 5f3f 8dca 0d3d 1ea7 37bf 5e21 023f
00000030: b4f2 463f 865a f73e 3a28 fc3e d1ec 2f3f
00000040: f7bd b03d b41d eebf 6b07 743f 8529 38be
00000050: 0b8f 97bf edeb 6abf e909 c3be e0b3 4cbf
00000060: f12e 62bf 3e64 76be 3167 39bf 913e 21c0
00000070: d8c2 82bf ad57 0a3d ac02 9fbf 38f2 6bbf
00000080: e657 36bf 3b3f 46bf 1ff8 35bf 9183 83be
00000090: 2038 45bf 70e0 20c0 c825 16bf 5e94 ec3d
000000a0: d510 a0bf 84e1 11bf aa35 22bf 55d4 8dbf
000000b0: 4e3d 7ebf c392 05be 19c9 0fbf 13d9 21c0
000000c0: eebe 45bf 0388 5abb 28ba a2bf 0570 48bf
000000d0: 8de6 b0be 3f07 44bf 3fa6 72bf bc28 6b3d
000000e0: 0c5f 16bf dff1 1ac0 1b2a 5abf f96e e0be
000000f0: cd1d 8cbf 7ea9 56bf 20df 2abe 668b 44bf
00000100: 2178 6fbf 13ef abbe 4b39 3bbf 46fd 25c0
00000110: 9c98 2dbf e864 3f3d 249b 92bf a266 6fbf
00000120: 1577 90be 23e2 3bbf f4c5 59bf e653 f2be
00000130: 41f2 ddbe 5e1c 1cc0 c537 8abf b226 00bf
00000140: 6d10 84bf 635d 63bf 27fa 25bf 6bfe 7bbf
00000150: b828 00bf 890e ef3d 054b d0be b655 2ac0
00000160: 4f40 6cbf 21ae fe3d 3514 abbf 3bba 5ebf
00000170: 31a4 a9be 7c5c 14bf f5cc 21bf bf71 12be
00000180: 1fb6 04bf 18d6 1dc0 5a01 81bf ce8a 813d

bias f4 [10]
0.45352855 0.3325463 -0.35936028 -0.5451096 -0.80439615 -0.45668706 -0.46027118 -0.30822608
-0.4746752 -0.3178826
00000000: e534 e83e 8243 aa3e 12fe b7be 4e8c 0bbf
00000010: e8ec 4dbf e3d2 e9be aaa8 ebbe cfcf 9dbe
00000020: a108 f3be 82c1 a2be

weight f4 [1, 1, 3, 3]
0.53531873 0.30839118 -0.3587259 0.6397767 0.73721975 -0.7018548 0.5889244 0.43413183
-0.5596362
00000000: a60a 093f 73e5 9d3e ecaa b7be 68c8 233f
00000010: 6fba 3c3f c2ac 33bf c0c3 163f 8746 de3e
00000020: 5144 0fbf

weight f4 [5, 169]
-0.0320613 -0.013875999 0.16525735 -0.38734403 0.01347902 -0.037463114 0.0813954 -0.20914978
0.5548863 1.0142546 1.1552767 0.30102482 0.055186722 0.061179217 0.027114814 0.025362415
-0.4703771 -0.29311457 0.011748087 -0.43807298 0.07783474 0.36710018 0.8940675 1.0382416
1.2708619 0.20760667 0.04857587 -0.29816628 -0.05459782 -0.48065522 -0.07070992 -0.25767222
-0.31328985 0.043037295 0.11736044 0.44788626 0.032007433 0.8451022 1.0407779 0.054360017
-0.12480588 -0.0037439626 -1.2631913 -0.30113062 -0.37667218 0.16246064 0.14902593 -0.10760761
-0.3754249 -0.34407625 -0.047657672 0.9142168 0.06126504 -0.17301735 -0.4127798 -0.9318115
0.32202753 0.2412955 0.47029296 0.13015303 -0.6010308 -0.6921118 -0.9597519 -1.1770278
0.26493406 0.066390984 -0.16823846 -0.026867472 0.6738347 1.0589527 0.89490443 0.5771329
-0.05637334 -0.2855787 -0.8260688 -0.6097074 -0.4764345 -0.45622265 0.043281145 -0.30704743
0.30068433 0.7853757 0.72949713 0.9284415 0.21605545 0.30005226 -0.27028814 0.4309558
0.5114137 0.4416304 -0.5255609 0.056847025 -0.4873578 -0.09557885 0.024363315 0.09557522
0.3725852 0.340175 0.06965912 0.39083686 0.79261076 0.42979085 0.3686652 -0.8551444
-0.032821894 -0.5611382 -0.674539 -0.53217554 -0.016506985 0.42726228 0.11999316 -0.065634556
0.15908182 0.54377335 0.07522859 -0.2943873 -1.0406187 0.05110994 -0.4349235 -0.5926551
-0.48489434 0.032991294 0.03374304 0.3216428 0.5367534 0.2730367 0.17507066 -0.025968174
-0.54813373 -1.0513736 0.04690935 -0.30666187 -0.66762525 -1.0485411 0.11443011 -0.15062658
0.7589621 0.43751672 0.25722417 -0.4083088 -0.4784288 -0.7145379 -0.6180261 -0.007032875
-0.46419355 -0.69498825 -0.9817777 -0.23967041 -0.40643778 -0.15674807 0.2261997 -0.57173353
-0.51920813 -0.2457804 -0.78746635 -0.5567761 -0.004990624 -0.09991825 -0.14764944 -0.37488055
-0.34218243 -0.31117553 -0.17825097 0.02911686 -0.30352348 -0.64142275 -0.14041741 -0.15545954
0.026242908 0.062319566 0.07193679 0.24786837 -0.35702977 -0.0039564706 -0.01001598 -0.16658965
-0.32114983 0.4749823 0.81090343 1.0769681 0.37800035 0.056595754 -0.06148089 0.074012674
0.07078861 -0.47081923 -0.37248644 -0.1449261 -0.6921578 -0.15617779 0.17402205 0.6075451
1.0062404 1.2613821 0.18914513 0.07261506 -0.17898719 0.10095854 -0.118282184 0.049947385
-0.20624028 -0.44020346 -0.025516154 -0.051849168 0.2838451 0.091969684 1.0288937 1.1725662
-0.049427237 -0.22294387 0.5107893 -0.76482373 -0.41294292 -0.46577978 0.04782894 -0.0032295524
-0.07420864 -0.051971477 0.019227827 0.07027928 1.0737616 -0.04870236 -0.03077395 0.08343299
-0.88249326 0.048875693 0.043044902 0.23220955 -0.09191208 -0.4004961 -0.15654019 -0.63463795
-1.0718265 0.25529626 0.07238661 -0.057022836 0.13010815 0.7144921 0.9250612 0.69352496
0.4368472 -0.16076873 0.1269219 -0.32983455 -0.3489676 -0.47221968 -0.5703994 0.01847843
-0.33188102 0.41830024 0.88303864 0.639978 0.796052 0.11357394 0.17694534 -0.2613851
00000000: b652 03bd 2858 63bc 3939 293e f551 c6be
00000010: 1cd7 5c3c ec72 19bd a2b2 a63d 5c2b 56be
00000020: 070d 0e3f 18d3 813f 1be0 933f ed1f 9a3e
00000030: 790b 623d 0f97 7a3d e31f de3c d7c4 cf3c
00000040: 44d5 f0be 1d13 96be 0c7b 403c 1a4b e0be
00000050: d267 9f3d 8ef4 bb3e 9ce1 643f 1ae5 843f
00000060: 9aab a23f d896 543e 7ef7 463d 40a9 98be
00000070: f7a1 5fbd 7118 f6be 5dd0 90bd 9ded 83be
00000080: 8767 a0be e047 303d ac5a f03d 5951 e53e
00000090: 3a1a 033d 9e58 583f 3638 853f 9ca8 5e3d
000000a0: 3a9a ffbd 455d 75bb 41b0 a1bf cb2d 9abe
000000b0: 2ddb c0be 155c 263e 419a 183e 6161 dcbd
000000c0: b137 c0be c32a b0be b134 43bd 1d0a 6a3f
000000d0: 0df1 7a3d 762b 31be e057 d3be 338b 6ebf
000000e0: cbe0 a43e 2b16 773e 3dca f03e d646 053e
000000f0: 28dd 19bf 3d2e 31bf 4db2 75bf d9a8 96bf
00000100: 70a5 873e fff7 873d b446 2cbe 2c19 dcbc
00000110: 6e80 2c3f c38b 873f 7518 653f fbbe 133f
00000120: bbe7 66bd 5f37 92be 3f79 53bf c915 1cbf
00000130: 39ef f3be 0496 e9be 9247 313d 5235 9dbe
00000140: 4cf3 993e 620e 493f 53c0 3a3f 58ae 6d3f
00000150: a43d 5d3e 73a0 993e 3563 8abe 3da6 dc3e
00000160: 02ec 023f 611d e23e 298b 06bf 6dd8 683d
00000170: f686 f9be d8be c3bd 9395 c73c f1bc c33d
00000180: 7dc3 be3e 6b2b ae3e 71a9 8e3d c51b c83e
00000190: 8ae8 4a3f 8c0d dc3e afc1 bc3e beea 5abf
000001a0: 4070 06bd c1a6 0fbf 97ae 2cbf a83c 08bf
000001b0: a839 87bc 1fc2 da3e f9be f53d 696b 86bd
000001c0: 58e6 223e bb34 0b3f 7211 9a3d efb9 96be
000001d0: fe32 85bf a858 513d 4bae debe 3fb8 17bf
000001e0: 1244 f8be e121 073d 2436 0a3d 5dae a43e
000001f0: ac68 093f 77cb 8b3e b945 333e 35bb d4bc
00000200: 7e52 0cbf 6993 86bf 0524 403d c902 9dbe
00000210: 7de9 2abf 9836 86bf 555a ea3d db3d 1abe
00000220: 574b 423f 3102 e03e e3b2 833e da0d d1be
00000230: 9ff4 f4be f5eb 36bf f536 1ebf 0874 e6bb
00000240: c7aa edbe c0ea 31bf c955 7bbf 296c 75be
00000250: 9d18 d0be 9182 20be e5a0 673e 215d 12bf
00000260: d3ea 04bf dbad 7bbe 6597 49bf e188 0ebf
00000270: 6388 a3bb f1a1 ccbd 6a31 17be 58f0 bfbe
00000280: 8932 afbe 6652 9fbe 6c87 36be 7b86 ee3c
00000290: 6e67 9bbe 4834 24bf 95c9 0fbe c930 1fbe
000002a0: 5efb d63c cd42 7f3d 9953 933d 35d1 7d3e
000002b0: 9bcc b6be 48a5 81bb 111a 24bc 7a96 2abe
000002c0: c06d a4be e130 f33e 5e97 4f3f 17da 893f
000002d0: 4389 c13e f3d0 673d 63d3 7bbd f593 973d
000002e0: 9ef9 903d 380f f1be 8bb6 bebe 8267 14be
000002f0: 4131 31bf 12ed 1fbe d632 323e 1388 1b3f
00000300: 7ccc 803f f874 a13f 43af 413e 34b7 943d
00000310: 6b48 37be 5ac3 ce3d ee3d f2bd a195 4c3d
00000320: a730 53be 5962 e1be 4107 d1bc cb5f 54bd
00000330: 2554 913e 9a5a bc3d cab2 833f a616 963f
00000340: 3774 4abd 664b 64be 16c3 023f 7dcb 43bf
00000350: 416d d3be b07a eebe 47e8 433d e6a6 53bb
00000360: b3fa 97bd 0be0 54bd ad83 9d3c 95ee 8f3d
00000370: 0571 893f 207c 47bd a719 fcbc eade aa3d
00000380: 14eb 61bf e131 483d da4f 303d 57c8 6d3e
00000390: 673c bcbd d30d cdbe 124c 20be a277 22bf
000003a0: 9c31 89bf 31b6 823e 6e3f 943d c790 69bd
000003b0: 123b 053e f4e8 363f d0d0 6c3f da8a 313f
000003c0: 70aa df3e 8fa0 24be d1f7 013e 13e0 a8be
000003d0: e2ab b2be c7c6 f1be b205 12bf 1460 973c
000003e0: 4fec a9be 732b d63e d20e 623f 99d5 233f
000003f0: 10ca 4b3f 7499 e83d 2931 353e 45d4 85be

bias f4 [5]
-0.37442663 -0.618998 -0.2822756 0.7857448 -0.17081447
00000000: d9b4 bfbe a776 1ebf 6d86 90be 9226 493f
00000010: fde9 2ebe

weight f4 [10, 5]
0.22222644 -0.34365773 0.2347514 -0.31884348 0.38618582 0.2556648 -0.055823077 0.34245905
-0.5924544 0.21480514 0.7362945 0.30121094 1.1269814 -0.120717004 0.34624153 0.4272659
0.12261554 0.6333408 -0.22343269 -0.1192674 -0.048592247 -0.39222735 -0.21154922 -0.26494023
-0.26231554 0.23925985 0.24737267 0.665088 0.02055355 -0.41211903 0.115040876 0.23289487
-0.44076627 0.6845407 -0.22174369 -0.2614264 -0.17354088 -0.7286068 0.6967296 -0.069661476
0.25411898 -0.29188132 0.34084103 -0.35032162 -0.123981245 0.60651994 0.15051174 0.6206191
0.08281477 0.20182148
00000000: 548f 633e e8f3 afbe ac62 703e 743f a3be
00000010: 26ba c53e 7fe6 823e bda6 64bd cb56 af3e
00000020: 17ab 17bf e1f5 5b3e cc7d 3c3f 5238 9a3e
00000030: ed40 903f 7a3a f7bd 9246 b13e 99c2 da3e
00000040: db1d fb3d 9f22 223f 8acb 64be 7742 f4bd
00000050: aa08 47bd 06d2 c8be 5ca0 58be 3fa6 87be
00000060: 394e 86be 8900 753e 434f 7d3e 3543 2a3f
00000070: eb5f a83c 4401 d3be 8d9a eb3d fe7b 6e3e
00000080: 1eac e1be 0f3e 2f3f c710 63be aed9 85be
00000090: b3b4 31be fa85 3abf df5c 323f adaa 8ebd
000000a0: e21b 823e 7871 95be b782 ae3e 5b5d b3be
000000b0: e1e9 fdbd e444 1b3f c01f 1a3e e5e0 1e3f
000000c0: ca9a a93d 4aaa 4e3e

bias f4 [10]
-0.2572683 -0.6762357 -0.53846025 -0.1512006 -0.42391646 -0.3961997 0.50503033 0.64912343
-0.25912985 -0.5487341
00000000: acb8 83be c81d 2dbf 88d8 09bf 55d4 1abe
00000010: 940b d9be b0da cabe ab49 013f f42c 263f
00000020: abac 84be d779 0cbf

weight f4 [10, 10]
-0.090431534 0.24614765 -0.104571894 -0.4447517 0.045303203 -0.166398 0.76581085 0.630361
-0.10352618 0.086403124 0.26133087 0.27898845 0.57155675 0.29822055 0.2170738 0.31518131
0.60094607 -0.5003183 0.19172098 0.54803276 0.16776334 -0.4524987 -0.5304313 0.064541414
-0.28701845 -0.30701306 -0.3492034 -0.626181 -0.24329376 -0.528092 0.14715075 -0.6905023
-0.47868595 -0.033276506 0.2896168 -0.44836995 -0.30322647 -0.70381165 -0.2877388 -0.6711726
0.10650053 -0.13783203 -0.35568994 -0.20861727 -0.110389076 -0.4617868 -0.6765009 -0.55943835
0.2280388 -0.39208323 0.22661155 -0.4311037 -0.7097966 0.1085717 -0.20943433 0.08573845
-0.62514824 -0.507932 0.053127844 -0.26273358 0.2873735 -0.3580446 -0.5114039 -0.38566622
-0.23468654 -0.3131717 -0.32275972 -0.39785224 0.071605206 -0.4529331 -0.084914684 -0.6608847
-0.71261847 0.019510502 0.23766093 -0.0610407 -0.34899932 -0.4641342 -0.02263692 -0.24616866
0.015389465 -0.5439518 -0.4709533 0.05103568 0.21315551 0.081992954 -0.6475285 -0.72543186
-0.27677888 -0.5167997 -0.21175912 -0.11015473 -0.2941313 -0.028533215 -0.06978869 0.031112567
-0.63147223 -0.41169629 0.05694281 -0.56793755
00000000: 2b34 b9bd 210e 7c3e ca29 d6bd 7fb6 e3be
00000010: da8f 393d 3d64 2abe 2e0c 443f 575f 213f
00000020: 8905 d4bd 1ff4 b03d 29cd 853e 93d7 8e3e
00000030: 8b51 123f 5db0 983e 9848 5e3e 725f a13e
00000040: 9ad7 193f dc14 00bf 8152 443e e04b 0c3f
00000050: 27ca 2b3e e9ad e7be 58ca 07bf 4a2e 843d
00000060: 15f4 92be d130 9dbe caca b2be 664d 20bf
00000070: 0022 79be 0a31 07bf b0ae 163e c2c4 30bf
00000080: 5316 f5be f24c 08bd a748 943e bf90 e5be
00000090: 8040 9bbe 002d 34bf 8052 93be f8d1 2bbf
000000a0: f31c da3d d723 0dbe fe1c b6be c49f 55be
000000b0: ab13 e2bd 526f ecbe 2a2f 2dbf 5a37 0fbf
000000c0: 0183 693e 22bf c8be dc0c 683e a0b9 dcbe
000000d0: 3bb5 35bf d75a de3d f475 56be a497 af3d
000000e0: b709 20bf d507 02bf 959c 593d 0485 86be
000000f0: 9f22 933e 9f51 b7be 5eeb 02bf 0b76 c5be
00000100: ab51 70be 0b58 a0be c340 a5be 4ab3 cbbe
00000110: c0a5 923d d9e6 e7be c0e7 adbd bd2f 29bf
00000120: 2a6e 36bf 7dd4 9f3c 635d 733e d005 7abd
00000130: 0ab0 b2be ffa2 edbe 1071 b9bc a313 7cbe
00000140: 1824 7c3c 6d40 0bbf ca20 f1be ca0a 513d
00000150: 7045 5a3e eceb a73d 6ec4 25bf e7b5 39bf
00000160: f6b5 8dbe fc4c 04bf 62d7 58be ce98 e1bd
00000170: 6198 96be 7dbe e9bc 5fed 8ebd c8df fe3c
00000180: 2aa8 21bf dbc9 d2be dd3c 693d 5b64 11bf

bias f4 [10]
0.8423657 -0.4937097 -0.5781411 -0.027309349 -0.017729443 -0.058692027 -0.2231783 -0.3457542
-0.5072436 -0.29129076
00000000: 47a5 573f 85c7 fcbe 0e01 14bf dbb7 dfbc
00000010: 563d 91bc 0d67 70bd da88 64be b206 b1be
00000020: b7da 01bf 1024 95be

weight f4 [1, 1, 3, 3]
0.62367004 0.74080575 0.42361563 -0.017891357 -0.65966684 0.16129395 -0.51017386 -0.5250871
-0.11569991
00000000: d7a8 1f3f 72a5 3d3f 26e4 d83e e590 92bc
00000010: eddf 28bf 3e2a 253e c19a 02bf 1c6c 06bf
00000020: 13f4 ecbd

weight f4 [5, 169]
-0.06842558 -0.031207828 -0.056130044 0.041280005 -0.044883445 -0.060153194 0.04598573 0.04448602
-0.015935991 -0.07421739 0.003061909 0.017365044 0.006604305 0.0075364667 -0.031109326 -0.051484577
-0.07617954 -0.035219003 -0.15666366 -0.14457928 -0.048036337 0.061283436 -0.035149027 -0.0014179304
-0.02464168 0.03302746 0.005961574 0.0041833753 -0.04317194 -0.04846363 -0.05864891 -0.1404553
-0.07678349 -0.06513526 -0.033888146 -0.14523254 -0.054167766 0.07444154 0.060137685 0.03763145
-0.057671495 0.036274005 -0.034039445 -0.02825407 -0.11467468 -0.121199094 -0.11785511 -0.036806744
-0.098329805 0.03587004 0.047396816 0.07249339 0.015459208 -0.015777716 0.064770296 -0.061347652
-0.027437476 0.0314112 -0.13903464 -0.16117668 -0.12541279 -0.14101887 -0.024761524 0.06271898
0.03479901 0.029499073 -0.054443363 0.059406504 -0.17211385 -0.16313167 -0.13541898 -0.118014194
-0.1464765 -0.17384398 -0.0705796 -0.054238066 0.04593874 0.039104518 -0.00097445346 -0.033377778
-0.045796037 -0.0030462835 -0.036894854 -0.033957496 -0.056614045 -0.104014575 -0.17256752 -0.14429966
-0.058105372 -0.060229167 0.03902636 -0.016997099 0.043935146 0.03274287 0.01789603 -0.09220961
-0.030960325 -0.0238901 -0.17617466 -0.075737335 -0.024260946 -0.024474183 0.034171104 -0.023438215
-0.012784426 0.04104146 0.07072965 0.009579448 -0.016474918 -0.089134246 -0.059408505 -0.16235784
-0.124753796 -0.07948377 -0.15730041 -0.004793589 0.053955115 -0.085341 0.046081956 -0.16258837
-0.07884942 -0.16527607 -0.15317136 -0.13054568 -0.12715028 -0.17035505 -0.13506883 0.009537725
0.0137710115 -0.05150974 -0.12402552 -0.057220206 -0.13521141 -0.03415538 -0.1449144 -0.07057534
-0.04014384 -0.12678252 -0.11302721 -0.021581806 0.03936733 0.07171362 -0.036360826 0.008716905
-0.050007124 -0.14117597 -0.15993695 -0.1279741 -0.12302309 -0.16622537 -0.036298037 -0.027870784
0.004291452 -0.020621933 0.02893216 0.042274266 0.0024756927 -0.008028324 -0.033019166 0.0050756107
0.048997182 -0.04551742 -0.021399206 -0.03119013 -0.074845806 -0.03181397 0.055293445 -0.04941615
-0.05876792 -0.040755313 -0.14076045 -0.15658802 -0.13367066 -0.13625361 -0.15703928 -0.10765458
-0.16298848 -0.11424372 -0.09400266 -0.057371426 -0.03332875 -0.103289634 -0.17062466 -0.15649825
-0.05021037 -0.1019039 -0.10162689 -0.059773754 -0.16832456 -0.06400715 -0.0574084 -0.13890572
-0.13370143 -0.13161887 -0.17008209 -0.08654711 -0.026663722 -0.025885167 -0.09938252 -0.12517776
-0.062086437 -0.14039814 -0.06642276 -0.07593164 -0.08244533 -0.09453638 -0.028917182 -0.02680772
-0.13376656 -0.15496927 -0.08817282 -0.13624606 -0.13607484 -0.140436 -0.13260059 -0.039502285
-0.08948648 -0.033447176 -0.08498236 -0.16515604 -0.048746195 -0.17571197 -0.028728854 -0.036948726
-0.17180513 -0.16470167 -0.08350752 -0.07438589 -0.05151853 -0.11374844 -0.14168239 -0.12902297
-0.13129362 -0.14873989 -0.16040279 -0.14727774 -0.05431672 -0.031887926 -0.092912786 -0.07642381
-0.08193814 -0.074550286 -0.1609926 -0.14825734 -0.10632064 -0.08410693 -0.030564977 -0.1237484
-0.030611867 -0.0934304 -0.12556978 -0.12876958 -0.056166016 -0.11460513 -0.027832959 -0.085879184
00000000: b622 8cbd 8fa7 ffbc 9ee8 65bd 3915 293d
00000010: b4d7 37bd 3263 76bd 885b 3c3d f936 363d
00000020: 328c 82bc 49ff 97bd 4faa 483b 2341 8e3c
00000030: ed68 d83b 77f4 f63b fcd8 febc 7ee1 52bd
00000040: 0504 9cbd cd41 10bd 706c 20be 970c 14be
00000050: c0c1 44bd 5704 7b3d 6df8 0fbd d9d9 b9ba
00000060: 59dd c9bc cd47 073d 4f59 c33b b214 893b
00000070: 0fd5 30bd cd81 46bd d739 70bd 84d3 0fbe
00000080: aa40 9dbd a365 85bd 4cce 0abd d7b7 14be
00000090: 05df 5dbd ce74 983d ef52 763d 6f23 1a3d
000000a0: f238 6cbd 0d94 143d f26c 0bbd 1475 e7bc
000000b0: 8fda eabd 3b37 f8bd 055e f1bd abc2 16bd
000000c0: 2361 c9bd 77ec 123d 2a23 423d 6a77 943d
000000d0: 9e48 7d3c 4540 81bc 4aa6 843d ad47 7bbd
000000e0: 8fc4 e0bc 08a9 003d 195f 0ebe 800b 25be
000000f0: 366c 00be 4067 10be aed8 cabc cf72 803d
00000100: 6889 0e3d 0aa8 f13c 0100 5fbd 3c54 733d
00000110: 9d3e 30be fd0b 27be 46ab 0abe 6db1 f1bd
00000120: f0fd 15be 2804 32be 0a8c 90bd bc28 5ebd
00000130: 432a 3c3d 0f2c 203d 7772 7fba 23b7 08bd
00000140: a094 3bbd 28a4 47bb 0f1f 17bd 0417 0bbd
00000150: 21e4 67bd 9805 d5bd 8ab5 30be 4ac3 13be
00000160: e6ff 6dbd dcb2 76bd 1bda 1f3d 803d 8bbc
00000170: 57f5 333d 631d 063d b29a 923c 64d8 bcbd
00000180: 82a0 fdbc 2cb5 c3bc 2167 34be 2d1c 9bbd
00000190: e4be c6bc 157e c8bc 00f7 0b3d 8001 c0bc
000001a0: c575 51bc 171b 283d b5da 903d 1ef3 1c3c
000001b0: 68f6 86bc 048c b6bd 5556 73bd 2241 26be
000001c0: eb7e ffbd 63c8 a2bd 5c13 21be 8a13 9dbb
000001d0: 0a00 5d3d 43c7 aebd 6fc0 3c3d 917d 26be
000001e0: ce7b a1bd 213e 29be f4d8 1cbe c4ad 05be
000001f0: af33 02be 8e71 2ebe 7c4f 0abe 1e44 1c3c
00000200: cf9f 613c e1fb 52bd 1801 febd bc5f 6abd
00000210: dc74 0abe 83e6 0bbd 7164 14be ce89 90bd
00000220: de6d 24bd 47d3 01be cf7a e7bd 54cc b0bc
00000230: a33f 213d 97de 923d 17ef 14bd 59d1 0e3c
00000240: 45d4 4cbd 6f90 10be 83c6 23be a40b 03be
00000250: 88f3 fbbd fc36 2abe 40ad 14bd 4551 e4bc
00000260: 4f9f 8c3b 54ef a8bc 2303 ed3c c827 2d3d
00000270: 3b3f 223b 3b89 03bc 1b3f 07bd 4f51 a63b
00000280: 45b1 483d 7970 3abd 634d afbc 7282 ffbc
00000290: c248 99bd 5e4f 02bd 617b 623d 9768 4abd
000002a0: a1b6 70bd 0bef 26bd 8223 10be 9c58 20be
000002b0: f6e0 08be 1186 0bbe e8ce 20be 017a dcbd
000002c0: 74e6 26be 9df8 e9bd 7784 c0bd 4dfe 6abd
000002d0: ba83 08bd 8489 d3bd 3bb8 2ebe 1441 20be
000002e0: 64a9 4dbd feb2 d0bd c221 d0bd 53d5 74bd
000002f0: 465d 2cbe 2e16 83bd 1225 6bbd 4d3d 0ebe
00000300: 07e9 08be 19c7 06be 002a 2ebe 9c3f b1bd
00000310: e16d dabc 210d d4bc 1089 cbbd 992e 00be
00000320: 594e 7ebd 88c4 0fbe a808 88bd 0c82 9bbd
00000330: 19d9 a8bd 4a9c c1bd bae3 ecbc dd9b dbbc
00000340: 1afa 08be 44b0 1ebe f493 b4bd 1684 0bbe
00000350: 3457 0bbe 74ce 0fbe 73c8 07be 26cd 21bd
00000360: b044 b7bd e8ff 08bd 3b0b aebd aa1e 29be
00000370: 17aa 47bd d7ed 33be c658 ebbc 8c57 17bd
00000380: afed 2fbe 8ea7 28be fe05 abbd a157 98bd
00000390: 1805 53bd f1f4 e8bd 3015 11be 991e 04be
000003a0: d671 06be 454f 18be a140 24be facf 16be
000003b0: 367b 5ebd ea9c 02bd 0f49 bebd 1684 9cbd
000003c0: 2fcf a7bd d2ad 98bd 3edb 24be c6d0 17be
000003d0: a3be d9bd 4140 acbd 6763 fabc cd6f fdbd
000003e0: bdc5 fabc 7058 bfbd 5d95 00be 2cdc 03be
000003f0: 560e 66bd 18b6 eabd f201 e4bc 6de1 afbd

bias f4 [5]
-0.12188796 -0.023712873 -1.0609523 1.0031042 -0.13843805
00000000: 65a0 f9bd 8041 c2bc 49cd 87bf b865 803f
00000010: b4c2 0dbe

weight f4 [10, 5]
0.13827357 -0.28834257 0.55251294 0.18747434 -0.3205681 -0.030369027 -0.12551618 0.14063184
0.28511345 -0.31007794 -0.29811272 0.3330636 -0.58655185 0.48508266 -0.026627593 -0.02070132
-0.258076 -0.48111317 0.5461188 -0.43591848 -0.18506604 0.2774833 -0.21212398 -0.27438343
0.09926004 -0.11436035 -0.14132023 -1.0185105 -0.46662474 -0.3028695 0.19606449 -0.1395563
-0.028178966 0.464898 0.13130784 -0.30345067 -0.10341203 0.45285657 0.49512005 -0.29336518
0.045704782 -0.30636206 0.0029715784 0.13202742 0.08387773 -0.2560167 0.05259566 0.20469527
0.3196611 -0.24197182
00000000: 9697 0d3e a3a1 93be 7d71 0d3f 46f9 3f3e
00000010: 8121 a4be 77c8 f8bc 5087 00be cb01 103e
00000020: 64fa 913e 89c2 9ebe 3ba2 98be 5087 aa3e
00000030: 4328 16bf c15c f83e 1c22 dabc d195 a9bc
00000040: 8a22 84be 7754 f6be 71ce 0b3f b530 dfbe
00000050: f481 3dbe 4b12 8e3e 0737 59be fc7b 8cbe
00000060: d948 cb3d c235 eabd 40b6 10be 8d5e 82bf
00000070: 70e9 eebe b611 9bbe 21c5 483e d9e7 0ebe
00000080: 93d7 e6bc 1c07 ee3e 9075 063e e35d 9bbe
00000090: b0c9 d3bd d1dc e73e 6080 fd3e f633 96be
000000a0: f034 3b3d 7ddb 9cbe d0be 423b 3232 073e
000000b0: 16c8 ab3d 9f14 83be 8c6e 573d a39b 513e
000000c0: 9faa a33e 76c7 77be

bias f4 [10]
-1.0540832 0.60145694 1.4252441 0.44773394 -0.002582715 0.7770499 0.25540257 -0.940594
0.8255409 -0.85458463
00000000: 33ec 86bf 15f9 193f 666e b63f 623d e53e
00000010: c442 29bb beec 463f 20c4 823e c5ca 70bf
00000020: a656 533f 0fc6 5abf

weight f4 [10, 10]
0.67708457 0.34193212 -1.1423519 -0.7515768 0.06240052 0.6348844 0.5483541 0.5702882
0.41453707 0.5161071 -0.045965552 0.29837826 1.3940079 0.8531713 -0.12032138 -0.7360894
0.39345282 -0.12175518 0.41162577 0.103897154 -1.3418823 -1.1507584 -1.7998002 -4.4720783
-0.14733751 -0.21428081 -1.1032509 -0.7591268 -0.9837356 -0.15769853 -1.3984424 -0.75569504
-2.1536288 -3.9724107 -0.3943579 -0.4359196 -0.90660733 -0.6435003 -1.1798952 -0.15272254
-0.91979915 -0.49091905 -2.24629 -3.926886 0.0909619 -0.4044511 -0.63076115 -0.42031375
-0.8072434 -0.21390212 -1.126984 -1.1157919 -1.8858348 -3.863956 0.0628257 -0.5680594
-0.82426775 -0.4292456 -0.7154565 0.03486326 -1.7476935 -1.2653546 -1.8277452 -4.075041
-0.25054872 -0.26347095 -1.1618649 -0.4211594 -1.1069176 -0.12967664 -1.4000046 -1.3271651
-1.6124134 -4.397706 0.03790204 -0.5916164 -1.2811835 -0.78593135 -1.5644318 -0.5127871
-1.391496 -0.6980788 -1.8363515 -4.2145977 0.021271814 -0.07493374 -0.98062867 -0.6878204
-1.3800707 0.030181134 -1.3911515 -1.1553649 -1.976558 -4.2923675 0.06089554 -0.5155261
-0.955588 -0.5823401 -1.0678041 -0.056648195
00000000: 6a55 2d3f ba11 af3e 9638 92bf 5667 40bf
00000010: b097 7f3d c987 223f ef60 0c3f 68fe 113f
00000020: 343e d43e 981f 043f 6046 3cbd 09c5 983e
00000030: da6e b23f 6f69 5a3f 0e6b f6bd 5b70 3cbf
00000040: a672 c93e c85a f9bd 9dc0 d23e 08c8 d43d
00000050: cdc2 abbf 0d4c 93bf da5f e6bf 441b 8fc0
00000060: a5df 16be 6e6c 5bbe 5337 8dbf 2256 42bf
00000070: 19d6 7bbf b97b 21be 2900 b3bf 3b75 41bf
00000080: 0ed5 09c0 fa3b 7ec0 47e9 c9be db30 dfbe
00000090: 6b17 68bf 70bc 24bf ce06 97bf 4c63 1cbe
000000a0: f577 6bbf be59 fbbe 37c3 0fc0 1a52 7bc0
000000b0: 3c4a ba3d 3714 cfbe 9079 21bf 5d33 d7be
000000c0: 81a7 4ebf 2809 5bbe 0341 90bf 45d2 8ebf
000000d0: 0963 f1bf 0e4b 77c0 c3aa 803d 576c 11bf
000000e0: 3603 53bf 14c6 dbbe 2828 37bf c7cc 0e3d
000000f0: 6cb4 dfbf 24f7 a1bf 8ef3 e9bf bc66 82c0
00000100: ec47 80be aae5 86be fdb7 94bf 34a2 d7be
00000110: 7aaf 8dbf f4c9 04be 5a33 b3bf 8ce0 a9bf
00000120: 9063 cebf 02ba 8cc0 2b3f 1b3d 2c74 17bf
00000130: d2fd a3bf cc32 49bf 4d3f c8bf 0446 03bf
00000140: 8a1c b2bf 4bb5 32bf 910d ebbf fcdd 86c0
00000150: 3a42 ae3c dc76 99bd 7b0a 7bbf ff14 30bf
00000160: 28a6 b0bf 6d3e f73c 4111 b2bf ffe2 93bf
00000170: daff fcbf 135b 89c0 9a6d 793d 85f9 03bf
00000180: 6aa1 74bf 3e14 15bf cead 88bf f007 68bd

bias f4 [10]
-0.4952782 0.7307771 -0.7650156 -0.7677692 -1.009042 -0.86593974 -0.88209003 -0.5402893
-1.1396991 -0.9799407
00000000: 1b95 fdbe 3514 3b3f 10d8 43bf 868c 44bf
00000010: 4a28 81bf 3aae 5dbf a7d0 61bf 6650 0abf
00000020: a9e1 91bf 65dd 7abf

weight f4 [1, 1, 3, 3]
0.58926463 0.25908384 0.45488775 0.04798374 0.79551303 0.26332423 -0.15639089 0.10766858
-0.28117457
00000000: 0cda 163f a3a6 843e 0ce7 e83e 998a 443d
00000010: bea6 4b3f 6fd2 863e ef24 20be 5881 dc3d
00000020: 1df6 8fbe

weight f4 [5, 169]
-0.14373061 -0.1504729 -0.1821216 -0.078269005 -0.13509579 -0.07020726 -0.19052419 -0.19444594
-0.14413704 -0.13164629 -0.13176432 -0.16422187 -0.04757764 -0.16498557 -0.17280066 -0.1645133
-0.10912609 -0.10858842 -0.16762273 -0.09332005 -0.10950536 -0.033124857 -0.054492254 -0.14721784
-0.09587415 -0.0934691 -0.10982412 -0.07789522 -0.12937155 -0.19469509 -0.1605956 -0.08548708
0.0419913 0.062476415 -0.045108113 -0.11686804 -0.13626961 -0.15701902 -0.12352253 -0.047132764
-0.107153885 -0.17794721 -0.14984308 -0.07636272 -0.0013328582 -0.09382827 0.01723852 -0.08165037
-0.13126172 -0.03889867 -0.14872943 -0.08006938 -0.18941568 -0.079280004 -0.13932708 -0.1529817
-0.09865844 -0.14417058 -0.039363194 -0.0006035791 -0.010902041 -0.05466336 -0.019865744 -0.08357315
-0.17486866 -0.07036362 -0.054407306 -0.044236433 -0.059043463 -0.08840069 -0.050911095 -0.04734391
-0.063392945 0.04472435 -0.022439197 -0.054039873 -0.09403592 -0.11176034 -0.155298 -0.159582
-0.10070561 -0.062300924 -0.039228026 0.017565608 0.017894354 0.014855766 0.032824066 -0.14813493
-0.066583924 -0.1080812 -0.16199173 -0.15936628 -0.14675069 -0.104914114 -0.06295525 -0.0537885
0.0065517 -0.009045105 -0.115712725 -0.07333995 -0.066131584 -0.10255344 -0.10515717 -0.13163632
-0.15655941 -0.11799849 -0.059157595 -0.12734477 0.0026264756 0.023938237 -0.052769613 -0.14197099
-0.093951635 -0.12816978 -0.14249179 -0.16188206 -0.05673288 -0.06420707 -0.041898765 -0.14718254
-0.10594997 -0.12029139 -0.079333454 -0.082886696 -0.03167539 -0.0047848867 -0.1419864 -0.036273006
-0.1614195 -0.14726302 -0.10986866 -0.19057596 -0.13645719 -0.046535525 -0.027985463 -0.031797122
-0.0060259663 -0.032057732 -0.03121509 -0.08784103 -0.11922344 -0.07996811 -0.08128865 -0.10961417
-0.113862 -0.066043265 -0.03152891 -0.11589282 -0.014732552 -0.074621454 -0.07923615 -0.09112135
-0.17525293 -0.17555729 -0.13831098 -0.13551143 -0.18464246 -0.07279329 -0.12040575 -0.11248087
-0.10359389 -0.11164877 -0.016423535 -0.11289082 -0.13547951 -0.11185419 -0.10454117 -0.18819073
-0.056172498 0.008100896 -0.10416924 0.03818843 -0.013999155 -0.07870926 -0.047280964 -0.009161543
-0.08513174 -0.08075594 0.027580494 -0.023470758 0.0004907092 -0.08476786 -0.027327025 0.016550161
-0.042823575 -0.06630803 -0.0831754 0.024027562 -0.01777865 0.60077494 0.5475033 1.0716331
-0.08869529 0.013609637 -0.08680667 0.03681598 -0.07718098 -0.31112388 -0.39616162 0.07399957
0.25245944 0.5479558 0.78443766 0.47253662 0.54145443 -0.088209935 0.06456374 -0.09900478
-0.090774596 -0.23833731 -0.18571815 0.48218414 0.36305597 0.38087755 0.73013246 0.59767777
0.30473652 0.25477162 -0.2466545 -0.013766326 -0.17743795 -0.049963888 -0.3293843 0.008034489
0.32653996 0.36886233 0.07811405 0.15176603 -0.101867564 -0.124385335 0.46968174 0.257519
0.43766645 -0.097592644 -0.054610778 0.09510603 0.055076156 -0.1136102 0.08989604 -0.30365166
0.2139513 -0.01934439 -0.20649937 0.37846768 0.14078376 0.6108007 0.37509266 0.034501687
0.0061679496 -0.3772697 -0.40028828 -0.44710273 -0.33767048 0.51236045 -0.0004966894 -0.5528154
00000000: 1e2e 13be 9115 1abe 167e 3abe 804b a0bd
00000010: 8d56 0abe d3c8 8fbd c618 43be d61c 47be
00000020: a998 13be 49ce 06be 3aed 06be c729 28be
00000030: c5e0 42bd faf1 28be a8f2 30be 2d76 28be
00000040: 807d dfbd 9b63 debd 4ba5 2bbe 951e bfbd
00000050: 5944 e0bd eead 07bd 4533 5fbd 46c0 16be
00000060: ab59 c4bd ba6c bfbd 78eb e0bd 8787 9fbd
00000070: fa79 04be 265e 47be 2c73 24be da13 afbd
00000080: 12ff 2b3d 45e7 7f3d 49c3 38bd 8358 efbd
00000090: 438a 0bbe 98c9 20be 61f9 fcbd 490e 41bd
000000a0: 7f73 dbbd cb37 36be 7770 19be 0f64 9cbd
000000b0: 4db3 aeba 0929 c0bd cc37 8d3c 4f38 a7bd
000000c0: 7969 06be 3654 1fbd 874c 18be 6afb a3bd
000000d0: 2ff6 41be 8e5d a2bd c2ab 0ebe 3ca7 1cbe
000000e0: 700d cabd 74a1 13be 4d3b 21bd 8239 1eba
000000f0: 799e 32bc b0e6 5fbd 7cbd a2bc 6628 abbd
00000100: c510 33be cd1a 90bd 32da 5ebd 4331 35bd
00000110: 8fd7 71bd 6c0b b5bd 2788 50bd b0eb 41bd
00000120: 29d4 81bd e130 373d 68d2 b7bc ea58 5dbd
00000130: e895 c0bd 9be2 e4bd 7006 1fbe 7769 23be
00000140: be3e cebd 412f 7fbd 91ad 20bd c0e5 8f3c
00000150: 2e97 923c 9965 733c 8772 063d afb0 17be
00000160: 275d 88bd ad59 ddbd 29e1 25be ea30 23be
00000170: d045 16be 36dd d6bd afee 80bd 5551 5cbd
00000180: a5af d63b ec31 14bc cbfa ecbd 4133 96bd
00000190: ff6f 87bd 8a07 d2bd a45c d7bd accb 06be
000001a0: 1c51 20be 31a9 f1bd 3c4f 72bd ab66 02be
000001b0: f320 2c3b 1f1a c43c f324 58bd d860 11be
000001c0: b769 c0bd f03e 03be 5ee9 11be 69c4 25be
000001d0: bd60 68bd ff7e 83bd 0a9e 2bbd 05b7 16be
000001e0: 4cfc d8bd 555b f6bd 9479 a2bd 80c0 a9bd
000001f0: 0ebe 01bd 8aca 9cbb e264 11be 0193 14bd
00000200: 274b 25be 1ecc 16be d202 e1bd 5826 43be
00000210: 6fbb 0bbe 099c 3ebd c541 e5bc b33d 02bd
00000220: 7875 c5bb f84e 03bd cab6 ffbc ffe5 b3bd
00000230: 6b2b f4bd 52c6 a3bd aa7a a6bd 657d e0bd
00000240: 7b30 e9bd b141 87bd 7524 01bd 3759 edbd
00000250: cd60 71bc 22d3 98bd 9046 a2bd d59d babd
00000260: 8175 33be 4ac5 33be 65a1 0dbe 82c3 0abe
00000270: ea12 3dbe a614 95bd 4a97 f6bd 5f5c e6bd
00000280: 0929 d4bd 1ca8 e4bd a68a 86bc 4d33 e7bd
00000290: 24bb 0abe cf13 e5bd ae19 d6bd 12b5 40be
000002a0: 2215 66bd 9fb9 043c af56 d5bd 796b 1c3d
000002b0: b65c 65bc 5232 a1bd afa9 41bd 4c1a 16bc
000002c0: 8d59 aebd 5f63 a5bd 7df0 e13c bf45 c0bc
000002d0: f0a2 003a c69a adbd eddc dfbc 3494 873c
000002e0: c667 2fbd 81cc 87bd dd57 aabd 73d5 c43c
000002f0: 88a4 91bc 63cc 193f 2d29 0c3f 462b 893f
00000300: e0a5 b5bd f4fa 5e3c b2c7 b1bd 5acc 163d
00000310: 1011 9ebd a14b 9fbe b2d5 cabe 168d 973d
00000320: 5d42 813e d546 0c3f e8d0 483f 52f0 f13e
00000330: c29c 0a3f 69a7 b4bd fe39 843d 05c3 cabd
00000340: 08e8 b9bd b20e 74be e62c 3ebe d7e0 f63e
00000350: 79e2 b93e 6202 c33e f6e9 3a3f 6901 193f
00000360: 6d06 9c3e 6d71 823e ff92 7cbe 288c 61bc
00000370: 4bb2 35be efa6 4cbd 0fa5 a8be 17a3 033c
00000380: 3f30 a73e 86db bc3e 42fa 9f3d 8e68 1b3e
00000390: f19f d0bd bdbd febd 207a f03e 88d9 833e
000003a0: d115 e03e a7de c7bd 8daf 5fbd f3c6 c23d
000003b0: 8997 613d 77ac e8bd 6a1b b83d 3b78 9bbe
000003c0: 0d16 5b3e 2078 9ebc 9274 53be 84c6 c13e
000003d0: 9e29 103e 6f5d 1c3f 250c c03e a451 0d3d
000003e0: 831c ca3b 7e29 c1be 96f2 ccbe a6ea e4be
000003f0: 25e3 acbe 0e2a 033f 4334 02ba 4f85 0dbf

bias f4 [5]
0.010147398 0.12487675 -0.16562888 0.32421336 0.1408535
00000000: 4641 263c 62bf ff3d 9e9a 29be 4bff a53e
00000010: e63b 103e
