xai_neurips_2021/models/pre_trained/mnist_pre_trained_10_5_04_18_29_36_57_expert_model.pt (torch, 74751 bytes, 70 tensors)

weight f4 [1, 1, 3, 3]
0.6414316 0.23750345 -0.050171413 -0.20365761 0.196692 0.74733645 -0.18695804 -0.22549851
0.19607753
00000000: dd34 243f 1b34 733e 8a80 4dbd 9f8b 50be
00000010: a169 493e 7151 3f3f ee71 3fbe 15e9 66be
00000020: 8cc8 483e

weight f4 [5, 169]
-0.07596821 -0.039676853 0.064353704 0.058793053 0.062352706 0.0067297863 0.026668504 0.661398
0.43493834 -0.033170663 0.016137224 0.06506866 0.030867469 -0.06423984 -0.061590258 -0.67530876
0.19735584 0.055973314 0.15180078 0.31466222 -0.044386096 0.02590795 -0.34226704 -0.8561332
-0.33429828 0.054907 -0.069105655 -0.723106 -0.3174127 0.069930844 -0.025644798 -0.18263151
0.034857374 0.42489493 -0.027981183 -0.0405093 -0.51814973 -0.45438486 -0.59277475 0.0040950775
-0.39689013 -0.11178062 0.2656261 0.0635384 -0.109518036 0.3330469 0.43997592 0.12203697
-0.092692055 -0.074293695 -0.42613536 -1.0926154 -0.044408772 -0.49631366 0.21488906 0.03525431
-0.09382934 -0.008699181 0.5437204 0.27944073 0.37505007 0.08853697 0.567176 -0.16273776
-0.63265145 -0.22318177 -0.5756396 0.4768669 -0.28946105 -0.124073006 0.15918897 0.34915814
0.08470639 0.3843668 0.27587882 0.827167 1.1023285 -0.119978294 -0.119977996 0.38289237
0.56895006 0.07099318 0.10047531 0.27578565 0.01760314 -0.11869869 -0.0025074382 -0.035705503
0.18541926 -0.063121356 -0.48471364 -0.62420696 -0.15797666 0.39116603 -0.08737877 0.018073205
-0.31290132 -0.4792312 -0.12862276 0.09218275 -0.18754023 0.09344182 -0.22109482 -0.21176736
-0.096691795 -0.54684454 0.037009608 0.24390668 -0.011864257 0.20978165 -0.1471697 -0.01624081
-0.14189047 -0.22176008 0.13729031 -0.2032619 0.11563799 0.5730987 -0.01772013 -0.13013937
0.15725566 0.034538228 -0.02394583 -0.32983202 -0.21997054 -0.45504814 -0.24162072 0.25020888
0.23139898 0.25605208 0.5244926 0.9478301 0.6835786 0.620255 0.51458704 0.25891876
0.07411119 -0.24163778 -0.47449088 -0.4546607 -0.14443748 0.29573607 0.052356645 0.0038864797
0.7905731 0.62890214 0.29603556 0.12476008 0.22520232 0.12040956 -0.013219287 0.2107596
-0.64317703 -0.29238385 -0.55466187 -0.12362181 -0.07366927 -0.07294867 0.39446616 -0.50163007
-0.42271712 -0.7173914 -0.7266193 -0.5105245 -0.6203221 -0.05917193 0.09507575 0.25349423
-0.010767249 -0.025605239 -0.04974379 -0.0050745746 -0.047614403 -0.0061762333 -0.07688236 0.026642937
-0.047601547 -0.060219906 0.0753072 -0.047879275 0.06774297 0.073764704 0.022264289 -0.0041467594
0.037388355 -0.063229516 0.053788956 -0.030526126 0.02355595 -0.008349593 -0.030275144 0.04218485
0.023226976 -0.0054632337 0.057442695 -0.06895101 0.004514988 0.04483044 -0.0152288135 -0.060441066
0.04999079 -0.0033433347 -0.02875432 -0.0433506 0.07226312 -0.05845635 0.012755129 -0.0753774
-0.076777644 0.04438316 -0.025181111 0.058175217 -0.08723868 -0.057744514 -0.16906077 -0.09820686
-0.06907984 -0.14258243 -0.06280551 -0.0706874 0.027158279 -0.038663197 -0.06832404 0.009634119
-0.022108253 -0.031146783 -0.074297026 -0.17230064 -0.06590122 -0.14325821 -0.11158702 0.040960055
0.053618066 0.054914843 0.043906562 -0.0018545665 -0.018868383 -0.10649384 -0.04982518 -0.13968955
-0.14054635 -0.09812473 -0.09552063 -0.07340701 -0.048954535 -0.033972632 0.0061369585 -0.034358732
-0.021142254 0.014155856 -0.047831412 -0.11418748 -0.03363801 -0.028542314 -0.05941845 -0.12742534
00000000: 3995 9bbd 3284 22bd e0cb 833d fcd0 703d
00000010: 8d65 7f3d 8a85 dc3b e877 da3c 6151 293f
00000020: 3db0 de3e f6dd 07bd 3632 843c b842 853d
00000030: c6dd fc3c 2d90 83bd 1146 7cbd 09e1 2cbf
00000040: a617 4a3e 4644 653d aa71 1b3e 681b a13e
00000050: 32ce 35bd e93c d43c a03d afbe 8c2b 5bbf
00000060: 2529 abbe 2ae6 603d 4487 8dbd 7a1d 39bf
00000070: eb83 a2be e737 8f3d 0a15 d2bc c103 3bbe
00000080: 9bc6 0e3d d48b d93e cb38 e5bc 14ed 25bd
00000090: 76a5 04bf 22a5 e8be 16c0 17bf 0030 863b
000000a0: 2f35 cbbe 3ded e4bd 2500 883e 6c20 823d
000000b0: fe4a e0bd 2085 aa3e 8644 e13e 85ee f93d
000000c0: 55d5 bdbd 4b27 98bd 6a2e dabe d2da 8bbf
000000d0: f9e5 35bd d31c febe e10b 5c3e d366 103d
000000e0: 9929 c0bd 0287 0ebc 4331 0b3f db12 8f3e
000000f0: 9006 c03e df52 b53d 7232 113f baa4 26be
00000100: 72f5 21bf c389 64be 1e5d 13bf e627 f43e
00000110: 3d34 94be fd19 febd 6f02 233e dbc4 b23e
00000120: 8b7a ad3d bacb c43e fd3f 8d3e 37c1 533f
00000130: 1a19 8d3f 2eb7 f5bd 06b7 f5bd 780a c43e
00000140: b6a6 113f df64 913d 00c6 cd3d c733 8d3e
00000150: 7634 903c 4c18 f3bd d553 24bb ef3f 12bd
00000160: 8cde 3d3e c545 81bd 632c f8be 07cc 1fbf
00000170: a2c4 21be ea46 c83e a4f3 b2bd 420e 943c
00000180: 9a34 a0be cb5d f5be afb5 03be 4fca bc3d
00000190: 8c0a 40be 6d5e bf3d ae66 62be 8bd9 58be
000001a0: 5906 c6bd 01fe 0bbf 6397 173d acc2 793e
000001b0: 4d62 42bc 00d1 563e a7b3 16be 720b 85bc
000001c0: bc4b 11be 1315 63be d595 0c3e e323 50be
000001d0: 9cd3 ec3d 99b6 123f ce29 91bc 4143 05be
000001e0: a107 213e f577 0d3d 0c2a c4bc bedf a8be
000001f0: f53f 61be 12fc e8be 6c6b 77be 611b 803e
00000200: dbf3 6c3e 4219 833e 2645 063f fea4 723f
00000210: 02ff 2e3f 08c9 1e3f fabb 033f 0091 843e
00000220: 9cc7 973d e56f 77be 78f0 f2be 4ac9 e8be
00000230: 6be7 13be b86a 973e ec73 563d 4fb4 7e3b
00000240: 0063 4a3f bbff 203f f991 973e 3682 ff3d
00000250: 709b 663e 4a99 f63d b595 58bc 5dd1 573e
00000260: 40a7 24bf 56b3 95be 52fe 0dbf 6e2d fdbd
00000270: eadf 96bd 1d66 95bd 78f7 c93e d46a 00bf
00000280: 616e d8be f6a6 37bf b903 3abf bcb1 02bf
00000290: 6ecd 1ebf 445e 72bd 13b7 c23d ffc9 813e
000002a0: 1e69 30bc 14c2 d1bc 25c0 4bbd 9e48 a6bb
000002b0: 5207 43bd 0062 cabb 8074 9dbd 4a42 da3c
000002c0: d7f9 42bd 26a9 76bd a93a 9a3d 0f1d 44bd
000002d0: d4bc 8a3d f311 973d 9963 b63c 8ae1 87bb
000002e0: 8824 193d 7a7e 81bd cf51 5c3d ed11 fabc
000002f0: 68f8 c03c bbcc 08bc 9403 f8bc 05ca 2c3d
00000300: 8046 be3c ed04 b3bb 0849 6b3d 3036 8dbd
00000310: 77f2 933b 20a0 373d 4682 79bc 0d91 77bd
00000320: 25c3 4c3d d91b 5bbb 2e8e ebbc 6690 31bd
00000330: b0fe 933d ed6f 6fbd e3fa 503c 775f 9abd
00000340: 993d 9dbd 1ecb 353d 9e48 cebc 2349 6e3d
00000350: 31aa b2bd 8385 6cbd 441e 2dbe ae20 c9bd
00000360: bb79 8dbd 2101 12be 2da0 80bd 8ec4 90bd
00000370: 0a7b de3c 4d5d 1ebd 79ed 8bbd 6dd8 1d3c
00000380: 5e1c b5bc 8a27 ffbc 0a29 98bd 946f 30be
00000390: 38f7 86bd 48b2 12be bc87 e4bd bbc5 273d
000003a0: 9e9e 5b3d 63ee 603d 5ed7 333d ed14 f3ba
000003b0: de91 9abc 7119 dabd 7d15 4cbd c70a 0fbe
000003c0: 62eb 0fbe 9ef5 c8bd 52a0 c3bd 6a56 96bd
000003d0: 8d84 48bd e326 0bbd 8a18 c93b bebb 0cbd
000003e0: 8532 adbc f7ed 673c dfea 43bd 20db e9bd
000003f0: 03c8 09bd 92d1 e9bc c360 73bd ca7b 02be

bias f4 [5]
-0.20350903 -0.14607331 0.65181357 0.20202273 -0.30909014
00000000: ac64 50be 3e94 15be 41dd 263f 0cdf 4e3e
00000010: 1041 9ebe

weight f4 [10, 5]
-0.19958192 0.014572628 0.45151404 -0.18877846 0.026776707 0.086188234 -0.28977197 0.5007993
0.29461643 -0.5070057 0.37714183 -0.12246439 0.37731823 0.08372944 0.5902855 0.21223691
0.06368456 -0.47702485 -0.20724434 -0.36866704 -0.16762616 0.1169375 -0.0248336 -0.27155387
-0.29667023 0.7280787 -0.09631258 0.10727784 1.098218 1.1833675 0.41761026 0.19269404
0.11634472 -0.07140594 0.77944106 -0.109698236 0.15756626 -0.2602807 -0.13034484 -0.3882073
0.52270514 0.0706446 0.5435741 0.28796673 -0.06571638 -0.4421869 -0.33961198 0.53139883
-0.158841 -0.34887823
00000000: 345f 4cbe 08c2 6e3c d92c e73e 244f 41be
00000010: d35a db3c 7583 b03d fe5c 94be 6234 003f
00000020: f7d7 963e 20cb 01bf bc18 c13e 9cce fabd
00000030: db2f c13e 577a ab3d f31c 173f a254 593e
00000040: 0d6d 823d 9a3c f4be dc37 54be edc1 bcbe
00000050: 31a6 2bbe ee7c ef3d d56f cbbc 1c09 8bbe
00000060: 29e5 97be 5e63 3a3f 883f c5bd 7cb4 db3d
00000070: 6892 8c3f 9678 973f 03d1 d53e 9651 453e
00000080: 2446 ee3d 473d 92bd 7389 473f 78a9 e0bd
00000090: 0d59 213e 8343 85be 1e79 05be 1bc3 c6be
000000a0: 01d0 053f 1eae 903d ac27 0b3f 6070 933e
000000b0: 4f96 86bd 5266 e2be 9fe1 adbe c109 083f
000000c0: 37a7 22be 2ba0 b2be

bias f4 [10]
0.34358862 0.7543845 0.6293928 -0.24384409 -0.3590896 0.11416015 -0.6355534 0.57052284
0.39451176 1.0193865
00000000: d9ea af3e 581f 413f e31f 213f 44b2 79be
00000010: 98da b7be cccc e93d a1b3 22bf c90d 123f
00000020: 72fd c93e 427b 823f

weight f4 [10, 10]
-0.28772756 -0.12931761 0.6108899 0.04990406 0.20339254 0.65144956 0.37848103 0.18482125
0.5911647 -0.27334777 0.92101103 0.87562853 0.57400507 0.030005591 0.33444414 -0.2804156
-0.16530223 0.41806108 0.64445406 0.9057412 -0.42263153 -0.6322658 -0.33068305 -0.19166228
-0.32990682 -0.16174416 -0.4636847 -0.52964985 -0.62592494 -0.22168462 -0.41397265 -0.5743781
-0.18064353 0.074849054 0.007655931 -0.048322324 -0.13811916 -0.010671331 -0.77338856 -0.44781953
-0.2224031 -0.2678124 -0.35442886 0.06162513 -0.029796632 -0.50949395 -0.20604794 -0.5155443
-0.5976804 -0.2068436 -0.17875536 -0.7112627 -0.652164 0.19345462 -0.30913022 -0.1906032
-0.31630588 -0.0992124 -0.41195962 -0.018824255 -0.72853786 -0.43691877 -0.19870879 -0.06655068
-0.24665803 -0.54940635 -0.53494227 -0.43802923 -0.59787714 -0.09379061 -0.15422192 -0.35264096
-0.36404383 -0.20605524 -0.22446683 -0.3025911 -0.45556304 -0.5016107 -0.5049247 -0.46691847
-0.39436483 -0.65384966 -0.5397074 0.11336933 0.08473187 -0.24092977 -0.4817262 -0.37342015
-0.3387698 -0.4911973 -0.68294203 -0.43135378 -0.36612794 -0.011103019 0.16098729 -0.14338948
-0.54389787 -0.03835296 -0.78348297 -0.27834657
00000000: 0751 93be d66b 04be 4863 1c3f 3368 4c3d
00000010: 2246 503e 66c5 263f 44c8 c13e c841 3d3e
00000020: 9256 173f 3df4 8bbe 61c7 6b3f 3129 603f
00000030: fff1 123f 49ce f53c 433c ab3e a292 8fbe
00000040: fd44 29be 1a0c d63e f1fa 243f a8de 673f
00000050: 2963 d8be 2cdc 21bf 4a4f a9be 1e43 44be
00000060: 8ce9 a8be 43a0 25be 1568 edbe 2297 07bf
00000070: 9e3c 20bf 4b01 63be 39f4 d3be 710a 13bf
00000080: 9efa 38be 764a 993d 9bde fa3b a1ed 45bd
00000090: 1c6f 0dbe ced6 2ebc cbfc 45bf 9a48 e5be
000000a0: a3bd 63be b51e 89be b377 b5be a26a 7c3d
000000b0: 1118 f4bc 326e 02bf 3bfe 52be b6fa 03bf
000000c0: 9501 19bf cfce 53be a50b 37be 5015 36bf
000000d0: 38f4 26bf f818 463e 5146 9ebe 7c2d 43be
000000e0: d8f2 a1be df2f cbbd 5fec d2be 5335 9abc
000000f0: 7581 3abf d1b3 dfbe 517a 4bbe b94b 88bd
00000100: ec93 7cbe e5a5 0cbf faf1 08bf 5e45 e0be
00000110: 7a0e 19bf 4b15 c0bd 5aec 1dbe 5b8d b4be
00000120: f463 babe 2500 53be a2da 65be 38ed 9abe
00000130: 8f3f e9be 8f69 00bf bf42 01bf f00f efbe
00000140: 30ea c9be b162 27bf 442a 0abf 2e2e e83d
00000150: e787 ad3d 4bb6 76be d1a4 f6be ed30 bfbe
00000160: 3c73 adbe 367e fbbe 4ad5 2ebf 67da dcbe
00000170: 1f75 bbbe 70e9 35bc dad9 243e b1d4 12be
00000180: e43c 0bbf fe17 1dbd 5792 48bf 7183 8ebe

bias f4 [10]
0.2846974 0.40671816 -0.26500115 -0.1626557 -0.50979185 -0.34242463 -0.65642136 -0.07701301
-0.19442552 -0.0972244
00000000: dcc3 913e 5d3d d03e 3bae 87be 378f 26be
00000010: b881 02bf 4852 afbe 3b0b 28bf ffb8 9dbd
00000020: 7c17 47be 961d c7bd

weight f4 [1, 1, 3, 3]
0.13545308 -0.2312365 -0.6012171 0.17676556 0.47494608 0.118551426 -0.67794055 0.2019021
0.4699365
00000000: 36b4 0a3e 43c9 6cbe 5de9 19bf 0802 353e
00000010: 222c f33e 17cb f23d 838d 2dbf 6dbf 4e3e
00000020: 849b f03e

weight f4 [5, 169]
-0.06862825 0.011880976 -0.020662758 0.011933483 -0.625256 0.54433066 0.74984616 -0.038184628
0.052748222 0.37209094 -0.033131074 0.07260062 0.0055773077 0.55541784 0.12149124 0.33892095
0.37714258 0.39098397 0.20070122 0.11785937 -0.08951335 -0.33328575 0.11721446 0.40086275
-0.047742765 -0.07491787 0.9254723 -0.37542495 0.28696117 0.0164679 0.19624278 -0.2189897
-0.08485016 -0.035984248 0.17859791 0.0014351177 -0.1408625 -0.7260082 0.3075798 0.5328596
-0.5705194 -0.4177719 -0.21880704 0.10203518 -0.033456303 0.069367416 -0.0892492 -0.42318973
-0.1916628 0.10685939 0.538533 -0.118325695 0.60774267 -0.64017105 0.105050325 0.25286058
-0.034128033 0.056085702 0.12057262 -0.22674318 -0.4449473 -0.9531207 -0.30879968 0.509069
0.8426636 0.1627907 0.080713816 0.77733165 0.12257239 0.12595378 0.26758364 0.059524514
-0.35668904 -0.19504 -0.09370129 0.55323917 -0.7007061 0.5063959 -0.037819516 0.8910528
-0.007958534 0.6728947 0.19014862 -0.08612148 0.15736674 -0.23522066 0.0786234 -0.29195622
0.16032256 -0.21919894 0.013405706 -0.0757518 0.24995899 -0.40083653 -0.20078796 -0.27494445
-0.17109981 0.017543348 -0.4047415 -0.03496662 -0.5998415 -0.73027354 -0.044775516 -0.1150046
-0.10590118 -0.48435026 -0.03934528 -0.20237224 -0.020067304 0.019602865 -0.32428154 -0.65997106
0.026104616 0.02487916 -0.7987308 0.18176416 0.45280197 0.15945935 0.12288359 0.47184128
0.088600054 0.11586213 -0.35805348 -0.403155 0.46796525 0.19708335 0.35078302 0.8146114
0.8431623 0.5968643 0.06548895 0.46475083 0.58287317 0.103296 -0.2520054 0.028642673
0.14111046 0.07021941 0.6880663 0.74633735 0.32509652 0.4468307 0.85586 0.029930253
0.85371697 0.87754875 -0.2734027 0.18779704 0.13151434 0.21247034 0.12230912 -0.080889754
0.70177317 0.25169176 -0.19928312 -0.5696769 0.036856845 -0.061147846 -0.28117973 0.17416242
0.5226013 0.28834453 0.45760113 1.1157426 0.016348816 -0.40874076 -0.38128063 -0.03131066
0.03450324 -0.0039450205 0.073686205 -0.02879383 -0.06833918 0.64833105 -0.5553468 -1.0243711
0.05961771 -0.09679785 -0.44579545 -0.018816408 0.016901044 0.06855823 -0.31375498 0.034041695
-0.20384163 -0.4555529 -0.32613775 -0.278778 -0.20277537 0.13213089 0.058330055 -0.34080032
-0.39207587 0.41632935 0.0020085326 -0.60431916 0.49362114 0.0686857 0.25604576 -0.1427091
0.37519476 0.20813851 0.35743827 0.09304235 0.20797074 0.42346543 1.0608053 -0.15995473
-0.40653962 0.89767426 0.7128495 0.49557015 0.080567844 0.11705952 0.044221222 0.3079047
0.71701247 0.5573388 0.59400874 0.23751822 0.61217684 -0.6247344 1.1037593 0.44566324
0.08526144 0.47231543 0.18706286 -0.21856469 0.20772944 0.6919607 1.666767 1.0727379
0.18784611 -0.2712743 -0.13247795 0.34182325 -0.54616356 0.14400697 0.279141 -0.09211221
-0.13493532 0.32417658 0.44696698 0.68051 0.14840926 1.1850854 -0.17010108 0.013666438
-0.82169074 0.16490707 -0.20350373 0.027989002 0.25602284 0.0029121318 0.46625245 0.22744712
00000000: f88c 8cbd 6da8 423c f244 a9bc a884 433c
00000010: c710 20bf 4159 0b3f ebf5 3f3f 7c67 1cbd
00000020: 850e 583d b482 be3e 73b4 07bd a2af 943d
00000030: d9c1 b63b dd2f 0e3f 66d0 f83d 0c87 ad3e
00000040: d518 c13e 0d2f c83e 9f84 4d3e 4160 f13d
00000050: c652 b7bd 6ea4 aabe 230e f03d e23d cd3e
00000060: eb8d 43bd 8a6e 99bd c1eb 6c3f b337 c0be
00000070: 93ec 923e b0e7 863c def3 483e d63e 60be
00000080: ecc5 adbd 3864 13bd 5fe2 363e 8f1a bc3a
00000090: 423e 10be acdb 39bf 197b 9d3e 7d69 083f
000000a0: 8f0d 12bf 33e6 d5be f40e 60be d2f7 d03d
000000b0: 7a09 09bd 8110 8e3d 49c8 b6bd 53ac d8be
000000c0: 4143 44be 19d9 da3d 4cdd 093f be54 f2bd
000000d0: 0695 1b3f 40e2 23bf a024 d73d f176 813e
000000e0: d6c9 0bbd 1fba 653d c7ee f63d 5d2f 68be
000000f0: 22d0 e3be b8ff 73bf fe1a 9ebe 5952 023f
00000100: cdb8 573f 9bb2 263e 494d a53d 35ff 463f
00000110: 3c07 fb3d 07fa 003e b900 893e facf 733d
00000120: f29f b6be 91b8 47be 76e6 bfbd 15a1 0d3f
00000130: 7a61 33bf 29a3 013f a3e8 1abd 091c 643f
00000140: 8364 02bc d442 2c3f 52b6 423e 7560 b0bd
00000150: bf24 213e afdd 70be 4e05 a13d 497b 95be
00000160: 992b 243e b075 60be 9ba3 5b3c c223 9bbd
00000170: 40f5 7f3e 723a cdbe 5c9b 4dbe 85c5 8cbe
00000180: ca34 2fbe 11b7 8f3c 473a cfbe 2939 0fbd
00000190: 368f 19bf 35f3 3abf 8866 37bd 8887 ebbd
000001a0: b8e2 d8bd c2fc f7be 8428 21bd ab3a 4fbe
000001b0: 3064 a4bc 3096 a03c 3b08 a6be ddf3 28bf
000001c0: 59d9 d53c 61cf cb3c 9f79 4cbf 6220 3a3e
000001d0: a9d5 e73e 5049 233e 64aa fb3d 2e95 f13e
000001e0: f273 b53d 2049 ed3d c952 b7be 556a cebe
000001f0: 2499 ef3e 38d0 493e d599 b33e 5f8a 503f
00000200: 7cd9 573f 19cc 183f 121f 863d d2f3 ed3e
00000210: 2d37 153f da8c d33d da06 81be 0aa4 ea3c
00000220: 437f 103e 32cf 8f3d 1d25 303f f70f 3f3f
00000230: 0d73 a63e fec6 e43e a419 5b3f 4a30 f53c
00000240: 328d 5a3f 09a7 603f 70fb 8bbe de4d 403e
00000250: b2ab 063e d391 593e 347d fa3d 87a9 a5bd
00000260: 68a7 333f bedd 803e e010 4cbe 58d6 11bf
00000270: 34f7 163d 2a76 7abd caf6 8fbe a257 323e
00000280: 33c9 053f e5a1 933e b24a ea3e a7d0 8e3f
00000290: f4ed 853c 7846 d1be 3737 c3be 9b3f 00bd
000002a0: 4553 0d3d 3b45 81bb cbe8 963d 0ae1 ebbc
000002b0: 69f5 8bbd 06f9 253f 352b 0ebf 981e 83bf
000002c0: b331 743d f43d c6bd 4d3f e4be de24 9abc
000002d0: 0f74 8a3c 4268 8c3d 7ea4 a0be 4e6f 0b3d
000002e0: dcbb 50be 3b3e e9be 87fb a6be fdbb 8ebe
000002f0: 59a4 4fbe 524d 073e 7feb 6e3d 617d aebe
00000300: 2bbe c8be 1f29 d53e 96a1 033b a9b4 1abf
00000310: e9bb fc3e 17ab 8c3d 6e18 833e 5622 12be
00000320: 8719 c03e 4322 553e 2602 b73e fd8c be3d
00000330: 48f6 543e 76d0 d83e 78c8 873f 2ccb 23be
00000340: f625 d0be fbcd 653f 4e7d 363f 5fbb fd3e
00000350: c100 a53d e7bc ef3d 5021 353d afa5 9d3e
00000360: 218e 373f c1ad 0e3f f510 183f fa37 733e
00000370: 9fb7 1c3f 98ee 1fbf fc47 8d3f f92d e43e
00000380: 8d9d ae3d 54d3 f13e 688d 3f3e 6ccf 5fbe
00000390: 07b7 543e 5624 313f 9f58 d53f 7a4f 893f
000003a0: bb5a 403e 77e4 8abe 4da8 07be 7503 af3e
000003b0: 60d1 0bbf 9076 133e 92eb 8e3e 54a5 bcbd
000003c0: 7c2c 0abe 79fa a53e dbd8 e43e e735 2e3f
000003d0: 99f8 173e e1b0 973f fa2e 2ebe 32e9 5f3c
000003e0: 535a 52bf 66dd 283e 4863 50be 3149 e53c
000003f0: 6d15 833e 77d9 3e3b a4b8 ee3e e6e7 683e

bias f4 [5]
0.987137 -0.998958 -1.1962757 1.2308496 -0.024782792
00000000: 03b5 7c3f b6bb 7fbf 901f 99bf 7b8c 9d3f
00000010: 4805 cbbc

weight f4 [10, 5]
0.16317931 0.09772194 -0.61907375 0.75923634 0.1777182 -0.36900476 -0.49715954 0.20665516
0.090981856 -0.23126525 0.45940474 -0.013617704 -0.4277318 0.42596367 -0.16554537 0.0517809
0.37588805 0.37345216 -0.104015715 0.24807142 0.3283103 -0.06130844 -0.13596196 0.454536
0.1916993 -0.08220989 -0.44753322 -0.12430411 0.100650415 -0.04976106 0.55245525 0.8386287
0.8530416 -0.1548253 -0.3446382 -0.5423768 -0.48554876 -0.0793566 0.12668344 -0.21192163
0.647796 0.8590117 0.43727872 -1.024539 -0.13887972 0.8281134 -0.059296183 -0.35829338
0.6061884 0.27785125
00000000: 7a18 273e 7122 c83d 9e7b 1ebf 505d 423f
00000010: c3fb 353e 31ee bcbe b28b febe 699d 533e
00000020: b254 ba3d ccd0 6cbe 1937 eb3e ca1c 5fbc
00000030: aaff dabe e917 da3e ba84 29be 3618 543d
00000040: 6674 c03e 1f35 bf3e 3106 d5bd 6f06 7e3e
00000050: 4a18 a83e 8f1e 7bbd 9d39 0bbe f1b8 e83e
00000060: d24c 443e a95d a8bd 1323 e5be 2793 febd
00000070: ce21 ce3d 41d2 4bbd b56d 0d3f 5fb0 563f
00000080: ef60 5a3f 868a 1ebe 6b74 b0be 35d9 0abf
00000090: d999 f8be b785 a2bd 4eb9 013e fc01 59be
000000a0: f5d5 253f 31e8 5b3f ffe2 df3e 1824 83bf
000000b0: 7c36 0ebe 3dff 533f 8ee0 72bd 3b72 b7be
000000c0: 2a2f 1b3f 8542 8e3e

bias f4 [10]
1.350552 -0.054858066 1.4434083 -1.2844869 0.49719095 -0.49468222 -0.30991858 0.02394641
-0.7855875 1.0353664
00000000: e3de ac3f dab2 60bd 9ac1 b83f 116a a4bf
00000010: d08f fe3e fd46 fdbe a6ad 9ebe 432b c43c
00000020: 431c 49bf e386 843f

weight f4 [10, 10]
0.48888585 0.06688852 0.6525318 -0.77721983 0.52365524 0.24556217 0.35427657 -0.06509921
0.11022535 0.7892552 -0.12640262 0.17065527 -0.32051352 0.85993946 0.46393758 -0.068797946
0.7785891 -0.17511185 0.90279686 -0.66190034 -0.23627779 0.042165715 -0.7794134 -0.62852407
-0.5424385 -0.13899453 -0.80772674 -0.39112258 -0.3993216 -1.9645686 -0.26726073 -0.28025305
-0.34642333 -0.16275036 -0.5731185 -0.085775435 -0.73951936 0.00690748 -0.7642144 -2.3347235
-0.42646873 -0.14248462 -0.2922005 -0.24839975 -0.6106012 0.17562164 -0.7967111 0.0013548469
-0.5563037 -2.1934311 -0.45682052 -0.4080484 -0.6936395 -0.41284633 -0.38060513 0.031125851
-0.3139726 0.023620686 -0.6555635 -2.2328887 -0.14718919 0.08134016 -0.79566324 -0.14338517
-0.70150816 -0.025163645 -0.63552713 -0.43010014 -0.34428605 -2.0420384 -0.55388373 -0.41204715
-0.29599255 -0.555959 -0.76753247 0.18184614 -0.75014406 0.1377371 -0.60131305 -1.9980365
-0.44391656 0.14219949 -0.7221339 -0.33618194 -0.68437684 0.20578612 -0.81535953 0.15031105
-0.4812761 -1.7244525 -0.58100694 -0.041074175 -0.7272836 -0.08298966 -0.6164116 0.29039848
-0.5372978 -0.16851245 -0.35373244 -1.8259441
00000000: 3f4f fa3e d9fc 883d 530c 273f e1f7 46bf
00000010: 450e 063f a674 7b3e bd63 b53e bc52 85bd
00000020: d4bd e13d a10c 4a3f b06f 01be 41c0 2e3e
00000030: 591a a4be fe24 5c3f 3a89 ed3e f0e5 8cbd
00000040: 9e51 473f 8550 33be b21d 673f 4d72 29bf
00000050: cef2 71be f5b5 2c3d a387 47bf f4e6 20bf
00000060: 40dd 0abf 9554 0ebe 2ec7 4ebf 3841 c8be
00000070: e173 ccbe fc76 fbbf 66d6 88be 547d 8fbe
00000080: 665e b1be 08a8 26be e5b7 12bf 08ab afbd
00000090: 2451 3dbf 2458 e23b 8ea3 43bf 1c6c 15c0
000000a0: 1c5a dabe 7de7 11be 4e9b 95be 815c 7ebe
000000b0: 5c50 1cbf 29d6 333e 42f5 4bbf 1e95 b13a
000000c0: eb69 0ebf 2d61 0cc0 61e4 e9be b8eb d0be
000000d0: 5c92 31bf 9860 d3be adde c2be a4fb fe3c
000000e0: 04c1 a0be 2b80 c13c 02d3 27bf a6e7 0ec0
000000f0: c3b8 16be ab95 a63d 96b0 4bbf 90d3 12be
00000100: 0a96 33bf fd23 cebc e8b1 22bf 1636 dcbe
00000110: 4346 b0be c2b0 02c0 53cb 0dbf d8f7 d2be
00000120: 568c 97be 5453 0ebf 027d 44bf e035 3a3e
00000130: 7109 40bf f40a 0d3e a7ef 19bf a9bf ffbf
00000140: 0849 e3be be9c 113e c4dd 38bf 0a20 acbe
00000150: 5233 2fbf 99b9 523e 67bb 50bf 24eb 193e
00000160: d269 f6be dcba dcbf dfbc 14bf 653d 28bd
00000170: 422f 3abf 7cf6 a9bd 27cd 1dbf 1caf 943e
00000180: 598c 09bf 878e 2cbe 6b1c b5be 89b8 e9bf

bias f4 [10]
0.7664271 -0.39543927 -0.20945361 -0.2072934 -0.6215397 -0.62872577 -0.14471965 -0.5903656
-0.5224684 -0.3618338
00000000: 9134 443f 0477 cabe 027b 56be b944 54be
00000010: 3a1d 1fbf 2cf4 20bf 6331 14be 3322 17bf
00000020: 7dc0 05bf 4842 b9be

weight f4 [1, 1, 3, 3]
-0.257925 0.22590582 0.17433394 -0.30648935 -0.6291716 -0.7890028 -0.2189622 0.17933853
0.05272798
00000000: bf0e 84be db53 673e 9984 323e 2cec 9cbe
00000010: 6411 21bf 16fc 49bf a137 60be 85a4 373e
00000020: 4bf9 573d

weight f4 [5, 169]
0.03981991 0.06711941 0.10793376 0.034099124 0.09662985 0.09726827 0.1239673 0.113930106
0.043306213 0.065042496 0.030533155 0.12516825 0.077182665 0.10768006 0.011027161 0.07239834
-0.029231254 -0.11251864 -0.40245232 -0.56870383 -0.7122636 -0.446369 -0.09435094 0.05887647
3.4221616e-06 0.07344993 0.12364996 -0.054037713 -0.14677808 -0.33739877 -0.41266066 -0.49846077
-0.6755828 -0.72717696 -0.43921763 -0.41732508 -0.39058766 0.0926199 0.055938166 0.10784235
-0.0066522444 -0.08571531 -0.15032153 -0.06977456 -0.3396864 0.61768216 0.9107567 0.44158784
0.46077958 -0.10147829 0.16043143 0.013533177 0.030543474 -0.067136735 0.47017205 0.645786
0.5889836 1.2375565 0.3368407 -0.22202845 -0.30564564 0.06439651 0.200021 0.1148882
-0.008435742 0.133476 0.23424973 0.7786305 1.0396812 1.3823647 1.2624311 0.24878314
0.26997223 0.63645935 0.43630475 0.17322254 0.05349339 -0.025334015 0.08983956 0.33453107
1.1371044 1.0869857 0.9528996 0.2634371 -0.23218265 0.47659606 0.543984 0.30200303
-0.21682008 -0.15342934 0.08465658 -0.010205148 0.011897397 0.04074225 0.11114637 0.20558506
-0.8621853 -0.862705 -0.44201958 -0.78072864 0.1556701 -0.3714491 -0.41985723 -0.18097238
0.00073384214 -0.1961776 -0.53203315 -0.6841771 -0.88467205 -1.1455569 -0.42905024 -0.36103973
-0.39772514 0.28173873 -0.9496128 -0.82852787 -0.13112272 0.1311023 -0.044276785 -0.5799948
-0.9928751 -0.53842163 -1.1758146 -0.85144943 -0.5379429 -0.06968164 0.6150699 0.035264846
-0.11704124 -0.0036094151 0.08810919 -0.028153792 -0.32804412 -0.56001973 -0.4573102 -0.32225776
-0.0023862382 0.2518985 0.18801107 0.39323574 0.57743543 -0.01464012 0.1222215 0.046668734
0.13545862 0.31492117 0.8544742 0.6774728 0.77099967 0.47564512 0.5160806 0.56126314
0.2859054 0.7240295 0.17323612 -0.00010456827 0.11392178 0.09987806 -0.0069025676 0.12860444
0.08075717 0.085008204 0.023749338 -0.0504123 0.023648873 0.17351058 -0.090040445 0.058742996
-0.01481834 -0.044180706 -0.064766705 -0.038516015 -0.16060588 -0.17080624 -0.15597688 -0.1383191
-0.150184 -0.10668863 -0.115652956 -0.12056184 -0.1570838 -0.04934831 -0.11558725 -0.14257038
-0.063330464 -0.13353567 -0.1251867 -0.09758084 -0.12431892 -0.06573805 -0.110518865 -0.12635817
-0.08325713 -0.079415545 -0.099722855 -0.12478932 -0.1663641 -0.16331546 -0.14721619 -0.13825664
-0.15729503 -0.115294605 -0.09021169 -0.03739966 -0.048242006 -0.17158031 -0.09031333 -0.1675357
-0.031134024 -0.11273551 -0.055836514 -0.03872375 -0.03152003 -0.045056704 -0.12840785 -0.16395083
-0.15114938 -0.044728372 -0.03811216 -0.08909476 -0.15662792 -0.0571922 -0.02577455 -0.17299706
-0.04490605 -0.065252416 -0.17089728 -0.14915134 -0.0794504 -0.1764633 -0.03133437 -0.11879542
-0.115193754 -0.09225459 -0.075104386 -0.15819183 -0.03756101 -0.032034487 -0.058954865 -0.10489887
-0.13142698 -0.16149665 -0.1452287 -0.078380734 -0.11279317 -0.07712413 -0.16517869 -0.065936595
-0.11484766 -0.08967895 -0.07606616 -0.157742 -0.1348533 -0.13137262 -0.076342694 -0.06334589
00000000: 341a 233d e775 893d 600c dd3d 86ab 0b3d
00000010: dfe5 c53d 9634 c73d 91e2 fd3d 3054 e93d
00000020: db61 313d 0035 853d ab20 fa3c 1b2c 003e
00000030: f211 9e3d 5d87 dc3d 44ab 343c 9545 943d
00000040: 6276 efbc 2c70 e6bd 3b0e cebe 9396 11bf
00000050: e856 36bf 7a8a e4be 113b c1bd 7428 713d
00000060: 4aa8 6536 eb6c 963d 313c fd3d a656 5dbd
00000070: fe4c 16be 88bf acbe 4248 d3be 4036 ffbe
00000080: fff2 2cbf 4528 3abf 22e1 e0be a2ab d5be
00000090: 1bfb c7be 81af bd3d 6b1f 653d 73dc dc3d
000000a0: 12fb d9bb 828b afbd e3ed 19be f7e5 8ebd
000000b0: 60eb adbe 6b20 1e3f 5a27 693f cd17 e23e
000000c0: 4deb eb3e dad3 cfbd 2348 243e 42ba 5d3c
000000d0: 4f36 fa3c fc7e 89bd 64ba f03e 3b52 253f
000000e0: a1c7 163f 4068 9e3f 6276 ac3e 6d5b 63be
000000f0: 967d 9cbe 51e2 833d 4ed2 4c3e 814a eb3d
00000100: 1136 0abc efad 083e 29df 6f3e 5454 473f
00000110: 4614 853f 54f1 b03f 5897 a13f 02c1 7e3e
00000120: cd39 8a3e 00ef 223f 5663 df3e 4061 313e
00000130: e31b 5b3d 4889 cfbc cefd b73d a847 ab3e
00000140: a38c 913f 5922 8b3f 3af1 733f 3ae1 863e
00000150: 4ac1 6dbe 6604 f43e 8942 0b3f 24a0 9a3e
00000160: 1506 5ebe 951c 1dbe 6e60 ad3d 7e33 27bc
00000170: 4ded 423c 58e1 263d b5a0 e33d e484 523e
00000180: 2db8 5cbf 3cda 5cbf 6450 e2be d5dd 47bf
00000190: fc67 1f3e 942e bebe 87f7 d6be d350 39be
000001a0: 505f 403a c8e2 48be 5333 08bf 3b26 2fbf
000001b0: de79 62bf 9ca1 92bf 79ac dbbe 33da b8be
000001c0: a1a2 cbbe 0f40 903e d319 73bf 671a 54bf
000001d0: 0945 06be ae3f 063e 935b 35bd 8a7a 14bf
000001e0: 102d 7ebf 00d6 09bf 1881 96bf 97f8 59bf
000001f0: a0b6 09bf 3fb5 8ebd 3975 1d3f df71 103d
00000200: 51b3 efbd f08b 6cbb 9772 b43d c8a2 e6bc
00000210: 66f5 a7be 745d 0fbf 9024 eabe f8fe a4be
00000220: 6f62 1cbb d7f8 803e f985 403e 3256 c93e
00000230: cfd2 133f 1ddd 6fbc 444f fa3d b727 3f3d
00000240: aab5 0a3e 593d a13e d2be 5a3f db6e 2d3f
00000250: 3c60 453f c287 f33e dc1d 043f f1ae 0f3f
00000260: 3162 923e ff59 393f cf64 313e aa4b dbb8
00000270: d24f e93d de8c cc3d ef2e e2bb e2b0 033e
00000280: 0464 a53d c818 ae3d f98d c23c 217d 4ebd
00000290: 48bb c13c c2ac 313e 2067 b8bd 7f9c 703d
000002a0: 9fc8 72bc d4f6 34bd 68a4 84bd f8c2 1dbd
000002b0: de75 24be d5e7 2ebe 67b8 1fbe 86a3 0dbe
000002c0: d6c9 19be 927f dabd 75db ecbd 20e9 f6bd
000002d0: 93da 20be 7421 4abd 02b9 ecbd f8fd 11be
000002e0: 67b3 81bd 93bd 08be f130 00be 77d8 c7bd
000002f0: eb9a febd aca1 86bd b757 e2bd 0964 01be
00000300: b782 aabd 9ea4 a2bd 7f3b ccbd 8b91 ffbd
00000310: 5a5b 2abe 2b3c 27be d7bf 16be 2693 0dbe
00000320: f311 21be 941f ecbd e8c0 b8bd 6330 19bd
00000330: 6999 45bd c0b2 2fbe 32f6 b8bd 7b8e 2bbe
00000340: c80c ffbc e0e1 e6bd d4b4 64bd cb9c 1ebd
00000350: 261b 01bd 618d 38bd 597d 03be bae2 27be
00000360: e7c6 1abe 1935 37bd 7f1b 1cbd 5077 b6bd
00000370: 1263 20be 5e42 6abd 2625 d3bc 2426 31be
00000380: 68ef 37bd 0fa3 85bd b2ff 2ebe 21bb 18be
00000390: e4b6 a2bd ccb2 34be 7858 00bd 034b f3bd
000003a0: b4ea ebbd f9ef bcbd 54d0 99bd 0afd 21be
000003b0: 93d9 19bd 9836 03bd a87a 71bd 38d5 d6bd
000003c0: cb94 06be 615f 25be d5b6 14be 1486 a0bd
000003d0: 1b00 e7bd 42f3 9dbd 9a24 29be c409 87bd
000003e0: 4035 ebbd 99a9 b7bd 93c8 9bbd 1e87 21be
000003f0: fc16 0abe 8b86 06be 8f59 9cbd 7dbb 81bd

bias f4 [5]
0.17225243 -0.08120372 0.12295526 -0.14220005 0.06940709
00000000: f162 303e 234e a6bd f8cf fb3d e49c 11be
00000010: 4e25 8e3d

weight f4 [10, 5]
0.025805542 0.41658854 -0.37026176 -0.43079445 -0.12953925 0.22626996 -0.11554208 0.52690274
-0.1138691 0.1697958 0.21353073 0.43736622 -0.14618565 0.5127845 0.6177436 -0.40092453
0.3935228 -0.22905166 0.15698768 -0.21536934 0.91798013 0.28629932 -0.07451986 0.33204305
0.011649614 0.9262977 -0.31535208 -0.0019549571 0.14944647 0.60972977 -0.1251393 -0.150811
-0.27193695 0.19738123 -0.055585504 -0.45325136 -0.24320625 0.8242828 -0.026266912 0.57868886
0.97471935 0.14847013 -0.14486207 0.30721936 -0.48977733 0.19423668 -0.17754544 -0.24140722
0.51982796 -0.42677376
00000000: 2566 d33c 184b d53e f392 bdbe 1791 dcbe
00000010: f0a5 04be 50b3 673e 53a1 ecbd 19e3 063f
00000020: 3434 e9bd f3de 2d3e cda7 5a3e 77ee df3e
00000030: b1b1 15be d845 033f 7224 1e3f fb45 cdbe
00000040: d27b c93e 858c 6abe 61c1 203e c889 5cbe
00000050: bf00 6b3f d395 923e de9d 98bd 8c01 aa3e
00000060: 06de 3e3c d921 6d3f d475 a1be bd1e 00bb
00000070: 7f08 193e 4017 1c3f 8424 00be 336e 1abe
00000080: 523b 8bbe 4e1e 4a3e a0ad 63bd 9010 e8be
00000090: 0f0b 79be 3304 533f b52d d7bc f424 143f
000000a0: 3587 793f 8e08 183e b956 14be db4b 9d3e
000000b0: 18c4 fabe fbe5 463e 79ce 35be 7433 77be
000000c0: 7213 053f 1782 dabe

bias f4 [10]
-0.35411108 0.5752857 0.21686682 -0.39840558 0.038482025 0.1188444 -0.26974285 0.45573488
0.16865498 -0.002089612
00000000: 0c4e b5be ec45 133f 5612 5e3e d1fb cbbe
00000010: 549f 1d3d b164 f33d bc1b 8abe 1556 e93e
00000020: e4b3 2c3e dff1 08bb

weight f4 [10, 10]
0.18896177 0.44348004 0.29671702 0.10283978 0.48736772 0.7246444 -0.13778396 0.32888547
0.49371165 0.20050089 0.147142 0.6759444 0.12605684 -0.25804618 -0.0835605 -0.28163406
-0.0729291 0.72770804 -0.43433765 0.23981461 -0.074305005 -0.5231663 -0.4718582 -0.017713465
-0.28722495 -1.6504205 0.17223619 -0.32954723 0.019850057 -0.07348669 -0.10557079 -0.51759285
-0.37697512 -0.026325637 -0.18381175 -1.7262381 0.04503612 -0.30987558 -0.3272458 -0.31084204
-0.15029493 -0.19138038 -0.43379638 0.1043767 -0.5081687 -2.6355271 0.31593126 -0.24024275
0.10628627 -0.097199135 -0.14257397 -0.2304311 -0.48807514 0.19681105 -0.397114 -1.7485739
0.12742645 -0.5193529 -0.13020593 -0.14326712 -0.074690014 -0.27257782 -0.2732 -0.13027282
-0.20665273 -2.008427 -0.30152932 -0.33200738 -0.050835755 -0.22966732 0.03312046 -0.43989214
-0.56076914 0.2715729 -0.4874234 -1.4835056 -0.14082696 -0.4812258 -0.40159008 -0.35972852
-0.07727344 -0.33099458 -0.5260107 -0.01492085 -0.37261757 -1.6520419 0.21978287 -0.47625977
-0.08057896 -0.37420422 0.13406603 -0.5946932 -0.40879264 -0.22829922 -0.50994575 -1.4807612
-0.012089934 -0.29212672 -0.30781028 -0.46243647
00000000: 327f 413e d10f e33e 4beb 973e aa9d d23d
00000010: 4388 f93e 4c82 393f 3d17 0dbe ad63 a83e
00000020: c6c7 fc3e 1b50 4d3e 64ac 163e b10a 2d3f
00000030: 0b15 013e a11e 84be c421 abbd 5732 90be
00000040: da5b 95bd 134b 3a3f 8161 debe f691 753e
00000050: 392d 98bd 3aee 05bf 6697 f1be d41b 91bc
00000060: 260f 93be fb40 d3bf af5e 303e 6aba a8be
00000070: 969c a23c 3180 96bd 8035 d8bd f780 04bf
00000080: e202 c1be dda8 d7bc 2639 3cbe 5ff5 dcbf
00000090: cb77 383d 03a8 9ebe c38c a7be b026 9fbe
000000a0: eae6 19be 38f9 43be 8f1a debe 74c3 d53d
000000b0: 5817 02bf 7aac 28c0 bec1 a13e 3202 76be
000000c0: 9eac d93d 5710 c7bd e9fe 11be 21f6 6bbe
000000d0: fce4 f9be d688 493e 8752 cbbe 45d1 dfbf
000000e0: 147c 023e 50f4 04bf b454 05be 9eb4 12be
000000f0: 14f7 98bd 528f 8bbe dfe0 8bbe 3d66 05be
00000100: c69c 53be 118a 00c0 0d62 9abe dffc a9be
00000110: 2739 50bd e92d 6bbe 52a9 073d 8b39 e1be
00000120: 918e 0fbf 9a0b 8b3e 8f8f f9be 83e3 bdbf
00000130: f134 10be 3a63 f6be 379d cdbe 562e b8be
00000140: 8a41 9ebd 1f78 a9be a3a8 06bf 9576 74bc
00000150: bbc7 bebe 1c76 d3bf c30e 613e 52d8 f3be
00000160: 9506 a5bd b297 bfbe 9b48 093e d03d 18bf
00000170: 454d d1be 45c7 69be ce8b 02bf 9589 bdbf
00000180: dc14 46bc a291 95be 4f99 9dbe 79c4 ecbe

bias f4 [10]
0.34151238 0.36549532 -0.08281139 -0.12466671 -0.2436821 -0.014305646 -0.38137674 -0.17345543
-0.008181338 -0.3632402
00000000: b6da ae3e 3422 bb3e 0599 a9bd 4351 ffbd
00000010: cd87 79be 3a62 6abc d043 c3be 4d9e 31be
00000020: 050b 06bc 9ffa b9be

weight f4 [1, 1, 3, 3]
-0.94113547 -0.274221 -0.63972074 -0.9261024 0.1509989 -0.7256441 -0.20747411 0.17258868
0.2234109
00000000: 41ee 70bf b266 8cbe bdc4 23bf 0c15 6dbf
00000010: 759f 1a3e d0c3 39bf 1874 54be 16bb 303e
00000020: d4c5 643e

weight f4 [5, 169]
-0.15508787 -0.16462807 -0.11284835 -0.052632254 -0.106196724 -0.054996435 -0.10273606 -0.07776333
-0.11104915 -0.10804489 -0.15507601 -0.04202391 -0.10145857 -0.06350388 -0.13853675 -0.14638536
-0.037536655 -0.07315223 -0.14248599 -0.14115077 -0.09696648 0.029948147 -0.09670249 -0.089076936
-0.08117706 -0.16442375 -0.06455509 -0.097523816 -0.036103405 -0.10643637 -0.10495838 -0.13201672
0.06838629 -0.112289466 0.13872252 -0.16982025 -0.12910901 -0.11014852 -0.12297646 -0.11651838
-0.09036123 -0.12290751 -0.12726101 -0.044351447 -0.16135938 -0.0775224 -0.03263103 -0.061287377
-0.106968544 -0.13188972 -0.035529297 -0.098053694 -0.12271276 -0.14657336 -0.1557739 -0.039566863
-0.105975196 -0.14387769 -0.08071531 -0.089674145 -0.11657489 -0.09549705 -0.053708367 -0.079193816
-0.11597969 -0.081013784 -0.025863372 -0.15000089 -0.0387777 -0.09153787 -0.16115129 -0.11352863
-0.08053904 -0.05184082 -0.17552763 -0.07011558 -0.041253947 -0.05086614 -0.036749545 -0.14774974
-0.09794032 -0.17356162 -0.13951074 -0.14532888 -0.06350685 -0.02718462 -0.17392524 -0.15743451
-0.038781058 -0.024599284 -0.17385502 -0.10935659 -0.12318361 -0.0757079 -0.17500459 -0.025906473
-0.16688989 -0.074448004 -0.055557493 -0.07591933 -0.12956063 -0.09895324 -0.062934004 -0.034611482
-0.10343491 -0.082745835 0.08004672 0.16477755 -0.11241308 -0.040730122 -0.10822119 -0.05114229
-0.06538909 -0.14826019 -0.14098534 -0.14072683 -0.07702797 -0.04918766 -0.14191836 -0.052235555
0.052188434 0.09004686 0.10572708 -0.112132736 -0.13980329 0.06843681 -0.024712492 -0.031034729
-0.102030516 -0.023632068 -0.12792087 -0.025823269 -0.06851848 0.13121267 0.09960695 0.13715377
0.10926903 -0.033790316 -0.15630415 -0.069570415 -0.169867 -0.034812126 -0.09687444 -0.06291295
-0.044347383 -0.049350906 -0.14326933 -0.10594433 -0.1156026 -0.10866342 -0.069178075 -0.15349275
-0.026536385 -0.11564863 -0.040085185 -0.068665326 -0.16645776 -0.06466212 -0.09026738 -0.13147226
-0.070596874 -0.04025525 -0.06648277 -0.058909245 -0.04685078 -0.067447074 -0.09519814 -0.08804102
-0.038341694 -0.03440139 -0.12676302 -0.149019 -0.059811577 -0.07088832 -0.07852588 -0.06020307
-0.09939747 -0.14397952 -0.14371696 -0.05226527 -0.06052107 -0.10359847 -0.17209567 -0.16397828
-0.051076 -0.04975729 -0.042982727 -0.08544159 -0.15489861 -0.028821087 -0.15384462 -0.10899052
-0.072561145 -0.096540675 -0.09760381 -0.124300756 -0.099230394 -0.03481571 -0.15394954 -0.08101479
-0.07142737 -0.085794464 -0.06507836 -0.1504676 -0.044107653 -0.09174504 -0.16284609 -0.118642956
-0.06773602 -0.10735751 -0.14284106 -0.16161132 -0.076109886 -0.029387994 -0.1768175 -0.029443346
-0.123026915 -0.16394567 -0.090054356 -0.05300651 -0.14778404 -0.12594108 -0.117838874 -0.112598985
-0.15482521 -0.16663903 -0.026531171 -0.07687473 -0.06252967 -0.072816655 -0.12594375 -0.025436293
-0.11190414 -0.08303431 -0.10956565 -0.1767468 -0.12108051 -0.14260294 -0.025689168 -0.08373901
-0.044213675 -0.024569659 -0.08603335 -0.08780624 -0.040719744 -0.05169485 -0.09459229 -0.042085554
-0.04083853 -0.1034435 -0.14086187 -0.036104348 -0.1743845 -0.16227593 -0.13836132 -0.054267272
00000000: 5bcf 1ebe 4394 28be 091d e7bd eb94 57bd
00000010: ab7d d9bd f143 61bd 4967 d2bd 6142 9fbd
00000020: bd6d e3bd a446 ddbd 3fcc 1ebe 4321 2cbd
00000030: 83c9 cfbd 520e 82bd 94dc 0dbe 0be6 15be
00000040: 09c0 19bd d6d0 95bd d9e7 11be d489 10be
00000050: 5d96 c6bd d155 f53c f40b c6bd f86d b6bd
00000060: 2940 a6bd b35e 28be 7635 84bd 91ba c7bd
00000070: 2ae1 13bd 50fb d9bd 6bf4 d6bd 642f 07be
00000080: 1c0e 8c3d 05f8 e5bd 470d 0e3e 5ce5 2dbe
00000090: 2735 04be 8c95 e1bd 15db fbbd 30a1 eebd
000000a0: 4f0f b9bd efb6 fbbd b650 02be dda9 35bd
000000b0: 653b 25be 10c4 9ebd 1da8 05bd 7908 7bbd
000000c0: 5312 dbbd 190e 07be 2b87 11bd 60d0 c8bd
000000d0: d450 fbbd 5417 16be 3183 1fbe dd10 22bd
000000e0: 8609 d9bd ac54 13be 124e a5bd 14a7 b7bd
000000f0: d1be eebd f593 c3bd 4efd 5bbd 5e30 a2bd
00000100: c286 edbd 8eea a5bd 6cdf d3bc d599 19be
00000110: 5ed5 1ebd 3578 bbbd d804 25be b381 e8bd
00000120: a7f1 a4bd 0a57 54bd 84bd 33be c298 8fbd
00000130: e6f9 28bd 0359 50bd b186 16bd b54b 17be
00000140: ef94 c8bd 23ba 31be e7db 0ebe 18d1 14be
00000150: e10f 82bd 48b2 debc 7519 32be 8336 21be
00000160: e3d8 1ebd 7084 c9bc 0d07 32be 59f6 dfbd
00000170: b047 fcbd be0c 9bbd 6734 33be d039 d4bc
00000180: 2fe5 2abe 3278 98bd 4190 63bd 987b 9bbd
00000190: 8bab 04be ffa7 cabd 8be3 80bd c5c4 0dbd
000001a0: afd5 d3bd a676 a9bd 89ef a33d 72bb 283e
000001b0: d438 e6bd a1d4 26bd 12a3 ddbd 947a 51bd
000001c0: b7ea 85bd 85d1 17be 765e 10be b21a 10be
000001d0: d7c0 9dbd 0079 49bd 0c53 11be f3f4 55bd
000001e0: 8ac3 553d 7d6a b83d 7087 d83d d9a5 e5bd
000001f0: 9828 0fbe 9928 8c3d da71 cabc 8b3c febc
00000200: 60f5 d0bd 0a98 c1bc b0fd 02be 528b d3bc
00000210: 6b53 8cbd 9d5c 063e bbfe cb3d 0a72 0c3e
00000220: 71c8 df3d b767 0abd 320e 20be ef7a 8ebd
00000230: 9df1 2dbe 2997 0ebd 1b66 c6bd 81d8 80bd
00000240: 9aa5 35bd 2d24 4abd 32b5 12be 57f9 d8bd
00000250: 0ec1 ecbd ed8a debd 3cad 8dbd 342d 1dbe
00000260: d562 d9bc 30d9 ecbd 5d30 24bd 68a0 8cbd
00000270: e773 2abe 936d 84bd 1bde b8bd aaa0 06be
00000280: 1895 90bd b0e2 24bd 1e28 88bd d24a 71bd
00000290: 9ae6 3fbd b121 8abd 3ef7 c2bd da4e b4bd
000002a0: 2e0c 1dbd 79e8 0cbd 2ace 01be 7098 18be
000002b0: fcfc 74bd e52d 91bd 2dd2 a0bd 7f97 76bd
000002c0: e790 cbbd 5e6f 13be 8a2a 13be 1c14 56bd
000002d0: f1e4 77bd 6f2b d4bd d939 30be ece9 27be
000002e0: 1135 51bd 4dce 4bbd a80e 30bd 00fc aebd
000002f0: be9d 1ebe 331a ecbc 7289 1dbe 6c36 dfbd
00000300: f09a 94bd 1eb7 c5bd 82e4 c7bd 6591 febd
00000310: 4e39 cbbd eb9a 0ebd f3a4 1dbe 15eb a5bd
00000320: 8348 92bd 02b5 afbd ce47 85bd 2e14 1abe
00000330: 3aaa 34bd d3e4 bbbd 20c1 26be 14fb f2bd
00000340: 2fb9 8abd 41de dbbd ed44 12be 707d 25be
00000350: 80df 9bbd 17bf f0bc a60f 35be 2c33 f1bc
00000360: 89f5 fbbd 60e1 27be 6b6e b8bd 5b1d 59bd
00000370: b354 17be b3f6 00be 8255 f1bd 4c9a e6bd
00000380: 808a 1ebe 6ca3 2abe e657 d9bc 8070 9dbd
00000390: 8e0f 80bd e620 95bd 66f7 00be c65f d0bc
000003a0: ff2d e5bd e40d aabd f563 e0bd 1dfd 34be
000003b0: 0ff9 f7bd 8106 12be 1772 d2bc 5c7f abbd
000003c0: 6619 35bd 4f46 c9bc 4132 b0bd c2d3 b3bd
000003d0: bfc9 26bd fbbd 53bd 9ab9 c1bd e761 2cbd
000003e0: 4d46 27bd 30da d3bd 183e 10be 27e2 13bd
000003f0: da91 32be a92b 26be 97ae 0dbe 5c47 5ebd

bias f4 [5]
-0.09100601 -0.07649293 0.037248824 0.27376992 -0.014273662
00000000: 5c61 babd 53a8 9cbd 3992 183d 922b 8c3e
00000010: 14dc 69bc

weight f4 [10, 5]
0.40164262 -0.33927494 -0.4467608 0.89147335 0.046952263 0.14294593 -0.022538884 -0.08846628
-0.44272903 -0.24625315 -0.050287835 0.018816901 0.3498585 -0.054492608 0.013705559 0.16146027
-0.34807086 0.411521 -0.13663805 0.41690075 0.3419922 -0.17679842 -0.27612755 -0.13059458
-0.1308287 -0.04125225 -0.06161808 0.40228522 0.69196564 0.11760737 0.4300332 0.39793777
-0.3987516 -0.22586708 -0.31489488 -0.31865045 0.14426346 -0.3335833 -0.18821548 -0.34648752
-0.519561 0.0011846271 0.19351766 -0.20726484 0.12174566 0.20621166 -0.23306109 0.3281936
0.35275772 -0.11302659
00000000: 1aa4 cd3e 72b5 adbe d5bd e4be 9937 643f
00000010: 0451 403d 6b60 123e 77a3 b8bc cf2d b5bd
00000020: 61ad e2be c929 7cbe 9efa 4dbd e725 9a3c
00000030: a720 b33e a433 5fbd 488d 603c d755 253e
00000040: 5836 b2be e1b2 d23e d8ea 0bbe 0474 d53e
00000050: 9a19 af3e a50a 35be 9760 8dbe 96ba 05be
00000060: f5f7 05be 1ff8 28bd 3d63 7cbd 54f8 cd3e
00000070: a924 313f 22dc f03d 502d dc3e 80be cb3e
00000080: 2b29 ccbe b349 67be e739 a1be 2726 a3be
00000090: cdb9 133e 6ecb aabe 8fbb 40be d066 b1be
000000a0: f301 05bf 7d45 9b3a 7e29 463e 3c3d 54be
000000b0: ca55 f93d 2629 533e 91a7 6ebe fe08 a83e
000000c0: a99c b43e 7c7a e7bd

bias f4 [10]
-0.24167527 0.7448735 -0.4311166 0.75693727 -0.46664742 -0.37011606 -0.611771 1.1060067
1.1794944 1.0370291
00000000: b979 77be 08b0 3e3f 51bb dcbe a4c6 413f
00000010: 69ec eebe da7f bdbe 069d 1cbf a191 8d3f
00000020: acf9 963f 5fbd 843f

weight f4 [10, 10]
0.91101295 -0.31217715 0.05400434 -0.4620563 -0.0623273 0.63470125 0.37262985 -0.46196383
0.075131685 0.6045396 0.36822805 0.53467226 0.12301944 0.30905125 -0.016638763 0.23465471
0.14037845 0.9109664 0.70451826 0.49571303 -0.38183916 -0.75227904 -0.19625095 -2.2806559
-0.20605925 -0.563875 -0.104641564 -2.3722265 -1.5041707 -0.700707 -0.648258 -1.0285335
0.047499184 -2.0501404 0.089493826 -0.45176795 -0.2895882 -2.5146656 -1.3225244 -1.1243206
-0.47788882 -0.86110425 -0.30568922 -2.1350071 -0.4432302 -0.020047246 0.034593083 -2.5334873
-1.2818178 -0.8837825 -0.26587313 -1.0585753 -0.1349291 -1.7623996 -0.5106417 -0.44671667
-0.123699695 -2.8591163 -1.3658224 -0.8227902 -0.5783409 -1.1301326 -0.024216209 -1.4965823
-0.16406095 -0.11156782 -0.5304899 -2.7419043 -1.2993526 -1.1925077 -0.31861427 -1.1215341
0.059281547 -1.8908631 -0.24166362 -0.5778318 -0.5117618 -2.1433804 -1.4853228 -0.903833
-0.4727276 -1.1755574 -0.22716834 -1.9430019 -0.45252767 -0.3109271 -0.24317272 -2.179796
-1.4541099 -1.0104052 -0.19233067 -0.87355965 0.15487757 -1.9873683 0.0117458375 -0.38630992
-0.08549559 -2.3478875 -1.5996491 -0.75525904
00000000: 2538 693f afd5 9fbe a833 5d3d a592 ecbe
00000010: e94a 7fbd c87b 223f 57c9 be3e 8686 ecbe
00000020: a4de 993d 1bc3 1a3f 6388 bc3e 48e0 083f
00000030: 9ef1 fb3d f73b 9e3e 044e 88bc 5349 703e
00000040: 5ebf 0f3e 1835 693f 4f5b 343f 19ce fd3e
00000050: 6c80 c3be 5c95 40bf 02f6 48be 44f6 11c0
00000060: 3201 53be 1d5a 10bf 514e d6bd 8fd2 17c0
00000070: aa88 c0bf 8961 33bf 3cf4 25bf fca6 83bf
00000080: 818e 423d 8035 03c0 8a48 b73d 214e e7be
00000090: e844 94be 48f0 20c0 7b48 a9bf bde9 8fbf
000000a0: d8ad f4be 5471 5cbf 4c83 9cbe f5a3 08c0
000000b0: 12ef e2be 1f3a a4bc 7ab1 0d3d a824 22c0
000000c0: 9b12 a4bf 923f 62bf 8620 88be 657f 87bf
000000d0: db2a 0abe 4f96 e1bf 6ab9 02bf 0cb8 e4be
000000e0: 4456 fdbd c3fb 36c0 45d3 aebf 61a2 52bf
000000f0: 260e 14bf 2fa8 90bf 1261 c6bc 0290 bfbf
00000100: 98ff 27be ab7d e4bd 30ce 07bf 5c7b 2fc0
00000110: 3051 a6bf 18a4 98bf 6921 a3be 6e8e 8fbf
00000120: 35d1 723d cd07 f2bf ab76 77be c9ec 13bf
00000130: d202 03bf 252d 09c0 0f1f bebf 9961 67bf
00000140: 5a09 f2be aa78 96bf d19e 68be 49b4 f8bf
00000150: b5b1 e7be d631 9fbe 4502 79be c781 0bc0
00000160: 4620 babf f554 81bf 55f2 44be 9ba1 5fbf
00000170: 3a98 1e3e 1662 febf 9d71 403c 6aca c5be
00000180: 5018 afbd ca43 16c0 4dc1 ccbf a858 41bf

bias f4 [10]
-0.22688457 0.7395659 -0.46843532 -0.5170315 -0.4747654 -0.5970018 -0.30066097 -0.9175329
-0.34423214 -0.8066518
00000000: 6e54 68be 3154 3d3f c1d6 efbe 2d5c 04bf
00000010: 7314 f3be 1cd5 18bf 3cf0 99be 70e3 6abf
00000020: 323f b0be bb80 4ebf

weight f4 [1, 1, 3, 3]
0.29552087 1.0501707 0.42448086 0.23575556 0.39167842 -0.75103986 -0.31550634 0.0030481531
-0.21821834
00000000: 834e 973e fe6b 863f 8e55 d93e e869 713e
00000010: 138a c83e 2644 40bf 0c8a a1be 86c3 473b
00000020: a174 5fbe

weight f4 [5, 169]
-0.19697677 -0.2508737 -0.16279738 -0.18795028 -0.13160278 -0.26044673 -0.21043168 -0.20635591
-0.20690586 -0.12727915 -0.25529423 -0.1983337 -0.16172549 -0.22718887 -0.16094874 -0.21928276
-0.22059925 -0.14214663 -0.18679315 -0.23215842 -0.18877262 -0.13939632 -0.20181078 -0.27529293
-0.14075756 -0.25020236 -0.20945752 -0.19347288 -0.023477048 -0.2894694 -0.021434171 0.004250184
-0.34829628 -0.3270547 -0.30430025 -0.7562778 -0.91333663 -0.6907683 -0.06590228 -0.27256283
-0.13804026 0.49466076 0.50004226 0.37185356 0.113347515 0.009875908 0.009746821 -0.08248694
-0.285613 -0.27166697 -1.2587081 -0.6039167 -0.12893833 0.34304628 0.4698219 0.6621254
0.25854826 0.12949944 0.25094604 0.5724706 0.41002482 -0.20036703 -0.45219928 -1.0070933
-1.0711932 0.010010022 0.84707475 0.21795511 0.6973123 0.2651886 -0.18107572 0.006462245
0.49337682 1.022611 0.81922203 0.22352399 -0.9614368 -1.1599514 -0.10763508 0.5452687
-0.21620938 -0.056358423 0.016477017 -0.5948788 -0.8355135 0.865669 1.1779283 0.7019235
0.7447579 -0.5883003 -0.14780994 -0.1311349 0.21173711 -0.2483331 0.40981886 -0.44610274
-0.80893064 -0.41018268 0.5193127 0.3469022 0.8754712 0.8603897 -0.2716375 -0.17960659
-0.12438751 0.38300058 0.18234068 0.30130404 -0.29882735 -0.13849619 0.2962672 0.7057527
0.662554 0.28113756 -0.089685716 -0.02472439 0.18700963 -0.14423694 0.10738204 -0.7960593
-1.5192877 -0.1971069 0.46847802 0.50034773 0.081751466 0.111478515 -0.2724146 -0.31468183
-0.13421738 -0.08661862 -0.24005146 -0.16411531 -0.88755965 -0.74414396 -0.47797385 -0.0851488
0.3869764 -0.2659332 -0.53479844 -0.42934132 -0.35851327 0.089871846 -0.251826 -0.13093564
0.40613192 0.09489096 -0.031345863 -0.6067627 -0.3147576 -0.38409165 -0.22306931 -0.40329862
-0.6245389 -0.6768629 -0.2674922 -0.17507859 -0.18180305 0.5119532 0.47075555 0.09610491
0.151218 0.024839038 0.0722574 -0.05374516 -0.15935747 -0.34695053 -0.29426584 -0.16570945
-0.123501316 -0.07179891 -0.0111723775 0.041518763 -0.054782797 0.040555168 -0.03428297 0.07242729
-0.01045372 -0.039427035 0.0445002 0.0025077509 -0.021138348 -0.018023849 0.0019998 0.01875553
-0.00631768 -0.047152776 -0.06472608 -0.05751742 0.07679629 0.019726709 0.044464793 0.060381398
0.03547698 0.03105006 0.040575616 -0.0052498216 0.03660823 -0.06506076 -0.048011936 -0.038354356
-0.13818681 -0.11819016 -0.0626044 -0.11273901 -0.085928924 -0.11554111 -0.110572785 -0.10986839
0.05185816 -0.13084714 -0.040315207 -0.144928 -0.113429315 -0.107146785 -0.09319363 -0.18570185
-0.2117487 -0.12573956 -0.13301489 -0.07065817 -0.09255915 0.059742983 -0.032269936 -0.15478311
-0.10286978 -0.17122798 -0.10402304 -0.12237182 -0.108441904 -0.07670667 -0.20888005 -0.15044317
-0.12110939 -0.06260339 -0.014167731 -0.13359874 -0.116296455 -0.07431274 -0.11925128 -0.09303928
-0.20052442 -0.14368668 -0.12965594 -0.048988383 -0.10569938 -0.12677547 -0.0260834 0.041693907
-0.04522438 -0.18238112 -0.087836854 -0.08984003 -0.11936936 -0.14287533 -0.08578471 -0.06839011
00000000: 47b4 49be 8572 80be 5bb4 26be 0a76 40be
00000010: e1c2 06be 4659 85be 677b 57be f74e 53be
00000020: 21df 53be 7755 02be edb5 82be fd17 4bbe
00000030: 5e9b 25be 33a4 68be bfcf 24be a98b 60be
00000040: c5e4 61be e38e 11be b446 3fbe f0ba 6dbe
00000050: 9c4d 41be e9bd 0ebe 7ca7 4ebe 32f3 8cbe
00000060: c022 10be 861a 80be 087c 56be c11d 46be
00000070: f052 c0bc 5535 94be b796 afbc 2145 8b3b
00000080: e453 b2be b773 a7be 3ecd 9bbe 6c9b 41bf
00000090: 6ed0 69bf 31d6 30bf c6f7 86bd 5b8d 8bbe
000000a0: 6d5a 0dbe 2d44 fd3e c502 003f 9763 be3e
000000b0: be22 e83d 8fce 213c 21b1 1f3c eaee a8bd
000000c0: de3b 92be ef17 8bbe 591d a1bf 499a 1abf
000000d0: 6908 04be c3a3 af3e 7f8c f03e 0d81 293f
000000e0: 7060 843e 809b 043e 007c 803e 6f8d 123f
000000f0: c6ee d13e 042d 4dbe aa86 e7be 6fe8 80bf
00000100: dc1c 89bf 1301 243c e4d9 583f a02f 5f3e
00000110: 0f83 323f cdc6 873e ea6b 39be 3dc1 d33b
00000120: e39b fc3e ebe4 823f 89b8 513f 79e3 643e
00000130: b920 76bf 4a79 94bf c86f dcbd bb96 0b3f
00000140: fe65 5dbe 17d8 66bd cffa 863c fa49 18bf
00000150: 36e4 55bf 7c9c 5d3f 5bc6 963f 42b1 333f
00000160: 74a8 3e3f d99a 16bf 7d5b 17be 3a48 06be
00000170: 9dd1 583e 084b 7ebe c7d3 d13e 9467 e4be
00000180: 1416 4fbf 7703 d2be adf1 043f 2a9d b13e
00000190: e11e 603f 8042 5c3f 1214 8bbe caea 37be
000001a0: e1be febd a718 c43e 84b7 3a3e 8644 9a3e
000001b0: e6ff 98be f2d1 0dbe 56b0 973e 35ac 343f
000001c0: 249d 293f 43f1 8f3e 25ad b7bd ce8a cabc
000001d0: 747f 3f3e d9b2 13be 1deb db3d 8bca 4bbf
000001e0: 0578 c2bf 64d6 49be 5adc ef3e ca16 003f
000001f0: 506d a73d d94e e43d ed79 8bbe fa1d a1be
00000200: 4870 09be 1a65 b1bd 0dd0 75be d80d 28be
00000210: 1c37 63bf 3880 3ebf fdb8 f4be 7e62 aebd
00000220: c521 c63e 6528 88be 8de8 08bf a0d2 dbbe
00000230: 0d8f b7be bb0e b83d 56ef 80be fe13 06be
00000240: 86f0 cf3e 3156 c23d 8564 00bd cd54 1bbf
00000250: e827 a1be a9a7 c4be 486c 64be 287d cebe
00000260: c8e1 1fbf e346 2dbf bdf4 88be cd47 33be
00000270: 942a 3abe 5d0f 033f df06 f13e a7d2 c43d
00000280: e4d8 1a3e 3d7b cb3c b0fb 933d e323 5cbd
00000290: 9b2e 23be 80a3 b1be 03aa 96be bdaf 29be
000002a0: 42ee fcbd 4f0b 93bd 590c 37bc 940f 2a3d
000002b0: ed63 60bd 2d1d 263d 4d6c 0cbd c254 943d
000002c0: 1446 2bbc 3e7e 21bd d745 363d 1459 243b
000002d0: 542a adbc c0a6 93bc 140f 033b 32a5 993c
000002e0: 8a04 cfbb 4523 41bd 1b8f 84bd 6397 6bbd
000002f0: 6047 9d3d e899 a13c b720 363d 7c52 773d
00000300: 4f50 113d b25c fe3c 9e32 263d b206 acbb
00000310: 83f2 153d 933e 85bd 2aa8 44bd 7519 1dbd
00000320: d880 0dbe af0d f2bd bc36 80bd b6e3 e6bd
00000330: 81fb afbd d1a0 ecbd fc73 e2bd ae02 e1bd
00000340: 3969 543d cbfc 05be 8f21 25bd 0168 14be
00000350: a14d e8bd c66f dbbd 4ddc bebd a028 3ebe
00000360: a7d4 58be dfc1 00be 0e35 08be 3bb5 90bd
00000370: a78f bdbd 0fb5 743d 7b2d 04bd 777f 1ebe
00000380: 64ad d2bd 6356 2fbe 080a d5bd 149e fabd
00000390: ca16 debd 6318 9dbd a7e4 55be c60d 1abe
000003a0: 3308 f8bd 3536 80bd c51f 68bc 1cce 08be
000003b0: d62c eebd 4731 98bd 043a f4bd 618b bebd
000003c0: 4656 4dbe 9a22 13be 87c4 04be 0ba8 48bd
000003d0: eb78 d8bd 6ed1 01be dbac d5bc 3bc7 2a3d
000003e0: 333d 39bd 1ec2 3abe cfe3 b3bd 0dfe b7bd
000003f0: ec77 f4bd e94d 12be e5af afbd 1d10 8cbd

bias f4 [5]
0.25170362 -0.1164995 0.46619466 0.21968517 -0.166192
00000000: 4cdf 803e 4a97 eebd 11b1 ee3e 26f5 603e
00000010: 3c2e 2abe
