xai_neurips_2021/models/pre_trained/multi_class_linear_expert_gate_rand_6_2_3_model.pt (torch, 423663 bytes, 21 tensors)

weight f4 [6, 2]
0	0xc1fb85e2	-31.440372
1	0xc0a84bd4	-5.2592564
2	0x3f266448	0.6499677
3	0xc2878720	-67.763916
4	0x41947779	18.558336
5	0xbe9aa5d0	-0.3020463
6	0x416fbe62	14.98398
7	0x41add711	21.730013
8	0xc1870965	-16.879587
9	0x41c33045	24.39857
10	0xbf8f4f9d	-1.1196171
11	0xc1bd220b	-23.641623

bias f4 [6]
0	0x419f977c	19.948967
1	0x419a8abf	19.317747
2	0xc1647933	-14.27959
3	0xc1cd09c6	-25.629772
4	0xc1163be5	-9.389623
5	0x4121c488	10.110481

weight f4 [6, 2]
0	0x3f0b6499	0.54450375
1	0xbdb740f4	-0.08947936
2	0xbe6f3792	-0.23361042
3	0x3f269666	0.6507324
4	0xbf13ddd8	-0.5776038
5	0x3f016b95	0.5055478
6	0xbe45005f	-0.19238423
7	0xbea76145	-0.32691398
8	0x3c39182d	0.011297268
9	0xbf042f5a	-0.5163475
10	0xbe6fcd9d	-0.23418279
11	0x3e85c8f7	0.26129887

bias f4 [6]
0	0xbe13df8d	-0.14440747
1	0xbea832b3	-0.3285118
2	0x3e6cd5d6	0.23128447
3	0x3c60df24	0.013725076
4	0xbf13156d	-0.5745457
5	0xbeb9f3be	-0.36318773

weight f4 [2, 2]
0	0x4097538e	4.7289495
1	0x403d7240	2.9600983
2	0xc0942ea5	-4.630694
3	0xc04676a3	-3.100991

bias f4 [2]
0	0x40a7df09	5.245976
1	0xc0c3ad4c	-6.1149044

gate_outputs f4 [600, 2]
0	0x3f800000	1.0
1	0x301dd1a2	5.7414173e-10
2	0x3f800000	1.0
3	0x31affeec	5.1221516e-09
4	0x3f800000	1.0
5	0x319bf868	4.5393342e-09
6	0x3f800000	1.0
7	0x2ff5621f	4.463496e-10
8	0x3f800000	1.0
9	0x322e34c3	1.014013e-08
10	0x3f800000	1.0
11	0x30e34f24	1.6538917e-09
12	0x3f800000	1.0
13	0x2df6b29e	2.8046284e-11
14	0x3f800000	1.0
15	0x32184175	8.862448e-09
16	0x3f800000	1.0
17	0x2df6f203	2.8074437e-11
18	0x3f800000	1.0
19	0x2e5535ba	4.847831e-11
20	0x3f800000	1.0
21	0x329bb568	1.8126869e-08
22	0x3f800000	1.0
23	0x3047f179	7.273893e-10
24	0x3f800000	1.0
25	0x2d672226	1.3138412e-11
26	0x3f800000	1.0
27	0x2fa3ce41	2.979608e-10
28	0x3f800000	1.0
29	0x320b0777	8.092562e-09
30	0x3f800000	1.0
31	0x300822e9	4.952612e-10
32	0x3f800000	1.0
33	0x30ebda79	1.7160594e-09
34	0x3f800000	1.0
35	0x301e4f6f	5.7592947e-10
36	0x3f800000	1.0
37	0x316b0a13	3.4202727e-09
38	0x3f800000	1.0
39	0x2fb24d87	3.2433098e-10
40	0x3f800000	1.0
41	0x3036ae58	6.645897e-10
42	0x3f800000	1.0
43	0x30bc7662	1.3712447e-09
44	0x3f800000	1.0
45	0x30455b93	7.179832e-10
46	0x3f800000	1.0
47	0x30b29145	1.2992493e-09
48	0x3f800000	1.0
49	0x2fdcfcaf	4.019731e-10
50	0x3f800000	1.0
51	0x2ffdd04e	4.616844e-10
52	0x3f800000	1.0
53	0x30c7cf89	1.4538141e-09
54	0x3f800000	1.0
55	0x2d4b9231	1.1571675e-11
56	0x3f800000	1.0
57	0x2f9f8f89	2.902392e-10
58	0x3f800000	1.0
59	0x328d4cba	1.6449452e-08
60	0x3f800000	1.0
61	0x307c4b3e	9.178399e-10
62	0x3f800000	1.0
63	0x30b96e51	1.3491875e-09
64	0x3f800000	1.0
65	0x3122dd8a	2.3700033e-09
66	0x3f800000	1.0
67	0x30db16e5	1.5940854e-09
68	0x3f800000	1.0
69	0x31ede15e	6.923229e-09
70	0x3f800000	1.0
71	0x2fd0e01d	3.7994222e-10
72	0x3f800000	1.0
73	0x30a4315a	1.1946597e-09
74	0x3f800000	1.0
75	0x2de4e6f5	2.6023165e-11
76	0x3f800000	1.0
77	0x2ff31060	4.4213078e-10
78	0x3f800000	1.0
79	0x2fa20fa0	2.947873e-10
80	0x3f800000	1.0
81	0x2ff6bf82	4.4883214e-10
82	0x3f800000	1.0
83	0x2ec07bff	8.753175e-11
84	0x3f800000	1.0
85	0x30ff17a0	1.8560407e-09
86	0x3f800000	1.0
87	0x2e129474	3.332841e-11
88	0x3f800000	1.0
89	0x31d45a7a	6.180298e-09
90	0x3f800000	1.0
91	0x3231751c	1.0329384e-08
92	0x3f800000	1.0
93	0x329aba76	1.8012752e-08
94	0x3f800000	1.0
95	0x2fed6bd2	4.318666e-10
96	0x3f800000	1.0
97	0x2d1d5905	8.944183e-12
98	0x3f800000	1.0
99	0x31ee02d4	6.927033e-09
100	0x3f800000	1.0
101	0x30c75a35	1.4504794e-09
102	0x3f800000	1.0
103	0x31cd36c7	5.9725127e-09
104	0x3f800000	1.0
105	0x32205f8f	9.334953e-09
106	0x3f800000	1.0
107	0x32affaee	2.0486791e-08
108	0x3f800000	1.0
109	0x30297acf	6.1656363e-10
110	0x3f800000	1.0
111	0x3244d100	1.1456223e-08
112	0x3f800000	1.0
113	0x3193ce02	4.3016835e-09
114	0x3f800000	1.0
115	0x30c0c82f	1.4026734e-09
116	0x3f800000	1.0
117	0x2ebba5c3	8.533221e-11
118	0x3f800000	1.0
119	0x302a40f5	6.193795e-10
120	0x3f800000	1.0
121	0x2fea98b5	4.2672857e-10
122	0x3f800000	1.0
123	0x2fdda466	4.0316478e-10
124	0x3f800000	1.0
125	0x2f8fd19b	2.6160482e-10
126	0x3f800000	1.0
127	0x30cde6ad	1.4981275e-09
128	0x3f800000	1.0
129	0x2fc0e086	3.508413e-10
130	0x3f800000	1.0
131	0x30beb926	1.3876942e-09
132	0x3f800000	1.0
133	0x310843ef	1.982922e-09
134	0x3f800000	1.0
135	0x3195a149	4.3548067e-09
136	0x3f800000	1.0
137	0x32415517	1.1253426e-08
138	0x3f800000	1.0
139	0x3095131e	1.084661e-09
140	0x3f800000	1.0
141	0x30cbc3e4	1.4825869e-09
142	0x3f800000	1.0
143	0x2e153349	3.3924228e-11
144	0x3f800000	1.0
145	0x30c0a46e	1.4016572e-09
146	0x3f800000	1.0
147	0x300a1624	5.023557e-10
148	0x3f800000	1.0
149	0x2fe9aa93	4.2503653e-10
150	0x3f800000	1.0
151	0x3034524b	6.5600564e-10
152	0x3f800000	1.0
153	0x31620701	3.289131e-09
154	0x3f800000	1.0
155	0x2eb11036	8.051908e-11
156	0x3f800000	1.0
157	0x30199dbd	5.5885235e-10
158	0x3f800000	1.0
159	0x31f79d77	7.206548e-09
160	0x3f800000	1.0
161	0x2ed88572	9.8462474e-11
162	0x3f800000	1.0
163	0x320128fa	7.518105e-09
164	0x3f800000	1.0
165	0x2f2b38af	1.5572497e-10
166	0x3f800000	1.0
167	0x315ee372	3.243454e-09
168	0x3f800000	1.0
169	0x310e90f2	2.0746111e-09
170	0x3f800000	1.0
171	0x3066e072	8.399247e-10
172	0x3f800000	1.0
173	0x31743b14	3.5540255e-09
174	0x3f800000	1.0
175	0x32308d65	1.0276698e-08
176	0x3f800000	1.0
177	0x300b52e6	5.068571e-10
178	0x3f800000	1.0
179	0x2f49dc1a	1.8359039e-10
180	0x3f800000	1.0
181	0x3176b8db	3.590279e-09
182	0x3f800000	1.0
183	0x2d84266b	1.5023724e-11
184	0x3f800000	1.0
185	0x2f31782f	1.6140754e-10
186	0x3f800000	1.0
187	0x30b97f11	1.3496636e-09
188	0x3f800000	1.0
189	0x3192d633	4.273511e-09
190	0x3f800000	1.0
191	0x2e482349	4.5506075e-11
192	0x3f800000	1.0
193	0x3052a7ed	7.663619e-10
194	0x3f800000	1.0
195	0x2f6fedb0	2.1821367e-10
196	0x3f800000	1.0
197	0x2f0bb725	1.2707042e-10
198	0x3f800000	1.0
199	0x30aea2d2	1.2706443e-09
200	0x3f800000	1.0
201	0x2ff7a8d5	4.5049e-10
202	0x3f800000	1.0
203	0x2e96fbbb	6.8659266e-11
204	0x3f800000	1.0
205	0x302bff52	6.257227e-10
206	0x3f800000	1.0
207	0x319285d6	4.2643746e-09
208	0x3f800000	1.0
209	0x30ddfac6	1.615114e-09
210	0x3f800000	1.0
211	0x32133199	8.567803e-09
212	0x3f800000	1.0
213	0x3120204c	2.3301423e-09
214	0x3f800000	1.0
215	0x31f79c43	7.206411e-09
216	0x3f800000	1.0
217	0x2ddf7cea	2.5407638e-11
218	0x3f800000	1.0
219	0x303b0d25	6.8048883e-10
220	0x3f800000	1.0
221	0x3073cb41	8.8691726e-10
222	0x3f800000	1.0
223	0x33257d10	3.85308e-08
224	0x3f800000	1.0
225	0x2e8b4fa6	6.3351366e-11
226	0x3f800000	1.0
227	0x2f1552f4	1.3580942e-10
228	0x3f800000	1.0
229	0x3121a53b	2.3522506e-09
230	0x3f800000	1.0
231	0x2e573963	4.893631e-11
232	0x3f800000	1.0
233	0x30ddfaab	1.615111e-09
234	0x3f800000	1.0
235	0x3066ecf5	8.401025e-10
236	0x3f800000	1.0
237	0x2e233aba	3.711407e-11
238	0x3f800000	1.0
239	0x2dae001f	1.9781564e-11
240	0x3f800000	1.0
241	0x309222fd	1.0632842e-09
242	0x3f800000	1.0
243	0x3035c041	6.6120626e-10
244	0x3f800000	1.0
245	0x2fae9d11	3.1762018e-10
246	0x3f800000	1.0
247	0x30b530e8	1.3183383e-09
248	0x3f800000	1.0
249	0x2ed61cf1	9.736734e-11
250	0x3f800000	1.0
251	0x31f147d3	7.0221886e-09
252	0x3f800000	1.0
253	0x3028021a	6.112103e-10
254	0x3f800000	1.0
255	0x3085516d	9.700166e-10

weight f4 [6, 2]
0	0xc1d3c663	-26.471869
1	0xbfcb6132	-1.5889037
2	0xbf05120d	-0.5198067
3	0xc27b137e	-62.769035
4	0x41917101	18.180178
5	0x414a71dd	12.652799
6	0xc10e970b	-8.911876
7	0xc0fb929e	-7.8616476
8	0xc0826dc3	-4.0758986
9	0x41dd93cb	27.697165
10	0xc0050d9f	-2.0789564
11	0xc1838e36	-16.444439

bias f4 [6]
0	0x41743972	15.264025
1	0x41934f53	18.413733
2	0xc1983942	-19.027958
3	0xc100d694	-8.052387
4	0xc1819b02	-16.200687
5	0x40ff264f	7.9734263

weight f4 [6, 2]
0	0xbfbba533	-1.465979
1	0xbf914b99	-1.1351196
2	0xbfe2de8a	-1.7724164
3	0xc003bb03	-2.0582893
4	0xbfb2de76	-1.397414
5	0xbf990613	-1.1954979
6	0x3fa64fbd	1.2993084
7	0x4007e7bb	2.1235187
8	0xbf3b852c	-0.7325008
9	0xbf9b8d0d	-1.215242
10	0xc00359ab	-2.052348
11	0xbff74b88	-1.9319925

bias f4 [6]
0	0xbfdcb6a1	-1.7243234
1	0xbfd21d2c	-1.6415153
2	0xbfb76d5a	-1.4330246
3	0x4007b186	2.1202102
4	0xc0003da1	-2.0037615
5	0xbfe78bca	-1.8089535

weight f4 [2, 2]
0	0xc1568958	-13.408531
1	0xc149122d	-12.566937
2	0x415fad8c	13.97987
3	0x414f7de4	12.968235

bias f4 [2]
0	0x419c45cc	19.53408
1	0xc1993582	-19.151127

gate_outputs f4 [600, 2]
0	0x3f7ffe10	0.99997044
1	0x37f8209b	2.9579087e-05
2	0x3f7ffffe	0.9999999
3	0x33bccd48	8.7917726e-08
4	0x3f7fff9e	0.99999416
5	0x36c411da	5.8433334e-06
6	0x3f7ffc4a	0.9999434
7	0x386d7165	5.661081e-05
8	0x3852543c	5.014635e-05
9	0x3f7ffcb6	0.9999498
10	0x3f800000	1.0
11	0x3282bde1	1.5220339e-08
12	0x3f800000	1.0
13	0x309e5453	1.1519979e-09
14	0x3f2179cf	0.6307649
15	0x3ebd0c62	0.3692351
16	0x3f7ffc4e	0.9999436
17	0x386cb56a	5.643574e-05
18	0x3f7c83c8	0.9863858
19	0x3c5f0da8	0.013614096
20	0x3e2703f0	0.16310096
21	0x3f563f04	0.83689904
22	0x3f7ffd98	0.9999633
23	0x381a3df8	3.6774174e-05
24	0x3f7ff2dd	0.99979955
25	0x3952374d	0.00020047762
26	0x3f800000	1.0
27	0x32afd866	2.0471088e-08
28	0x3f7fffd4	0.9999974
29	0x362f6d1b	2.614054e-06
30	0x3dc1ce0b	0.09463128
31	0x3f67c63f	0.90536875
32	0x3b2791cc	0.002556908
33	0x3f7f586e	0.9974431
34	0x3f781793	0.9691097
35	0x3cfd0d9e	0.030890282
36	0x3f7f1c4b	0.99652547
37	0x3b63b49d	0.0034745105
38	0x3f7ffb54	0.9999287
39	0x3895893a	7.130434e-05
40	0x3f7fff9c	0.99999404
41	0x36c8c887	5.983809e-06
42	0x3f7ff530	0.999835
43	0x392d05bf	0.00016500706
44	0x3f800000	1.0
45	0x319f5afa	4.637852e-09
46	0x39f3547f	0.00046411526
47	0x3f7fe196	0.9995359
48	0x3f7ea2a1	0.994669
49	0x3baeaef0	0.005330913
50	0x3d156b95	0.03647955
51	0x3f76a948	0.9635205
52	0x3f7fff72	0.99999154
53	0x370d4b68	8.421812e-06
54	0x3f7ffb4a	0.9999281
55	0x3896c633	7.189475e-05
56	0x3f7e9197	0.994409
57	0x3bb7342f	0.0055909376
58	0x3f7fef93	0.99974936
59	0x3983628b	0.00025059687
60	0x3ccc33e2	0.024927083
61	0x3f799e61	0.9750729
62	0x3f76e6d6	0.9644598
63	0x3d11929d	0.035540212
64	0x3f5cd2da	0.86259234
65	0x3e0cb495	0.13740762
66	0x3f7ff538	0.9998355
67	0x392c68dd	0.00016442263
68	0x3f7fec2e	0.99969757
69	0x399e949d	0.00030246834
70	0x3f800000	1.0
71	0x32ae610a	2.0300394e-08
72	0x3f800000	1.0
73	0x32951197	1.7353882e-08
74	0x3f7ff5b0	0.99984264
75	0x3924f1fc	0.00015730405
76	0x3f7fffb8	0.9999957
77	0x368f3091	4.267386e-06
78	0x3f7fd342	0.9993173
79	0x3a32faa5	0.000682751
80	0x3f79257c	0.9732282
81	0x3cdb50a6	0.026771855
82	0x3f7ffffc	0.99999976
83	0x34790193	2.3190505e-07
84	0x3f7ff43f	0.99982065
85	0x393c0bbb	0.00017933447
86	0x3f800000	1.0
87	0x3335230b	4.2174218e-08
88	0x3f800000	1.0
89	0x3004ac97	4.8266585e-10
90	0x3f7fff2c	0.99998736
91	0x3754fa4d	1.2694462e-05
92	0x3f7fff9e	0.99999416
93	0x36c3f2a7	5.8397013e-06
94	0x3f7ca0a8	0.9868264
95	0x3c57d5b5	0.01317351
96	0x3f7fcb7b	0.9991986
97	0x3a5211ad	0.0008013498
98	0x3f773602	0.96566784
99	0x3d0c9fe8	0.034332186
100	0x3eb99323	0.3624507
101	0x3f23366e	0.6375493
102	0x3ba60332	0.005066299
103	0x3f7eb3f9	0.99493366
104	0x3f7fff52	0.9999896
105	0x372d1ff3	1.0319042e-05
106	0x3f7ff9f6	0.99990785
107	0x38c12ed2	9.211678e-05
108	0x3f7eb94f	0.9950151
109	0x3ba358c4	0.004984947
110	0x3f7fffcc	0.9999969
111	0x3651d39e	3.1266604e-06
112	0x3f7fae4c	0.9987533
113	0x3aa3663f	0.0012466385
114	0x3b0a6caf	0.002112191
115	0x3f7f7593	0.9978878
116	0x3f7fea9c	0.9996736
117	0x39ab2300	0.0003264174
118	0x3bb9639f	0.0056576277
119	0x3f7e8d38	0.9943423
120	0x3eb186b7	0.34673092
121	0x3f273ca4	0.65326905
122	0x3f5f7653	0.87289923
123	0x3e0226b5	0.12710078
124	0x3e80fa11	0.25190786
125	0x3f3f82f8	0.7480922
126	0x3f7ff8aa	0.99988806
127	0x38eacfc1	0.00011196687
128	0x3f800000	1.0
129	0x33047eeb	3.0849076e-08
130	0x3f74f243	0.9568216
131	0x3d30dbda	0.043178417
132	0x3f7ee4d9	0.99567944
133	0x3b8d9379	0.0043205586
134	0x3f7fffba	0.9999958
135	0x368c9425	4.1895714e-06
136	0x3f7ffffc	0.99999976
137	0x34554cd4	1.9865121e-07
138	0x3f7ffdaa	0.99996436
139	0x381598a3	3.5666522e-05
140	0x3f7fffbc	0.99999595
141	0x3689746e	4.0964724e-06
142	0x3f7ea9dc	0.99477935
143	0x3bab1294	0.0052207205
144	0x3e3c8d18	0.18413198
145	0x3f50dcba	0.815868
146	0x3f7e3f6b	0.9931552
147	0x3be04a3a	0.006844786
148	0x3f7ea6d6	0.9947332
149	0x3bac94bc	0.005266754
150	0x3f7ffe70	0.99997616
151	0x37c80f17	2.3848885e-05
152	0x3f77bdd0	0.96774006
153	0x3d042307	0.032259967
154	0x3f751b40	0.95744705
155	0x3d2e4bfc	0.042552933
156	0x3f7feffb	0.99975556
157	0x3980208a	0.00024438306
158	0x3f7ffffe	0.9999999
159	0x339e931b	7.384207e-08
160	0x3f800000	1.0
161	0x3346256e	4.613451e-08
162	0x3f7ffff8	0.9999995
163	0x34e810c2	4.322556e-07
164	0x3f7fe2f5	0.99955684
165	0x39e85d82	0.00044320157
166	0x3f800000	1.0
167	0x3322826c	3.7837182e-08
168	0x3f7fffba	0.9999958
169	0x368ddf7c	4.2281445e-06
170	0x3f7e523c	0.9934423
171	0x3bd6e1da	0.0065576853
172	0x3f7ffed6	0.99998224
173	0x3795674c	1.7810285e-05
174	0x3ce8991f	0.028393326
175	0x3f78bb37	0.9716067
176	0x3f714c2d	0.9425686
177	0x3d6b3d30	0.0574314
178	0x3f7ec0ec	0.99513125
179	0x3b9f8a2c	0.0048687663
180	0x3f7ffcbc	0.9999502
181	0x3851312b	4.9875274e-05
182	0x3f800000	1.0
183	0x32af91f5	2.0439055e-08
184	0x3e38d1dc	0.18048805
185	0x3f51cb89	0.81951195
186	0x3ee7a2ff	0.45241544
187	0x3f0c2e81	0.5475846
188	0x3f781ca0	0.9691868
189	0x3cfc6c28	0.030813292
190	0x3f7958d0	0.9740114
191	0x3cd4e619	0.025988625
192	0x3e149da7	0.14513265
193	0x3f5ad896	0.85486734
194	0x3d092e75	0.03349157
195	0x3f776d19	0.96650845
196	0x3aaf0041	0.0013351516
197	0x3f7fa880	0.99866486
198	0x3f7fb852	0.99890625
199	0x3a8f5d7b	0.0010937894
200	0x3f7c035c	0.98442626
201	0x3c7f28fd	0.015573737
202	0x3f7ffe64	0.99997544
203	0x37cda042	2.451253e-05
204	0x3f7ffffe	0.9999999
205	0x33bc130e	8.757898e-08
206	0x3f7ffe24	0.9999716
207	0x37ee77ee	2.8427658e-05
208	0x3f7e5f4f	0.9936418
209	0x3bd058ba	0.0063582333
210	0x3f800000	1.0
211	0x3252c993	1.22694415e-08
212	0x3f5977a1	0.84948164
213	0x3e1a217c	0.15051836
214	0x3f7ffed4	0.9999821
215	0x3795839c	1.782347e-05
216	0x3f7fec02	0.99969494
217	0x399ff971	0.00030512692
218	0x3f7e1169	0.99245316
219	0x3bf74b76	0.0075468374
220	0x3f7ff816	0.99987924
221	0x38fd2edc	0.00012072708
222	0x3f7feaae	0.9996747
223	0x39aa96cf	0.00032537288
224	0x3f7ff113	0.99977225
225	0x396edf44	0.00022780622
226	0x3f800000	1.0
227	0x31941130	4.309321e-09
228	0x3f7c29c6	0.9850124
229	0x3c758eb4	0.014987636
230	0x3f7ffc02	0.9999391
231	0x387f3eaa	6.0855098e-05
232	0x3f7219f3	0.94570845
233	0x3d5e60c1	0.05429149
234	0x3f7ffbc2	0.99993527
235	0x3887b00f	6.470095e-05
236	0x3f800000	1.0
237	0x3223ec5c	9.541591e-09
238	0x3f7ffffe	0.9999999
239	0x341d16bb	1.4630034e-07
240	0x3f7fffae	0.9999951
241	0x36a51c1b	4.920655e-06
242	0x3f7fffde	0.999998
243	0x360988cc	2.0494217e-06
244	0x3da5a701	0.08088494
245	0x3f6b4b20	0.91911507
246	0x3f7ffe44	0.99997354
247	0x37dd8e13	2.6411411e-05
248	0x3f800000	1.0
249	0x333f2493	4.4503917e-08
250	0x3f7fff54	0.99998975
251	0x372b3bea	1.0206344e-05
252	0x3f7ffba6	0.9999336
253	0x388b3514	6.637923e-05
254	0x3f7fffe4	0.99999833
255	0x35daba58	1.6296499e-06

weight f4 [6, 2]
0	0xc201459a	-32.31797
1	0xc0820c44	-4.0639973
2	0xbe7f350e	-0.24922583
3	0xc28571ba	-66.72212
4	0x418fd103	17.977057
5	0x3f388618	0.7207961
6	0x4164b05d	14.293057
7	0x41b80ad2	23.005283
8	0xc18d8431	-17.689547
9	0x41cdac25	25.709055
10	0xbff2ffea	-1.8984349
11	0xc1b4aa0c	-22.58303

bias f4 [6]
0	0x41a12bb5	20.146341
1	0x419df403	19.744146
2	0xc1669b56	-14.412924
3	0xc1cb7964	-25.434273
4	0xc1118df4	-9.097157
5	0x4128fc7b	10.561641

weight f4 [6, 2]
0	0xbe19470b	-0.14968507
1	0x3f017c2c	0.50580096
2	0xbdd27840	-0.10276842
3	0x3daa8754	0.08326593
4	0xbe221e99	-0.15831985
5	0xbd046b3a	-0.03232882
6	0x3eda1c8b	0.42599902
7	0xbee379cd	-0.44428864
8	0x3df70bde	0.1206281
9	0x3f19b10f	0.60035795
10	0x3eda8cf4	0.42685664
11	0xbebca816	-0.3684699

bias f4 [6]
0	0xbdab23b8	-0.08356422
1	0xbf23f9de	-0.6405314
2	0xbebd6a75	-0.36995283
3	0xbecdd5e6	-0.40202254
4	0x3edf7c82	0.4364968
5	0xbdf83e00	-0.121212006

weight f4 [2, 2]
0	0x40fb168c	7.8465023
1	0xbfe93200	-1.8218384
2	0xc1081f6e	-8.507673
3	0x3f6a6212	0.91555893

bias f4 [2]
0	0x40d52dff	6.6618648
1	0xc0d89fb7	-6.7694964

gate_outputs f4 [600, 2]
0	0x3f800000	1.0
1	0x2ddca6f7	2.5085252e-11
2	0x3f800000	1.0
3	0x3264e1d8	1.3322698e-08
4	0x3f800000	1.0
5	0x2e7e2e38	5.7793964e-11
6	0x3f800000	1.0
7	0x2dc72d7f	2.2643885e-11
8	0x3f800000	1.0
9	0x2c989ccc	4.337508e-12
10	0x3f800000	1.0
11	0x32022db5	7.5773885e-09
12	0x3f800000	1.0
13	0x2d1772ec	8.608874e-12
14	0x3f800000	1.0
15	0x31e0a15a	6.5376016e-09
16	0x3f800000	1.0
17	0x2d536f61	1.20186925e-11
18	0x3f800000	1.0
19	0x2d2a9376	9.696124e-12
20	0x3f800000	1.0
21	0x2f1a3488	1.4024881e-10
22	0x3f800000	1.0
23	0x2e42b0a9	4.42674e-11
24	0x3f800000	1.0
25	0x32545e07	1.23614035e-08
26	0x3f800000	1.0
27	0x2f3a17f4	1.6925111e-10
28	0x3f800000	1.0
29	0x2d976e80	1.7215784e-11
30	0x3f800000	1.0
31	0x2d958a6d	1.7000812e-11
32	0x3f800000	1.0
33	0x2d96a3b3	1.7125723e-11
34	0x3f800000	1.0
35	0x3313fca4	3.445588e-08
36	0x3f800000	1.0
37	0x2f095f52	1.2493942e-10
38	0x3f7ffffe	0.9999999
39	0x33923538	6.808335e-08
40	0x3f800000	1.0
41	0x2dc709d0	2.2628038e-11
42	0x3f800000	1.0
43	0x2d9234b9	1.6621692e-11
44	0x3f800000	1.0
45	0x32730ab6	1.4146897e-08
46	0x3f800000	1.0
47	0x2dd83586	2.4580126e-11
48	0x3f800000	1.0
49	0x2d11e41f	8.292949e-12
50	0x3f800000	1.0
51	0x33575f4a	5.0145253e-08
52	0x3f800000	1.0
53	0x3290f4bd	1.68751e-08
54	0x3f800000	1.0
55	0x2d98ba22	1.7363059e-11
56	0x3f800000	1.0
57	0x2d519986	1.1914364e-11
58	0x3f800000	1.0
59	0x2d428ab2	1.105842e-11
60	0x3f800000	1.0
61	0x2d60c614	1.2776908e-11
62	0x3f800000	1.0
63	0x2e664f89	5.2366587e-11
64	0x3f800000	1.0
65	0x32660e59	1.3391024e-08
66	0x3f800000	1.0
67	0x2e341c2d	4.0952287e-11
68	0x3f800000	1.0
69	0x2e1e638a	3.601345e-11
70	0x3f800000	1.0
71	0x31e51af3	6.667841e-09
72	0x3f800000	1.0
73	0x2df43f65	2.7767741e-11
74	0x3f800000	1.0
75	0x31fcf07f	7.3615065e-09
76	0x3f800000	1.0
77	0x323569a1	1.0559604e-08
78	0x3f800000	1.0
79	0x31910918	4.2210893e-09
80	0x3f800000	1.0
81	0x2fd58014	3.883548e-10
82	0x3f800000	1.0
83	0x2c9750c0	4.300643e-12
84	0x3f800000	1.0
85	0x2da7f26a	1.9093355e-11
86	0x3f800000	1.0
87	0x2e10e18b	3.294213e-11
88	0x3f800000	1.0
89	0x2dd4def1	2.4200615e-11
90	0x3f800000	1.0
91	0x2dbf7059	2.1764078e-11
92	0x3f800000	1.0
93	0x2e0eb397	3.244657e-11
94	0x3f800000	1.0
95	0x32b08881	2.0551171e-08
96	0x3f800000	1.0
97	0x3243fa92	1.1407467e-08
98	0x3f800000	1.0
99	0x32768cf5	1.43511345e-08
100	0x3f800000	1.0
101	0x2d2bc3c5	9.763694e-12
102	0x3f800000	1.0
103	0x32704806	1.3986215e-08
104	0x3f800000	1.0
105	0x2c116297	2.0660468e-12
106	0x3f800000	1.0
107	0x2d97f763	1.7276574e-11
108	0x3f800000	1.0
109	0x331a7e3d	3.5970732e-08
110	0x3f800000	1.0
111	0x2d85ca1a	1.52101e-11
112	0x3f800000	1.0
113	0x2e334644	4.0762296e-11
114	0x3f800000	1.0
115	0x2dbdeddc	2.1592443e-11
116	0x3f800000	1.0
117	0x2e66ea97	5.2504303e-11
118	0x3f800000	1.0
119	0x2efc07ad	1.1460997e-10
120	0x3f800000	1.0
121	0x2e0952d0	3.1223746e-11
122	0x3f800000	1.0
123	0x31afce7c	5.116645e-09
124	0x3f800000	1.0
125	0x2e458e62	4.4919075e-11
126	0x3f800000	1.0
127	0x2f6c8408	2.1510982e-10
128	0x3f800000	1.0
129	0x32c72c60	2.3186828e-08
130	0x3f800000	1.0
131	0x32a8c6a3	1.9648104e-08
132	0x3f800000	1.0
133	0x2ec18e72	8.801927e-11
134	0x3f800000	1.0
135	0x2d6e0bfb	1.3531394e-11
136	0x3f800000	1.0
137	0x31b44257	5.2462314e-09
138	0x3f800000	1.0
139	0x2d3fa811	1.0894411e-11
140	0x3f800000	1.0
141	0x2f52d18d	1.9173836e-10
142	0x3f800000	1.0
143	0x328d878f	1.6476205e-08
144	0x3f800000	1.0
145	0x2f0419f4	1.201455e-10
146	0x3f7ffffe	0.9999999
147	0x33a135cb	7.5069316e-08
148	0x3f800000	1.0
149	0x2d877122	1.5397964e-11
150	0x3f800000	1.0
151	0x2d0cffd4	8.014884e-12
152	0x3f7ffffe	0.9999999
153	0x33c75164	9.2814645e-08
154	0x3f800000	1.0
155	0x2e078893	3.081675e-11
156	0x3f800000	1.0
157	0x2f040c69	1.2009739e-10
158	0x3f800000	1.0
159	0x2c50dfa1	2.9682717e-12
160	0x3f800000	1.0
161	0x2ffcd161	4.5987306e-10
162	0x3f800000	1.0
163	0x323f8073	1.1146869e-08
164	0x3f800000	1.0
165	0x336b1fe2	5.47442e-08
166	0x3f800000	1.0
167	0x3335d96c	4.234009e-08
168	0x3f800000	1.0
169	0x2d33717c	1.0200171e-11
170	0x3f800000	1.0
171	0x2dd07849	2.370028e-11
172	0x3f800000	1.0
173	0x2d624f3a	1.28642045e-11
174	0x3f800000	1.0
175	0x32ea8a90	2.7304196e-08
176	0x3f800000	1.0
177	0x2d19faac	8.752703e-12
178	0x3f7ffffe	0.9999999
179	0x33ef344e	1.1138819e-07
180	0x3f800000	1.0
181	0x2e3fe25b	4.3629416e-11
182	0x3f800000	1.0
183	0x320da2c8	8.244292e-09
184	0x3f800000	1.0
185	0x2d601996	1.2738607e-11
186	0x3f800000	1.0
187	0x2f22dd76	1.4812493e-10
188	0x3f800000	1.0
189	0x2df9f050	2.8414743e-11
190	0x3f800000	1.0
191	0x33460f2f	4.6114277e-08
192	0x3f800000	1.0
193	0x3204d6fd	7.732294e-09
194	0x3f800000	1.0
195	0x334291a2	4.5301597e-08
196	0x3f800000	1.0
197	0x2da40113	1.8645118e-11
198	0x3f7ffffe	0.9999999
199	0x339e10c5	7.360499e-08
200	0x3f800000	1.0
201	0x330591f3	3.1099216e-08
202	0x3f800000	1.0
203	0x32ad3349	2.0163172e-08
204	0x3f800000	1.0
205	0x2f8201dc	2.3648183e-10
206	0x3f800000	1.0
207	0x2ce67763	6.5502478e-12
208	0x3f800000	1.0
209	0x2c16b05e	2.1414186e-12
210	0x3f800000	1.0
211	0x2e4042f5	4.3715215e-11
212	0x3f800000	1.0
213	0x2c48c05f	2.8528497e-12
214	0x3f800000	1.0
215	0x2d641a14	1.296609e-11
216	0x3f800000	1.0
217	0x32925b9e	1.70383e-08
218	0x3f800000	1.0
219	0x30110f10	5.27721e-10
220	0x3f800000	1.0
221	0x2e263e6d	3.7799475e-11
222	0x3f800000	1.0
223	0x2d38d5a8	1.050663e-11
224	0x3f800000	1.0
225	0x2c6620a8	3.2703094e-12
226	0x3f800000	1.0
227	0x3294a184	1.7302916e-08
228	0x3f800000	1.0
229	0x3281116a	1.5025496e-08
230	0x3f800000	1.0
231	0x2d2339a7	9.278279e-12
232	0x3f800000	1.0
233	0x331c4a1d	3.6388986e-08
234	0x3f800000	1.0
235	0x2d63b2ec	1.2943185e-11
236	0x3f800000	1.0
237	0x33257023	3.8519044e-08
238	0x3f800000	1.0
239	0x2dc28337	2.2113518e-11
240	0x3f800000	1.0
241	0x2d1fe487	9.088847e-12
242	0x3f800000	1.0
243	0x2cbbed30	5.3411928e-12
244	0x3f800000	1.0
245	0x2dd3d7ac	2.40837e-11
246	0x3f800000	1.0
247	0x2cdcc7ad	6.2749445e-12
248	0x3f800000	1.0
249	0x32788eec	1.4467997e-08
250	0x3f800000	1.0
251	0x2f518855	1.9056874e-10
252	0x3f800000	1.0
253	0x2d9f1f57	1.8090125e-11
254	0x3f800000	1.0
255	0x33127603	3.4100605e-08
